{
  "nodes": [
    {
      "op": "null", 
      "name": "data", 
      "inputs": []
    }, 
    {
      "op": "null", 
      "name": "shufflenasoneshotfix0_hybridsequential0_first_conv_weight", 
      "attrs": {
        "__dtype__": "0", 
        "__lr_mult__": "1.0", 
        "__shape__": "(16, 3, 3, 3)", 
        "__storage_type__": "0", 
        "__wd_mult__": "1.0"
      }, 
      "inputs": []
    }, 
    {
      "op": "null", 
      "name": "shufflenasoneshotfix0_hybridsequential0_batchnorm0_gamma", 
      "attrs": {
        "__dtype__": "0", 
        "__init__": "ones", 
        "__lr_mult__": "1.0", 
        "__shape__": "(16,)", 
        "__storage_type__": "0", 
        "__wd_mult__": "1.0"
      }, 
      "inputs": []
    }, 
    {
      "op": "null", 
      "name": "shufflenasoneshotfix0_hybridsequential0_batchnorm0_beta", 
      "attrs": {
        "__dtype__": "0", 
        "__init__": "zeros", 
        "__lr_mult__": "1.0", 
        "__shape__": "(16,)", 
        "__storage_type__": "0", 
        "__wd_mult__": "1.0"
      }, 
      "inputs": []
    }, 
    {
      "op": "null", 
      "name": "shufflenasoneshotfix0_hybridsequential0_batchnorm0_running_mean", 
      "attrs": {
        "__dtype__": "0", 
        "__init__": "zeros", 
        "__lr_mult__": "1.0", 
        "__shape__": "(16,)", 
        "__storage_type__": "0", 
        "__wd_mult__": "1.0"
      }, 
      "inputs": []
    }, 
    {
      "op": "null", 
      "name": "shufflenasoneshotfix0_hybridsequential0_batchnorm0_running_var", 
      "attrs": {
        "__dtype__": "0", 
        "__init__": "ones", 
        "__lr_mult__": "1.0", 
        "__shape__": "(16,)", 
        "__storage_type__": "0", 
        "__wd_mult__": "1.0"
      }, 
      "inputs": []
    }, 
    {
      "op": "_sg_mkldnn_conv", 
      "name": "sg_mkldnn_conv_bn_0", 
      "attrs": {"with_bn": "true"}, 
      "inputs": [[0, 0, 0], [1, 0, 0], [2, 0, 0], [3, 0, 0], [4, 0, 1], [5, 0, 1]], 
      "subgraphs": [
        {
          "nodes": [
            {
              "op": "null", 
              "name": "data0", 
              "inputs": []
            }, 
            {
              "op": "null", 
              "name": "shufflenasoneshotfix0_hybridsequential0_first_conv_weight0", 
              "inputs": []
            }, 
            {
              "op": "Convolution", 
              "name": "shufflenasoneshotfix0_hybridsequential0_first_conv_fwd", 
              "attrs": {
                "dilate": "(1, 1)", 
                "kernel": "(3, 3)", 
                "layout": "NCHW", 
                "no_bias": "True", 
                "num_filter": "16", 
                "num_group": "1", 
                "pad": "(1, 1)", 
                "stride": "(2, 2)"
              }, 
              "inputs": [[0, 0, 0], [1, 0, 0]]
            }, 
            {
              "op": "null", 
              "name": "shufflenasoneshotfix0_hybridsequential0_batchnorm0_gamma0", 
              "inputs": []
            }, 
            {
              "op": "null", 
              "name": "shufflenasoneshotfix0_hybridsequential0_batchnorm0_beta0", 
              "inputs": []
            }, 
            {
              "op": "null", 
              "name": "shufflenasoneshotfix0_hybridsequential0_batchnorm0_running_mean0", 
              "inputs": []
            }, 
            {
              "op": "null", 
              "name": "shufflenasoneshotfix0_hybridsequential0_batchnorm0_running_var0", 
              "inputs": []
            }, 
            {
              "op": "BatchNorm", 
              "name": "shufflenasoneshotfix0_hybridsequential0_batchnorm0_fwd", 
              "attrs": {
                "axis": "1", 
                "eps": "1e-05", 
                "fix_gamma": "False", 
                "momentum": "0.1", 
                "use_global_stats": "False"
              }, 
              "inputs": [[2, 0, 0], [3, 0, 0], [4, 0, 0], [5, 0, 0], [6, 0, 0]]
            }
          ], 
          "arg_nodes": [0, 1, 3, 4, 5, 6], 
          "node_row_ptr": [0, 1, 2, 3, 4, 5, 6, 7, 10], 
          "heads": [[7, 0, 0]]
        }
      ]
    }, 
    {
      "op": "_plus_scalar", 
      "name": "shufflenasoneshotfix0_hybridsequential0_hardswish0__plusscalar0", 
      "attrs": {"scalar": "3"}, 
      "inputs": [[6, 0, 0]]
    }, 
    {
      "op": "clip", 
      "name": "shufflenasoneshotfix0_hybridsequential0_hardswish0_hard_swish", 
      "attrs": {
        "a_max": "6", 
        "a_min": "0"
      }, 
      "inputs": [[7, 0, 0]]
    }, 
    {
      "op": "_div_scalar", 
      "name": "shufflenasoneshotfix0_hybridsequential0_hardswish0__divscalar0", 
      "attrs": {"scalar": "6.0"}, 
      "inputs": [[8, 0, 0]]
    }, 
    {
      "op": "elemwise_mul", 
      "name": "shufflenasoneshotfix0_hybridsequential0_hardswish0__mul0", 
      "inputs": [[6, 0, 0], [9, 0, 0]]
    }, 
    {
      "op": "null", 
      "name": "shufflenasoneshotfix0_hybridsequential0_shufflenetblock0_conv3_weight", 
      "attrs": {
        "__dtype__": "0", 
        "__lr_mult__": "1.0", 
        "__shape__": "(16, 1, 3, 3)", 
        "__storage_type__": "0", 
        "__wd_mult__": "1.0"
      }, 
      "inputs": []
    }, 
    {
      "op": "null", 
      "name": "shufflenasoneshotfix0_hybridsequential0_shufflenetblock0_batchnorm3_gamma", 
      "attrs": {
        "__dtype__": "0", 
        "__init__": "ones", 
        "__lr_mult__": "1.0", 
        "__shape__": "(16,)", 
        "__storage_type__": "0", 
        "__wd_mult__": "1.0"
      }, 
      "inputs": []
    }, 
    {
      "op": "null", 
      "name": "shufflenasoneshotfix0_hybridsequential0_shufflenetblock0_batchnorm3_beta", 
      "attrs": {
        "__dtype__": "0", 
        "__init__": "zeros", 
        "__lr_mult__": "1.0", 
        "__shape__": "(16,)", 
        "__storage_type__": "0", 
        "__wd_mult__": "1.0"
      }, 
      "inputs": []
    }, 
    {
      "op": "null", 
      "name": "shufflenasoneshotfix0_hybridsequential0_shufflenetblock0_batchnorm3_running_mean", 
      "attrs": {
        "__dtype__": "0", 
        "__init__": "zeros", 
        "__lr_mult__": "1.0", 
        "__shape__": "(16,)", 
        "__storage_type__": "0", 
        "__wd_mult__": "1.0"
      }, 
      "inputs": []
    }, 
    {
      "op": "null", 
      "name": "shufflenasoneshotfix0_hybridsequential0_shufflenetblock0_batchnorm3_running_var", 
      "attrs": {
        "__dtype__": "0", 
        "__init__": "ones", 
        "__lr_mult__": "1.0", 
        "__shape__": "(16,)", 
        "__storage_type__": "0", 
        "__wd_mult__": "1.0"
      }, 
      "inputs": []
    }, 
    {
      "op": "_sg_mkldnn_conv", 
      "name": "sg_mkldnn_conv_bn_1", 
      "attrs": {"with_bn": "true"}, 
      "inputs": [[10, 0, 0], [11, 0, 0], [12, 0, 0], [13, 0, 0], [14, 0, 1], [15, 0, 1]], 
      "subgraphs": [
        {
          "nodes": [
            {
              "op": "null", 
              "name": "shufflenasoneshotfix0_hybridsequential0_hardswish0__mul0_output0", 
              "inputs": []
            }, 
            {
              "op": "null", 
              "name": "shufflenasoneshotfix0_hybridsequential0_shufflenetblock0_conv3_weight0", 
              "inputs": []
            }, 
            {
              "op": "Convolution", 
              "name": "shufflenasoneshotfix0_hybridsequential0_shufflenetblock0_conv3_fwd", 
              "attrs": {
                "dilate": "(1, 1)", 
                "kernel": "(3, 3)", 
                "layout": "NCHW", 
                "no_bias": "True", 
                "num_filter": "16", 
                "num_group": "16", 
                "pad": "(1, 1)", 
                "stride": "(2, 2)"
              }, 
              "inputs": [[0, 0, 0], [1, 0, 0]]
            }, 
            {
              "op": "null", 
              "name": "shufflenasoneshotfix0_hybridsequential0_shufflenetblock0_batchnorm3_gamma0", 
              "inputs": []
            }, 
            {
              "op": "null", 
              "name": "shufflenasoneshotfix0_hybridsequential0_shufflenetblock0_batchnorm3_beta0", 
              "inputs": []
            }, 
            {
              "op": "null", 
              "name": "shufflenasoneshotfix0_hybridsequential0_shufflenetblock0_batchnorm3_running_mean0", 
              "inputs": []
            }, 
            {
              "op": "null", 
              "name": "shufflenasoneshotfix0_hybridsequential0_shufflenetblock0_batchnorm3_running_var0", 
              "inputs": []
            }, 
            {
              "op": "BatchNorm", 
              "name": "shufflenasoneshotfix0_hybridsequential0_shufflenetblock0_batchnorm3_fwd", 
              "attrs": {
                "axis": "1", 
                "eps": "1e-05", 
                "fix_gamma": "False", 
                "momentum": "0.1", 
                "use_global_stats": "False"
              }, 
              "inputs": [[2, 0, 0], [3, 0, 0], [4, 0, 0], [5, 0, 0], [6, 0, 0]]
            }
          ], 
          "arg_nodes": [0, 1, 3, 4, 5, 6], 
          "node_row_ptr": [0, 1, 2, 3, 4, 5, 6, 7, 10], 
          "heads": [[7, 0, 0]]
        }
      ]
    }, 
    {
      "op": "null", 
      "name": "shufflenasoneshotfix0_hybridsequential0_shufflenetblock0_conv4_weight", 
      "attrs": {
        "__dtype__": "0", 
        "__lr_mult__": "1.0", 
        "__shape__": "(16, 16, 1, 1)", 
        "__storage_type__": "0", 
        "__wd_mult__": "1.0"
      }, 
      "inputs": []
    }, 
    {
      "op": "null", 
      "name": "shufflenasoneshotfix0_hybridsequential0_shufflenetblock0_batchnorm4_gamma", 
      "attrs": {
        "__dtype__": "0", 
        "__init__": "ones", 
        "__lr_mult__": "1.0", 
        "__shape__": "(16,)", 
        "__storage_type__": "0", 
        "__wd_mult__": "1.0"
      }, 
      "inputs": []
    }, 
    {
      "op": "null", 
      "name": "shufflenasoneshotfix0_hybridsequential0_shufflenetblock0_batchnorm4_beta", 
      "attrs": {
        "__dtype__": "0", 
        "__init__": "zeros", 
        "__lr_mult__": "1.0", 
        "__shape__": "(16,)", 
        "__storage_type__": "0", 
        "__wd_mult__": "1.0"
      }, 
      "inputs": []
    }, 
    {
      "op": "null", 
      "name": "shufflenasoneshotfix0_hybridsequential0_shufflenetblock0_batchnorm4_running_mean", 
      "attrs": {
        "__dtype__": "0", 
        "__init__": "zeros", 
        "__lr_mult__": "1.0", 
        "__shape__": "(16,)", 
        "__storage_type__": "0", 
        "__wd_mult__": "1.0"
      }, 
      "inputs": []
    }, 
    {
      "op": "null", 
      "name": "shufflenasoneshotfix0_hybridsequential0_shufflenetblock0_batchnorm4_running_var", 
      "attrs": {
        "__dtype__": "0", 
        "__init__": "ones", 
        "__lr_mult__": "1.0", 
        "__shape__": "(16,)", 
        "__storage_type__": "0", 
        "__wd_mult__": "1.0"
      }, 
      "inputs": []
    }, 
    {
      "op": "_sg_mkldnn_conv", 
      "name": "sg_mkldnn_conv_bn_act_2", 
      "attrs": {
        "with_act": "true", 
        "with_bn": "true"
      }, 
      "inputs": [[16, 0, 0], [17, 0, 0], [18, 0, 0], [19, 0, 0], [20, 0, 1], [21, 0, 1]], 
      "subgraphs": [
        {
          "nodes": [
            {
              "op": "null", 
              "name": "sg_mkldnn_conv_bn_1_output0", 
              "inputs": []
            }, 
            {
              "op": "null", 
              "name": "shufflenasoneshotfix0_hybridsequential0_shufflenetblock0_conv4_weight0", 
              "inputs": []
            }, 
            {
              "op": "Convolution", 
              "name": "shufflenasoneshotfix0_hybridsequential0_shufflenetblock0_conv4_fwd", 
              "attrs": {
                "dilate": "(1, 1)", 
                "kernel": "(1, 1)", 
                "layout": "NCHW", 
                "no_bias": "True", 
                "num_filter": "16", 
                "num_group": "1", 
                "pad": "(0, 0)", 
                "stride": "(1, 1)"
              }, 
              "inputs": [[0, 0, 0], [1, 0, 0]]
            }, 
            {
              "op": "null", 
              "name": "shufflenasoneshotfix0_hybridsequential0_shufflenetblock0_batchnorm4_gamma0", 
              "inputs": []
            }, 
            {
              "op": "null", 
              "name": "shufflenasoneshotfix0_hybridsequential0_shufflenetblock0_batchnorm4_beta0", 
              "inputs": []
            }, 
            {
              "op": "null", 
              "name": "shufflenasoneshotfix0_hybridsequential0_shufflenetblock0_batchnorm4_running_mean0", 
              "inputs": []
            }, 
            {
              "op": "null", 
              "name": "shufflenasoneshotfix0_hybridsequential0_shufflenetblock0_batchnorm4_running_var0", 
              "inputs": []
            }, 
            {
              "op": "BatchNorm", 
              "name": "shufflenasoneshotfix0_hybridsequential0_shufflenetblock0_batchnorm4_fwd", 
              "attrs": {
                "axis": "1", 
                "eps": "1e-05", 
                "fix_gamma": "False", 
                "momentum": "0.1", 
                "use_global_stats": "False"
              }, 
              "inputs": [[2, 0, 0], [3, 0, 0], [4, 0, 0], [5, 0, 0], [6, 0, 0]]
            }, 
            {
              "op": "Activation", 
              "name": "shufflenasoneshotfix0_hybridsequential0_shufflenetblock0_relu2_fwd", 
              "attrs": {"act_type": "relu"}, 
              "inputs": [[7, 0, 0]]
            }
          ], 
          "arg_nodes": [0, 1, 3, 4, 5, 6], 
          "node_row_ptr": [0, 1, 2, 3, 4, 5, 6, 7, 10, 11], 
          "heads": [[8, 0, 0]]
        }
      ]
    }, 
    {
      "op": "null", 
      "name": "shufflenasoneshotfix0_hybridsequential0_shufflenetblock0_conv0_weight", 
      "attrs": {
        "__dtype__": "0", 
        "__lr_mult__": "1.0", 
        "__shape__": "(57, 16, 1, 1)", 
        "__storage_type__": "0", 
        "__wd_mult__": "1.0"
      }, 
      "inputs": []
    }, 
    {
      "op": "null", 
      "name": "shufflenasoneshotfix0_hybridsequential0_shufflenetblock0_batchnorm0_gamma", 
      "attrs": {
        "__dtype__": "0", 
        "__init__": "ones", 
        "__lr_mult__": "1.0", 
        "__shape__": "(57,)", 
        "__storage_type__": "0", 
        "__wd_mult__": "1.0"
      }, 
      "inputs": []
    }, 
    {
      "op": "null", 
      "name": "shufflenasoneshotfix0_hybridsequential0_shufflenetblock0_batchnorm0_beta", 
      "attrs": {
        "__dtype__": "0", 
        "__init__": "zeros", 
        "__lr_mult__": "1.0", 
        "__shape__": "(57,)", 
        "__storage_type__": "0", 
        "__wd_mult__": "1.0"
      }, 
      "inputs": []
    }, 
    {
      "op": "null", 
      "name": "shufflenasoneshotfix0_hybridsequential0_shufflenetblock0_batchnorm0_running_mean", 
      "attrs": {
        "__dtype__": "0", 
        "__init__": "zeros", 
        "__lr_mult__": "1.0", 
        "__shape__": "(57,)", 
        "__storage_type__": "0", 
        "__wd_mult__": "1.0"
      }, 
      "inputs": []
    }, 
    {
      "op": "null", 
      "name": "shufflenasoneshotfix0_hybridsequential0_shufflenetblock0_batchnorm0_running_var", 
      "attrs": {
        "__dtype__": "0", 
        "__init__": "ones", 
        "__lr_mult__": "1.0", 
        "__shape__": "(57,)", 
        "__storage_type__": "0", 
        "__wd_mult__": "1.0"
      }, 
      "inputs": []
    }, 
    {
      "op": "_sg_mkldnn_conv", 
      "name": "sg_mkldnn_conv_bn_act_3", 
      "attrs": {
        "with_act": "true", 
        "with_bn": "true"
      }, 
      "inputs": [[10, 0, 0], [23, 0, 0], [24, 0, 0], [25, 0, 0], [26, 0, 1], [27, 0, 1]], 
      "subgraphs": [
        {
          "nodes": [
            {
              "op": "null", 
              "name": "shufflenasoneshotfix0_hybridsequential0_hardswish0__mul0_output0", 
              "inputs": []
            }, 
            {
              "op": "null", 
              "name": "shufflenasoneshotfix0_hybridsequential0_shufflenetblock0_conv0_weight0", 
              "inputs": []
            }, 
            {
              "op": "Convolution", 
              "name": "shufflenasoneshotfix0_hybridsequential0_shufflenetblock0_conv0_fwd", 
              "attrs": {
                "dilate": "(1, 1)", 
                "kernel": "(1, 1)", 
                "layout": "NCHW", 
                "no_bias": "True", 
                "num_filter": "57", 
                "num_group": "1", 
                "pad": "(0, 0)", 
                "stride": "(1, 1)"
              }, 
              "inputs": [[0, 0, 0], [1, 0, 0]]
            }, 
            {
              "op": "null", 
              "name": "shufflenasoneshotfix0_hybridsequential0_shufflenetblock0_batchnorm0_gamma0", 
              "inputs": []
            }, 
            {
              "op": "null", 
              "name": "shufflenasoneshotfix0_hybridsequential0_shufflenetblock0_batchnorm0_beta0", 
              "inputs": []
            }, 
            {
              "op": "null", 
              "name": "shufflenasoneshotfix0_hybridsequential0_shufflenetblock0_batchnorm0_running_mean0", 
              "inputs": []
            }, 
            {
              "op": "null", 
              "name": "shufflenasoneshotfix0_hybridsequential0_shufflenetblock0_batchnorm0_running_var0", 
              "inputs": []
            }, 
            {
              "op": "BatchNorm", 
              "name": "shufflenasoneshotfix0_hybridsequential0_shufflenetblock0_batchnorm0_fwd", 
              "attrs": {
                "axis": "1", 
                "eps": "1e-05", 
                "fix_gamma": "False", 
                "momentum": "0.1", 
                "use_global_stats": "False"
              }, 
              "inputs": [[2, 0, 0], [3, 0, 0], [4, 0, 0], [5, 0, 0], [6, 0, 0]]
            }, 
            {
              "op": "Activation", 
              "name": "shufflenasoneshotfix0_hybridsequential0_shufflenetblock0_relu0_fwd", 
              "attrs": {"act_type": "relu"}, 
              "inputs": [[7, 0, 0]]
            }
          ], 
          "arg_nodes": [0, 1, 3, 4, 5, 6], 
          "node_row_ptr": [0, 1, 2, 3, 4, 5, 6, 7, 10, 11], 
          "heads": [[8, 0, 0]]
        }
      ]
    }, 
    {
      "op": "null", 
      "name": "shufflenasoneshotfix0_hybridsequential0_shufflenetblock0_conv1_weight", 
      "attrs": {
        "__dtype__": "0", 
        "__lr_mult__": "1.0", 
        "__shape__": "(57, 1, 3, 3)", 
        "__storage_type__": "0", 
        "__wd_mult__": "1.0"
      }, 
      "inputs": []
    }, 
    {
      "op": "null", 
      "name": "shufflenasoneshotfix0_hybridsequential0_shufflenetblock0_batchnorm1_gamma", 
      "attrs": {
        "__dtype__": "0", 
        "__init__": "ones", 
        "__lr_mult__": "1.0", 
        "__shape__": "(57,)", 
        "__storage_type__": "0", 
        "__wd_mult__": "1.0"
      }, 
      "inputs": []
    }, 
    {
      "op": "null", 
      "name": "shufflenasoneshotfix0_hybridsequential0_shufflenetblock0_batchnorm1_beta", 
      "attrs": {
        "__dtype__": "0", 
        "__init__": "zeros", 
        "__lr_mult__": "1.0", 
        "__shape__": "(57,)", 
        "__storage_type__": "0", 
        "__wd_mult__": "1.0"
      }, 
      "inputs": []
    }, 
    {
      "op": "null", 
      "name": "shufflenasoneshotfix0_hybridsequential0_shufflenetblock0_batchnorm1_running_mean", 
      "attrs": {
        "__dtype__": "0", 
        "__init__": "zeros", 
        "__lr_mult__": "1.0", 
        "__shape__": "(57,)", 
        "__storage_type__": "0", 
        "__wd_mult__": "1.0"
      }, 
      "inputs": []
    }, 
    {
      "op": "null", 
      "name": "shufflenasoneshotfix0_hybridsequential0_shufflenetblock0_batchnorm1_running_var", 
      "attrs": {
        "__dtype__": "0", 
        "__init__": "ones", 
        "__lr_mult__": "1.0", 
        "__shape__": "(57,)", 
        "__storage_type__": "0", 
        "__wd_mult__": "1.0"
      }, 
      "inputs": []
    }, 
    {
      "op": "_sg_mkldnn_conv", 
      "name": "sg_mkldnn_conv_bn_4", 
      "attrs": {"with_bn": "true"}, 
      "inputs": [[28, 0, 0], [29, 0, 0], [30, 0, 0], [31, 0, 0], [32, 0, 1], [33, 0, 1]], 
      "subgraphs": [
        {
          "nodes": [
            {
              "op": "null", 
              "name": "sg_mkldnn_conv_bn_act_3_output0", 
              "inputs": []
            }, 
            {
              "op": "null", 
              "name": "shufflenasoneshotfix0_hybridsequential0_shufflenetblock0_conv1_weight0", 
              "inputs": []
            }, 
            {
              "op": "Convolution", 
              "name": "shufflenasoneshotfix0_hybridsequential0_shufflenetblock0_conv1_fwd", 
              "attrs": {
                "dilate": "(1, 1)", 
                "kernel": "(3, 3)", 
                "layout": "NCHW", 
                "no_bias": "True", 
                "num_filter": "57", 
                "num_group": "57", 
                "pad": "(1, 1)", 
                "stride": "(2, 2)"
              }, 
              "inputs": [[0, 0, 0], [1, 0, 0]]
            }, 
            {
              "op": "null", 
              "name": "shufflenasoneshotfix0_hybridsequential0_shufflenetblock0_batchnorm1_gamma0", 
              "inputs": []
            }, 
            {
              "op": "null", 
              "name": "shufflenasoneshotfix0_hybridsequential0_shufflenetblock0_batchnorm1_beta0", 
              "inputs": []
            }, 
            {
              "op": "null", 
              "name": "shufflenasoneshotfix0_hybridsequential0_shufflenetblock0_batchnorm1_running_mean0", 
              "inputs": []
            }, 
            {
              "op": "null", 
              "name": "shufflenasoneshotfix0_hybridsequential0_shufflenetblock0_batchnorm1_running_var0", 
              "inputs": []
            }, 
            {
              "op": "BatchNorm", 
              "name": "shufflenasoneshotfix0_hybridsequential0_shufflenetblock0_batchnorm1_fwd", 
              "attrs": {
                "axis": "1", 
                "eps": "1e-05", 
                "fix_gamma": "False", 
                "momentum": "0.1", 
                "use_global_stats": "False"
              }, 
              "inputs": [[2, 0, 0], [3, 0, 0], [4, 0, 0], [5, 0, 0], [6, 0, 0]]
            }
          ], 
          "arg_nodes": [0, 1, 3, 4, 5, 6], 
          "node_row_ptr": [0, 1, 2, 3, 4, 5, 6, 7, 10], 
          "heads": [[7, 0, 0]]
        }
      ]
    }, 
    {
      "op": "null", 
      "name": "shufflenasoneshotfix0_hybridsequential0_shufflenetblock0_conv2_weight", 
      "attrs": {
        "__dtype__": "0", 
        "__lr_mult__": "1.0", 
        "__shape__": "(48, 57, 1, 1)", 
        "__storage_type__": "0", 
        "__wd_mult__": "1.0"
      }, 
      "inputs": []
    }, 
    {
      "op": "null", 
      "name": "shufflenasoneshotfix0_hybridsequential0_shufflenetblock0_batchnorm2_gamma", 
      "attrs": {
        "__dtype__": "0", 
        "__init__": "ones", 
        "__lr_mult__": "1.0", 
        "__shape__": "(48,)", 
        "__storage_type__": "0", 
        "__wd_mult__": "1.0"
      }, 
      "inputs": []
    }, 
    {
      "op": "null", 
      "name": "shufflenasoneshotfix0_hybridsequential0_shufflenetblock0_batchnorm2_beta", 
      "attrs": {
        "__dtype__": "0", 
        "__init__": "zeros", 
        "__lr_mult__": "1.0", 
        "__shape__": "(48,)", 
        "__storage_type__": "0", 
        "__wd_mult__": "1.0"
      }, 
      "inputs": []
    }, 
    {
      "op": "null", 
      "name": "shufflenasoneshotfix0_hybridsequential0_shufflenetblock0_batchnorm2_running_mean", 
      "attrs": {
        "__dtype__": "0", 
        "__init__": "zeros", 
        "__lr_mult__": "1.0", 
        "__shape__": "(48,)", 
        "__storage_type__": "0", 
        "__wd_mult__": "1.0"
      }, 
      "inputs": []
    }, 
    {
      "op": "null", 
      "name": "shufflenasoneshotfix0_hybridsequential0_shufflenetblock0_batchnorm2_running_var", 
      "attrs": {
        "__dtype__": "0", 
        "__init__": "ones", 
        "__lr_mult__": "1.0", 
        "__shape__": "(48,)", 
        "__storage_type__": "0", 
        "__wd_mult__": "1.0"
      }, 
      "inputs": []
    }, 
    {
      "op": "_sg_mkldnn_conv", 
      "name": "sg_mkldnn_conv_bn_act_5", 
      "attrs": {
        "with_act": "true", 
        "with_bn": "true"
      }, 
      "inputs": [[34, 0, 0], [35, 0, 0], [36, 0, 0], [37, 0, 0], [38, 0, 1], [39, 0, 1]], 
      "subgraphs": [
        {
          "nodes": [
            {
              "op": "null", 
              "name": "sg_mkldnn_conv_bn_4_output0", 
              "inputs": []
            }, 
            {
              "op": "null", 
              "name": "shufflenasoneshotfix0_hybridsequential0_shufflenetblock0_conv2_weight0", 
              "inputs": []
            }, 
            {
              "op": "Convolution", 
              "name": "shufflenasoneshotfix0_hybridsequential0_shufflenetblock0_conv2_fwd", 
              "attrs": {
                "dilate": "(1, 1)", 
                "kernel": "(1, 1)", 
                "layout": "NCHW", 
                "no_bias": "True", 
                "num_filter": "48", 
                "num_group": "1", 
                "pad": "(0, 0)", 
                "stride": "(1, 1)"
              }, 
              "inputs": [[0, 0, 0], [1, 0, 0]]
            }, 
            {
              "op": "null", 
              "name": "shufflenasoneshotfix0_hybridsequential0_shufflenetblock0_batchnorm2_gamma0", 
              "inputs": []
            }, 
            {
              "op": "null", 
              "name": "shufflenasoneshotfix0_hybridsequential0_shufflenetblock0_batchnorm2_beta0", 
              "inputs": []
            }, 
            {
              "op": "null", 
              "name": "shufflenasoneshotfix0_hybridsequential0_shufflenetblock0_batchnorm2_running_mean0", 
              "inputs": []
            }, 
            {
              "op": "null", 
              "name": "shufflenasoneshotfix0_hybridsequential0_shufflenetblock0_batchnorm2_running_var0", 
              "inputs": []
            }, 
            {
              "op": "BatchNorm", 
              "name": "shufflenasoneshotfix0_hybridsequential0_shufflenetblock0_batchnorm2_fwd", 
              "attrs": {
                "axis": "1", 
                "eps": "1e-05", 
                "fix_gamma": "False", 
                "momentum": "0.1", 
                "use_global_stats": "False"
              }, 
              "inputs": [[2, 0, 0], [3, 0, 0], [4, 0, 0], [5, 0, 0], [6, 0, 0]]
            }, 
            {
              "op": "Activation", 
              "name": "shufflenasoneshotfix0_hybridsequential0_shufflenetblock0_relu1_fwd", 
              "attrs": {"act_type": "relu"}, 
              "inputs": [[7, 0, 0]]
            }
          ], 
          "arg_nodes": [0, 1, 3, 4, 5, 6], 
          "node_row_ptr": [0, 1, 2, 3, 4, 5, 6, 7, 10, 11], 
          "heads": [[8, 0, 0]]
        }
      ]
    }, 
    {
      "op": "Concat", 
      "name": "shufflenasoneshotfix0_hybridsequential0_shufflenetblock0_concat0", 
      "attrs": {
        "dim": "1", 
        "num_args": "2"
      }, 
      "inputs": [[22, 0, 0], [40, 0, 0]]
    }, 
    {
      "op": "Reshape", 
      "name": "shufflenasoneshotfix0_hybridsequential0_shufflenetblock1_shufflechannels0_reshape0", 
      "attrs": {"shape": "(0, -4, 2, -1, -2)"}, 
      "inputs": [[41, 0, 0]]
    }, 
    {
      "op": "SwapAxis", 
      "name": "shufflenasoneshotfix0_hybridsequential0_shufflenetblock1_shufflechannels0_swapaxes0", 
      "attrs": {
        "dim1": "1", 
        "dim2": "2"
      }, 
      "inputs": [[42, 0, 0]]
    }, 
    {
      "op": "Reshape", 
      "name": "shufflenasoneshotfix0_hybridsequential0_shufflenetblock1_shufflechannels0_reshape1", 
      "attrs": {"shape": "(0, -3, -2)"}, 
      "inputs": [[43, 0, 0]]
    }, 
    {
      "op": "slice", 
      "name": "shufflenasoneshotfix0_hybridsequential0_shufflenetblock1_shufflechannels0_slice0", 
      "attrs": {
        "begin": "(None, None, None, None)", 
        "end": "(None, 32, None, None)"
      }, 
      "inputs": [[44, 0, 0]]
    }, 
    {
      "op": "slice", 
      "name": "shufflenasoneshotfix0_hybridsequential0_shufflenetblock1_shufflechannels0_slice1", 
      "attrs": {
        "begin": "(None, 32, None, None)", 
        "end": "(None, None, None, None)"
      }, 
      "inputs": [[44, 0, 0]]
    }, 
    {
      "op": "null", 
      "name": "shufflenasoneshotfix0_hybridsequential0_shufflenetblock1_conv0_weight", 
      "attrs": {
        "__dtype__": "0", 
        "__lr_mult__": "1.0", 
        "__shape__": "(51, 32, 1, 1)", 
        "__storage_type__": "0", 
        "__wd_mult__": "1.0"
      }, 
      "inputs": []
    }, 
    {
      "op": "null", 
      "name": "shufflenasoneshotfix0_hybridsequential0_shufflenetblock1_batchnorm0_gamma", 
      "attrs": {
        "__dtype__": "0", 
        "__init__": "ones", 
        "__lr_mult__": "1.0", 
        "__shape__": "(51,)", 
        "__storage_type__": "0", 
        "__wd_mult__": "1.0"
      }, 
      "inputs": []
    }, 
    {
      "op": "null", 
      "name": "shufflenasoneshotfix0_hybridsequential0_shufflenetblock1_batchnorm0_beta", 
      "attrs": {
        "__dtype__": "0", 
        "__init__": "zeros", 
        "__lr_mult__": "1.0", 
        "__shape__": "(51,)", 
        "__storage_type__": "0", 
        "__wd_mult__": "1.0"
      }, 
      "inputs": []
    }, 
    {
      "op": "null", 
      "name": "shufflenasoneshotfix0_hybridsequential0_shufflenetblock1_batchnorm0_running_mean", 
      "attrs": {
        "__dtype__": "0", 
        "__init__": "zeros", 
        "__lr_mult__": "1.0", 
        "__shape__": "(51,)", 
        "__storage_type__": "0", 
        "__wd_mult__": "1.0"
      }, 
      "inputs": []
    }, 
    {
      "op": "null", 
      "name": "shufflenasoneshotfix0_hybridsequential0_shufflenetblock1_batchnorm0_running_var", 
      "attrs": {
        "__dtype__": "0", 
        "__init__": "ones", 
        "__lr_mult__": "1.0", 
        "__shape__": "(51,)", 
        "__storage_type__": "0", 
        "__wd_mult__": "1.0"
      }, 
      "inputs": []
    }, 
    {
      "op": "_sg_mkldnn_conv", 
      "name": "sg_mkldnn_conv_bn_act_6", 
      "attrs": {
        "with_act": "true", 
        "with_bn": "true"
      }, 
      "inputs": [[46, 0, 0], [47, 0, 0], [48, 0, 0], [49, 0, 0], [50, 0, 1], [51, 0, 1]], 
      "subgraphs": [
        {
          "nodes": [
            {
              "op": "null", 
              "name": "shufflenasoneshotfix0_hybridsequential0_shufflenetblock1_shufflechannels0_slice1_output0", 
              "inputs": []
            }, 
            {
              "op": "null", 
              "name": "shufflenasoneshotfix0_hybridsequential0_shufflenetblock1_conv0_weight0", 
              "inputs": []
            }, 
            {
              "op": "Convolution", 
              "name": "shufflenasoneshotfix0_hybridsequential0_shufflenetblock1_conv0_fwd", 
              "attrs": {
                "dilate": "(1, 1)", 
                "kernel": "(1, 1)", 
                "layout": "NCHW", 
                "no_bias": "True", 
                "num_filter": "51", 
                "num_group": "1", 
                "pad": "(0, 0)", 
                "stride": "(1, 1)"
              }, 
              "inputs": [[0, 0, 0], [1, 0, 0]]
            }, 
            {
              "op": "null", 
              "name": "shufflenasoneshotfix0_hybridsequential0_shufflenetblock1_batchnorm0_gamma0", 
              "inputs": []
            }, 
            {
              "op": "null", 
              "name": "shufflenasoneshotfix0_hybridsequential0_shufflenetblock1_batchnorm0_beta0", 
              "inputs": []
            }, 
            {
              "op": "null", 
              "name": "shufflenasoneshotfix0_hybridsequential0_shufflenetblock1_batchnorm0_running_mean0", 
              "inputs": []
            }, 
            {
              "op": "null", 
              "name": "shufflenasoneshotfix0_hybridsequential0_shufflenetblock1_batchnorm0_running_var0", 
              "inputs": []
            }, 
            {
              "op": "BatchNorm", 
              "name": "shufflenasoneshotfix0_hybridsequential0_shufflenetblock1_batchnorm0_fwd", 
              "attrs": {
                "axis": "1", 
                "eps": "1e-05", 
                "fix_gamma": "False", 
                "momentum": "0.1", 
                "use_global_stats": "False"
              }, 
              "inputs": [[2, 0, 0], [3, 0, 0], [4, 0, 0], [5, 0, 0], [6, 0, 0]]
            }, 
            {
              "op": "Activation", 
              "name": "shufflenasoneshotfix0_hybridsequential0_shufflenetblock1_relu0_fwd", 
              "attrs": {"act_type": "relu"}, 
              "inputs": [[7, 0, 0]]
            }
          ], 
          "arg_nodes": [0, 1, 3, 4, 5, 6], 
          "node_row_ptr": [0, 1, 2, 3, 4, 5, 6, 7, 10, 11], 
          "heads": [[8, 0, 0]]
        }
      ]
    }, 
    {
      "op": "null", 
      "name": "shufflenasoneshotfix0_hybridsequential0_shufflenetblock1_conv1_weight", 
      "attrs": {
        "__dtype__": "0", 
        "__lr_mult__": "1.0", 
        "__shape__": "(51, 1, 3, 3)", 
        "__storage_type__": "0", 
        "__wd_mult__": "1.0"
      }, 
      "inputs": []
    }, 
    {
      "op": "null", 
      "name": "shufflenasoneshotfix0_hybridsequential0_shufflenetblock1_batchnorm1_gamma", 
      "attrs": {
        "__dtype__": "0", 
        "__init__": "ones", 
        "__lr_mult__": "1.0", 
        "__shape__": "(51,)", 
        "__storage_type__": "0", 
        "__wd_mult__": "1.0"
      }, 
      "inputs": []
    }, 
    {
      "op": "null", 
      "name": "shufflenasoneshotfix0_hybridsequential0_shufflenetblock1_batchnorm1_beta", 
      "attrs": {
        "__dtype__": "0", 
        "__init__": "zeros", 
        "__lr_mult__": "1.0", 
        "__shape__": "(51,)", 
        "__storage_type__": "0", 
        "__wd_mult__": "1.0"
      }, 
      "inputs": []
    }, 
    {
      "op": "null", 
      "name": "shufflenasoneshotfix0_hybridsequential0_shufflenetblock1_batchnorm1_running_mean", 
      "attrs": {
        "__dtype__": "0", 
        "__init__": "zeros", 
        "__lr_mult__": "1.0", 
        "__shape__": "(51,)", 
        "__storage_type__": "0", 
        "__wd_mult__": "1.0"
      }, 
      "inputs": []
    }, 
    {
      "op": "null", 
      "name": "shufflenasoneshotfix0_hybridsequential0_shufflenetblock1_batchnorm1_running_var", 
      "attrs": {
        "__dtype__": "0", 
        "__init__": "ones", 
        "__lr_mult__": "1.0", 
        "__shape__": "(51,)", 
        "__storage_type__": "0", 
        "__wd_mult__": "1.0"
      }, 
      "inputs": []
    }, 
    {
      "op": "_sg_mkldnn_conv", 
      "name": "sg_mkldnn_conv_bn_7", 
      "attrs": {"with_bn": "true"}, 
      "inputs": [[52, 0, 0], [53, 0, 0], [54, 0, 0], [55, 0, 0], [56, 0, 1], [57, 0, 1]], 
      "subgraphs": [
        {
          "nodes": [
            {
              "op": "null", 
              "name": "sg_mkldnn_conv_bn_act_6_output0", 
              "inputs": []
            }, 
            {
              "op": "null", 
              "name": "shufflenasoneshotfix0_hybridsequential0_shufflenetblock1_conv1_weight0", 
              "inputs": []
            }, 
            {
              "op": "Convolution", 
              "name": "shufflenasoneshotfix0_hybridsequential0_shufflenetblock1_conv1_fwd", 
              "attrs": {
                "dilate": "(1, 1)", 
                "kernel": "(3, 3)", 
                "layout": "NCHW", 
                "no_bias": "True", 
                "num_filter": "51", 
                "num_group": "51", 
                "pad": "(1, 1)", 
                "stride": "(1, 1)"
              }, 
              "inputs": [[0, 0, 0], [1, 0, 0]]
            }, 
            {
              "op": "null", 
              "name": "shufflenasoneshotfix0_hybridsequential0_shufflenetblock1_batchnorm1_gamma0", 
              "inputs": []
            }, 
            {
              "op": "null", 
              "name": "shufflenasoneshotfix0_hybridsequential0_shufflenetblock1_batchnorm1_beta0", 
              "inputs": []
            }, 
            {
              "op": "null", 
              "name": "shufflenasoneshotfix0_hybridsequential0_shufflenetblock1_batchnorm1_running_mean0", 
              "inputs": []
            }, 
            {
              "op": "null", 
              "name": "shufflenasoneshotfix0_hybridsequential0_shufflenetblock1_batchnorm1_running_var0", 
              "inputs": []
            }, 
            {
              "op": "BatchNorm", 
              "name": "shufflenasoneshotfix0_hybridsequential0_shufflenetblock1_batchnorm1_fwd", 
              "attrs": {
                "axis": "1", 
                "eps": "1e-05", 
                "fix_gamma": "False", 
                "momentum": "0.1", 
                "use_global_stats": "False"
              }, 
              "inputs": [[2, 0, 0], [3, 0, 0], [4, 0, 0], [5, 0, 0], [6, 0, 0]]
            }
          ], 
          "arg_nodes": [0, 1, 3, 4, 5, 6], 
          "node_row_ptr": [0, 1, 2, 3, 4, 5, 6, 7, 10], 
          "heads": [[7, 0, 0]]
        }
      ]
    }, 
    {
      "op": "null", 
      "name": "shufflenasoneshotfix0_hybridsequential0_shufflenetblock1_conv2_weight", 
      "attrs": {
        "__dtype__": "0", 
        "__lr_mult__": "1.0", 
        "__shape__": "(32, 51, 1, 1)", 
        "__storage_type__": "0", 
        "__wd_mult__": "1.0"
      }, 
      "inputs": []
    }, 
    {
      "op": "null", 
      "name": "shufflenasoneshotfix0_hybridsequential0_shufflenetblock1_batchnorm2_gamma", 
      "attrs": {
        "__dtype__": "0", 
        "__init__": "ones", 
        "__lr_mult__": "1.0", 
        "__shape__": "(32,)", 
        "__storage_type__": "0", 
        "__wd_mult__": "1.0"
      }, 
      "inputs": []
    }, 
    {
      "op": "null", 
      "name": "shufflenasoneshotfix0_hybridsequential0_shufflenetblock1_batchnorm2_beta", 
      "attrs": {
        "__dtype__": "0", 
        "__init__": "zeros", 
        "__lr_mult__": "1.0", 
        "__shape__": "(32,)", 
        "__storage_type__": "0", 
        "__wd_mult__": "1.0"
      }, 
      "inputs": []
    }, 
    {
      "op": "null", 
      "name": "shufflenasoneshotfix0_hybridsequential0_shufflenetblock1_batchnorm2_running_mean", 
      "attrs": {
        "__dtype__": "0", 
        "__init__": "zeros", 
        "__lr_mult__": "1.0", 
        "__shape__": "(32,)", 
        "__storage_type__": "0", 
        "__wd_mult__": "1.0"
      }, 
      "inputs": []
    }, 
    {
      "op": "null", 
      "name": "shufflenasoneshotfix0_hybridsequential0_shufflenetblock1_batchnorm2_running_var", 
      "attrs": {
        "__dtype__": "0", 
        "__init__": "ones", 
        "__lr_mult__": "1.0", 
        "__shape__": "(32,)", 
        "__storage_type__": "0", 
        "__wd_mult__": "1.0"
      }, 
      "inputs": []
    }, 
    {
      "op": "_sg_mkldnn_conv", 
      "name": "sg_mkldnn_conv_bn_act_8", 
      "attrs": {
        "with_act": "true", 
        "with_bn": "true"
      }, 
      "inputs": [[58, 0, 0], [59, 0, 0], [60, 0, 0], [61, 0, 0], [62, 0, 1], [63, 0, 1]], 
      "subgraphs": [
        {
          "nodes": [
            {
              "op": "null", 
              "name": "sg_mkldnn_conv_bn_7_output0", 
              "inputs": []
            }, 
            {
              "op": "null", 
              "name": "shufflenasoneshotfix0_hybridsequential0_shufflenetblock1_conv2_weight0", 
              "inputs": []
            }, 
            {
              "op": "Convolution", 
              "name": "shufflenasoneshotfix0_hybridsequential0_shufflenetblock1_conv2_fwd", 
              "attrs": {
                "dilate": "(1, 1)", 
                "kernel": "(1, 1)", 
                "layout": "NCHW", 
                "no_bias": "True", 
                "num_filter": "32", 
                "num_group": "1", 
                "pad": "(0, 0)", 
                "stride": "(1, 1)"
              }, 
              "inputs": [[0, 0, 0], [1, 0, 0]]
            }, 
            {
              "op": "null", 
              "name": "shufflenasoneshotfix0_hybridsequential0_shufflenetblock1_batchnorm2_gamma0", 
              "inputs": []
            }, 
            {
              "op": "null", 
              "name": "shufflenasoneshotfix0_hybridsequential0_shufflenetblock1_batchnorm2_beta0", 
              "inputs": []
            }, 
            {
              "op": "null", 
              "name": "shufflenasoneshotfix0_hybridsequential0_shufflenetblock1_batchnorm2_running_mean0", 
              "inputs": []
            }, 
            {
              "op": "null", 
              "name": "shufflenasoneshotfix0_hybridsequential0_shufflenetblock1_batchnorm2_running_var0", 
              "inputs": []
            }, 
            {
              "op": "BatchNorm", 
              "name": "shufflenasoneshotfix0_hybridsequential0_shufflenetblock1_batchnorm2_fwd", 
              "attrs": {
                "axis": "1", 
                "eps": "1e-05", 
                "fix_gamma": "False", 
                "momentum": "0.1", 
                "use_global_stats": "False"
              }, 
              "inputs": [[2, 0, 0], [3, 0, 0], [4, 0, 0], [5, 0, 0], [6, 0, 0]]
            }, 
            {
              "op": "Activation", 
              "name": "shufflenasoneshotfix0_hybridsequential0_shufflenetblock1_relu1_fwd", 
              "attrs": {"act_type": "relu"}, 
              "inputs": [[7, 0, 0]]
            }
          ], 
          "arg_nodes": [0, 1, 3, 4, 5, 6], 
          "node_row_ptr": [0, 1, 2, 3, 4, 5, 6, 7, 10, 11], 
          "heads": [[8, 0, 0]]
        }
      ]
    }, 
    {
      "op": "Concat", 
      "name": "shufflenasoneshotfix0_hybridsequential0_shufflenetblock1_concat0", 
      "attrs": {
        "dim": "1", 
        "num_args": "2"
      }, 
      "inputs": [[45, 0, 0], [64, 0, 0]]
    }, 
    {
      "op": "Reshape", 
      "name": "shufflenasoneshotfix0_hybridsequential0_shufflenetblock2_shufflechannels0_reshape0", 
      "attrs": {"shape": "(0, -4, 2, -1, -2)"}, 
      "inputs": [[65, 0, 0]]
    }, 
    {
      "op": "SwapAxis", 
      "name": "shufflenasoneshotfix0_hybridsequential0_shufflenetblock2_shufflechannels0_swapaxes0", 
      "attrs": {
        "dim1": "1", 
        "dim2": "2"
      }, 
      "inputs": [[66, 0, 0]]
    }, 
    {
      "op": "Reshape", 
      "name": "shufflenasoneshotfix0_hybridsequential0_shufflenetblock2_shufflechannels0_reshape1", 
      "attrs": {"shape": "(0, -3, -2)"}, 
      "inputs": [[67, 0, 0]]
    }, 
    {
      "op": "slice", 
      "name": "shufflenasoneshotfix0_hybridsequential0_shufflenetblock2_shufflechannels0_slice0", 
      "attrs": {
        "begin": "(None, None, None, None)", 
        "end": "(None, 32, None, None)"
      }, 
      "inputs": [[68, 0, 0]]
    }, 
    {
      "op": "slice", 
      "name": "shufflenasoneshotfix0_hybridsequential0_shufflenetblock2_shufflechannels0_slice1", 
      "attrs": {
        "begin": "(None, 32, None, None)", 
        "end": "(None, None, None, None)"
      }, 
      "inputs": [[68, 0, 0]]
    }, 
    {
      "op": "null", 
      "name": "shufflenasoneshotfix0_hybridsequential0_shufflenetblock2_conv0_weight", 
      "attrs": {
        "__dtype__": "0", 
        "__lr_mult__": "1.0", 
        "__shape__": "(44, 32, 1, 1)", 
        "__storage_type__": "0", 
        "__wd_mult__": "1.0"
      }, 
      "inputs": []
    }, 
    {
      "op": "null", 
      "name": "shufflenasoneshotfix0_hybridsequential0_shufflenetblock2_batchnorm0_gamma", 
      "attrs": {
        "__dtype__": "0", 
        "__init__": "ones", 
        "__lr_mult__": "1.0", 
        "__shape__": "(44,)", 
        "__storage_type__": "0", 
        "__wd_mult__": "1.0"
      }, 
      "inputs": []
    }, 
    {
      "op": "null", 
      "name": "shufflenasoneshotfix0_hybridsequential0_shufflenetblock2_batchnorm0_beta", 
      "attrs": {
        "__dtype__": "0", 
        "__init__": "zeros", 
        "__lr_mult__": "1.0", 
        "__shape__": "(44,)", 
        "__storage_type__": "0", 
        "__wd_mult__": "1.0"
      }, 
      "inputs": []
    }, 
    {
      "op": "null", 
      "name": "shufflenasoneshotfix0_hybridsequential0_shufflenetblock2_batchnorm0_running_mean", 
      "attrs": {
        "__dtype__": "0", 
        "__init__": "zeros", 
        "__lr_mult__": "1.0", 
        "__shape__": "(44,)", 
        "__storage_type__": "0", 
        "__wd_mult__": "1.0"
      }, 
      "inputs": []
    }, 
    {
      "op": "null", 
      "name": "shufflenasoneshotfix0_hybridsequential0_shufflenetblock2_batchnorm0_running_var", 
      "attrs": {
        "__dtype__": "0", 
        "__init__": "ones", 
        "__lr_mult__": "1.0", 
        "__shape__": "(44,)", 
        "__storage_type__": "0", 
        "__wd_mult__": "1.0"
      }, 
      "inputs": []
    }, 
    {
      "op": "_sg_mkldnn_conv", 
      "name": "sg_mkldnn_conv_bn_act_9", 
      "attrs": {
        "with_act": "true", 
        "with_bn": "true"
      }, 
      "inputs": [[70, 0, 0], [71, 0, 0], [72, 0, 0], [73, 0, 0], [74, 0, 1], [75, 0, 1]], 
      "subgraphs": [
        {
          "nodes": [
            {
              "op": "null", 
              "name": "shufflenasoneshotfix0_hybridsequential0_shufflenetblock2_shufflechannels0_slice1_output0", 
              "inputs": []
            }, 
            {
              "op": "null", 
              "name": "shufflenasoneshotfix0_hybridsequential0_shufflenetblock2_conv0_weight0", 
              "inputs": []
            }, 
            {
              "op": "Convolution", 
              "name": "shufflenasoneshotfix0_hybridsequential0_shufflenetblock2_conv0_fwd", 
              "attrs": {
                "dilate": "(1, 1)", 
                "kernel": "(1, 1)", 
                "layout": "NCHW", 
                "no_bias": "True", 
                "num_filter": "44", 
                "num_group": "1", 
                "pad": "(0, 0)", 
                "stride": "(1, 1)"
              }, 
              "inputs": [[0, 0, 0], [1, 0, 0]]
            }, 
            {
              "op": "null", 
              "name": "shufflenasoneshotfix0_hybridsequential0_shufflenetblock2_batchnorm0_gamma0", 
              "inputs": []
            }, 
            {
              "op": "null", 
              "name": "shufflenasoneshotfix0_hybridsequential0_shufflenetblock2_batchnorm0_beta0", 
              "inputs": []
            }, 
            {
              "op": "null", 
              "name": "shufflenasoneshotfix0_hybridsequential0_shufflenetblock2_batchnorm0_running_mean0", 
              "inputs": []
            }, 
            {
              "op": "null", 
              "name": "shufflenasoneshotfix0_hybridsequential0_shufflenetblock2_batchnorm0_running_var0", 
              "inputs": []
            }, 
            {
              "op": "BatchNorm", 
              "name": "shufflenasoneshotfix0_hybridsequential0_shufflenetblock2_batchnorm0_fwd", 
              "attrs": {
                "axis": "1", 
                "eps": "1e-05", 
                "fix_gamma": "False", 
                "momentum": "0.1", 
                "use_global_stats": "False"
              }, 
              "inputs": [[2, 0, 0], [3, 0, 0], [4, 0, 0], [5, 0, 0], [6, 0, 0]]
            }, 
            {
              "op": "Activation", 
              "name": "shufflenasoneshotfix0_hybridsequential0_shufflenetblock2_relu0_fwd", 
              "attrs": {"act_type": "relu"}, 
              "inputs": [[7, 0, 0]]
            }
          ], 
          "arg_nodes": [0, 1, 3, 4, 5, 6], 
          "node_row_ptr": [0, 1, 2, 3, 4, 5, 6, 7, 10, 11], 
          "heads": [[8, 0, 0]]
        }
      ]
    }, 
    {
      "op": "null", 
      "name": "shufflenasoneshotfix0_hybridsequential0_shufflenetblock2_conv1_weight", 
      "attrs": {
        "__dtype__": "0", 
        "__lr_mult__": "1.0", 
        "__shape__": "(44, 1, 3, 3)", 
        "__storage_type__": "0", 
        "__wd_mult__": "1.0"
      }, 
      "inputs": []
    }, 
    {
      "op": "null", 
      "name": "shufflenasoneshotfix0_hybridsequential0_shufflenetblock2_batchnorm1_gamma", 
      "attrs": {
        "__dtype__": "0", 
        "__init__": "ones", 
        "__lr_mult__": "1.0", 
        "__shape__": "(44,)", 
        "__storage_type__": "0", 
        "__wd_mult__": "1.0"
      }, 
      "inputs": []
    }, 
    {
      "op": "null", 
      "name": "shufflenasoneshotfix0_hybridsequential0_shufflenetblock2_batchnorm1_beta", 
      "attrs": {
        "__dtype__": "0", 
        "__init__": "zeros", 
        "__lr_mult__": "1.0", 
        "__shape__": "(44,)", 
        "__storage_type__": "0", 
        "__wd_mult__": "1.0"
      }, 
      "inputs": []
    }, 
    {
      "op": "null", 
      "name": "shufflenasoneshotfix0_hybridsequential0_shufflenetblock2_batchnorm1_running_mean", 
      "attrs": {
        "__dtype__": "0", 
        "__init__": "zeros", 
        "__lr_mult__": "1.0", 
        "__shape__": "(44,)", 
        "__storage_type__": "0", 
        "__wd_mult__": "1.0"
      }, 
      "inputs": []
    }, 
    {
      "op": "null", 
      "name": "shufflenasoneshotfix0_hybridsequential0_shufflenetblock2_batchnorm1_running_var", 
      "attrs": {
        "__dtype__": "0", 
        "__init__": "ones", 
        "__lr_mult__": "1.0", 
        "__shape__": "(44,)", 
        "__storage_type__": "0", 
        "__wd_mult__": "1.0"
      }, 
      "inputs": []
    }, 
    {
      "op": "_sg_mkldnn_conv", 
      "name": "sg_mkldnn_conv_bn_10", 
      "attrs": {"with_bn": "true"}, 
      "inputs": [[76, 0, 0], [77, 0, 0], [78, 0, 0], [79, 0, 0], [80, 0, 1], [81, 0, 1]], 
      "subgraphs": [
        {
          "nodes": [
            {
              "op": "null", 
              "name": "sg_mkldnn_conv_bn_act_9_output0", 
              "inputs": []
            }, 
            {
              "op": "null", 
              "name": "shufflenasoneshotfix0_hybridsequential0_shufflenetblock2_conv1_weight0", 
              "inputs": []
            }, 
            {
              "op": "Convolution", 
              "name": "shufflenasoneshotfix0_hybridsequential0_shufflenetblock2_conv1_fwd", 
              "attrs": {
                "dilate": "(1, 1)", 
                "kernel": "(3, 3)", 
                "layout": "NCHW", 
                "no_bias": "True", 
                "num_filter": "44", 
                "num_group": "44", 
                "pad": "(1, 1)", 
                "stride": "(1, 1)"
              }, 
              "inputs": [[0, 0, 0], [1, 0, 0]]
            }, 
            {
              "op": "null", 
              "name": "shufflenasoneshotfix0_hybridsequential0_shufflenetblock2_batchnorm1_gamma0", 
              "inputs": []
            }, 
            {
              "op": "null", 
              "name": "shufflenasoneshotfix0_hybridsequential0_shufflenetblock2_batchnorm1_beta0", 
              "inputs": []
            }, 
            {
              "op": "null", 
              "name": "shufflenasoneshotfix0_hybridsequential0_shufflenetblock2_batchnorm1_running_mean0", 
              "inputs": []
            }, 
            {
              "op": "null", 
              "name": "shufflenasoneshotfix0_hybridsequential0_shufflenetblock2_batchnorm1_running_var0", 
              "inputs": []
            }, 
            {
              "op": "BatchNorm", 
              "name": "shufflenasoneshotfix0_hybridsequential0_shufflenetblock2_batchnorm1_fwd", 
              "attrs": {
                "axis": "1", 
                "eps": "1e-05", 
                "fix_gamma": "False", 
                "momentum": "0.1", 
                "use_global_stats": "False"
              }, 
              "inputs": [[2, 0, 0], [3, 0, 0], [4, 0, 0], [5, 0, 0], [6, 0, 0]]
            }
          ], 
          "arg_nodes": [0, 1, 3, 4, 5, 6], 
          "node_row_ptr": [0, 1, 2, 3, 4, 5, 6, 7, 10], 
          "heads": [[7, 0, 0]]
        }
      ]
    }, 
    {
      "op": "null", 
      "name": "shufflenasoneshotfix0_hybridsequential0_shufflenetblock2_conv2_weight", 
      "attrs": {
        "__dtype__": "0", 
        "__lr_mult__": "1.0", 
        "__shape__": "(32, 44, 1, 1)", 
        "__storage_type__": "0", 
        "__wd_mult__": "1.0"
      }, 
      "inputs": []
    }, 
    {
      "op": "null", 
      "name": "shufflenasoneshotfix0_hybridsequential0_shufflenetblock2_batchnorm2_gamma", 
      "attrs": {
        "__dtype__": "0", 
        "__init__": "ones", 
        "__lr_mult__": "1.0", 
        "__shape__": "(32,)", 
        "__storage_type__": "0", 
        "__wd_mult__": "1.0"
      }, 
      "inputs": []
    }, 
    {
      "op": "null", 
      "name": "shufflenasoneshotfix0_hybridsequential0_shufflenetblock2_batchnorm2_beta", 
      "attrs": {
        "__dtype__": "0", 
        "__init__": "zeros", 
        "__lr_mult__": "1.0", 
        "__shape__": "(32,)", 
        "__storage_type__": "0", 
        "__wd_mult__": "1.0"
      }, 
      "inputs": []
    }, 
    {
      "op": "null", 
      "name": "shufflenasoneshotfix0_hybridsequential0_shufflenetblock2_batchnorm2_running_mean", 
      "attrs": {
        "__dtype__": "0", 
        "__init__": "zeros", 
        "__lr_mult__": "1.0", 
        "__shape__": "(32,)", 
        "__storage_type__": "0", 
        "__wd_mult__": "1.0"
      }, 
      "inputs": []
    }, 
    {
      "op": "null", 
      "name": "shufflenasoneshotfix0_hybridsequential0_shufflenetblock2_batchnorm2_running_var", 
      "attrs": {
        "__dtype__": "0", 
        "__init__": "ones", 
        "__lr_mult__": "1.0", 
        "__shape__": "(32,)", 
        "__storage_type__": "0", 
        "__wd_mult__": "1.0"
      }, 
      "inputs": []
    }, 
    {
      "op": "_sg_mkldnn_conv", 
      "name": "sg_mkldnn_conv_bn_act_11", 
      "attrs": {
        "with_act": "true", 
        "with_bn": "true"
      }, 
      "inputs": [[82, 0, 0], [83, 0, 0], [84, 0, 0], [85, 0, 0], [86, 0, 1], [87, 0, 1]], 
      "subgraphs": [
        {
          "nodes": [
            {
              "op": "null", 
              "name": "sg_mkldnn_conv_bn_10_output0", 
              "inputs": []
            }, 
            {
              "op": "null", 
              "name": "shufflenasoneshotfix0_hybridsequential0_shufflenetblock2_conv2_weight0", 
              "inputs": []
            }, 
            {
              "op": "Convolution", 
              "name": "shufflenasoneshotfix0_hybridsequential0_shufflenetblock2_conv2_fwd", 
              "attrs": {
                "dilate": "(1, 1)", 
                "kernel": "(1, 1)", 
                "layout": "NCHW", 
                "no_bias": "True", 
                "num_filter": "32", 
                "num_group": "1", 
                "pad": "(0, 0)", 
                "stride": "(1, 1)"
              }, 
              "inputs": [[0, 0, 0], [1, 0, 0]]
            }, 
            {
              "op": "null", 
              "name": "shufflenasoneshotfix0_hybridsequential0_shufflenetblock2_batchnorm2_gamma0", 
              "inputs": []
            }, 
            {
              "op": "null", 
              "name": "shufflenasoneshotfix0_hybridsequential0_shufflenetblock2_batchnorm2_beta0", 
              "inputs": []
            }, 
            {
              "op": "null", 
              "name": "shufflenasoneshotfix0_hybridsequential0_shufflenetblock2_batchnorm2_running_mean0", 
              "inputs": []
            }, 
            {
              "op": "null", 
              "name": "shufflenasoneshotfix0_hybridsequential0_shufflenetblock2_batchnorm2_running_var0", 
              "inputs": []
            }, 
            {
              "op": "BatchNorm", 
              "name": "shufflenasoneshotfix0_hybridsequential0_shufflenetblock2_batchnorm2_fwd", 
              "attrs": {
                "axis": "1", 
                "eps": "1e-05", 
                "fix_gamma": "False", 
                "momentum": "0.1", 
                "use_global_stats": "False"
              }, 
              "inputs": [[2, 0, 0], [3, 0, 0], [4, 0, 0], [5, 0, 0], [6, 0, 0]]
            }, 
            {
              "op": "Activation", 
              "name": "shufflenasoneshotfix0_hybridsequential0_shufflenetblock2_relu1_fwd", 
              "attrs": {"act_type": "relu"}, 
              "inputs": [[7, 0, 0]]
            }
          ], 
          "arg_nodes": [0, 1, 3, 4, 5, 6], 
          "node_row_ptr": [0, 1, 2, 3, 4, 5, 6, 7, 10, 11], 
          "heads": [[8, 0, 0]]
        }
      ]
    }, 
    {
      "op": "Concat", 
      "name": "shufflenasoneshotfix0_hybridsequential0_shufflenetblock2_concat0", 
      "attrs": {
        "dim": "1", 
        "num_args": "2"
      }, 
      "inputs": [[69, 0, 0], [88, 0, 0]]
    }, 
    {
      "op": "Reshape", 
      "name": "shufflenasoneshotfix0_hybridsequential0_shufflenetblock3_shufflechannels0_reshape0", 
      "attrs": {"shape": "(0, -4, 2, -1, -2)"}, 
      "inputs": [[89, 0, 0]]
    }, 
    {
      "op": "SwapAxis", 
      "name": "shufflenasoneshotfix0_hybridsequential0_shufflenetblock3_shufflechannels0_swapaxes0", 
      "attrs": {
        "dim1": "1", 
        "dim2": "2"
      }, 
      "inputs": [[90, 0, 0]]
    }, 
    {
      "op": "Reshape", 
      "name": "shufflenasoneshotfix0_hybridsequential0_shufflenetblock3_shufflechannels0_reshape1", 
      "attrs": {"shape": "(0, -3, -2)"}, 
      "inputs": [[91, 0, 0]]
    }, 
    {
      "op": "slice", 
      "name": "shufflenasoneshotfix0_hybridsequential0_shufflenetblock3_shufflechannels0_slice0", 
      "attrs": {
        "begin": "(None, None, None, None)", 
        "end": "(None, 32, None, None)"
      }, 
      "inputs": [[92, 0, 0]]
    }, 
    {
      "op": "slice", 
      "name": "shufflenasoneshotfix0_hybridsequential0_shufflenetblock3_shufflechannels0_slice1", 
      "attrs": {
        "begin": "(None, 32, None, None)", 
        "end": "(None, None, None, None)"
      }, 
      "inputs": [[92, 0, 0]]
    }, 
    {
      "op": "null", 
      "name": "shufflenasoneshotfix0_hybridsequential0_shufflenetblock3_conv0_weight", 
      "attrs": {
        "__dtype__": "0", 
        "__lr_mult__": "1.0", 
        "__shape__": "(57, 32, 1, 1)", 
        "__storage_type__": "0", 
        "__wd_mult__": "1.0"
      }, 
      "inputs": []
    }, 
    {
      "op": "null", 
      "name": "shufflenasoneshotfix0_hybridsequential0_shufflenetblock3_batchnorm0_gamma", 
      "attrs": {
        "__dtype__": "0", 
        "__init__": "ones", 
        "__lr_mult__": "1.0", 
        "__shape__": "(57,)", 
        "__storage_type__": "0", 
        "__wd_mult__": "1.0"
      }, 
      "inputs": []
    }, 
    {
      "op": "null", 
      "name": "shufflenasoneshotfix0_hybridsequential0_shufflenetblock3_batchnorm0_beta", 
      "attrs": {
        "__dtype__": "0", 
        "__init__": "zeros", 
        "__lr_mult__": "1.0", 
        "__shape__": "(57,)", 
        "__storage_type__": "0", 
        "__wd_mult__": "1.0"
      }, 
      "inputs": []
    }, 
    {
      "op": "null", 
      "name": "shufflenasoneshotfix0_hybridsequential0_shufflenetblock3_batchnorm0_running_mean", 
      "attrs": {
        "__dtype__": "0", 
        "__init__": "zeros", 
        "__lr_mult__": "1.0", 
        "__shape__": "(57,)", 
        "__storage_type__": "0", 
        "__wd_mult__": "1.0"
      }, 
      "inputs": []
    }, 
    {
      "op": "null", 
      "name": "shufflenasoneshotfix0_hybridsequential0_shufflenetblock3_batchnorm0_running_var", 
      "attrs": {
        "__dtype__": "0", 
        "__init__": "ones", 
        "__lr_mult__": "1.0", 
        "__shape__": "(57,)", 
        "__storage_type__": "0", 
        "__wd_mult__": "1.0"
      }, 
      "inputs": []
    }, 
    {
      "op": "_sg_mkldnn_conv", 
      "name": "sg_mkldnn_conv_bn_act_12", 
      "attrs": {
        "with_act": "true", 
        "with_bn": "true"
      }, 
      "inputs": [[94, 0, 0], [95, 0, 0], [96, 0, 0], [97, 0, 0], [98, 0, 1], [99, 0, 1]], 
      "subgraphs": [
        {
          "nodes": [
            {
              "op": "null", 
              "name": "shufflenasoneshotfix0_hybridsequential0_shufflenetblock3_shufflechannels0_slice1_output0", 
              "inputs": []
            }, 
            {
              "op": "null", 
              "name": "shufflenasoneshotfix0_hybridsequential0_shufflenetblock3_conv0_weight0", 
              "inputs": []
            }, 
            {
              "op": "Convolution", 
              "name": "shufflenasoneshotfix0_hybridsequential0_shufflenetblock3_conv0_fwd", 
              "attrs": {
                "dilate": "(1, 1)", 
                "kernel": "(1, 1)", 
                "layout": "NCHW", 
                "no_bias": "True", 
                "num_filter": "57", 
                "num_group": "1", 
                "pad": "(0, 0)", 
                "stride": "(1, 1)"
              }, 
              "inputs": [[0, 0, 0], [1, 0, 0]]
            }, 
            {
              "op": "null", 
              "name": "shufflenasoneshotfix0_hybridsequential0_shufflenetblock3_batchnorm0_gamma0", 
              "inputs": []
            }, 
            {
              "op": "null", 
              "name": "shufflenasoneshotfix0_hybridsequential0_shufflenetblock3_batchnorm0_beta0", 
              "inputs": []
            }, 
            {
              "op": "null", 
              "name": "shufflenasoneshotfix0_hybridsequential0_shufflenetblock3_batchnorm0_running_mean0", 
              "inputs": []
            }, 
            {
              "op": "null", 
              "name": "shufflenasoneshotfix0_hybridsequential0_shufflenetblock3_batchnorm0_running_var0", 
              "inputs": []
            }, 
            {
              "op": "BatchNorm", 
              "name": "shufflenasoneshotfix0_hybridsequential0_shufflenetblock3_batchnorm0_fwd", 
              "attrs": {
                "axis": "1", 
                "eps": "1e-05", 
                "fix_gamma": "False", 
                "momentum": "0.1", 
                "use_global_stats": "False"
              }, 
              "inputs": [[2, 0, 0], [3, 0, 0], [4, 0, 0], [5, 0, 0], [6, 0, 0]]
            }, 
            {
              "op": "Activation", 
              "name": "shufflenasoneshotfix0_hybridsequential0_shufflenetblock3_relu0_fwd", 
              "attrs": {"act_type": "relu"}, 
              "inputs": [[7, 0, 0]]
            }
          ], 
          "arg_nodes": [0, 1, 3, 4, 5, 6], 
          "node_row_ptr": [0, 1, 2, 3, 4, 5, 6, 7, 10, 11], 
          "heads": [[8, 0, 0]]
        }
      ]
    }, 
    {
      "op": "null", 
      "name": "shufflenasoneshotfix0_hybridsequential0_shufflenetblock3_conv1_weight", 
      "attrs": {
        "__dtype__": "0", 
        "__lr_mult__": "1.0", 
        "__shape__": "(57, 1, 5, 5)", 
        "__storage_type__": "0", 
        "__wd_mult__": "1.0"
      }, 
      "inputs": []
    }, 
    {
      "op": "null", 
      "name": "shufflenasoneshotfix0_hybridsequential0_shufflenetblock3_batchnorm1_gamma", 
      "attrs": {
        "__dtype__": "0", 
        "__init__": "ones", 
        "__lr_mult__": "1.0", 
        "__shape__": "(57,)", 
        "__storage_type__": "0", 
        "__wd_mult__": "1.0"
      }, 
      "inputs": []
    }, 
    {
      "op": "null", 
      "name": "shufflenasoneshotfix0_hybridsequential0_shufflenetblock3_batchnorm1_beta", 
      "attrs": {
        "__dtype__": "0", 
        "__init__": "zeros", 
        "__lr_mult__": "1.0", 
        "__shape__": "(57,)", 
        "__storage_type__": "0", 
        "__wd_mult__": "1.0"
      }, 
      "inputs": []
    }, 
    {
      "op": "null", 
      "name": "shufflenasoneshotfix0_hybridsequential0_shufflenetblock3_batchnorm1_running_mean", 
      "attrs": {
        "__dtype__": "0", 
        "__init__": "zeros", 
        "__lr_mult__": "1.0", 
        "__shape__": "(57,)", 
        "__storage_type__": "0", 
        "__wd_mult__": "1.0"
      }, 
      "inputs": []
    }, 
    {
      "op": "null", 
      "name": "shufflenasoneshotfix0_hybridsequential0_shufflenetblock3_batchnorm1_running_var", 
      "attrs": {
        "__dtype__": "0", 
        "__init__": "ones", 
        "__lr_mult__": "1.0", 
        "__shape__": "(57,)", 
        "__storage_type__": "0", 
        "__wd_mult__": "1.0"
      }, 
      "inputs": []
    }, 
    {
      "op": "_sg_mkldnn_conv", 
      "name": "sg_mkldnn_conv_bn_13", 
      "attrs": {"with_bn": "true"}, 
      "inputs": [[100, 0, 0], [101, 0, 0], [102, 0, 0], [103, 0, 0], [104, 0, 1], [105, 0, 1]], 
      "subgraphs": [
        {
          "nodes": [
            {
              "op": "null", 
              "name": "sg_mkldnn_conv_bn_act_12_output0", 
              "inputs": []
            }, 
            {
              "op": "null", 
              "name": "shufflenasoneshotfix0_hybridsequential0_shufflenetblock3_conv1_weight0", 
              "inputs": []
            }, 
            {
              "op": "Convolution", 
              "name": "shufflenasoneshotfix0_hybridsequential0_shufflenetblock3_conv1_fwd", 
              "attrs": {
                "dilate": "(1, 1)", 
                "kernel": "(5, 5)", 
                "layout": "NCHW", 
                "no_bias": "True", 
                "num_filter": "57", 
                "num_group": "57", 
                "pad": "(2, 2)", 
                "stride": "(1, 1)"
              }, 
              "inputs": [[0, 0, 0], [1, 0, 0]]
            }, 
            {
              "op": "null", 
              "name": "shufflenasoneshotfix0_hybridsequential0_shufflenetblock3_batchnorm1_gamma0", 
              "inputs": []
            }, 
            {
              "op": "null", 
              "name": "shufflenasoneshotfix0_hybridsequential0_shufflenetblock3_batchnorm1_beta0", 
              "inputs": []
            }, 
            {
              "op": "null", 
              "name": "shufflenasoneshotfix0_hybridsequential0_shufflenetblock3_batchnorm1_running_mean0", 
              "inputs": []
            }, 
            {
              "op": "null", 
              "name": "shufflenasoneshotfix0_hybridsequential0_shufflenetblock3_batchnorm1_running_var0", 
              "inputs": []
            }, 
            {
              "op": "BatchNorm", 
              "name": "shufflenasoneshotfix0_hybridsequential0_shufflenetblock3_batchnorm1_fwd", 
              "attrs": {
                "axis": "1", 
                "eps": "1e-05", 
                "fix_gamma": "False", 
                "momentum": "0.1", 
                "use_global_stats": "False"
              }, 
              "inputs": [[2, 0, 0], [3, 0, 0], [4, 0, 0], [5, 0, 0], [6, 0, 0]]
            }
          ], 
          "arg_nodes": [0, 1, 3, 4, 5, 6], 
          "node_row_ptr": [0, 1, 2, 3, 4, 5, 6, 7, 10], 
          "heads": [[7, 0, 0]]
        }
      ]
    }, 
    {
      "op": "null", 
      "name": "shufflenasoneshotfix0_hybridsequential0_shufflenetblock3_conv2_weight", 
      "attrs": {
        "__dtype__": "0", 
        "__lr_mult__": "1.0", 
        "__shape__": "(32, 57, 1, 1)", 
        "__storage_type__": "0", 
        "__wd_mult__": "1.0"
      }, 
      "inputs": []
    }, 
    {
      "op": "null", 
      "name": "shufflenasoneshotfix0_hybridsequential0_shufflenetblock3_batchnorm2_gamma", 
      "attrs": {
        "__dtype__": "0", 
        "__init__": "ones", 
        "__lr_mult__": "1.0", 
        "__shape__": "(32,)", 
        "__storage_type__": "0", 
        "__wd_mult__": "1.0"
      }, 
      "inputs": []
    }, 
    {
      "op": "null", 
      "name": "shufflenasoneshotfix0_hybridsequential0_shufflenetblock3_batchnorm2_beta", 
      "attrs": {
        "__dtype__": "0", 
        "__init__": "zeros", 
        "__lr_mult__": "1.0", 
        "__shape__": "(32,)", 
        "__storage_type__": "0", 
        "__wd_mult__": "1.0"
      }, 
      "inputs": []
    }, 
    {
      "op": "null", 
      "name": "shufflenasoneshotfix0_hybridsequential0_shufflenetblock3_batchnorm2_running_mean", 
      "attrs": {
        "__dtype__": "0", 
        "__init__": "zeros", 
        "__lr_mult__": "1.0", 
        "__shape__": "(32,)", 
        "__storage_type__": "0", 
        "__wd_mult__": "1.0"
      }, 
      "inputs": []
    }, 
    {
      "op": "null", 
      "name": "shufflenasoneshotfix0_hybridsequential0_shufflenetblock3_batchnorm2_running_var", 
      "attrs": {
        "__dtype__": "0", 
        "__init__": "ones", 
        "__lr_mult__": "1.0", 
        "__shape__": "(32,)", 
        "__storage_type__": "0", 
        "__wd_mult__": "1.0"
      }, 
      "inputs": []
    }, 
    {
      "op": "_sg_mkldnn_conv", 
      "name": "sg_mkldnn_conv_bn_act_14", 
      "attrs": {
        "with_act": "true", 
        "with_bn": "true"
      }, 
      "inputs": [[106, 0, 0], [107, 0, 0], [108, 0, 0], [109, 0, 0], [110, 0, 1], [111, 0, 1]], 
      "subgraphs": [
        {
          "nodes": [
            {
              "op": "null", 
              "name": "sg_mkldnn_conv_bn_13_output0", 
              "inputs": []
            }, 
            {
              "op": "null", 
              "name": "shufflenasoneshotfix0_hybridsequential0_shufflenetblock3_conv2_weight0", 
              "inputs": []
            }, 
            {
              "op": "Convolution", 
              "name": "shufflenasoneshotfix0_hybridsequential0_shufflenetblock3_conv2_fwd", 
              "attrs": {
                "dilate": "(1, 1)", 
                "kernel": "(1, 1)", 
                "layout": "NCHW", 
                "no_bias": "True", 
                "num_filter": "32", 
                "num_group": "1", 
                "pad": "(0, 0)", 
                "stride": "(1, 1)"
              }, 
              "inputs": [[0, 0, 0], [1, 0, 0]]
            }, 
            {
              "op": "null", 
              "name": "shufflenasoneshotfix0_hybridsequential0_shufflenetblock3_batchnorm2_gamma0", 
              "inputs": []
            }, 
            {
              "op": "null", 
              "name": "shufflenasoneshotfix0_hybridsequential0_shufflenetblock3_batchnorm2_beta0", 
              "inputs": []
            }, 
            {
              "op": "null", 
              "name": "shufflenasoneshotfix0_hybridsequential0_shufflenetblock3_batchnorm2_running_mean0", 
              "inputs": []
            }, 
            {
              "op": "null", 
              "name": "shufflenasoneshotfix0_hybridsequential0_shufflenetblock3_batchnorm2_running_var0", 
              "inputs": []
            }, 
            {
              "op": "BatchNorm", 
              "name": "shufflenasoneshotfix0_hybridsequential0_shufflenetblock3_batchnorm2_fwd", 
              "attrs": {
                "axis": "1", 
                "eps": "1e-05", 
                "fix_gamma": "False", 
                "momentum": "0.1", 
                "use_global_stats": "False"
              }, 
              "inputs": [[2, 0, 0], [3, 0, 0], [4, 0, 0], [5, 0, 0], [6, 0, 0]]
            }, 
            {
              "op": "Activation", 
              "name": "shufflenasoneshotfix0_hybridsequential0_shufflenetblock3_relu1_fwd", 
              "attrs": {"act_type": "relu"}, 
              "inputs": [[7, 0, 0]]
            }
          ], 
          "arg_nodes": [0, 1, 3, 4, 5, 6], 
          "node_row_ptr": [0, 1, 2, 3, 4, 5, 6, 7, 10, 11], 
          "heads": [[8, 0, 0]]
        }
      ]
    }, 
    {
      "op": "Concat", 
      "name": "shufflenasoneshotfix0_hybridsequential0_shufflenetblock3_concat0", 
      "attrs": {
        "dim": "1", 
        "num_args": "2"
      }, 
      "inputs": [[93, 0, 0], [112, 0, 0]]
    }, 
    {
      "op": "null", 
      "name": "shufflenasoneshotfix0_hybridsequential0_shufflenetblock4_conv3_weight", 
      "attrs": {
        "__dtype__": "0", 
        "__lr_mult__": "1.0", 
        "__shape__": "(64, 1, 3, 3)", 
        "__storage_type__": "0", 
        "__wd_mult__": "1.0"
      }, 
      "inputs": []
    }, 
    {
      "op": "null", 
      "name": "shufflenasoneshotfix0_hybridsequential0_shufflenetblock4_batchnorm3_gamma", 
      "attrs": {
        "__dtype__": "0", 
        "__init__": "ones", 
        "__lr_mult__": "1.0", 
        "__shape__": "(64,)", 
        "__storage_type__": "0", 
        "__wd_mult__": "1.0"
      }, 
      "inputs": []
    }, 
    {
      "op": "null", 
      "name": "shufflenasoneshotfix0_hybridsequential0_shufflenetblock4_batchnorm3_beta", 
      "attrs": {
        "__dtype__": "0", 
        "__init__": "zeros", 
        "__lr_mult__": "1.0", 
        "__shape__": "(64,)", 
        "__storage_type__": "0", 
        "__wd_mult__": "1.0"
      }, 
      "inputs": []
    }, 
    {
      "op": "null", 
      "name": "shufflenasoneshotfix0_hybridsequential0_shufflenetblock4_batchnorm3_running_mean", 
      "attrs": {
        "__dtype__": "0", 
        "__init__": "zeros", 
        "__lr_mult__": "1.0", 
        "__shape__": "(64,)", 
        "__storage_type__": "0", 
        "__wd_mult__": "1.0"
      }, 
      "inputs": []
    }, 
    {
      "op": "null", 
      "name": "shufflenasoneshotfix0_hybridsequential0_shufflenetblock4_batchnorm3_running_var", 
      "attrs": {
        "__dtype__": "0", 
        "__init__": "ones", 
        "__lr_mult__": "1.0", 
        "__shape__": "(64,)", 
        "__storage_type__": "0", 
        "__wd_mult__": "1.0"
      }, 
      "inputs": []
    }, 
    {
      "op": "_sg_mkldnn_conv", 
      "name": "sg_mkldnn_conv_bn_15", 
      "attrs": {"with_bn": "true"}, 
      "inputs": [[113, 0, 0], [114, 0, 0], [115, 0, 0], [116, 0, 0], [117, 0, 1], [118, 0, 1]], 
      "subgraphs": [
        {
          "nodes": [
            {
              "op": "null", 
              "name": "shufflenasoneshotfix0_hybridsequential0_shufflenetblock3_concat0_output0", 
              "inputs": []
            }, 
            {
              "op": "null", 
              "name": "shufflenasoneshotfix0_hybridsequential0_shufflenetblock4_conv3_weight0", 
              "inputs": []
            }, 
            {
              "op": "Convolution", 
              "name": "shufflenasoneshotfix0_hybridsequential0_shufflenetblock4_conv3_fwd", 
              "attrs": {
                "dilate": "(1, 1)", 
                "kernel": "(3, 3)", 
                "layout": "NCHW", 
                "no_bias": "True", 
                "num_filter": "64", 
                "num_group": "64", 
                "pad": "(1, 1)", 
                "stride": "(2, 2)"
              }, 
              "inputs": [[0, 0, 0], [1, 0, 0]]
            }, 
            {
              "op": "null", 
              "name": "shufflenasoneshotfix0_hybridsequential0_shufflenetblock4_batchnorm3_gamma0", 
              "inputs": []
            }, 
            {
              "op": "null", 
              "name": "shufflenasoneshotfix0_hybridsequential0_shufflenetblock4_batchnorm3_beta0", 
              "inputs": []
            }, 
            {
              "op": "null", 
              "name": "shufflenasoneshotfix0_hybridsequential0_shufflenetblock4_batchnorm3_running_mean0", 
              "inputs": []
            }, 
            {
              "op": "null", 
              "name": "shufflenasoneshotfix0_hybridsequential0_shufflenetblock4_batchnorm3_running_var0", 
              "inputs": []
            }, 
            {
              "op": "BatchNorm", 
              "name": "shufflenasoneshotfix0_hybridsequential0_shufflenetblock4_batchnorm3_fwd", 
              "attrs": {
                "axis": "1", 
                "eps": "1e-05", 
                "fix_gamma": "False", 
                "momentum": "0.1", 
                "use_global_stats": "False"
              }, 
              "inputs": [[2, 0, 0], [3, 0, 0], [4, 0, 0], [5, 0, 0], [6, 0, 0]]
            }
          ], 
          "arg_nodes": [0, 1, 3, 4, 5, 6], 
          "node_row_ptr": [0, 1, 2, 3, 4, 5, 6, 7, 10], 
          "heads": [[7, 0, 0]]
        }
      ]
    }, 
    {
      "op": "null", 
      "name": "shufflenasoneshotfix0_hybridsequential0_shufflenetblock4_conv4_weight", 
      "attrs": {
        "__dtype__": "0", 
        "__lr_mult__": "1.0", 
        "__shape__": "(64, 64, 1, 1)", 
        "__storage_type__": "0", 
        "__wd_mult__": "1.0"
      }, 
      "inputs": []
    }, 
    {
      "op": "null", 
      "name": "shufflenasoneshotfix0_hybridsequential0_shufflenetblock4_batchnorm4_gamma", 
      "attrs": {
        "__dtype__": "0", 
        "__init__": "ones", 
        "__lr_mult__": "1.0", 
        "__shape__": "(64,)", 
        "__storage_type__": "0", 
        "__wd_mult__": "1.0"
      }, 
      "inputs": []
    }, 
    {
      "op": "null", 
      "name": "shufflenasoneshotfix0_hybridsequential0_shufflenetblock4_batchnorm4_beta", 
      "attrs": {
        "__dtype__": "0", 
        "__init__": "zeros", 
        "__lr_mult__": "1.0", 
        "__shape__": "(64,)", 
        "__storage_type__": "0", 
        "__wd_mult__": "1.0"
      }, 
      "inputs": []
    }, 
    {
      "op": "null", 
      "name": "shufflenasoneshotfix0_hybridsequential0_shufflenetblock4_batchnorm4_running_mean", 
      "attrs": {
        "__dtype__": "0", 
        "__init__": "zeros", 
        "__lr_mult__": "1.0", 
        "__shape__": "(64,)", 
        "__storage_type__": "0", 
        "__wd_mult__": "1.0"
      }, 
      "inputs": []
    }, 
    {
      "op": "null", 
      "name": "shufflenasoneshotfix0_hybridsequential0_shufflenetblock4_batchnorm4_running_var", 
      "attrs": {
        "__dtype__": "0", 
        "__init__": "ones", 
        "__lr_mult__": "1.0", 
        "__shape__": "(64,)", 
        "__storage_type__": "0", 
        "__wd_mult__": "1.0"
      }, 
      "inputs": []
    }, 
    {
      "op": "_sg_mkldnn_conv", 
      "name": "sg_mkldnn_conv_bn_16", 
      "attrs": {"with_bn": "true"}, 
      "inputs": [[119, 0, 0], [120, 0, 0], [121, 0, 0], [122, 0, 0], [123, 0, 1], [124, 0, 1]], 
      "subgraphs": [
        {
          "nodes": [
            {
              "op": "null", 
              "name": "sg_mkldnn_conv_bn_15_output0", 
              "inputs": []
            }, 
            {
              "op": "null", 
              "name": "shufflenasoneshotfix0_hybridsequential0_shufflenetblock4_conv4_weight0", 
              "inputs": []
            }, 
            {
              "op": "Convolution", 
              "name": "shufflenasoneshotfix0_hybridsequential0_shufflenetblock4_conv4_fwd", 
              "attrs": {
                "dilate": "(1, 1)", 
                "kernel": "(1, 1)", 
                "layout": "NCHW", 
                "no_bias": "True", 
                "num_filter": "64", 
                "num_group": "1", 
                "pad": "(0, 0)", 
                "stride": "(1, 1)"
              }, 
              "inputs": [[0, 0, 0], [1, 0, 0]]
            }, 
            {
              "op": "null", 
              "name": "shufflenasoneshotfix0_hybridsequential0_shufflenetblock4_batchnorm4_gamma0", 
              "inputs": []
            }, 
            {
              "op": "null", 
              "name": "shufflenasoneshotfix0_hybridsequential0_shufflenetblock4_batchnorm4_beta0", 
              "inputs": []
            }, 
            {
              "op": "null", 
              "name": "shufflenasoneshotfix0_hybridsequential0_shufflenetblock4_batchnorm4_running_mean0", 
              "inputs": []
            }, 
            {
              "op": "null", 
              "name": "shufflenasoneshotfix0_hybridsequential0_shufflenetblock4_batchnorm4_running_var0", 
              "inputs": []
            }, 
            {
              "op": "BatchNorm", 
              "name": "shufflenasoneshotfix0_hybridsequential0_shufflenetblock4_batchnorm4_fwd", 
              "attrs": {
                "axis": "1", 
                "eps": "1e-05", 
                "fix_gamma": "False", 
                "momentum": "0.1", 
                "use_global_stats": "False"
              }, 
              "inputs": [[2, 0, 0], [3, 0, 0], [4, 0, 0], [5, 0, 0], [6, 0, 0]]
            }
          ], 
          "arg_nodes": [0, 1, 3, 4, 5, 6], 
          "node_row_ptr": [0, 1, 2, 3, 4, 5, 6, 7, 10], 
          "heads": [[7, 0, 0]]
        }
      ]
    }, 
    {
      "op": "_plus_scalar", 
      "name": "shufflenasoneshotfix0_hybridsequential0_shufflenetblock4_hardswish2__plusscalar0", 
      "attrs": {"scalar": "3"}, 
      "inputs": [[125, 0, 0]]
    }, 
    {
      "op": "clip", 
      "name": "shufflenasoneshotfix0_hybridsequential0_shufflenetblock4_hardswish2_hard_swish", 
      "attrs": {
        "a_max": "6", 
        "a_min": "0"
      }, 
      "inputs": [[126, 0, 0]]
    }, 
    {
      "op": "_div_scalar", 
      "name": "shufflenasoneshotfix0_hybridsequential0_shufflenetblock4_hardswish2__divscalar0", 
      "attrs": {"scalar": "6.0"}, 
      "inputs": [[127, 0, 0]]
    }, 
    {
      "op": "elemwise_mul", 
      "name": "shufflenasoneshotfix0_hybridsequential0_shufflenetblock4_hardswish2__mul0", 
      "inputs": [[125, 0, 0], [128, 0, 0]]
    }, 
    {
      "op": "null", 
      "name": "shufflenasoneshotfix0_hybridsequential0_shufflenetblock4_conv0_weight", 
      "attrs": {
        "__dtype__": "0", 
        "__lr_mult__": "1.0", 
        "__shape__": "(96, 64, 1, 1)", 
        "__storage_type__": "0", 
        "__wd_mult__": "1.0"
      }, 
      "inputs": []
    }, 
    {
      "op": "null", 
      "name": "shufflenasoneshotfix0_hybridsequential0_shufflenetblock4_batchnorm0_gamma", 
      "attrs": {
        "__dtype__": "0", 
        "__init__": "ones", 
        "__lr_mult__": "1.0", 
        "__shape__": "(96,)", 
        "__storage_type__": "0", 
        "__wd_mult__": "1.0"
      }, 
      "inputs": []
    }, 
    {
      "op": "null", 
      "name": "shufflenasoneshotfix0_hybridsequential0_shufflenetblock4_batchnorm0_beta", 
      "attrs": {
        "__dtype__": "0", 
        "__init__": "zeros", 
        "__lr_mult__": "1.0", 
        "__shape__": "(96,)", 
        "__storage_type__": "0", 
        "__wd_mult__": "1.0"
      }, 
      "inputs": []
    }, 
    {
      "op": "null", 
      "name": "shufflenasoneshotfix0_hybridsequential0_shufflenetblock4_batchnorm0_running_mean", 
      "attrs": {
        "__dtype__": "0", 
        "__init__": "zeros", 
        "__lr_mult__": "1.0", 
        "__shape__": "(96,)", 
        "__storage_type__": "0", 
        "__wd_mult__": "1.0"
      }, 
      "inputs": []
    }, 
    {
      "op": "null", 
      "name": "shufflenasoneshotfix0_hybridsequential0_shufflenetblock4_batchnorm0_running_var", 
      "attrs": {
        "__dtype__": "0", 
        "__init__": "ones", 
        "__lr_mult__": "1.0", 
        "__shape__": "(96,)", 
        "__storage_type__": "0", 
        "__wd_mult__": "1.0"
      }, 
      "inputs": []
    }, 
    {
      "op": "_sg_mkldnn_conv", 
      "name": "sg_mkldnn_conv_bn_17", 
      "attrs": {"with_bn": "true"}, 
      "inputs": [[113, 0, 0], [130, 0, 0], [131, 0, 0], [132, 0, 0], [133, 0, 1], [134, 0, 1]], 
      "subgraphs": [
        {
          "nodes": [
            {
              "op": "null", 
              "name": "shufflenasoneshotfix0_hybridsequential0_shufflenetblock3_concat0_output0", 
              "inputs": []
            }, 
            {
              "op": "null", 
              "name": "shufflenasoneshotfix0_hybridsequential0_shufflenetblock4_conv0_weight0", 
              "inputs": []
            }, 
            {
              "op": "Convolution", 
              "name": "shufflenasoneshotfix0_hybridsequential0_shufflenetblock4_conv0_fwd", 
              "attrs": {
                "dilate": "(1, 1)", 
                "kernel": "(1, 1)", 
                "layout": "NCHW", 
                "no_bias": "True", 
                "num_filter": "96", 
                "num_group": "1", 
                "pad": "(0, 0)", 
                "stride": "(1, 1)"
              }, 
              "inputs": [[0, 0, 0], [1, 0, 0]]
            }, 
            {
              "op": "null", 
              "name": "shufflenasoneshotfix0_hybridsequential0_shufflenetblock4_batchnorm0_gamma0", 
              "inputs": []
            }, 
            {
              "op": "null", 
              "name": "shufflenasoneshotfix0_hybridsequential0_shufflenetblock4_batchnorm0_beta0", 
              "inputs": []
            }, 
            {
              "op": "null", 
              "name": "shufflenasoneshotfix0_hybridsequential0_shufflenetblock4_batchnorm0_running_mean0", 
              "inputs": []
            }, 
            {
              "op": "null", 
              "name": "shufflenasoneshotfix0_hybridsequential0_shufflenetblock4_batchnorm0_running_var0", 
              "inputs": []
            }, 
            {
              "op": "BatchNorm", 
              "name": "shufflenasoneshotfix0_hybridsequential0_shufflenetblock4_batchnorm0_fwd", 
              "attrs": {
                "axis": "1", 
                "eps": "1e-05", 
                "fix_gamma": "False", 
                "momentum": "0.1", 
                "use_global_stats": "False"
              }, 
              "inputs": [[2, 0, 0], [3, 0, 0], [4, 0, 0], [5, 0, 0], [6, 0, 0]]
            }
          ], 
          "arg_nodes": [0, 1, 3, 4, 5, 6], 
          "node_row_ptr": [0, 1, 2, 3, 4, 5, 6, 7, 10], 
          "heads": [[7, 0, 0]]
        }
      ]
    }, 
    {
      "op": "_plus_scalar", 
      "name": "shufflenasoneshotfix0_hybridsequential0_shufflenetblock4_hardswish0__plusscalar0", 
      "attrs": {"scalar": "3"}, 
      "inputs": [[135, 0, 0]]
    }, 
    {
      "op": "clip", 
      "name": "shufflenasoneshotfix0_hybridsequential0_shufflenetblock4_hardswish0_hard_swish", 
      "attrs": {
        "a_max": "6", 
        "a_min": "0"
      }, 
      "inputs": [[136, 0, 0]]
    }, 
    {
      "op": "_div_scalar", 
      "name": "shufflenasoneshotfix0_hybridsequential0_shufflenetblock4_hardswish0__divscalar0", 
      "attrs": {"scalar": "6.0"}, 
      "inputs": [[137, 0, 0]]
    }, 
    {
      "op": "elemwise_mul", 
      "name": "shufflenasoneshotfix0_hybridsequential0_shufflenetblock4_hardswish0__mul0", 
      "inputs": [[135, 0, 0], [138, 0, 0]]
    }, 
    {
      "op": "null", 
      "name": "shufflenasoneshotfix0_hybridsequential0_shufflenetblock4_conv1_weight", 
      "attrs": {
        "__dtype__": "0", 
        "__lr_mult__": "1.0", 
        "__shape__": "(96, 1, 3, 3)", 
        "__storage_type__": "0", 
        "__wd_mult__": "1.0"
      }, 
      "inputs": []
    }, 
    {
      "op": "null", 
      "name": "shufflenasoneshotfix0_hybridsequential0_shufflenetblock4_batchnorm1_gamma", 
      "attrs": {
        "__dtype__": "0", 
        "__init__": "ones", 
        "__lr_mult__": "1.0", 
        "__shape__": "(96,)", 
        "__storage_type__": "0", 
        "__wd_mult__": "1.0"
      }, 
      "inputs": []
    }, 
    {
      "op": "null", 
      "name": "shufflenasoneshotfix0_hybridsequential0_shufflenetblock4_batchnorm1_beta", 
      "attrs": {
        "__dtype__": "0", 
        "__init__": "zeros", 
        "__lr_mult__": "1.0", 
        "__shape__": "(96,)", 
        "__storage_type__": "0", 
        "__wd_mult__": "1.0"
      }, 
      "inputs": []
    }, 
    {
      "op": "null", 
      "name": "shufflenasoneshotfix0_hybridsequential0_shufflenetblock4_batchnorm1_running_mean", 
      "attrs": {
        "__dtype__": "0", 
        "__init__": "zeros", 
        "__lr_mult__": "1.0", 
        "__shape__": "(96,)", 
        "__storage_type__": "0", 
        "__wd_mult__": "1.0"
      }, 
      "inputs": []
    }, 
    {
      "op": "null", 
      "name": "shufflenasoneshotfix0_hybridsequential0_shufflenetblock4_batchnorm1_running_var", 
      "attrs": {
        "__dtype__": "0", 
        "__init__": "ones", 
        "__lr_mult__": "1.0", 
        "__shape__": "(96,)", 
        "__storage_type__": "0", 
        "__wd_mult__": "1.0"
      }, 
      "inputs": []
    }, 
    {
      "op": "_sg_mkldnn_conv", 
      "name": "sg_mkldnn_conv_bn_18", 
      "attrs": {"with_bn": "true"}, 
      "inputs": [[139, 0, 0], [140, 0, 0], [141, 0, 0], [142, 0, 0], [143, 0, 1], [144, 0, 1]], 
      "subgraphs": [
        {
          "nodes": [
            {
              "op": "null", 
              "name": "shufflenasoneshotfix0_hybridsequential0_shufflenetblock4_hardswish0__mul0_output0", 
              "inputs": []
            }, 
            {
              "op": "null", 
              "name": "shufflenasoneshotfix0_hybridsequential0_shufflenetblock4_conv1_weight0", 
              "inputs": []
            }, 
            {
              "op": "Convolution", 
              "name": "shufflenasoneshotfix0_hybridsequential0_shufflenetblock4_conv1_fwd", 
              "attrs": {
                "dilate": "(1, 1)", 
                "kernel": "(3, 3)", 
                "layout": "NCHW", 
                "no_bias": "True", 
                "num_filter": "96", 
                "num_group": "96", 
                "pad": "(1, 1)", 
                "stride": "(2, 2)"
              }, 
              "inputs": [[0, 0, 0], [1, 0, 0]]
            }, 
            {
              "op": "null", 
              "name": "shufflenasoneshotfix0_hybridsequential0_shufflenetblock4_batchnorm1_gamma0", 
              "inputs": []
            }, 
            {
              "op": "null", 
              "name": "shufflenasoneshotfix0_hybridsequential0_shufflenetblock4_batchnorm1_beta0", 
              "inputs": []
            }, 
            {
              "op": "null", 
              "name": "shufflenasoneshotfix0_hybridsequential0_shufflenetblock4_batchnorm1_running_mean0", 
              "inputs": []
            }, 
            {
              "op": "null", 
              "name": "shufflenasoneshotfix0_hybridsequential0_shufflenetblock4_batchnorm1_running_var0", 
              "inputs": []
            }, 
            {
              "op": "BatchNorm", 
              "name": "shufflenasoneshotfix0_hybridsequential0_shufflenetblock4_batchnorm1_fwd", 
              "attrs": {
                "axis": "1", 
                "eps": "1e-05", 
                "fix_gamma": "False", 
                "momentum": "0.1", 
                "use_global_stats": "False"
              }, 
              "inputs": [[2, 0, 0], [3, 0, 0], [4, 0, 0], [5, 0, 0], [6, 0, 0]]
            }
          ], 
          "arg_nodes": [0, 1, 3, 4, 5, 6], 
          "node_row_ptr": [0, 1, 2, 3, 4, 5, 6, 7, 10], 
          "heads": [[7, 0, 0]]
        }
      ]
    }, 
    {
      "op": "null", 
      "name": "shufflenasoneshotfix0_hybridsequential0_shufflenetblock4_conv2_weight", 
      "attrs": {
        "__dtype__": "0", 
        "__lr_mult__": "1.0", 
        "__shape__": "(96, 96, 1, 1)", 
        "__storage_type__": "0", 
        "__wd_mult__": "1.0"
      }, 
      "inputs": []
    }, 
    {
      "op": "null", 
      "name": "shufflenasoneshotfix0_hybridsequential0_shufflenetblock4_batchnorm2_gamma", 
      "attrs": {
        "__dtype__": "0", 
        "__init__": "ones", 
        "__lr_mult__": "1.0", 
        "__shape__": "(96,)", 
        "__storage_type__": "0", 
        "__wd_mult__": "1.0"
      }, 
      "inputs": []
    }, 
    {
      "op": "null", 
      "name": "shufflenasoneshotfix0_hybridsequential0_shufflenetblock4_batchnorm2_beta", 
      "attrs": {
        "__dtype__": "0", 
        "__init__": "zeros", 
        "__lr_mult__": "1.0", 
        "__shape__": "(96,)", 
        "__storage_type__": "0", 
        "__wd_mult__": "1.0"
      }, 
      "inputs": []
    }, 
    {
      "op": "null", 
      "name": "shufflenasoneshotfix0_hybridsequential0_shufflenetblock4_batchnorm2_running_mean", 
      "attrs": {
        "__dtype__": "0", 
        "__init__": "zeros", 
        "__lr_mult__": "1.0", 
        "__shape__": "(96,)", 
        "__storage_type__": "0", 
        "__wd_mult__": "1.0"
      }, 
      "inputs": []
    }, 
    {
      "op": "null", 
      "name": "shufflenasoneshotfix0_hybridsequential0_shufflenetblock4_batchnorm2_running_var", 
      "attrs": {
        "__dtype__": "0", 
        "__init__": "ones", 
        "__lr_mult__": "1.0", 
        "__shape__": "(96,)", 
        "__storage_type__": "0", 
        "__wd_mult__": "1.0"
      }, 
      "inputs": []
    }, 
    {
      "op": "_sg_mkldnn_conv", 
      "name": "sg_mkldnn_conv_bn_19", 
      "attrs": {"with_bn": "true"}, 
      "inputs": [[145, 0, 0], [146, 0, 0], [147, 0, 0], [148, 0, 0], [149, 0, 1], [150, 0, 1]], 
      "subgraphs": [
        {
          "nodes": [
            {
              "op": "null", 
              "name": "sg_mkldnn_conv_bn_18_output0", 
              "inputs": []
            }, 
            {
              "op": "null", 
              "name": "shufflenasoneshotfix0_hybridsequential0_shufflenetblock4_conv2_weight0", 
              "inputs": []
            }, 
            {
              "op": "Convolution", 
              "name": "shufflenasoneshotfix0_hybridsequential0_shufflenetblock4_conv2_fwd", 
              "attrs": {
                "dilate": "(1, 1)", 
                "kernel": "(1, 1)", 
                "layout": "NCHW", 
                "no_bias": "True", 
                "num_filter": "96", 
                "num_group": "1", 
                "pad": "(0, 0)", 
                "stride": "(1, 1)"
              }, 
              "inputs": [[0, 0, 0], [1, 0, 0]]
            }, 
            {
              "op": "null", 
              "name": "shufflenasoneshotfix0_hybridsequential0_shufflenetblock4_batchnorm2_gamma0", 
              "inputs": []
            }, 
            {
              "op": "null", 
              "name": "shufflenasoneshotfix0_hybridsequential0_shufflenetblock4_batchnorm2_beta0", 
              "inputs": []
            }, 
            {
              "op": "null", 
              "name": "shufflenasoneshotfix0_hybridsequential0_shufflenetblock4_batchnorm2_running_mean0", 
              "inputs": []
            }, 
            {
              "op": "null", 
              "name": "shufflenasoneshotfix0_hybridsequential0_shufflenetblock4_batchnorm2_running_var0", 
              "inputs": []
            }, 
            {
              "op": "BatchNorm", 
              "name": "shufflenasoneshotfix0_hybridsequential0_shufflenetblock4_batchnorm2_fwd", 
              "attrs": {
                "axis": "1", 
                "eps": "1e-05", 
                "fix_gamma": "False", 
                "momentum": "0.1", 
                "use_global_stats": "False"
              }, 
              "inputs": [[2, 0, 0], [3, 0, 0], [4, 0, 0], [5, 0, 0], [6, 0, 0]]
            }
          ], 
          "arg_nodes": [0, 1, 3, 4, 5, 6], 
          "node_row_ptr": [0, 1, 2, 3, 4, 5, 6, 7, 10], 
          "heads": [[7, 0, 0]]
        }
      ]
    }, 
    {
      "op": "_plus_scalar", 
      "name": "shufflenasoneshotfix0_hybridsequential0_shufflenetblock4_hardswish1__plusscalar0", 
      "attrs": {"scalar": "3"}, 
      "inputs": [[151, 0, 0]]
    }, 
    {
      "op": "clip", 
      "name": "shufflenasoneshotfix0_hybridsequential0_shufflenetblock4_hardswish1_hard_swish", 
      "attrs": {
        "a_max": "6", 
        "a_min": "0"
      }, 
      "inputs": [[152, 0, 0]]
    }, 
    {
      "op": "_div_scalar", 
      "name": "shufflenasoneshotfix0_hybridsequential0_shufflenetblock4_hardswish1__divscalar0", 
      "attrs": {"scalar": "6.0"}, 
      "inputs": [[153, 0, 0]]
    }, 
    {
      "op": "elemwise_mul", 
      "name": "shufflenasoneshotfix0_hybridsequential0_shufflenetblock4_hardswish1__mul0", 
      "inputs": [[151, 0, 0], [154, 0, 0]]
    }, 
    {
      "op": "Concat", 
      "name": "shufflenasoneshotfix0_hybridsequential0_shufflenetblock4_concat0", 
      "attrs": {
        "dim": "1", 
        "num_args": "2"
      }, 
      "inputs": [[129, 0, 0], [155, 0, 0]]
    }, 
    {
      "op": "Reshape", 
      "name": "shufflenasoneshotfix0_hybridsequential0_shufflenetblock5_shufflechannels0_reshape0", 
      "attrs": {"shape": "(0, -4, 2, -1, -2)"}, 
      "inputs": [[156, 0, 0]]
    }, 
    {
      "op": "SwapAxis", 
      "name": "shufflenasoneshotfix0_hybridsequential0_shufflenetblock5_shufflechannels0_swapaxes0", 
      "attrs": {
        "dim1": "1", 
        "dim2": "2"
      }, 
      "inputs": [[157, 0, 0]]
    }, 
    {
      "op": "Reshape", 
      "name": "shufflenasoneshotfix0_hybridsequential0_shufflenetblock5_shufflechannels0_reshape1", 
      "attrs": {"shape": "(0, -3, -2)"}, 
      "inputs": [[158, 0, 0]]
    }, 
    {
      "op": "slice", 
      "name": "shufflenasoneshotfix0_hybridsequential0_shufflenetblock5_shufflechannels0_slice0", 
      "attrs": {
        "begin": "(None, None, None, None)", 
        "end": "(None, 80, None, None)"
      }, 
      "inputs": [[159, 0, 0]]
    }, 
    {
      "op": "slice", 
      "name": "shufflenasoneshotfix0_hybridsequential0_shufflenetblock5_shufflechannels0_slice1", 
      "attrs": {
        "begin": "(None, 80, None, None)", 
        "end": "(None, None, None, None)"
      }, 
      "inputs": [[159, 0, 0]]
    }, 
    {
      "op": "null", 
      "name": "shufflenasoneshotfix0_hybridsequential0_shufflenetblock5_conv0_weight", 
      "attrs": {
        "__dtype__": "0", 
        "__lr_mult__": "1.0", 
        "__shape__": "(128, 80, 1, 1)", 
        "__storage_type__": "0", 
        "__wd_mult__": "1.0"
      }, 
      "inputs": []
    }, 
    {
      "op": "null", 
      "name": "shufflenasoneshotfix0_hybridsequential0_shufflenetblock5_batchnorm0_gamma", 
      "attrs": {
        "__dtype__": "0", 
        "__init__": "ones", 
        "__lr_mult__": "1.0", 
        "__shape__": "(128,)", 
        "__storage_type__": "0", 
        "__wd_mult__": "1.0"
      }, 
      "inputs": []
    }, 
    {
      "op": "null", 
      "name": "shufflenasoneshotfix0_hybridsequential0_shufflenetblock5_batchnorm0_beta", 
      "attrs": {
        "__dtype__": "0", 
        "__init__": "zeros", 
        "__lr_mult__": "1.0", 
        "__shape__": "(128,)", 
        "__storage_type__": "0", 
        "__wd_mult__": "1.0"
      }, 
      "inputs": []
    }, 
    {
      "op": "null", 
      "name": "shufflenasoneshotfix0_hybridsequential0_shufflenetblock5_batchnorm0_running_mean", 
      "attrs": {
        "__dtype__": "0", 
        "__init__": "zeros", 
        "__lr_mult__": "1.0", 
        "__shape__": "(128,)", 
        "__storage_type__": "0", 
        "__wd_mult__": "1.0"
      }, 
      "inputs": []
    }, 
    {
      "op": "null", 
      "name": "shufflenasoneshotfix0_hybridsequential0_shufflenetblock5_batchnorm0_running_var", 
      "attrs": {
        "__dtype__": "0", 
        "__init__": "ones", 
        "__lr_mult__": "1.0", 
        "__shape__": "(128,)", 
        "__storage_type__": "0", 
        "__wd_mult__": "1.0"
      }, 
      "inputs": []
    }, 
    {
      "op": "_sg_mkldnn_conv", 
      "name": "sg_mkldnn_conv_bn_20", 
      "attrs": {"with_bn": "true"}, 
      "inputs": [[161, 0, 0], [162, 0, 0], [163, 0, 0], [164, 0, 0], [165, 0, 1], [166, 0, 1]], 
      "subgraphs": [
        {
          "nodes": [
            {
              "op": "null", 
              "name": "shufflenasoneshotfix0_hybridsequential0_shufflenetblock5_shufflechannels0_slice1_output0", 
              "inputs": []
            }, 
            {
              "op": "null", 
              "name": "shufflenasoneshotfix0_hybridsequential0_shufflenetblock5_conv0_weight0", 
              "inputs": []
            }, 
            {
              "op": "Convolution", 
              "name": "shufflenasoneshotfix0_hybridsequential0_shufflenetblock5_conv0_fwd", 
              "attrs": {
                "dilate": "(1, 1)", 
                "kernel": "(1, 1)", 
                "layout": "NCHW", 
                "no_bias": "True", 
                "num_filter": "128", 
                "num_group": "1", 
                "pad": "(0, 0)", 
                "stride": "(1, 1)"
              }, 
              "inputs": [[0, 0, 0], [1, 0, 0]]
            }, 
            {
              "op": "null", 
              "name": "shufflenasoneshotfix0_hybridsequential0_shufflenetblock5_batchnorm0_gamma0", 
              "inputs": []
            }, 
            {
              "op": "null", 
              "name": "shufflenasoneshotfix0_hybridsequential0_shufflenetblock5_batchnorm0_beta0", 
              "inputs": []
            }, 
            {
              "op": "null", 
              "name": "shufflenasoneshotfix0_hybridsequential0_shufflenetblock5_batchnorm0_running_mean0", 
              "inputs": []
            }, 
            {
              "op": "null", 
              "name": "shufflenasoneshotfix0_hybridsequential0_shufflenetblock5_batchnorm0_running_var0", 
              "inputs": []
            }, 
            {
              "op": "BatchNorm", 
              "name": "shufflenasoneshotfix0_hybridsequential0_shufflenetblock5_batchnorm0_fwd", 
              "attrs": {
                "axis": "1", 
                "eps": "1e-05", 
                "fix_gamma": "False", 
                "momentum": "0.1", 
                "use_global_stats": "False"
              }, 
              "inputs": [[2, 0, 0], [3, 0, 0], [4, 0, 0], [5, 0, 0], [6, 0, 0]]
            }
          ], 
          "arg_nodes": [0, 1, 3, 4, 5, 6], 
          "node_row_ptr": [0, 1, 2, 3, 4, 5, 6, 7, 10], 
          "heads": [[7, 0, 0]]
        }
      ]
    }, 
    {
      "op": "_plus_scalar", 
      "name": "shufflenasoneshotfix0_hybridsequential0_shufflenetblock5_hardswish0__plusscalar0", 
      "attrs": {"scalar": "3"}, 
      "inputs": [[167, 0, 0]]
    }, 
    {
      "op": "clip", 
      "name": "shufflenasoneshotfix0_hybridsequential0_shufflenetblock5_hardswish0_hard_swish", 
      "attrs": {
        "a_max": "6", 
        "a_min": "0"
      }, 
      "inputs": [[168, 0, 0]]
    }, 
    {
      "op": "_div_scalar", 
      "name": "shufflenasoneshotfix0_hybridsequential0_shufflenetblock5_hardswish0__divscalar0", 
      "attrs": {"scalar": "6.0"}, 
      "inputs": [[169, 0, 0]]
    }, 
    {
      "op": "elemwise_mul", 
      "name": "shufflenasoneshotfix0_hybridsequential0_shufflenetblock5_hardswish0__mul0", 
      "inputs": [[167, 0, 0], [170, 0, 0]]
    }, 
    {
      "op": "null", 
      "name": "shufflenasoneshotfix0_hybridsequential0_shufflenetblock5_conv1_weight", 
      "attrs": {
        "__dtype__": "0", 
        "__lr_mult__": "1.0", 
        "__shape__": "(128, 1, 3, 3)", 
        "__storage_type__": "0", 
        "__wd_mult__": "1.0"
      }, 
      "inputs": []
    }, 
    {
      "op": "null", 
      "name": "shufflenasoneshotfix0_hybridsequential0_shufflenetblock5_batchnorm1_gamma", 
      "attrs": {
        "__dtype__": "0", 
        "__init__": "ones", 
        "__lr_mult__": "1.0", 
        "__shape__": "(128,)", 
        "__storage_type__": "0", 
        "__wd_mult__": "1.0"
      }, 
      "inputs": []
    }, 
    {
      "op": "null", 
      "name": "shufflenasoneshotfix0_hybridsequential0_shufflenetblock5_batchnorm1_beta", 
      "attrs": {
        "__dtype__": "0", 
        "__init__": "zeros", 
        "__lr_mult__": "1.0", 
        "__shape__": "(128,)", 
        "__storage_type__": "0", 
        "__wd_mult__": "1.0"
      }, 
      "inputs": []
    }, 
    {
      "op": "null", 
      "name": "shufflenasoneshotfix0_hybridsequential0_shufflenetblock5_batchnorm1_running_mean", 
      "attrs": {
        "__dtype__": "0", 
        "__init__": "zeros", 
        "__lr_mult__": "1.0", 
        "__shape__": "(128,)", 
        "__storage_type__": "0", 
        "__wd_mult__": "1.0"
      }, 
      "inputs": []
    }, 
    {
      "op": "null", 
      "name": "shufflenasoneshotfix0_hybridsequential0_shufflenetblock5_batchnorm1_running_var", 
      "attrs": {
        "__dtype__": "0", 
        "__init__": "ones", 
        "__lr_mult__": "1.0", 
        "__shape__": "(128,)", 
        "__storage_type__": "0", 
        "__wd_mult__": "1.0"
      }, 
      "inputs": []
    }, 
    {
      "op": "_sg_mkldnn_conv", 
      "name": "sg_mkldnn_conv_bn_21", 
      "attrs": {"with_bn": "true"}, 
      "inputs": [[171, 0, 0], [172, 0, 0], [173, 0, 0], [174, 0, 0], [175, 0, 1], [176, 0, 1]], 
      "subgraphs": [
        {
          "nodes": [
            {
              "op": "null", 
              "name": "shufflenasoneshotfix0_hybridsequential0_shufflenetblock5_hardswish0__mul0_output0", 
              "inputs": []
            }, 
            {
              "op": "null", 
              "name": "shufflenasoneshotfix0_hybridsequential0_shufflenetblock5_conv1_weight0", 
              "inputs": []
            }, 
            {
              "op": "Convolution", 
              "name": "shufflenasoneshotfix0_hybridsequential0_shufflenetblock5_conv1_fwd", 
              "attrs": {
                "dilate": "(1, 1)", 
                "kernel": "(3, 3)", 
                "layout": "NCHW", 
                "no_bias": "True", 
                "num_filter": "128", 
                "num_group": "128", 
                "pad": "(1, 1)", 
                "stride": "(1, 1)"
              }, 
              "inputs": [[0, 0, 0], [1, 0, 0]]
            }, 
            {
              "op": "null", 
              "name": "shufflenasoneshotfix0_hybridsequential0_shufflenetblock5_batchnorm1_gamma0", 
              "inputs": []
            }, 
            {
              "op": "null", 
              "name": "shufflenasoneshotfix0_hybridsequential0_shufflenetblock5_batchnorm1_beta0", 
              "inputs": []
            }, 
            {
              "op": "null", 
              "name": "shufflenasoneshotfix0_hybridsequential0_shufflenetblock5_batchnorm1_running_mean0", 
              "inputs": []
            }, 
            {
              "op": "null", 
              "name": "shufflenasoneshotfix0_hybridsequential0_shufflenetblock5_batchnorm1_running_var0", 
              "inputs": []
            }, 
            {
              "op": "BatchNorm", 
              "name": "shufflenasoneshotfix0_hybridsequential0_shufflenetblock5_batchnorm1_fwd", 
              "attrs": {
                "axis": "1", 
                "eps": "1e-05", 
                "fix_gamma": "False", 
                "momentum": "0.1", 
                "use_global_stats": "False"
              }, 
              "inputs": [[2, 0, 0], [3, 0, 0], [4, 0, 0], [5, 0, 0], [6, 0, 0]]
            }
          ], 
          "arg_nodes": [0, 1, 3, 4, 5, 6], 
          "node_row_ptr": [0, 1, 2, 3, 4, 5, 6, 7, 10], 
          "heads": [[7, 0, 0]]
        }
      ]
    }, 
    {
      "op": "null", 
      "name": "shufflenasoneshotfix0_hybridsequential0_shufflenetblock5_conv2_weight", 
      "attrs": {
        "__dtype__": "0", 
        "__lr_mult__": "1.0", 
        "__shape__": "(80, 128, 1, 1)", 
        "__storage_type__": "0", 
        "__wd_mult__": "1.0"
      }, 
      "inputs": []
    }, 
    {
      "op": "null", 
      "name": "shufflenasoneshotfix0_hybridsequential0_shufflenetblock5_batchnorm2_gamma", 
      "attrs": {
        "__dtype__": "0", 
        "__init__": "ones", 
        "__lr_mult__": "1.0", 
        "__shape__": "(80,)", 
        "__storage_type__": "0", 
        "__wd_mult__": "1.0"
      }, 
      "inputs": []
    }, 
    {
      "op": "null", 
      "name": "shufflenasoneshotfix0_hybridsequential0_shufflenetblock5_batchnorm2_beta", 
      "attrs": {
        "__dtype__": "0", 
        "__init__": "zeros", 
        "__lr_mult__": "1.0", 
        "__shape__": "(80,)", 
        "__storage_type__": "0", 
        "__wd_mult__": "1.0"
      }, 
      "inputs": []
    }, 
    {
      "op": "null", 
      "name": "shufflenasoneshotfix0_hybridsequential0_shufflenetblock5_batchnorm2_running_mean", 
      "attrs": {
        "__dtype__": "0", 
        "__init__": "zeros", 
        "__lr_mult__": "1.0", 
        "__shape__": "(80,)", 
        "__storage_type__": "0", 
        "__wd_mult__": "1.0"
      }, 
      "inputs": []
    }, 
    {
      "op": "null", 
      "name": "shufflenasoneshotfix0_hybridsequential0_shufflenetblock5_batchnorm2_running_var", 
      "attrs": {
        "__dtype__": "0", 
        "__init__": "ones", 
        "__lr_mult__": "1.0", 
        "__shape__": "(80,)", 
        "__storage_type__": "0", 
        "__wd_mult__": "1.0"
      }, 
      "inputs": []
    }, 
    {
      "op": "_sg_mkldnn_conv", 
      "name": "sg_mkldnn_conv_bn_22", 
      "attrs": {"with_bn": "true"}, 
      "inputs": [[177, 0, 0], [178, 0, 0], [179, 0, 0], [180, 0, 0], [181, 0, 1], [182, 0, 1]], 
      "subgraphs": [
        {
          "nodes": [
            {
              "op": "null", 
              "name": "sg_mkldnn_conv_bn_21_output0", 
              "inputs": []
            }, 
            {
              "op": "null", 
              "name": "shufflenasoneshotfix0_hybridsequential0_shufflenetblock5_conv2_weight0", 
              "inputs": []
            }, 
            {
              "op": "Convolution", 
              "name": "shufflenasoneshotfix0_hybridsequential0_shufflenetblock5_conv2_fwd", 
              "attrs": {
                "dilate": "(1, 1)", 
                "kernel": "(1, 1)", 
                "layout": "NCHW", 
                "no_bias": "True", 
                "num_filter": "80", 
                "num_group": "1", 
                "pad": "(0, 0)", 
                "stride": "(1, 1)"
              }, 
              "inputs": [[0, 0, 0], [1, 0, 0]]
            }, 
            {
              "op": "null", 
              "name": "shufflenasoneshotfix0_hybridsequential0_shufflenetblock5_batchnorm2_gamma0", 
              "inputs": []
            }, 
            {
              "op": "null", 
              "name": "shufflenasoneshotfix0_hybridsequential0_shufflenetblock5_batchnorm2_beta0", 
              "inputs": []
            }, 
            {
              "op": "null", 
              "name": "shufflenasoneshotfix0_hybridsequential0_shufflenetblock5_batchnorm2_running_mean0", 
              "inputs": []
            }, 
            {
              "op": "null", 
              "name": "shufflenasoneshotfix0_hybridsequential0_shufflenetblock5_batchnorm2_running_var0", 
              "inputs": []
            }, 
            {
              "op": "BatchNorm", 
              "name": "shufflenasoneshotfix0_hybridsequential0_shufflenetblock5_batchnorm2_fwd", 
              "attrs": {
                "axis": "1", 
                "eps": "1e-05", 
                "fix_gamma": "False", 
                "momentum": "0.1", 
                "use_global_stats": "False"
              }, 
              "inputs": [[2, 0, 0], [3, 0, 0], [4, 0, 0], [5, 0, 0], [6, 0, 0]]
            }
          ], 
          "arg_nodes": [0, 1, 3, 4, 5, 6], 
          "node_row_ptr": [0, 1, 2, 3, 4, 5, 6, 7, 10], 
          "heads": [[7, 0, 0]]
        }
      ]
    }, 
    {
      "op": "_plus_scalar", 
      "name": "shufflenasoneshotfix0_hybridsequential0_shufflenetblock5_hardswish1__plusscalar0", 
      "attrs": {"scalar": "3"}, 
      "inputs": [[183, 0, 0]]
    }, 
    {
      "op": "clip", 
      "name": "shufflenasoneshotfix0_hybridsequential0_shufflenetblock5_hardswish1_hard_swish", 
      "attrs": {
        "a_max": "6", 
        "a_min": "0"
      }, 
      "inputs": [[184, 0, 0]]
    }, 
    {
      "op": "_div_scalar", 
      "name": "shufflenasoneshotfix0_hybridsequential0_shufflenetblock5_hardswish1__divscalar0", 
      "attrs": {"scalar": "6.0"}, 
      "inputs": [[185, 0, 0]]
    }, 
    {
      "op": "elemwise_mul", 
      "name": "shufflenasoneshotfix0_hybridsequential0_shufflenetblock5_hardswish1__mul0", 
      "inputs": [[183, 0, 0], [186, 0, 0]]
    }, 
    {
      "op": "Concat", 
      "name": "shufflenasoneshotfix0_hybridsequential0_shufflenetblock5_concat0", 
      "attrs": {
        "dim": "1", 
        "num_args": "2"
      }, 
      "inputs": [[160, 0, 0], [187, 0, 0]]
    }, 
    {
      "op": "Reshape", 
      "name": "shufflenasoneshotfix0_hybridsequential0_shufflenetblock6_shufflechannels0_reshape0", 
      "attrs": {"shape": "(0, -4, 2, -1, -2)"}, 
      "inputs": [[188, 0, 0]]
    }, 
    {
      "op": "SwapAxis", 
      "name": "shufflenasoneshotfix0_hybridsequential0_shufflenetblock6_shufflechannels0_swapaxes0", 
      "attrs": {
        "dim1": "1", 
        "dim2": "2"
      }, 
      "inputs": [[189, 0, 0]]
    }, 
    {
      "op": "Reshape", 
      "name": "shufflenasoneshotfix0_hybridsequential0_shufflenetblock6_shufflechannels0_reshape1", 
      "attrs": {"shape": "(0, -3, -2)"}, 
      "inputs": [[190, 0, 0]]
    }, 
    {
      "op": "slice", 
      "name": "shufflenasoneshotfix0_hybridsequential0_shufflenetblock6_shufflechannels0_slice0", 
      "attrs": {
        "begin": "(None, None, None, None)", 
        "end": "(None, 80, None, None)"
      }, 
      "inputs": [[191, 0, 0]]
    }, 
    {
      "op": "slice", 
      "name": "shufflenasoneshotfix0_hybridsequential0_shufflenetblock6_shufflechannels0_slice1", 
      "attrs": {
        "begin": "(None, 80, None, None)", 
        "end": "(None, None, None, None)"
      }, 
      "inputs": [[191, 0, 0]]
    }, 
    {
      "op": "null", 
      "name": "shufflenasoneshotfix0_hybridsequential0_shufflenetblock6_conv0_weight", 
      "attrs": {
        "__dtype__": "0", 
        "__lr_mult__": "1.0", 
        "__shape__": "(64, 80, 1, 1)", 
        "__storage_type__": "0", 
        "__wd_mult__": "1.0"
      }, 
      "inputs": []
    }, 
    {
      "op": "null", 
      "name": "shufflenasoneshotfix0_hybridsequential0_shufflenetblock6_batchnorm0_gamma", 
      "attrs": {
        "__dtype__": "0", 
        "__init__": "ones", 
        "__lr_mult__": "1.0", 
        "__shape__": "(64,)", 
        "__storage_type__": "0", 
        "__wd_mult__": "1.0"
      }, 
      "inputs": []
    }, 
    {
      "op": "null", 
      "name": "shufflenasoneshotfix0_hybridsequential0_shufflenetblock6_batchnorm0_beta", 
      "attrs": {
        "__dtype__": "0", 
        "__init__": "zeros", 
        "__lr_mult__": "1.0", 
        "__shape__": "(64,)", 
        "__storage_type__": "0", 
        "__wd_mult__": "1.0"
      }, 
      "inputs": []
    }, 
    {
      "op": "null", 
      "name": "shufflenasoneshotfix0_hybridsequential0_shufflenetblock6_batchnorm0_running_mean", 
      "attrs": {
        "__dtype__": "0", 
        "__init__": "zeros", 
        "__lr_mult__": "1.0", 
        "__shape__": "(64,)", 
        "__storage_type__": "0", 
        "__wd_mult__": "1.0"
      }, 
      "inputs": []
    }, 
    {
      "op": "null", 
      "name": "shufflenasoneshotfix0_hybridsequential0_shufflenetblock6_batchnorm0_running_var", 
      "attrs": {
        "__dtype__": "0", 
        "__init__": "ones", 
        "__lr_mult__": "1.0", 
        "__shape__": "(64,)", 
        "__storage_type__": "0", 
        "__wd_mult__": "1.0"
      }, 
      "inputs": []
    }, 
    {
      "op": "_sg_mkldnn_conv", 
      "name": "sg_mkldnn_conv_bn_23", 
      "attrs": {"with_bn": "true"}, 
      "inputs": [[193, 0, 0], [194, 0, 0], [195, 0, 0], [196, 0, 0], [197, 0, 1], [198, 0, 1]], 
      "subgraphs": [
        {
          "nodes": [
            {
              "op": "null", 
              "name": "shufflenasoneshotfix0_hybridsequential0_shufflenetblock6_shufflechannels0_slice1_output0", 
              "inputs": []
            }, 
            {
              "op": "null", 
              "name": "shufflenasoneshotfix0_hybridsequential0_shufflenetblock6_conv0_weight0", 
              "inputs": []
            }, 
            {
              "op": "Convolution", 
              "name": "shufflenasoneshotfix0_hybridsequential0_shufflenetblock6_conv0_fwd", 
              "attrs": {
                "dilate": "(1, 1)", 
                "kernel": "(1, 1)", 
                "layout": "NCHW", 
                "no_bias": "True", 
                "num_filter": "64", 
                "num_group": "1", 
                "pad": "(0, 0)", 
                "stride": "(1, 1)"
              }, 
              "inputs": [[0, 0, 0], [1, 0, 0]]
            }, 
            {
              "op": "null", 
              "name": "shufflenasoneshotfix0_hybridsequential0_shufflenetblock6_batchnorm0_gamma0", 
              "inputs": []
            }, 
            {
              "op": "null", 
              "name": "shufflenasoneshotfix0_hybridsequential0_shufflenetblock6_batchnorm0_beta0", 
              "inputs": []
            }, 
            {
              "op": "null", 
              "name": "shufflenasoneshotfix0_hybridsequential0_shufflenetblock6_batchnorm0_running_mean0", 
              "inputs": []
            }, 
            {
              "op": "null", 
              "name": "shufflenasoneshotfix0_hybridsequential0_shufflenetblock6_batchnorm0_running_var0", 
              "inputs": []
            }, 
            {
              "op": "BatchNorm", 
              "name": "shufflenasoneshotfix0_hybridsequential0_shufflenetblock6_batchnorm0_fwd", 
              "attrs": {
                "axis": "1", 
                "eps": "1e-05", 
                "fix_gamma": "False", 
                "momentum": "0.1", 
                "use_global_stats": "False"
              }, 
              "inputs": [[2, 0, 0], [3, 0, 0], [4, 0, 0], [5, 0, 0], [6, 0, 0]]
            }
          ], 
          "arg_nodes": [0, 1, 3, 4, 5, 6], 
          "node_row_ptr": [0, 1, 2, 3, 4, 5, 6, 7, 10], 
          "heads": [[7, 0, 0]]
        }
      ]
    }, 
    {
      "op": "_plus_scalar", 
      "name": "shufflenasoneshotfix0_hybridsequential0_shufflenetblock6_hardswish0__plusscalar0", 
      "attrs": {"scalar": "3"}, 
      "inputs": [[199, 0, 0]]
    }, 
    {
      "op": "clip", 
      "name": "shufflenasoneshotfix0_hybridsequential0_shufflenetblock6_hardswish0_hard_swish", 
      "attrs": {
        "a_max": "6", 
        "a_min": "0"
      }, 
      "inputs": [[200, 0, 0]]
    }, 
    {
      "op": "_div_scalar", 
      "name": "shufflenasoneshotfix0_hybridsequential0_shufflenetblock6_hardswish0__divscalar0", 
      "attrs": {"scalar": "6.0"}, 
      "inputs": [[201, 0, 0]]
    }, 
    {
      "op": "elemwise_mul", 
      "name": "shufflenasoneshotfix0_hybridsequential0_shufflenetblock6_hardswish0__mul0", 
      "inputs": [[199, 0, 0], [202, 0, 0]]
    }, 
    {
      "op": "null", 
      "name": "shufflenasoneshotfix0_hybridsequential0_shufflenetblock6_conv1_weight", 
      "attrs": {
        "__dtype__": "0", 
        "__lr_mult__": "1.0", 
        "__shape__": "(64, 1, 5, 5)", 
        "__storage_type__": "0", 
        "__wd_mult__": "1.0"
      }, 
      "inputs": []
    }, 
    {
      "op": "null", 
      "name": "shufflenasoneshotfix0_hybridsequential0_shufflenetblock6_batchnorm1_gamma", 
      "attrs": {
        "__dtype__": "0", 
        "__init__": "ones", 
        "__lr_mult__": "1.0", 
        "__shape__": "(64,)", 
        "__storage_type__": "0", 
        "__wd_mult__": "1.0"
      }, 
      "inputs": []
    }, 
    {
      "op": "null", 
      "name": "shufflenasoneshotfix0_hybridsequential0_shufflenetblock6_batchnorm1_beta", 
      "attrs": {
        "__dtype__": "0", 
        "__init__": "zeros", 
        "__lr_mult__": "1.0", 
        "__shape__": "(64,)", 
        "__storage_type__": "0", 
        "__wd_mult__": "1.0"
      }, 
      "inputs": []
    }, 
    {
      "op": "null", 
      "name": "shufflenasoneshotfix0_hybridsequential0_shufflenetblock6_batchnorm1_running_mean", 
      "attrs": {
        "__dtype__": "0", 
        "__init__": "zeros", 
        "__lr_mult__": "1.0", 
        "__shape__": "(64,)", 
        "__storage_type__": "0", 
        "__wd_mult__": "1.0"
      }, 
      "inputs": []
    }, 
    {
      "op": "null", 
      "name": "shufflenasoneshotfix0_hybridsequential0_shufflenetblock6_batchnorm1_running_var", 
      "attrs": {
        "__dtype__": "0", 
        "__init__": "ones", 
        "__lr_mult__": "1.0", 
        "__shape__": "(64,)", 
        "__storage_type__": "0", 
        "__wd_mult__": "1.0"
      }, 
      "inputs": []
    }, 
    {
      "op": "_sg_mkldnn_conv", 
      "name": "sg_mkldnn_conv_bn_24", 
      "attrs": {"with_bn": "true"}, 
      "inputs": [[203, 0, 0], [204, 0, 0], [205, 0, 0], [206, 0, 0], [207, 0, 1], [208, 0, 1]], 
      "subgraphs": [
        {
          "nodes": [
            {
              "op": "null", 
              "name": "shufflenasoneshotfix0_hybridsequential0_shufflenetblock6_hardswish0__mul0_output0", 
              "inputs": []
            }, 
            {
              "op": "null", 
              "name": "shufflenasoneshotfix0_hybridsequential0_shufflenetblock6_conv1_weight0", 
              "inputs": []
            }, 
            {
              "op": "Convolution", 
              "name": "shufflenasoneshotfix0_hybridsequential0_shufflenetblock6_conv1_fwd", 
              "attrs": {
                "dilate": "(1, 1)", 
                "kernel": "(5, 5)", 
                "layout": "NCHW", 
                "no_bias": "True", 
                "num_filter": "64", 
                "num_group": "64", 
                "pad": "(2, 2)", 
                "stride": "(1, 1)"
              }, 
              "inputs": [[0, 0, 0], [1, 0, 0]]
            }, 
            {
              "op": "null", 
              "name": "shufflenasoneshotfix0_hybridsequential0_shufflenetblock6_batchnorm1_gamma0", 
              "inputs": []
            }, 
            {
              "op": "null", 
              "name": "shufflenasoneshotfix0_hybridsequential0_shufflenetblock6_batchnorm1_beta0", 
              "inputs": []
            }, 
            {
              "op": "null", 
              "name": "shufflenasoneshotfix0_hybridsequential0_shufflenetblock6_batchnorm1_running_mean0", 
              "inputs": []
            }, 
            {
              "op": "null", 
              "name": "shufflenasoneshotfix0_hybridsequential0_shufflenetblock6_batchnorm1_running_var0", 
              "inputs": []
            }, 
            {
              "op": "BatchNorm", 
              "name": "shufflenasoneshotfix0_hybridsequential0_shufflenetblock6_batchnorm1_fwd", 
              "attrs": {
                "axis": "1", 
                "eps": "1e-05", 
                "fix_gamma": "False", 
                "momentum": "0.1", 
                "use_global_stats": "False"
              }, 
              "inputs": [[2, 0, 0], [3, 0, 0], [4, 0, 0], [5, 0, 0], [6, 0, 0]]
            }
          ], 
          "arg_nodes": [0, 1, 3, 4, 5, 6], 
          "node_row_ptr": [0, 1, 2, 3, 4, 5, 6, 7, 10], 
          "heads": [[7, 0, 0]]
        }
      ]
    }, 
    {
      "op": "null", 
      "name": "shufflenasoneshotfix0_hybridsequential0_shufflenetblock6_conv2_weight", 
      "attrs": {
        "__dtype__": "0", 
        "__lr_mult__": "1.0", 
        "__shape__": "(80, 64, 1, 1)", 
        "__storage_type__": "0", 
        "__wd_mult__": "1.0"
      }, 
      "inputs": []
    }, 
    {
      "op": "null", 
      "name": "shufflenasoneshotfix0_hybridsequential0_shufflenetblock6_batchnorm2_gamma", 
      "attrs": {
        "__dtype__": "0", 
        "__init__": "ones", 
        "__lr_mult__": "1.0", 
        "__shape__": "(80,)", 
        "__storage_type__": "0", 
        "__wd_mult__": "1.0"
      }, 
      "inputs": []
    }, 
    {
      "op": "null", 
      "name": "shufflenasoneshotfix0_hybridsequential0_shufflenetblock6_batchnorm2_beta", 
      "attrs": {
        "__dtype__": "0", 
        "__init__": "zeros", 
        "__lr_mult__": "1.0", 
        "__shape__": "(80,)", 
        "__storage_type__": "0", 
        "__wd_mult__": "1.0"
      }, 
      "inputs": []
    }, 
    {
      "op": "null", 
      "name": "shufflenasoneshotfix0_hybridsequential0_shufflenetblock6_batchnorm2_running_mean", 
      "attrs": {
        "__dtype__": "0", 
        "__init__": "zeros", 
        "__lr_mult__": "1.0", 
        "__shape__": "(80,)", 
        "__storage_type__": "0", 
        "__wd_mult__": "1.0"
      }, 
      "inputs": []
    }, 
    {
      "op": "null", 
      "name": "shufflenasoneshotfix0_hybridsequential0_shufflenetblock6_batchnorm2_running_var", 
      "attrs": {
        "__dtype__": "0", 
        "__init__": "ones", 
        "__lr_mult__": "1.0", 
        "__shape__": "(80,)", 
        "__storage_type__": "0", 
        "__wd_mult__": "1.0"
      }, 
      "inputs": []
    }, 
    {
      "op": "_sg_mkldnn_conv", 
      "name": "sg_mkldnn_conv_bn_25", 
      "attrs": {"with_bn": "true"}, 
      "inputs": [[209, 0, 0], [210, 0, 0], [211, 0, 0], [212, 0, 0], [213, 0, 1], [214, 0, 1]], 
      "subgraphs": [
        {
          "nodes": [
            {
              "op": "null", 
              "name": "sg_mkldnn_conv_bn_24_output0", 
              "inputs": []
            }, 
            {
              "op": "null", 
              "name": "shufflenasoneshotfix0_hybridsequential0_shufflenetblock6_conv2_weight0", 
              "inputs": []
            }, 
            {
              "op": "Convolution", 
              "name": "shufflenasoneshotfix0_hybridsequential0_shufflenetblock6_conv2_fwd", 
              "attrs": {
                "dilate": "(1, 1)", 
                "kernel": "(1, 1)", 
                "layout": "NCHW", 
                "no_bias": "True", 
                "num_filter": "80", 
                "num_group": "1", 
                "pad": "(0, 0)", 
                "stride": "(1, 1)"
              }, 
              "inputs": [[0, 0, 0], [1, 0, 0]]
            }, 
            {
              "op": "null", 
              "name": "shufflenasoneshotfix0_hybridsequential0_shufflenetblock6_batchnorm2_gamma0", 
              "inputs": []
            }, 
            {
              "op": "null", 
              "name": "shufflenasoneshotfix0_hybridsequential0_shufflenetblock6_batchnorm2_beta0", 
              "inputs": []
            }, 
            {
              "op": "null", 
              "name": "shufflenasoneshotfix0_hybridsequential0_shufflenetblock6_batchnorm2_running_mean0", 
              "inputs": []
            }, 
            {
              "op": "null", 
              "name": "shufflenasoneshotfix0_hybridsequential0_shufflenetblock6_batchnorm2_running_var0", 
              "inputs": []
            }, 
            {
              "op": "BatchNorm", 
              "name": "shufflenasoneshotfix0_hybridsequential0_shufflenetblock6_batchnorm2_fwd", 
              "attrs": {
                "axis": "1", 
                "eps": "1e-05", 
                "fix_gamma": "False", 
                "momentum": "0.1", 
                "use_global_stats": "False"
              }, 
              "inputs": [[2, 0, 0], [3, 0, 0], [4, 0, 0], [5, 0, 0], [6, 0, 0]]
            }
          ], 
          "arg_nodes": [0, 1, 3, 4, 5, 6], 
          "node_row_ptr": [0, 1, 2, 3, 4, 5, 6, 7, 10], 
          "heads": [[7, 0, 0]]
        }
      ]
    }, 
    {
      "op": "_plus_scalar", 
      "name": "shufflenasoneshotfix0_hybridsequential0_shufflenetblock6_hardswish1__plusscalar0", 
      "attrs": {"scalar": "3"}, 
      "inputs": [[215, 0, 0]]
    }, 
    {
      "op": "clip", 
      "name": "shufflenasoneshotfix0_hybridsequential0_shufflenetblock6_hardswish1_hard_swish", 
      "attrs": {
        "a_max": "6", 
        "a_min": "0"
      }, 
      "inputs": [[216, 0, 0]]
    }, 
    {
      "op": "_div_scalar", 
      "name": "shufflenasoneshotfix0_hybridsequential0_shufflenetblock6_hardswish1__divscalar0", 
      "attrs": {"scalar": "6.0"}, 
      "inputs": [[217, 0, 0]]
    }, 
    {
      "op": "elemwise_mul", 
      "name": "shufflenasoneshotfix0_hybridsequential0_shufflenetblock6_hardswish1__mul0", 
      "inputs": [[215, 0, 0], [218, 0, 0]]
    }, 
    {
      "op": "Concat", 
      "name": "shufflenasoneshotfix0_hybridsequential0_shufflenetblock6_concat0", 
      "attrs": {
        "dim": "1", 
        "num_args": "2"
      }, 
      "inputs": [[192, 0, 0], [219, 0, 0]]
    }, 
    {
      "op": "Reshape", 
      "name": "shufflenasoneshotfix0_hybridsequential0_shufflenetblock7_shufflechannels0_reshape0", 
      "attrs": {"shape": "(0, -4, 2, -1, -2)"}, 
      "inputs": [[220, 0, 0]]
    }, 
    {
      "op": "SwapAxis", 
      "name": "shufflenasoneshotfix0_hybridsequential0_shufflenetblock7_shufflechannels0_swapaxes0", 
      "attrs": {
        "dim1": "1", 
        "dim2": "2"
      }, 
      "inputs": [[221, 0, 0]]
    }, 
    {
      "op": "Reshape", 
      "name": "shufflenasoneshotfix0_hybridsequential0_shufflenetblock7_shufflechannels0_reshape1", 
      "attrs": {"shape": "(0, -3, -2)"}, 
      "inputs": [[222, 0, 0]]
    }, 
    {
      "op": "slice", 
      "name": "shufflenasoneshotfix0_hybridsequential0_shufflenetblock7_shufflechannels0_slice0", 
      "attrs": {
        "begin": "(None, None, None, None)", 
        "end": "(None, 80, None, None)"
      }, 
      "inputs": [[223, 0, 0]]
    }, 
    {
      "op": "slice", 
      "name": "shufflenasoneshotfix0_hybridsequential0_shufflenetblock7_shufflechannels0_slice1", 
      "attrs": {
        "begin": "(None, 80, None, None)", 
        "end": "(None, None, None, None)"
      }, 
      "inputs": [[223, 0, 0]]
    }, 
    {
      "op": "null", 
      "name": "shufflenasoneshotfix0_hybridsequential0_shufflenetblock7_conv0_weight", 
      "attrs": {
        "__dtype__": "0", 
        "__lr_mult__": "1.0", 
        "__shape__": "(80, 80, 1, 1)", 
        "__storage_type__": "0", 
        "__wd_mult__": "1.0"
      }, 
      "inputs": []
    }, 
    {
      "op": "null", 
      "name": "shufflenasoneshotfix0_hybridsequential0_shufflenetblock7_batchnorm0_gamma", 
      "attrs": {
        "__dtype__": "0", 
        "__init__": "ones", 
        "__lr_mult__": "1.0", 
        "__shape__": "(80,)", 
        "__storage_type__": "0", 
        "__wd_mult__": "1.0"
      }, 
      "inputs": []
    }, 
    {
      "op": "null", 
      "name": "shufflenasoneshotfix0_hybridsequential0_shufflenetblock7_batchnorm0_beta", 
      "attrs": {
        "__dtype__": "0", 
        "__init__": "zeros", 
        "__lr_mult__": "1.0", 
        "__shape__": "(80,)", 
        "__storage_type__": "0", 
        "__wd_mult__": "1.0"
      }, 
      "inputs": []
    }, 
    {
      "op": "null", 
      "name": "shufflenasoneshotfix0_hybridsequential0_shufflenetblock7_batchnorm0_running_mean", 
      "attrs": {
        "__dtype__": "0", 
        "__init__": "zeros", 
        "__lr_mult__": "1.0", 
        "__shape__": "(80,)", 
        "__storage_type__": "0", 
        "__wd_mult__": "1.0"
      }, 
      "inputs": []
    }, 
    {
      "op": "null", 
      "name": "shufflenasoneshotfix0_hybridsequential0_shufflenetblock7_batchnorm0_running_var", 
      "attrs": {
        "__dtype__": "0", 
        "__init__": "ones", 
        "__lr_mult__": "1.0", 
        "__shape__": "(80,)", 
        "__storage_type__": "0", 
        "__wd_mult__": "1.0"
      }, 
      "inputs": []
    }, 
    {
      "op": "_sg_mkldnn_conv", 
      "name": "sg_mkldnn_conv_bn_26", 
      "attrs": {"with_bn": "true"}, 
      "inputs": [[225, 0, 0], [226, 0, 0], [227, 0, 0], [228, 0, 0], [229, 0, 1], [230, 0, 1]], 
      "subgraphs": [
        {
          "nodes": [
            {
              "op": "null", 
              "name": "shufflenasoneshotfix0_hybridsequential0_shufflenetblock7_shufflechannels0_slice1_output0", 
              "inputs": []
            }, 
            {
              "op": "null", 
              "name": "shufflenasoneshotfix0_hybridsequential0_shufflenetblock7_conv0_weight0", 
              "inputs": []
            }, 
            {
              "op": "Convolution", 
              "name": "shufflenasoneshotfix0_hybridsequential0_shufflenetblock7_conv0_fwd", 
              "attrs": {
                "dilate": "(1, 1)", 
                "kernel": "(1, 1)", 
                "layout": "NCHW", 
                "no_bias": "True", 
                "num_filter": "80", 
                "num_group": "1", 
                "pad": "(0, 0)", 
                "stride": "(1, 1)"
              }, 
              "inputs": [[0, 0, 0], [1, 0, 0]]
            }, 
            {
              "op": "null", 
              "name": "shufflenasoneshotfix0_hybridsequential0_shufflenetblock7_batchnorm0_gamma0", 
              "inputs": []
            }, 
            {
              "op": "null", 
              "name": "shufflenasoneshotfix0_hybridsequential0_shufflenetblock7_batchnorm0_beta0", 
              "inputs": []
            }, 
            {
              "op": "null", 
              "name": "shufflenasoneshotfix0_hybridsequential0_shufflenetblock7_batchnorm0_running_mean0", 
              "inputs": []
            }, 
            {
              "op": "null", 
              "name": "shufflenasoneshotfix0_hybridsequential0_shufflenetblock7_batchnorm0_running_var0", 
              "inputs": []
            }, 
            {
              "op": "BatchNorm", 
              "name": "shufflenasoneshotfix0_hybridsequential0_shufflenetblock7_batchnorm0_fwd", 
              "attrs": {
                "axis": "1", 
                "eps": "1e-05", 
                "fix_gamma": "False", 
                "momentum": "0.1", 
                "use_global_stats": "False"
              }, 
              "inputs": [[2, 0, 0], [3, 0, 0], [4, 0, 0], [5, 0, 0], [6, 0, 0]]
            }
          ], 
          "arg_nodes": [0, 1, 3, 4, 5, 6], 
          "node_row_ptr": [0, 1, 2, 3, 4, 5, 6, 7, 10], 
          "heads": [[7, 0, 0]]
        }
      ]
    }, 
    {
      "op": "_plus_scalar", 
      "name": "shufflenasoneshotfix0_hybridsequential0_shufflenetblock7_hardswish0__plusscalar0", 
      "attrs": {"scalar": "3"}, 
      "inputs": [[231, 0, 0]]
    }, 
    {
      "op": "clip", 
      "name": "shufflenasoneshotfix0_hybridsequential0_shufflenetblock7_hardswish0_hard_swish", 
      "attrs": {
        "a_max": "6", 
        "a_min": "0"
      }, 
      "inputs": [[232, 0, 0]]
    }, 
    {
      "op": "_div_scalar", 
      "name": "shufflenasoneshotfix0_hybridsequential0_shufflenetblock7_hardswish0__divscalar0", 
      "attrs": {"scalar": "6.0"}, 
      "inputs": [[233, 0, 0]]
    }, 
    {
      "op": "elemwise_mul", 
      "name": "shufflenasoneshotfix0_hybridsequential0_shufflenetblock7_hardswish0__mul0", 
      "inputs": [[231, 0, 0], [234, 0, 0]]
    }, 
    {
      "op": "null", 
      "name": "shufflenasoneshotfix0_hybridsequential0_shufflenetblock7_conv1_weight", 
      "attrs": {
        "__dtype__": "0", 
        "__lr_mult__": "1.0", 
        "__shape__": "(80, 1, 3, 3)", 
        "__storage_type__": "0", 
        "__wd_mult__": "1.0"
      }, 
      "inputs": []
    }, 
    {
      "op": "null", 
      "name": "shufflenasoneshotfix0_hybridsequential0_shufflenetblock7_batchnorm1_gamma", 
      "attrs": {
        "__dtype__": "0", 
        "__init__": "ones", 
        "__lr_mult__": "1.0", 
        "__shape__": "(80,)", 
        "__storage_type__": "0", 
        "__wd_mult__": "1.0"
      }, 
      "inputs": []
    }, 
    {
      "op": "null", 
      "name": "shufflenasoneshotfix0_hybridsequential0_shufflenetblock7_batchnorm1_beta", 
      "attrs": {
        "__dtype__": "0", 
        "__init__": "zeros", 
        "__lr_mult__": "1.0", 
        "__shape__": "(80,)", 
        "__storage_type__": "0", 
        "__wd_mult__": "1.0"
      }, 
      "inputs": []
    }, 
    {
      "op": "null", 
      "name": "shufflenasoneshotfix0_hybridsequential0_shufflenetblock7_batchnorm1_running_mean", 
      "attrs": {
        "__dtype__": "0", 
        "__init__": "zeros", 
        "__lr_mult__": "1.0", 
        "__shape__": "(80,)", 
        "__storage_type__": "0", 
        "__wd_mult__": "1.0"
      }, 
      "inputs": []
    }, 
    {
      "op": "null", 
      "name": "shufflenasoneshotfix0_hybridsequential0_shufflenetblock7_batchnorm1_running_var", 
      "attrs": {
        "__dtype__": "0", 
        "__init__": "ones", 
        "__lr_mult__": "1.0", 
        "__shape__": "(80,)", 
        "__storage_type__": "0", 
        "__wd_mult__": "1.0"
      }, 
      "inputs": []
    }, 
    {
      "op": "_sg_mkldnn_conv", 
      "name": "sg_mkldnn_conv_bn_27", 
      "attrs": {"with_bn": "true"}, 
      "inputs": [[235, 0, 0], [236, 0, 0], [237, 0, 0], [238, 0, 0], [239, 0, 1], [240, 0, 1]], 
      "subgraphs": [
        {
          "nodes": [
            {
              "op": "null", 
              "name": "shufflenasoneshotfix0_hybridsequential0_shufflenetblock7_hardswish0__mul0_output0", 
              "inputs": []
            }, 
            {
              "op": "null", 
              "name": "shufflenasoneshotfix0_hybridsequential0_shufflenetblock7_conv1_weight0", 
              "inputs": []
            }, 
            {
              "op": "Convolution", 
              "name": "shufflenasoneshotfix0_hybridsequential0_shufflenetblock7_conv1_fwd", 
              "attrs": {
                "dilate": "(1, 1)", 
                "kernel": "(3, 3)", 
                "layout": "NCHW", 
                "no_bias": "True", 
                "num_filter": "80", 
                "num_group": "80", 
                "pad": "(1, 1)", 
                "stride": "(1, 1)"
              }, 
              "inputs": [[0, 0, 0], [1, 0, 0]]
            }, 
            {
              "op": "null", 
              "name": "shufflenasoneshotfix0_hybridsequential0_shufflenetblock7_batchnorm1_gamma0", 
              "inputs": []
            }, 
            {
              "op": "null", 
              "name": "shufflenasoneshotfix0_hybridsequential0_shufflenetblock7_batchnorm1_beta0", 
              "inputs": []
            }, 
            {
              "op": "null", 
              "name": "shufflenasoneshotfix0_hybridsequential0_shufflenetblock7_batchnorm1_running_mean0", 
              "inputs": []
            }, 
            {
              "op": "null", 
              "name": "shufflenasoneshotfix0_hybridsequential0_shufflenetblock7_batchnorm1_running_var0", 
              "inputs": []
            }, 
            {
              "op": "BatchNorm", 
              "name": "shufflenasoneshotfix0_hybridsequential0_shufflenetblock7_batchnorm1_fwd", 
              "attrs": {
                "axis": "1", 
                "eps": "1e-05", 
                "fix_gamma": "False", 
                "momentum": "0.1", 
                "use_global_stats": "False"
              }, 
              "inputs": [[2, 0, 0], [3, 0, 0], [4, 0, 0], [5, 0, 0], [6, 0, 0]]
            }
          ], 
          "arg_nodes": [0, 1, 3, 4, 5, 6], 
          "node_row_ptr": [0, 1, 2, 3, 4, 5, 6, 7, 10], 
          "heads": [[7, 0, 0]]
        }
      ]
    }, 
    {
      "op": "null", 
      "name": "shufflenasoneshotfix0_hybridsequential0_shufflenetblock7_conv2_weight", 
      "attrs": {
        "__dtype__": "0", 
        "__lr_mult__": "1.0", 
        "__shape__": "(80, 80, 1, 1)", 
        "__storage_type__": "0", 
        "__wd_mult__": "1.0"
      }, 
      "inputs": []
    }, 
    {
      "op": "null", 
      "name": "shufflenasoneshotfix0_hybridsequential0_shufflenetblock7_batchnorm2_gamma", 
      "attrs": {
        "__dtype__": "0", 
        "__init__": "ones", 
        "__lr_mult__": "1.0", 
        "__shape__": "(80,)", 
        "__storage_type__": "0", 
        "__wd_mult__": "1.0"
      }, 
      "inputs": []
    }, 
    {
      "op": "null", 
      "name": "shufflenasoneshotfix0_hybridsequential0_shufflenetblock7_batchnorm2_beta", 
      "attrs": {
        "__dtype__": "0", 
        "__init__": "zeros", 
        "__lr_mult__": "1.0", 
        "__shape__": "(80,)", 
        "__storage_type__": "0", 
        "__wd_mult__": "1.0"
      }, 
      "inputs": []
    }, 
    {
      "op": "null", 
      "name": "shufflenasoneshotfix0_hybridsequential0_shufflenetblock7_batchnorm2_running_mean", 
      "attrs": {
        "__dtype__": "0", 
        "__init__": "zeros", 
        "__lr_mult__": "1.0", 
        "__shape__": "(80,)", 
        "__storage_type__": "0", 
        "__wd_mult__": "1.0"
      }, 
      "inputs": []
    }, 
    {
      "op": "null", 
      "name": "shufflenasoneshotfix0_hybridsequential0_shufflenetblock7_batchnorm2_running_var", 
      "attrs": {
        "__dtype__": "0", 
        "__init__": "ones", 
        "__lr_mult__": "1.0", 
        "__shape__": "(80,)", 
        "__storage_type__": "0", 
        "__wd_mult__": "1.0"
      }, 
      "inputs": []
    }, 
    {
      "op": "_sg_mkldnn_conv", 
      "name": "sg_mkldnn_conv_bn_28", 
      "attrs": {"with_bn": "true"}, 
      "inputs": [[241, 0, 0], [242, 0, 0], [243, 0, 0], [244, 0, 0], [245, 0, 1], [246, 0, 1]], 
      "subgraphs": [
        {
          "nodes": [
            {
              "op": "null", 
              "name": "sg_mkldnn_conv_bn_27_output0", 
              "inputs": []
            }, 
            {
              "op": "null", 
              "name": "shufflenasoneshotfix0_hybridsequential0_shufflenetblock7_conv2_weight0", 
              "inputs": []
            }, 
            {
              "op": "Convolution", 
              "name": "shufflenasoneshotfix0_hybridsequential0_shufflenetblock7_conv2_fwd", 
              "attrs": {
                "dilate": "(1, 1)", 
                "kernel": "(1, 1)", 
                "layout": "NCHW", 
                "no_bias": "True", 
                "num_filter": "80", 
                "num_group": "1", 
                "pad": "(0, 0)", 
                "stride": "(1, 1)"
              }, 
              "inputs": [[0, 0, 0], [1, 0, 0]]
            }, 
            {
              "op": "null", 
              "name": "shufflenasoneshotfix0_hybridsequential0_shufflenetblock7_batchnorm2_gamma0", 
              "inputs": []
            }, 
            {
              "op": "null", 
              "name": "shufflenasoneshotfix0_hybridsequential0_shufflenetblock7_batchnorm2_beta0", 
              "inputs": []
            }, 
            {
              "op": "null", 
              "name": "shufflenasoneshotfix0_hybridsequential0_shufflenetblock7_batchnorm2_running_mean0", 
              "inputs": []
            }, 
            {
              "op": "null", 
              "name": "shufflenasoneshotfix0_hybridsequential0_shufflenetblock7_batchnorm2_running_var0", 
              "inputs": []
            }, 
            {
              "op": "BatchNorm", 
              "name": "shufflenasoneshotfix0_hybridsequential0_shufflenetblock7_batchnorm2_fwd", 
              "attrs": {
                "axis": "1", 
                "eps": "1e-05", 
                "fix_gamma": "False", 
                "momentum": "0.1", 
                "use_global_stats": "False"
              }, 
              "inputs": [[2, 0, 0], [3, 0, 0], [4, 0, 0], [5, 0, 0], [6, 0, 0]]
            }
          ], 
          "arg_nodes": [0, 1, 3, 4, 5, 6], 
          "node_row_ptr": [0, 1, 2, 3, 4, 5, 6, 7, 10], 
          "heads": [[7, 0, 0]]
        }
      ]
    }, 
    {
      "op": "_plus_scalar", 
      "name": "shufflenasoneshotfix0_hybridsequential0_shufflenetblock7_hardswish1__plusscalar0", 
      "attrs": {"scalar": "3"}, 
      "inputs": [[247, 0, 0]]
    }, 
    {
      "op": "clip", 
      "name": "shufflenasoneshotfix0_hybridsequential0_shufflenetblock7_hardswish1_hard_swish", 
      "attrs": {
        "a_max": "6", 
        "a_min": "0"
      }, 
      "inputs": [[248, 0, 0]]
    }, 
    {
      "op": "_div_scalar", 
      "name": "shufflenasoneshotfix0_hybridsequential0_shufflenetblock7_hardswish1__divscalar0", 
      "attrs": {"scalar": "6.0"}, 
      "inputs": [[249, 0, 0]]
    }, 
    {
      "op": "elemwise_mul", 
      "name": "shufflenasoneshotfix0_hybridsequential0_shufflenetblock7_hardswish1__mul0", 
      "inputs": [[247, 0, 0], [250, 0, 0]]
    }, 
    {
      "op": "Concat", 
      "name": "shufflenasoneshotfix0_hybridsequential0_shufflenetblock7_concat0", 
      "attrs": {
        "dim": "1", 
        "num_args": "2"
      }, 
      "inputs": [[224, 0, 0], [251, 0, 0]]
    }, 
    {
      "op": "null", 
      "name": "shufflenasoneshotfix0_hybridsequential0_shufflenetblock8_conv6_weight", 
      "attrs": {
        "__dtype__": "0", 
        "__lr_mult__": "1.0", 
        "__shape__": "(160, 1, 3, 3)", 
        "__storage_type__": "0", 
        "__wd_mult__": "1.0"
      }, 
      "inputs": []
    }, 
    {
      "op": "null", 
      "name": "shufflenasoneshotfix0_hybridsequential0_shufflenetblock8_batchnorm6_gamma", 
      "attrs": {
        "__dtype__": "0", 
        "__init__": "ones", 
        "__lr_mult__": "1.0", 
        "__shape__": "(160,)", 
        "__storage_type__": "0", 
        "__wd_mult__": "1.0"
      }, 
      "inputs": []
    }, 
    {
      "op": "null", 
      "name": "shufflenasoneshotfix0_hybridsequential0_shufflenetblock8_batchnorm6_beta", 
      "attrs": {
        "__dtype__": "0", 
        "__init__": "zeros", 
        "__lr_mult__": "1.0", 
        "__shape__": "(160,)", 
        "__storage_type__": "0", 
        "__wd_mult__": "1.0"
      }, 
      "inputs": []
    }, 
    {
      "op": "null", 
      "name": "shufflenasoneshotfix0_hybridsequential0_shufflenetblock8_batchnorm6_running_mean", 
      "attrs": {
        "__dtype__": "0", 
        "__init__": "zeros", 
        "__lr_mult__": "1.0", 
        "__shape__": "(160,)", 
        "__storage_type__": "0", 
        "__wd_mult__": "1.0"
      }, 
      "inputs": []
    }, 
    {
      "op": "null", 
      "name": "shufflenasoneshotfix0_hybridsequential0_shufflenetblock8_batchnorm6_running_var", 
      "attrs": {
        "__dtype__": "0", 
        "__init__": "ones", 
        "__lr_mult__": "1.0", 
        "__shape__": "(160,)", 
        "__storage_type__": "0", 
        "__wd_mult__": "1.0"
      }, 
      "inputs": []
    }, 
    {
      "op": "_sg_mkldnn_conv", 
      "name": "sg_mkldnn_conv_bn_29", 
      "attrs": {"with_bn": "true"}, 
      "inputs": [[252, 0, 0], [253, 0, 0], [254, 0, 0], [255, 0, 0], [256, 0, 1], [257, 0, 1]], 
      "subgraphs": [
        {
          "nodes": [
            {
              "op": "null", 
              "name": "shufflenasoneshotfix0_hybridsequential0_shufflenetblock7_concat0_output0", 
              "inputs": []
            }, 
            {
              "op": "null", 
              "name": "shufflenasoneshotfix0_hybridsequential0_shufflenetblock8_conv6_weight0", 
              "inputs": []
            }, 
            {
              "op": "Convolution", 
              "name": "shufflenasoneshotfix0_hybridsequential0_shufflenetblock8_conv6_fwd", 
              "attrs": {
                "dilate": "(1, 1)", 
                "kernel": "(3, 3)", 
                "layout": "NCHW", 
                "no_bias": "True", 
                "num_filter": "160", 
                "num_group": "160", 
                "pad": "(1, 1)", 
                "stride": "(2, 2)"
              }, 
              "inputs": [[0, 0, 0], [1, 0, 0]]
            }, 
            {
              "op": "null", 
              "name": "shufflenasoneshotfix0_hybridsequential0_shufflenetblock8_batchnorm6_gamma0", 
              "inputs": []
            }, 
            {
              "op": "null", 
              "name": "shufflenasoneshotfix0_hybridsequential0_shufflenetblock8_batchnorm6_beta0", 
              "inputs": []
            }, 
            {
              "op": "null", 
              "name": "shufflenasoneshotfix0_hybridsequential0_shufflenetblock8_batchnorm6_running_mean0", 
              "inputs": []
            }, 
            {
              "op": "null", 
              "name": "shufflenasoneshotfix0_hybridsequential0_shufflenetblock8_batchnorm6_running_var0", 
              "inputs": []
            }, 
            {
              "op": "BatchNorm", 
              "name": "shufflenasoneshotfix0_hybridsequential0_shufflenetblock8_batchnorm6_fwd", 
              "attrs": {
                "axis": "1", 
                "eps": "1e-05", 
                "fix_gamma": "False", 
                "momentum": "0.1", 
                "use_global_stats": "False"
              }, 
              "inputs": [[2, 0, 0], [3, 0, 0], [4, 0, 0], [5, 0, 0], [6, 0, 0]]
            }
          ], 
          "arg_nodes": [0, 1, 3, 4, 5, 6], 
          "node_row_ptr": [0, 1, 2, 3, 4, 5, 6, 7, 10], 
          "heads": [[7, 0, 0]]
        }
      ]
    }, 
    {
      "op": "null", 
      "name": "shufflenasoneshotfix0_hybridsequential0_shufflenetblock8_conv7_weight", 
      "attrs": {
        "__dtype__": "0", 
        "__lr_mult__": "1.0", 
        "__shape__": "(160, 160, 1, 1)", 
        "__storage_type__": "0", 
        "__wd_mult__": "1.0"
      }, 
      "inputs": []
    }, 
    {
      "op": "null", 
      "name": "shufflenasoneshotfix0_hybridsequential0_shufflenetblock8_batchnorm7_gamma", 
      "attrs": {
        "__dtype__": "0", 
        "__init__": "ones", 
        "__lr_mult__": "1.0", 
        "__shape__": "(160,)", 
        "__storage_type__": "0", 
        "__wd_mult__": "1.0"
      }, 
      "inputs": []
    }, 
    {
      "op": "null", 
      "name": "shufflenasoneshotfix0_hybridsequential0_shufflenetblock8_batchnorm7_beta", 
      "attrs": {
        "__dtype__": "0", 
        "__init__": "zeros", 
        "__lr_mult__": "1.0", 
        "__shape__": "(160,)", 
        "__storage_type__": "0", 
        "__wd_mult__": "1.0"
      }, 
      "inputs": []
    }, 
    {
…
      "attrs": {"scalar": "6.0"}, 
      "inputs": [[795, 0, 0]]
    }, 
    {
      "op": "elemwise_mul", 
      "name": "shufflenasoneshotfix0_hybridsequential0_shufflenetblock18_hardswish1__mul0", 
      "inputs": [[793, 0, 0], [796, 0, 0]]
    }, 
    {
      "op": "Pooling", 
      "name": "shufflenasoneshotfix0_hybridsequential0_shufflenetblock18_se0_pool0_fwd", 
      "attrs": {
        "global_pool": "True", 
        "kernel": "(1, 1)", 
        "layout": "NCHW", 
        "pad": "(0, 0)", 
        "pool_type": "avg", 
        "pooling_convention": "full", 
        "stride": "(1, 1)"
      }, 
      "inputs": [[797, 0, 0]]
    }, 
    {
      "op": "_contrib_quantize_v2", 
      "name": "shufflenasoneshotfix0_hybridsequential0_shufflenetblock18_se0_pool0_fwd_output_quantize", 
      "attrs": {"out_type": "auto"}, 
      "inputs": [[798, 0, 0]]
    }, 
    {
      "op": "null", 
      "name": "shufflenasoneshotfix0_hybridsequential0_shufflenetblock18_se0_conv_squeeze_weight", 
      "attrs": {
        "__dtype__": "0", 
        "__lr_mult__": "1.0", 
        "__shape__": "(80, 320, 1, 1)", 
        "__storage_type__": "0", 
        "__wd_mult__": "1.0"
      }, 
      "inputs": []
    }, 
    {
      "op": "null", 
      "name": "shufflenasoneshotfix0_hybridsequential0_shufflenetblock18_se0_conv_squeeze_bias", 
      "attrs": {
        "__dtype__": "0", 
        "__init__": "zeros", 
        "__lr_mult__": "1.0", 
        "__shape__": "(80,)", 
        "__storage_type__": "0", 
        "__wd_mult__": "1.0"
      }, 
      "inputs": []
    }, 
    {
      "op": "_sg_mkldnn_conv", 
      "name": "quantized_sg_mkldnn_conv_act_89", 
      "attrs": {
        "quantized": "true", 
        "with_act": "true"
      }, 
      "inputs": [[799, 0, 0], [800, 0, 0], [801, 0, 0], [799, 1, 0], [799, 2, 0]], 
      "subgraphs": [
        {
          "nodes": [
            {
              "op": "null", 
              "name": "shufflenasoneshotfix0_hybridsequential0_shufflenetblock18_se0_pool0_fwd_output0", 
              "inputs": []
            }, 
            {
              "op": "null", 
              "name": "shufflenasoneshotfix0_hybridsequential0_shufflenetblock18_se0_conv_squeeze_weight0", 
              "inputs": []
            }, 
            {
              "op": "null", 
              "name": "shufflenasoneshotfix0_hybridsequential0_shufflenetblock18_se0_conv_squeeze_bias0", 
              "inputs": []
            }, 
            {
              "op": "Convolution", 
              "name": "shufflenasoneshotfix0_hybridsequential0_shufflenetblock18_se0_conv_squeeze_fwd", 
              "attrs": {
                "dilate": "(1, 1)", 
                "kernel": "(1, 1)", 
                "layout": "NCHW", 
                "no_bias": "False", 
                "num_filter": "80", 
                "num_group": "1", 
                "pad": "(0, 0)", 
                "stride": "(1, 1)"
              }, 
              "inputs": [[0, 0, 0], [1, 0, 0], [2, 0, 0]]
            }, 
            {
              "op": "Activation", 
              "name": "shufflenasoneshotfix0_hybridsequential0_shufflenetblock18_se0_relu0_fwd", 
              "attrs": {"act_type": "relu"}, 
              "inputs": [[3, 0, 0]]
            }
          ], 
          "arg_nodes": [0, 1, 2], 
          "node_row_ptr": [0, 1, 2, 3, 4, 5], 
          "heads": [[4, 0, 0]]
        }
      ]
    }, 
    {
      "op": "_contrib_requantize", 
      "name": "requantize_sg_mkldnn_conv_act_89", 
      "attrs": {"out_type": "auto"}, 
      "inputs": [[802, 0, 0], [802, 1, 0], [802, 2, 0]]
    }, 
    {
      "op": "null", 
      "name": "shufflenasoneshotfix0_hybridsequential0_shufflenetblock18_se0_conv_excitation_weight", 
      "attrs": {
        "__dtype__": "0", 
        "__lr_mult__": "1.0", 
        "__shape__": "(320, 80, 1, 1)", 
        "__storage_type__": "0", 
        "__wd_mult__": "1.0"
      }, 
      "inputs": []
    }, 
    {
      "op": "null", 
      "name": "shufflenasoneshotfix0_hybridsequential0_shufflenetblock18_se0_conv_excitation_bias", 
      "attrs": {
        "__dtype__": "0", 
        "__init__": "zeros", 
        "__lr_mult__": "1.0", 
        "__shape__": "(320,)", 
        "__storage_type__": "0", 
        "__wd_mult__": "1.0"
      }, 
      "inputs": []
    }, 
    {
      "op": "_sg_mkldnn_conv", 
      "name": "quantized_sg_mkldnn_conv_90", 
      "attrs": {"quantized": "true"}, 
      "inputs": [[803, 0, 0], [804, 0, 0], [805, 0, 0], [803, 1, 0], [803, 2, 0]], 
      "subgraphs": [
        {
          "nodes": [
            {
              "op": "null", 
              "name": "sg_mkldnn_conv_act_89_output0", 
              "inputs": []
            }, 
            {
              "op": "null", 
              "name": "shufflenasoneshotfix0_hybridsequential0_shufflenetblock18_se0_conv_excitation_weight0", 
              "inputs": []
            }, 
            {
              "op": "null", 
              "name": "shufflenasoneshotfix0_hybridsequential0_shufflenetblock18_se0_conv_excitation_bias0", 
              "inputs": []
            }, 
            {
              "op": "Convolution", 
              "name": "shufflenasoneshotfix0_hybridsequential0_shufflenetblock18_se0_conv_excitation_fwd", 
              "attrs": {
                "dilate": "(1, 1)", 
                "kernel": "(1, 1)", 
                "layout": "NCHW", 
                "no_bias": "False", 
                "num_filter": "320", 
                "num_group": "1", 
                "pad": "(0, 0)", 
                "stride": "(1, 1)"
              }, 
              "inputs": [[0, 0, 0], [1, 0, 0], [2, 0, 0]]
            }
          ], 
          "arg_nodes": [0, 1, 2], 
          "node_row_ptr": [0, 1, 2, 3, 4], 
          "heads": [[3, 0, 0]]
        }
      ]
    }, 
    {
      "op": "_contrib_requantize", 
      "name": "requantize_sg_mkldnn_conv_90", 
      "attrs": {"out_type": "auto"}, 
      "inputs": [[806, 0, 0], [806, 1, 0], [806, 2, 0]]
    }, 
    {
      "op": "_contrib_dequantize", 
      "name": "sg_mkldnn_conv_90_dequantize", 
      "inputs": [[807, 0, 0], [807, 1, 0], [807, 2, 0]]
    }, 
    {
      "op": "_plus_scalar", 
      "name": "shufflenasoneshotfix0_hybridsequential0_shufflenetblock18_se0_hardsigmoid0__plusscalar0", 
      "attrs": {"scalar": "3"}, 
      "inputs": [[808, 0, 0]]
    }, 
    {
      "op": "clip", 
      "name": "shufflenasoneshotfix0_hybridsequential0_shufflenetblock18_se0_hardsigmoid0_hard_sigmoid", 
      "attrs": {
        "a_max": "6", 
        "a_min": "0"
      }, 
      "inputs": [[809, 0, 0]]
    }, 
    {
      "op": "_div_scalar", 
      "name": "shufflenasoneshotfix0_hybridsequential0_shufflenetblock18_se0_hardsigmoid0__divscalar0", 
      "attrs": {"scalar": "6.0"}, 
      "inputs": [[810, 0, 0]]
    }, 
    {
      "op": "broadcast_mul", 
      "name": "shufflenasoneshotfix0_hybridsequential0_shufflenetblock18_se0_broadcast_mul0", 
      "inputs": [[797, 0, 0], [811, 0, 0]]
    }, 
    {
      "op": "Concat", 
      "name": "shufflenasoneshotfix0_hybridsequential0_shufflenetblock18_concat0", 
      "attrs": {
        "dim": "1", 
        "num_args": "2"
      }, 
      "inputs": [[770, 0, 0], [812, 0, 0]]
    }, 
    {
      "op": "Reshape", 
      "name": "shufflenasoneshotfix0_hybridsequential0_shufflenetblock19_shufflechannels0_reshape0", 
      "attrs": {"shape": "(0, -4, 2, -1, -2)"}, 
      "inputs": [[813, 0, 0]]
    }, 
    {
      "op": "SwapAxis", 
      "name": "shufflenasoneshotfix0_hybridsequential0_shufflenetblock19_shufflechannels0_swapaxes0", 
      "attrs": {
        "dim1": "1", 
        "dim2": "2"
      }, 
      "inputs": [[814, 0, 0]]
    }, 
    {
      "op": "Reshape", 
      "name": "shufflenasoneshotfix0_hybridsequential0_shufflenetblock19_shufflechannels0_reshape1", 
      "attrs": {"shape": "(0, -3, -2)"}, 
      "inputs": [[815, 0, 0]]
    }, 
    {
      "op": "slice", 
      "name": "shufflenasoneshotfix0_hybridsequential0_shufflenetblock19_shufflechannels0_slice0", 
      "attrs": {
        "begin": "(None, None, None, None)", 
        "end": "(None, 320, None, None)"
      }, 
      "inputs": [[816, 0, 0]]
    }, 
    {
      "op": "slice", 
      "name": "shufflenasoneshotfix0_hybridsequential0_shufflenetblock19_shufflechannels0_slice1", 
      "attrs": {
        "begin": "(None, 320, None, None)", 
        "end": "(None, None, None, None)"
      }, 
      "inputs": [[816, 0, 0]]
    }, 
    {
      "op": "null", 
      "name": "shufflenasoneshotfix0_hybridsequential0_shufflenetblock19_conv0_weight", 
      "attrs": {
        "__dtype__": "0", 
        "__lr_mult__": "1.0", 
        "__shape__": "(448, 320, 1, 1)", 
        "__storage_type__": "0", 
        "__wd_mult__": "1.0"
      }, 
      "inputs": []
    }, 
    {
      "op": "null", 
      "name": "shufflenasoneshotfix0_hybridsequential0_shufflenetblock19_batchnorm0_gamma", 
      "attrs": {
        "__dtype__": "0", 
        "__init__": "ones", 
        "__lr_mult__": "1.0", 
        "__shape__": "(448,)", 
        "__storage_type__": "0", 
        "__wd_mult__": "1.0"
      }, 
      "inputs": []
    }, 
    {
      "op": "null", 
      "name": "shufflenasoneshotfix0_hybridsequential0_shufflenetblock19_batchnorm0_beta", 
      "attrs": {
        "__dtype__": "0", 
        "__init__": "zeros", 
        "__lr_mult__": "1.0", 
        "__shape__": "(448,)", 
        "__storage_type__": "0", 
        "__wd_mult__": "1.0"
      }, 
      "inputs": []
    }, 
    {
      "op": "null", 
      "name": "shufflenasoneshotfix0_hybridsequential0_shufflenetblock19_batchnorm0_running_mean", 
      "attrs": {
        "__dtype__": "0", 
        "__init__": "zeros", 
        "__lr_mult__": "1.0", 
        "__shape__": "(448,)", 
        "__storage_type__": "0", 
        "__wd_mult__": "1.0"
      }, 
      "inputs": []
    }, 
    {
      "op": "null", 
      "name": "shufflenasoneshotfix0_hybridsequential0_shufflenetblock19_batchnorm0_running_var", 
      "attrs": {
        "__dtype__": "0", 
        "__init__": "ones", 
        "__lr_mult__": "1.0", 
        "__shape__": "(448,)", 
        "__storage_type__": "0", 
        "__wd_mult__": "1.0"
      }, 
      "inputs": []
    }, 
    {
      "op": "_sg_mkldnn_conv", 
      "name": "sg_mkldnn_conv_bn_91", 
      "attrs": {"with_bn": "true"}, 
      "inputs": [[818, 0, 0], [819, 0, 0], [820, 0, 0], [821, 0, 0], [822, 0, 1], [823, 0, 1]], 
      "subgraphs": [
        {
          "nodes": [
            {
              "op": "null", 
              "name": "shufflenasoneshotfix0_hybridsequential0_shufflenetblock19_shufflechannels0_slice1_output0", 
              "inputs": []
            }, 
            {
              "op": "null", 
              "name": "shufflenasoneshotfix0_hybridsequential0_shufflenetblock19_conv0_weight0", 
              "inputs": []
            }, 
            {
              "op": "Convolution", 
              "name": "shufflenasoneshotfix0_hybridsequential0_shufflenetblock19_conv0_fwd", 
              "attrs": {
                "dilate": "(1, 1)", 
                "kernel": "(1, 1)", 
                "layout": "NCHW", 
                "no_bias": "True", 
                "num_filter": "448", 
                "num_group": "1", 
                "pad": "(0, 0)", 
                "stride": "(1, 1)"
              }, 
              "inputs": [[0, 0, 0], [1, 0, 0]]
            }, 
            {
              "op": "null", 
              "name": "shufflenasoneshotfix0_hybridsequential0_shufflenetblock19_batchnorm0_gamma0", 
              "inputs": []
            }, 
            {
              "op": "null", 
              "name": "shufflenasoneshotfix0_hybridsequential0_shufflenetblock19_batchnorm0_beta0", 
              "inputs": []
            }, 
            {
              "op": "null", 
              "name": "shufflenasoneshotfix0_hybridsequential0_shufflenetblock19_batchnorm0_running_mean0", 
              "inputs": []
            }, 
            {
              "op": "null", 
              "name": "shufflenasoneshotfix0_hybridsequential0_shufflenetblock19_batchnorm0_running_var0", 
              "inputs": []
            }, 
            {
              "op": "BatchNorm", 
              "name": "shufflenasoneshotfix0_hybridsequential0_shufflenetblock19_batchnorm0_fwd", 
              "attrs": {
                "axis": "1", 
                "eps": "1e-05", 
                "fix_gamma": "False", 
                "momentum": "0.1", 
                "use_global_stats": "False"
              }, 
              "inputs": [[2, 0, 0], [3, 0, 0], [4, 0, 0], [5, 0, 0], [6, 0, 0]]
            }
          ], 
          "arg_nodes": [0, 1, 3, 4, 5, 6], 
          "node_row_ptr": [0, 1, 2, 3, 4, 5, 6, 7, 10], 
          "heads": [[7, 0, 0]]
        }
      ]
    }, 
    {
      "op": "_plus_scalar", 
      "name": "shufflenasoneshotfix0_hybridsequential0_shufflenetblock19_hardswish0__plusscalar0", 
      "attrs": {"scalar": "3"}, 
      "inputs": [[824, 0, 0]]
    }, 
    {
      "op": "clip", 
      "name": "shufflenasoneshotfix0_hybridsequential0_shufflenetblock19_hardswish0_hard_swish", 
      "attrs": {
        "a_max": "6", 
        "a_min": "0"
      }, 
      "inputs": [[825, 0, 0]]
    }, 
    {
      "op": "_div_scalar", 
      "name": "shufflenasoneshotfix0_hybridsequential0_shufflenetblock19_hardswish0__divscalar0", 
      "attrs": {"scalar": "6.0"}, 
      "inputs": [[826, 0, 0]]
    }, 
    {
      "op": "elemwise_mul", 
      "name": "shufflenasoneshotfix0_hybridsequential0_shufflenetblock19_hardswish0__mul0", 
      "inputs": [[824, 0, 0], [827, 0, 0]]
    }, 
    {
      "op": "null", 
      "name": "shufflenasoneshotfix0_hybridsequential0_shufflenetblock19_conv1_weight", 
      "attrs": {
        "__dtype__": "0", 
        "__lr_mult__": "1.0", 
        "__shape__": "(448, 1, 3, 3)", 
        "__storage_type__": "0", 
        "__wd_mult__": "1.0"
      }, 
      "inputs": []
    }, 
    {
      "op": "null", 
      "name": "shufflenasoneshotfix0_hybridsequential0_shufflenetblock19_batchnorm1_gamma", 
      "attrs": {
        "__dtype__": "0", 
        "__init__": "ones", 
        "__lr_mult__": "1.0", 
        "__shape__": "(448,)", 
        "__storage_type__": "0", 
        "__wd_mult__": "1.0"
      }, 
      "inputs": []
    }, 
    {
      "op": "null", 
      "name": "shufflenasoneshotfix0_hybridsequential0_shufflenetblock19_batchnorm1_beta", 
      "attrs": {
        "__dtype__": "0", 
        "__init__": "zeros", 
        "__lr_mult__": "1.0", 
        "__shape__": "(448,)", 
        "__storage_type__": "0", 
        "__wd_mult__": "1.0"
      }, 
      "inputs": []
    }, 
    {
      "op": "null", 
      "name": "shufflenasoneshotfix0_hybridsequential0_shufflenetblock19_batchnorm1_running_mean", 
      "attrs": {
        "__dtype__": "0", 
        "__init__": "zeros", 
        "__lr_mult__": "1.0", 
        "__shape__": "(448,)", 
        "__storage_type__": "0", 
        "__wd_mult__": "1.0"
      }, 
      "inputs": []
    }, 
    {
      "op": "null", 
      "name": "shufflenasoneshotfix0_hybridsequential0_shufflenetblock19_batchnorm1_running_var", 
      "attrs": {
        "__dtype__": "0", 
        "__init__": "ones", 
        "__lr_mult__": "1.0", 
        "__shape__": "(448,)", 
        "__storage_type__": "0", 
        "__wd_mult__": "1.0"
      }, 
      "inputs": []
    }, 
    {
      "op": "_sg_mkldnn_conv", 
      "name": "sg_mkldnn_conv_bn_92", 
      "attrs": {"with_bn": "true"}, 
      "inputs": [[828, 0, 0], [829, 0, 0], [830, 0, 0], [831, 0, 0], [832, 0, 1], [833, 0, 1]], 
      "subgraphs": [
        {
          "nodes": [
            {
              "op": "null", 
              "name": "shufflenasoneshotfix0_hybridsequential0_shufflenetblock19_hardswish0__mul0_output0", 
              "inputs": []
            }, 
            {
              "op": "null", 
              "name": "shufflenasoneshotfix0_hybridsequential0_shufflenetblock19_conv1_weight0", 
              "inputs": []
            }, 
            {
              "op": "Convolution", 
              "name": "shufflenasoneshotfix0_hybridsequential0_shufflenetblock19_conv1_fwd", 
              "attrs": {
                "dilate": "(1, 1)", 
                "kernel": "(3, 3)", 
                "layout": "NCHW", 
                "no_bias": "True", 
                "num_filter": "448", 
                "num_group": "448", 
                "pad": "(1, 1)", 
                "stride": "(1, 1)"
              }, 
              "inputs": [[0, 0, 0], [1, 0, 0]]
            }, 
            {
              "op": "null", 
              "name": "shufflenasoneshotfix0_hybridsequential0_shufflenetblock19_batchnorm1_gamma0", 
              "inputs": []
            }, 
            {
              "op": "null", 
              "name": "shufflenasoneshotfix0_hybridsequential0_shufflenetblock19_batchnorm1_beta0", 
              "inputs": []
            }, 
            {
              "op": "null", 
              "name": "shufflenasoneshotfix0_hybridsequential0_shufflenetblock19_batchnorm1_running_mean0", 
              "inputs": []
            }, 
            {
              "op": "null", 
              "name": "shufflenasoneshotfix0_hybridsequential0_shufflenetblock19_batchnorm1_running_var0", 
              "inputs": []
            }, 
            {
              "op": "BatchNorm", 
              "name": "shufflenasoneshotfix0_hybridsequential0_shufflenetblock19_batchnorm1_fwd", 
              "attrs": {
                "axis": "1", 
                "eps": "1e-05", 
                "fix_gamma": "False", 
                "momentum": "0.1", 
                "use_global_stats": "False"
              }, 
              "inputs": [[2, 0, 0], [3, 0, 0], [4, 0, 0], [5, 0, 0], [6, 0, 0]]
            }
          ], 
          "arg_nodes": [0, 1, 3, 4, 5, 6], 
          "node_row_ptr": [0, 1, 2, 3, 4, 5, 6, 7, 10], 
          "heads": [[7, 0, 0]]
        }
      ]
    }, 
    {
      "op": "null", 
      "name": "shufflenasoneshotfix0_hybridsequential0_shufflenetblock19_conv2_weight", 
      "attrs": {
        "__dtype__": "0", 
        "__lr_mult__": "1.0", 
        "__shape__": "(320, 448, 1, 1)", 
        "__storage_type__": "0", 
        "__wd_mult__": "1.0"
      }, 
      "inputs": []
    }, 
    {
      "op": "null", 
      "name": "shufflenasoneshotfix0_hybridsequential0_shufflenetblock19_batchnorm2_gamma", 
      "attrs": {
        "__dtype__": "0", 
        "__init__": "ones", 
        "__lr_mult__": "1.0", 
        "__shape__": "(320,)", 
        "__storage_type__": "0", 
        "__wd_mult__": "1.0"
      }, 
      "inputs": []
    }, 
    {
      "op": "null", 
      "name": "shufflenasoneshotfix0_hybridsequential0_shufflenetblock19_batchnorm2_beta", 
      "attrs": {
        "__dtype__": "0", 
        "__init__": "zeros", 
        "__lr_mult__": "1.0", 
        "__shape__": "(320,)", 
        "__storage_type__": "0", 
        "__wd_mult__": "1.0"
      }, 
      "inputs": []
    }, 
    {
      "op": "null", 
      "name": "shufflenasoneshotfix0_hybridsequential0_shufflenetblock19_batchnorm2_running_mean", 
      "attrs": {
        "__dtype__": "0", 
        "__init__": "zeros", 
        "__lr_mult__": "1.0", 
        "__shape__": "(320,)", 
        "__storage_type__": "0", 
        "__wd_mult__": "1.0"
      }, 
      "inputs": []
    }, 
    {
      "op": "null", 
      "name": "shufflenasoneshotfix0_hybridsequential0_shufflenetblock19_batchnorm2_running_var", 
      "attrs": {
        "__dtype__": "0", 
        "__init__": "ones", 
        "__lr_mult__": "1.0", 
        "__shape__": "(320,)", 
        "__storage_type__": "0", 
        "__wd_mult__": "1.0"
      }, 
      "inputs": []
    }, 
    {
      "op": "_sg_mkldnn_conv", 
      "name": "sg_mkldnn_conv_bn_93", 
      "attrs": {"with_bn": "true"}, 
      "inputs": [[834, 0, 0], [835, 0, 0], [836, 0, 0], [837, 0, 0], [838, 0, 1], [839, 0, 1]], 
      "subgraphs": [
        {
          "nodes": [
            {
              "op": "null", 
              "name": "sg_mkldnn_conv_bn_92_output0", 
              "inputs": []
            }, 
            {
              "op": "null", 
              "name": "shufflenasoneshotfix0_hybridsequential0_shufflenetblock19_conv2_weight0", 
              "inputs": []
            }, 
            {
              "op": "Convolution", 
              "name": "shufflenasoneshotfix0_hybridsequential0_shufflenetblock19_conv2_fwd", 
              "attrs": {
                "dilate": "(1, 1)", 
                "kernel": "(1, 1)", 
                "layout": "NCHW", 
                "no_bias": "True", 
                "num_filter": "320", 
                "num_group": "1", 
                "pad": "(0, 0)", 
                "stride": "(1, 1)"
              }, 
              "inputs": [[0, 0, 0], [1, 0, 0]]
            }, 
            {
              "op": "null", 
              "name": "shufflenasoneshotfix0_hybridsequential0_shufflenetblock19_batchnorm2_gamma0", 
              "inputs": []
            }, 
            {
              "op": "null", 
              "name": "shufflenasoneshotfix0_hybridsequential0_shufflenetblock19_batchnorm2_beta0", 
              "inputs": []
            }, 
            {
              "op": "null", 
              "name": "shufflenasoneshotfix0_hybridsequential0_shufflenetblock19_batchnorm2_running_mean0", 
              "inputs": []
            }, 
            {
              "op": "null", 
              "name": "shufflenasoneshotfix0_hybridsequential0_shufflenetblock19_batchnorm2_running_var0", 
              "inputs": []
            }, 
            {
              "op": "BatchNorm", 
              "name": "shufflenasoneshotfix0_hybridsequential0_shufflenetblock19_batchnorm2_fwd", 
              "attrs": {
                "axis": "1", 
                "eps": "1e-05", 
                "fix_gamma": "False", 
                "momentum": "0.1", 
                "use_global_stats": "False"
              }, 
              "inputs": [[2, 0, 0], [3, 0, 0], [4, 0, 0], [5, 0, 0], [6, 0, 0]]
            }
          ], 
          "arg_nodes": [0, 1, 3, 4, 5, 6], 
          "node_row_ptr": [0, 1, 2, 3, 4, 5, 6, 7, 10], 
          "heads": [[7, 0, 0]]
        }
      ]
    }, 
    {
      "op": "_plus_scalar", 
      "name": "shufflenasoneshotfix0_hybridsequential0_shufflenetblock19_hardswish1__plusscalar0", 
      "attrs": {"scalar": "3"}, 
      "inputs": [[840, 0, 0]]
    }, 
    {
      "op": "clip", 
      "name": "shufflenasoneshotfix0_hybridsequential0_shufflenetblock19_hardswish1_hard_swish", 
      "attrs": {
        "a_max": "6", 
        "a_min": "0"
      }, 
      "inputs": [[841, 0, 0]]
    }, 
    {
      "op": "_div_scalar", 
      "name": "shufflenasoneshotfix0_hybridsequential0_shufflenetblock19_hardswish1__divscalar0", 
      "attrs": {"scalar": "6.0"}, 
      "inputs": [[842, 0, 0]]
    }, 
    {
      "op": "elemwise_mul", 
      "name": "shufflenasoneshotfix0_hybridsequential0_shufflenetblock19_hardswish1__mul0", 
      "inputs": [[840, 0, 0], [843, 0, 0]]
    }, 
    {
      "op": "Pooling", 
      "name": "shufflenasoneshotfix0_hybridsequential0_shufflenetblock19_se0_pool0_fwd", 
      "attrs": {
        "global_pool": "True", 
        "kernel": "(1, 1)", 
        "layout": "NCHW", 
        "pad": "(0, 0)", 
        "pool_type": "avg", 
        "pooling_convention": "full", 
        "stride": "(1, 1)"
      }, 
      "inputs": [[844, 0, 0]]
    }, 
    {
      "op": "_contrib_quantize_v2", 
      "name": "shufflenasoneshotfix0_hybridsequential0_shufflenetblock19_se0_pool0_fwd_output_quantize", 
      "attrs": {"out_type": "auto"}, 
      "inputs": [[845, 0, 0]]
    }, 
    {
      "op": "null", 
      "name": "shufflenasoneshotfix0_hybridsequential0_shufflenetblock19_se0_conv_squeeze_weight", 
      "attrs": {
        "__dtype__": "0", 
        "__lr_mult__": "1.0", 
        "__shape__": "(80, 320, 1, 1)", 
        "__storage_type__": "0", 
        "__wd_mult__": "1.0"
      }, 
      "inputs": []
    }, 
    {
      "op": "null", 
      "name": "shufflenasoneshotfix0_hybridsequential0_shufflenetblock19_se0_conv_squeeze_bias", 
      "attrs": {
        "__dtype__": "0", 
        "__init__": "zeros", 
        "__lr_mult__": "1.0", 
        "__shape__": "(80,)", 
        "__storage_type__": "0", 
        "__wd_mult__": "1.0"
      }, 
      "inputs": []
    }, 
    {
      "op": "_sg_mkldnn_conv", 
      "name": "quantized_sg_mkldnn_conv_act_94", 
      "attrs": {
        "quantized": "true", 
        "with_act": "true"
      }, 
      "inputs": [[846, 0, 0], [847, 0, 0], [848, 0, 0], [846, 1, 0], [846, 2, 0]], 
      "subgraphs": [
        {
          "nodes": [
            {
              "op": "null", 
              "name": "shufflenasoneshotfix0_hybridsequential0_shufflenetblock19_se0_pool0_fwd_output0", 
              "inputs": []
            }, 
            {
              "op": "null", 
              "name": "shufflenasoneshotfix0_hybridsequential0_shufflenetblock19_se0_conv_squeeze_weight0", 
              "inputs": []
            }, 
            {
              "op": "null", 
              "name": "shufflenasoneshotfix0_hybridsequential0_shufflenetblock19_se0_conv_squeeze_bias0", 
              "inputs": []
            }, 
            {
              "op": "Convolution", 
              "name": "shufflenasoneshotfix0_hybridsequential0_shufflenetblock19_se0_conv_squeeze_fwd", 
              "attrs": {
                "dilate": "(1, 1)", 
                "kernel": "(1, 1)", 
                "layout": "NCHW", 
                "no_bias": "False", 
                "num_filter": "80", 
                "num_group": "1", 
                "pad": "(0, 0)", 
                "stride": "(1, 1)"
              }, 
              "inputs": [[0, 0, 0], [1, 0, 0], [2, 0, 0]]
            }, 
            {
              "op": "Activation", 
              "name": "shufflenasoneshotfix0_hybridsequential0_shufflenetblock19_se0_relu0_fwd", 
              "attrs": {"act_type": "relu"}, 
              "inputs": [[3, 0, 0]]
            }
          ], 
          "arg_nodes": [0, 1, 2], 
          "node_row_ptr": [0, 1, 2, 3, 4, 5], 
          "heads": [[4, 0, 0]]
        }
      ]
    }, 
    {
      "op": "_contrib_requantize", 
      "name": "requantize_sg_mkldnn_conv_act_94", 
      "attrs": {"out_type": "auto"}, 
      "inputs": [[849, 0, 0], [849, 1, 0], [849, 2, 0]]
    }, 
    {
      "op": "null", 
      "name": "shufflenasoneshotfix0_hybridsequential0_shufflenetblock19_se0_conv_excitation_weight", 
      "attrs": {
        "__dtype__": "0", 
        "__lr_mult__": "1.0", 
        "__shape__": "(320, 80, 1, 1)", 
        "__storage_type__": "0", 
        "__wd_mult__": "1.0"
      }, 
      "inputs": []
    }, 
    {
      "op": "null", 
      "name": "shufflenasoneshotfix0_hybridsequential0_shufflenetblock19_se0_conv_excitation_bias", 
      "attrs": {
        "__dtype__": "0", 
        "__init__": "zeros", 
        "__lr_mult__": "1.0", 
        "__shape__": "(320,)", 
        "__storage_type__": "0", 
        "__wd_mult__": "1.0"
      }, 
      "inputs": []
    }, 
    {
      "op": "_sg_mkldnn_conv", 
      "name": "quantized_sg_mkldnn_conv_95", 
      "attrs": {"quantized": "true"}, 
      "inputs": [[850, 0, 0], [851, 0, 0], [852, 0, 0], [850, 1, 0], [850, 2, 0]], 
      "subgraphs": [
        {
          "nodes": [
            {
              "op": "null", 
              "name": "sg_mkldnn_conv_act_94_output0", 
              "inputs": []
            }, 
            {
              "op": "null", 
              "name": "shufflenasoneshotfix0_hybridsequential0_shufflenetblock19_se0_conv_excitation_weight0", 
              "inputs": []
            }, 
            {
              "op": "null", 
              "name": "shufflenasoneshotfix0_hybridsequential0_shufflenetblock19_se0_conv_excitation_bias0", 
              "inputs": []
            }, 
            {
              "op": "Convolution", 
              "name": "shufflenasoneshotfix0_hybridsequential0_shufflenetblock19_se0_conv_excitation_fwd", 
              "attrs": {
                "dilate": "(1, 1)", 
                "kernel": "(1, 1)", 
                "layout": "NCHW", 
                "no_bias": "False", 
                "num_filter": "320", 
                "num_group": "1", 
                "pad": "(0, 0)", 
                "stride": "(1, 1)"
              }, 
              "inputs": [[0, 0, 0], [1, 0, 0], [2, 0, 0]]
            }
          ], 
          "arg_nodes": [0, 1, 2], 
          "node_row_ptr": [0, 1, 2, 3, 4], 
          "heads": [[3, 0, 0]]
        }
      ]
    }, 
    {
      "op": "_contrib_requantize", 
      "name": "requantize_sg_mkldnn_conv_95", 
      "attrs": {"out_type": "auto"}, 
      "inputs": [[853, 0, 0], [853, 1, 0], [853, 2, 0]]
    }, 
    {
      "op": "_contrib_dequantize", 
      "name": "sg_mkldnn_conv_95_dequantize", 
      "inputs": [[854, 0, 0], [854, 1, 0], [854, 2, 0]]
    }, 
    {
      "op": "_plus_scalar", 
      "name": "shufflenasoneshotfix0_hybridsequential0_shufflenetblock19_se0_hardsigmoid0__plusscalar0", 
      "attrs": {"scalar": "3"}, 
      "inputs": [[855, 0, 0]]
    }, 
    {
      "op": "clip", 
      "name": "shufflenasoneshotfix0_hybridsequential0_shufflenetblock19_se0_hardsigmoid0_hard_sigmoid", 
      "attrs": {
        "a_max": "6", 
        "a_min": "0"
      }, 
      "inputs": [[856, 0, 0]]
    }, 
    {
      "op": "_div_scalar", 
      "name": "shufflenasoneshotfix0_hybridsequential0_shufflenetblock19_se0_hardsigmoid0__divscalar0", 
      "attrs": {"scalar": "6.0"}, 
      "inputs": [[857, 0, 0]]
    }, 
    {
      "op": "broadcast_mul", 
      "name": "shufflenasoneshotfix0_hybridsequential0_shufflenetblock19_se0_broadcast_mul0", 
      "inputs": [[844, 0, 0], [858, 0, 0]]
    }, 
    {
      "op": "Concat", 
      "name": "shufflenasoneshotfix0_hybridsequential0_shufflenetblock19_concat0", 
      "attrs": {
        "dim": "1", 
        "num_args": "2"
      }, 
      "inputs": [[817, 0, 0], [859, 0, 0]]
    }, 
    {
      "op": "Pooling", 
      "name": "shufflenasoneshotfix0_hybridsequential0_pool0_fwd", 
      "attrs": {
        "global_pool": "True", 
        "kernel": "(1, 1)", 
        "layout": "NCHW", 
        "pad": "(0, 0)", 
        "pool_type": "avg", 
        "pooling_convention": "full", 
        "stride": "(1, 1)"
      }, 
      "inputs": [[860, 0, 0]]
    }, 
    {
      "op": "_contrib_quantize_v2", 
      "name": "shufflenasoneshotfix0_hybridsequential0_pool0_fwd_output_quantize", 
      "attrs": {"out_type": "auto"}, 
      "inputs": [[861, 0, 0]]
    }, 
    {
      "op": "null", 
      "name": "shufflenasoneshotfix0_hybridsequential0_conv_fc_weight", 
      "attrs": {
        "__dtype__": "0", 
        "__lr_mult__": "1.0", 
        "__shape__": "(1024, 640, 1, 1)", 
        "__storage_type__": "0", 
        "__wd_mult__": "1.0"
      }, 
      "inputs": []
    }, 
    {
      "op": "null", 
      "name": "shufflenasoneshotfix0_hybridsequential0_conv_fc_bias", 
      "attrs": {
        "__dtype__": "0", 
        "__init__": "zeros", 
        "__lr_mult__": "1.0", 
        "__shape__": "(1024,)", 
        "__storage_type__": "0", 
        "__wd_mult__": "1.0"
      }, 
      "inputs": []
    }, 
    {
      "op": "_sg_mkldnn_conv", 
      "name": "quantized_sg_mkldnn_conv_96", 
      "attrs": {"quantized": "true"}, 
      "inputs": [[862, 0, 0], [863, 0, 0], [864, 0, 0], [862, 1, 0], [862, 2, 0]], 
      "subgraphs": [
        {
          "nodes": [
            {
              "op": "null", 
              "name": "shufflenasoneshotfix0_hybridsequential0_pool0_fwd_output0", 
              "inputs": []
            }, 
            {
              "op": "null", 
              "name": "shufflenasoneshotfix0_hybridsequential0_conv_fc_weight0", 
              "inputs": []
            }, 
            {
              "op": "null", 
              "name": "shufflenasoneshotfix0_hybridsequential0_conv_fc_bias0", 
              "inputs": []
            }, 
            {
              "op": "Convolution", 
              "name": "shufflenasoneshotfix0_hybridsequential0_conv_fc_fwd", 
              "attrs": {
                "dilate": "(1, 1)", 
                "kernel": "(1, 1)", 
                "layout": "NCHW", 
                "no_bias": "False", 
                "num_filter": "1024", 
                "num_group": "1", 
                "pad": "(0, 0)", 
                "stride": "(1, 1)"
              }, 
              "inputs": [[0, 0, 0], [1, 0, 0], [2, 0, 0]]
            }
          ], 
          "arg_nodes": [0, 1, 2], 
          "node_row_ptr": [0, 1, 2, 3, 4], 
          "heads": [[3, 0, 0]]
        }
      ]
    }, 
    {
      "op": "_contrib_requantize", 
      "name": "requantize_sg_mkldnn_conv_96", 
      "attrs": {"out_type": "auto"}, 
      "inputs": [[865, 0, 0], [865, 1, 0], [865, 2, 0]]
    }, 
    {
      "op": "_contrib_dequantize", 
      "name": "sg_mkldnn_conv_96_dequantize", 
      "inputs": [[866, 0, 0], [866, 1, 0], [866, 2, 0]]
    }, 
    {
      "op": "_plus_scalar", 
      "name": "shufflenasoneshotfix0_hybridsequential0_hardswish1__plusscalar0", 
      "attrs": {"scalar": "3"}, 
      "inputs": [[867, 0, 0]]
    }, 
    {
      "op": "clip", 
      "name": "shufflenasoneshotfix0_hybridsequential0_hardswish1_hard_swish", 
      "attrs": {
        "a_max": "6", 
        "a_min": "0"
      }, 
      "inputs": [[868, 0, 0]]
    }, 
    {
      "op": "_div_scalar", 
      "name": "shufflenasoneshotfix0_hybridsequential0_hardswish1__divscalar0", 
      "attrs": {"scalar": "6.0"}, 
      "inputs": [[869, 0, 0]]
    }, 
    {
      "op": "elemwise_mul", 
      "name": "shufflenasoneshotfix0_hybridsequential0_hardswish1__mul0", 
      "inputs": [[867, 0, 0], [870, 0, 0]]
    }, 
    {
      "op": "Dropout", 
      "name": "shufflenasoneshotfix0_hybridsequential0_dropout0_fwd", 
      "attrs": {
        "axes": "()", 
        "cudnn_off": "False", 
        "p": "0.2"
      }, 
      "inputs": [[871, 0, 0]]
    }, 
    {
      "op": "_contrib_quantize_v2", 
      "name": "shufflenasoneshotfix0_hybridsequential0_dropout0_fwd_output_quantize", 
      "attrs": {"out_type": "auto"}, 
      "inputs": [[872, 0, 0]]
    }, 
    {
      "op": "null", 
      "name": "shufflenasoneshotfix0_output_conv0_weight", 
      "attrs": {
        "__dtype__": "0", 
        "__lr_mult__": "1.0", 
        "__shape__": "(1000, 1024, 1, 1)", 
        "__storage_type__": "0", 
        "__wd_mult__": "1.0"
      }, 
      "inputs": []
    }, 
    {
      "op": "null", 
      "name": "shufflenasoneshotfix0_output_conv0_bias", 
      "attrs": {
        "__dtype__": "0", 
        "__init__": "zeros", 
        "__lr_mult__": "1.0", 
        "__shape__": "(1000,)", 
        "__storage_type__": "0", 
        "__wd_mult__": "1.0"
      }, 
      "inputs": []
    }, 
    {
      "op": "_sg_mkldnn_conv", 
      "name": "quantized_sg_mkldnn_conv_97", 
      "attrs": {"quantized": "true"}, 
      "inputs": [[873, 0, 0], [874, 0, 0], [875, 0, 0], [873, 1, 0], [873, 2, 0]], 
      "subgraphs": [
        {
          "nodes": [
            {
              "op": "null", 
              "name": "shufflenasoneshotfix0_hybridsequential0_dropout0_fwd_output0", 
              "inputs": []
            }, 
            {
              "op": "null", 
              "name": "shufflenasoneshotfix0_output_conv0_weight0", 
              "inputs": []
            }, 
            {
              "op": "null", 
              "name": "shufflenasoneshotfix0_output_conv0_bias0", 
              "inputs": []
            }, 
            {
              "op": "Convolution", 
              "name": "shufflenasoneshotfix0_output_conv0_fwd", 
              "attrs": {
                "dilate": "(1, 1)", 
                "kernel": "(1, 1)", 
                "layout": "NCHW", 
                "no_bias": "False", 
                "num_filter": "1000", 
                "num_group": "1", 
                "pad": "(0, 0)", 
                "stride": "(1, 1)"
              }, 
              "inputs": [[0, 0, 0], [1, 0, 0], [2, 0, 0]]
            }
          ], 
          "arg_nodes": [0, 1, 2], 
          "node_row_ptr": [0, 1, 2, 3, 4], 
          "heads": [[3, 0, 0]]
        }
      ]
    }, 
    {
      "op": "_contrib_requantize", 
      "name": "requantize_sg_mkldnn_conv_97", 
      "attrs": {"out_type": "auto"}, 
      "inputs": [[876, 0, 0], [876, 1, 0], [876, 2, 0]]
    }, 
    {
      "op": "_contrib_dequantize", 
      "name": "sg_mkldnn_conv_97_dequantize", 
      "inputs": [[877, 0, 0], [877, 1, 0], [877, 2, 0]]
    }, 
    {
      "op": "Flatten", 
      "name": "shufflenasoneshotfix0_output_flatten0_flatten0", 
      "inputs": [[878, 0, 0]]
    }, 
    {
      "op": "null", 
      "name": "softmax_label", 
      "inputs": []
    }, 
    {
      "op": "SoftmaxOutput", 
      "name": "softmax", 
      "inputs": [[879, 0, 0], [880, 0, 0]]
    }
  ], 
  "arg_nodes": [
    0, 
    1, 
    2, 
    3, 
    4, 
    5, 
    11, 
    12, 
    13, 
    14, 
    15, 
    17, 
    18, 
    19, 
    20, 
    21, 
    23, 
    24, 
    25, 
    26, 
    27, 
    29, 
    30, 
    31, 
    32, 
    33, 
    35, 
    36, 
    37, 
    38, 
    39, 
    47, 
    48, 
    49, 
    50, 
    51, 
    53, 
    54, 
    55, 
    56, 
    57, 
    59, 
    60, 
    61, 
    62, 
    63, 
    71, 
    72, 
    73, 
    74, 
    75, 
    77, 
    78, 
    79, 
    80, 
    81, 
    83, 
    84, 
    85, 
    86, 
    87, 
    95, 
    96, 
    97, 
    98, 
    99, 
    101, 
    102, 
    103, 
    104, 
    105, 
    107, 
    108, 
    109, 
    110, 
    111, 
    114, 
    115, 
    116, 
    117, 
    118, 
    120, 
    121, 
    122, 
    123, 
    124, 
    130, 
    131, 
    132, 
    133, 
    134, 
    140, 
    141, 
    142, 
    143, 
    144, 
    146, 
    147, 
    148, 
    149, 
    150, 
    162, 
    163, 
    164, 
    165, 
    166, 
    172, 
    173, 
    174, 
    175, 
    176, 
    178, 
    179, 
    180, 
    181, 
    182, 
    194, 
    195, 
    196, 
    197, 
    198, 
    204, 
    205, 
    206, 
    207, 
    208, 
    210, 
    211, 
    212, 
    213, 
    214, 
    226, 
    227, 
    228, 
    229, 
    230, 
    236, 
    237, 
    238, 
    239, 
    240, 
    242, 
    243, 
    244, 
    245, 
    246, 
    253, 
    254, 
    255, 
    256, 
    257, 
    259, 
    260, 
    261, 
    262, 
    263, 
    269, 
    270, 
    271, 
    272, 
    273, 
    275, 
    276, 
    277, 
    278, 
    279, 
    285, 
    286, 
    287, 
    288, 
    289, 
    291, 
    292, 
    293, 
    294, 
    295, 
    301, 
    302, 
    303, 
    304, 
    305, 
    307, 
    308, 
    309, 
    310, 
    311, 
    319, 
    320, 
    323, 
    324, 
    338, 
    339, 
    340, 
    341, 
    342, 
    348, 
    349, 
    350, 
    351, 
    352, 
    354, 
    355, 
    356, 
    357, 
    358, 
    366, 
    367, 
    370, 
    371, 
    385, 
    386, 
    387, 
    388, 
    389, 
    395, 
    396, 
    397, 
    398, 
    399, 
    401, 
    402, 
    403, 
    404, 
    405, 
    413, 
    414, 
    417, 
    418, 
    432, 
    433, 
    434, 
    435, 
    436, 
    442, 
    443, 
    444, 
    445, 
    446, 
    448, 
    449, 
    450, 
    451, 
    452, 
    460, 
    461, 
    464, 
    465, 
    479, 
    480, 
    481, 
    482, 
    483, 
    489, 
    490, 
    491, 
    492, 
    493, 
    495, 
    496, 
    497, 
    498, 
    499, 
    507, 
    508, 
    511, 
    512, 
    526, 
    527, 
    528, 
    529, 
    530, 
    536, 
    537, 
    538, 
    539, 
    540, 
    542, 
    543, 
    544, 
    545, 
    546, 
    554, 
    555, 
    558, 
    559, 
    573, 
    574, 
    575, 
    576, 
    577, 
    583, 
    584, 
    585, 
    586, 
    587, 
    589, 
    590, 
    591, 
    592, 
    593, 
    601, 
    602, 
    605, 
    606, 
    620, 
    621, 
    622, 
    623, 
    624, 
    630, 
    631, 
    632, 
    633, 
    634, 
    636, 
    637, 
    638, 
    639, 
    640, 
    648, 
    649, 
    652, 
    653, 
    662, 
    663, 
    664, 
    665, 
    666, 
    668, 
    669, 
    670, 
    671, 
    672, 
    678, 
    679, 
    680, 
    681, 
    682, 
    688, 
    689, 
    690, 
    691, 
    692, 
    694, 
    695, 
    696, 
    697, 
    698, 
    706, 
    707, 
    710, 
    711, 
    725, 
    726, 
    727, 
    728, 
    729, 
    735, 
    736, 
    737, 
    738, 
    739, 
    741, 
    742, 
    743, 
    744, 
    745, 
    753, 
    754, 
    757, 
    758, 
    772, 
    773, 
    774, 
    775, 
    776, 
    782, 
    783, 
    784, 
    785, 
    786, 
    788, 
    789, 
    790, 
    791, 
    792, 
    800, 
    801, 
    804, 
    805, 
    819, 
    820, 
    821, 
    822, 
    823, 
    829, 
    830, 
    831, 
    832, 
    833, 
    835, 
    836, 
    837, 
    838, 
    839, 
    847, 
    848, 
    851, 
    852, 
    863, 
    864, 
    874, 
    875, 
    880
  ], 
  "node_row_ptr": [
    0, 
    1, 
    2, 
    3, 
    4, 
    5, 
    6, 
    7, 
    8, 
    9, 
    10, 
    11, 
    12, 
    13, 
    14, 
    15, 
    16, 
    17, 
    18, 
    19, 
    20, 
    21, 
    22, 
    23, 
    24, 
    25, 
    26, 
    27, 
    28, 
    29, 
    30, 
    31, 
    32, 
    33, 
    34, 
    35, 
    36, 
    37, 
    38, 
    39, 
    40, 
    41, 
    42, 
    43, 
    44, 
    45, 
    46, 
    47, 
    48, 
    49, 
    50, 
    51, 
    52, 
    53, 
    54, 
    55, 
    56, 
    57, 
    58, 
    59, 
    60, 
    61, 
    62, 
    63, 
    64, 
    65, 
    66, 
    67, 
    68, 
    69, 
    70, 
    71, 
    72, 
    73, 
    74, 
    75, 
    76, 
    77, 
    78, 
    79, 
    80, 
    81, 
    82, 
    83, 
    84, 
    85, 
    86, 
    87, 
    88, 
    89, 
    90, 
    91, 
    92, 
    93, 
    94, 
    95, 
    96, 
    97, 
    98, 
    99, 
    100, 
    101, 
    102, 
    103, 
    104, 
    105, 
    106, 
    107, 
    108, 
    109, 
    110, 
    111, 
    112, 
    113, 
    114, 
    115, 
    116, 
    117, 
    118, 
    119, 
    120, 
    121, 
    122, 
    123, 
    124, 
    125, 
    126, 
    127, 
    128, 
    129, 
    130, 
    131, 
    132, 
    133, 
    134, 
    135, 
    136, 
    137, 
    138, 
    139, 
    140, 
    141, 
    142, 
    143, 
    144, 
    145, 
    146, 
    147, 
    148, 
    149, 
    150, 
    151, 
    152, 
    153, 
    154, 
    155, 
    156, 
    157, 
    158, 
    159, 
    160, 
    161, 
    162, 
    163, 
    164, 
    165, 
    166, 
    167, 
    168, 
    169, 
    170, 
    171, 
    172, 
    173, 
    174, 
    175, 
    176, 
    177, 
    178, 
    179, 
    180, 
    181, 
    182, 
    183, 
    184, 
    185, 
    186, 
    187, 
    188, 
    189, 
    190, 
    191, 
    192, 
    193, 
    194, 
    195, 
    196, 
    197, 
    198, 
    199, 
    200, 
    201, 
    202, 
    203, 
    204, 
    205, 
    206, 
    207, 
    208, 
    209, 
    210, 
    211, 
    212, 
    213, 
    214, 
    215, 
    216, 
    217, 
    218, 
    219, 
    220, 
    221, 
    222, 
    223, 
    224, 
    225, 
    226, 
    227, 
    228, 
    229, 
    230, 
    231, 
    232, 
    233, 
    234, 
    235, 
    236, 
    237, 
    238, 
    239, 
    240, 
    241, 
    242, 
    243, 
    244, 
    245, 
    246, 
    247, 
    248, 
    249, 
    250, 
    251, 
    252, 
    253, 
    254, 
    255, 
    256, 
    257, 
    258, 
    259, 
    260, 
    261, 
    262, 
    263, 
    264, 
    265, 
    266, 
    267, 
    268, 
    269, 
    270, 
    271, 
    272, 
    273, 
    274, 
    275, 
    276, 
    277, 
    278, 
    279, 
    280, 
    281, 
    282, 
    283, 
    284, 
    285, 
    286, 
    287, 
    288, 
    289, 
    290, 
    291, 
    292, 
    293, 
    294, 
    295, 
    296, 
    297, 
    298, 
    299, 
    300, 
    301, 
    302, 
    303, 
    304, 
    305, 
    306, 
    307, 
    308, 
    309, 
    310, 
    311, 
    312, 
    313, 
    314, 
    315, 
    316, 
    317, 
    318, 
    321, 
    322, 
    323, 
    326, 
    329, 
    330, 
    331, 
    334, 
    337, 
    338, 
    339, 
    340, 
    341, 
    342, 
    343, 
    344, 
    345, 
    346, 
    347, 
    348, 
    349, 
    350, 
    351, 
    352, 
    353, 
    354, 
    355, 
    356, 
    357, 
    358, 
    359, 
    360, 
    361, 
    362, 
    363, 
    364, 
    365, 
    366, 
    367, 
    368, 
    369, 
    370, 
    371, 
    372, 
    373, 
    374, 
    375, 
    378, 
    379, 
    380, 
    383, 
    386, 
    387, 
    388, 
    391, 
    394, 
    395, 
    396, 
    397, 
    398, 
    399, 
    400, 
    401, 
    402, 
    403, 
    404, 
    405, 
    406, 
    407, 
    408, 
    409, 
    410, 
    411, 
    412, 
    413, 
    414, 
    415, 
    416, 
    417, 
    418, 
    419, 
    420, 
    421, 
    422, 
    423, 
    424, 
    425, 
    426, 
    427, 
    428, 
    429, 
    430, 
    431, 
    432, 
    435, 
    436, 
    437, 
    440, 
    443, 
    444, 
    445, 
    448, 
    451, 
    452, 
    453, 
    454, 
    455, 
    456, 
    457, 
    458, 
    459, 
    460, 
    461, 
    462, 
    463, 
    464, 
    465, 
    466, 
    467, 
    468, 
    469, 
    470, 
    471, 
    472, 
    473, 
    474, 
    475, 
    476, 
    477, 
    478, 
    479, 
    480, 
    481, 
    482, 
    483, 
    484, 
    485, 
    486, 
    487, 
    488, 
    489, 
    492, 
    493, 
    494, 
    497, 
    500, 
    501, 
    502, 
    505, 
    508, 
    509, 
    510, 
    511, 
    512, 
    513, 
    514, 
    515, 
    516, 
    517, 
    518, 
    519, 
    520, 
    521, 
    522, 
    523, 
    524, 
    525, 
    526, 
    527, 
    528, 
    529, 
    530, 
    531, 
    532, 
    533, 
    534, 
    535, 
    536, 
    537, 
    538, 
    539, 
    540, 
    541, 
    542, 
    543, 
    544, 
    545, 
    546, 
    549, 
    550, 
    551, 
    554, 
    557, 
    558, 
    559, 
    562, 
    565, 
    566, 
    567, 
    568, 
    569, 
    570, 
    571, 
    572, 
    573, 
    574, 
    575, 
    576, 
    577, 
    578, 
    579, 
    580, 
    581, 
    582, 
    583, 
    584, 
    585, 
    586, 
    587, 
    588, 
    589, 
    590, 
    591, 
    592, 
    593, 
    594, 
    595, 
    596, 
    597, 
    598, 
    599, 
    600, 
    601, 
    602, 
    603, 
    606, 
    607, 
    608, 
    611, 
    614, 
    615, 
    616, 
    619, 
    622, 
    623, 
    624, 
    625, 
    626, 
    627, 
    628, 
    629, 
    630, 
    631, 
    632, 
    633, 
    634, 
    635, 
    636, 
    637, 
    638, 
    639, 
    640, 
    641, 
    642, 
    643, 
    644, 
    645, 
    646, 
    647, 
    648, 
    649, 
    650, 
    651, 
    652, 
    653, 
    654, 
    655, 
    656, 
    657, 
    658, 
    659, 
    660, 
    663, 
    664, 
    665, 
    668, 
    671, 
    672, 
    673, 
    676, 
    679, 
    680, 
    681, 
    682, 
    683, 
    684, 
    685, 
    686, 
    687, 
    688, 
    689, 
    690, 
    691, 
    692, 
    693, 
    694, 
    695, 
    696, 
    697, 
    698, 
    699, 
    700, 
    701, 
    702, 
    703, 
    704, 
    705, 
    706, 
    707, 
    708, 
    709, 
    710, 
    711, 
    712, 
    713, 
    714, 
    715, 
    716, 
    717, 
    720, 
    721, 
    722, 
    725, 
    728, 
    729, 
    730, 
    733, 
    736, 
    737, 
    738, 
    739, 
    740, 
    741, 
    742, 
    743, 
    744, 
    745, 
    746, 
    747, 
    748, 
    749, 
    750, 
    751, 
    752, 
    753, 
    754, 
    755, 
    756, 
    757, 
    758, 
    759, 
    760, 
    761, 
    762, 
    763, 
    764, 
    765, 
    766, 
    767, 
    768, 
    769, 
    770, 
    771, 
    772, 
    773, 
    774, 
    775, 
    776, 
    777, 
    778, 
    779, 
    780, 
    781, 
    782, 
    783, 
    784, 
    785, 
    788, 
    789, 
    790, 
    793, 
    796, 
    797, 
    798, 
    801, 
    804, 
    805, 
    806, 
    807, 
    808, 
    809, 
    810, 
    811, 
    812, 
    813, 
    814, 
    815, 
    816, 
    817, 
    818, 
    819, 
    820, 
    821, 
    822, 
    823, 
    824, 
    825, 
    826, 
    827, 
    828, 
    829, 
    830, 
    831, 
    832, 
    833, 
    834, 
    835, 
    836, 
    837, 
    838, 
    839, 
    840, 
    841, 
    842, 
    845, 
    846, 
    847, 
    850, 
    853, 
    854, 
    855, 
    858, 
    861, 
    862, 
    863, 
    864, 
    865, 
    866, 
    867, 
    868, 
    869, 
    870, 
    871, 
    872, 
    873, 
    874, 
    875, 
    876, 
    877, 
    878, 
    879, 
    880, 
    881, 
    882, 
    883, 
    884, 
    885, 
    886, 
    887, 
    888, 
    889, 
    890, 
    891, 
    892, 
    893, 
    894, 
    895, 
    896, 
    897, 
    898, 
    899, 
    902, 
    903, 
    904, 
    907, 
    910, 
    911, 
    912, 
    915, 
    918, 
    919, 
    920, 
    921, 
    922, 
    923, 
    924, 
    925, 
    926, 
    927, 
    928, 
    929, 
    930, 
    931, 
    932, 
    933, 
    934, 
    935, 
    936, 
    937, 
    938, 
    939, 
    940, 
    941, 
    942, 
    943, 
    944, 
    945, 
    946, 
    947, 
    948, 
    949, 
    950, 
    951, 
    952, 
    953, 
    954, 
    955, 
    956, 
    959, 
    960, 
    961, 
    964, 
    967, 
    968, 
    969, 
    972, 
    975, 
    976, 
    977, 
    978, 
    979, 
    980, 
    981, 
    982, 
    985, 
    986, 
    987, 
    990, 
    993, 
    994, 
    995, 
    996, 
    997, 
    998, 
    1000, 
    1003, 
    1004, 
    1005, 
    1008, 
    1011, 
    1012, 
    1013, 
    1014, 
    1015
  ], 
  "heads": [[881, 0, 0]], 
  "attrs": {"mxnet_version": ["int", 10500]}
}