{
  "nodes": [
    {
      "op": "null", 
      "name": "data", 
      "inputs": []
    }, 
    {
      "op": "null", 
      "name": "shufflenasoneshotfix0_hybridsequential0_conv0_weight", 
      "attrs": {
        "__dtype__": "0", 
        "__lr_mult__": "1.0", 
        "__shape__": "(16, 3, 3, 3)", 
        "__storage_type__": "0", 
        "__wd_mult__": "1.0"
      }, 
      "inputs": []
    }, 
    {
      "op": "Convolution", 
      "name": "shufflenasoneshotfix0_hybridsequential0_conv0_fwd", 
      "attrs": {
        "dilate": "(1, 1)", 
        "kernel": "(3, 3)", 
        "layout": "NCHW", 
        "no_bias": "True", 
        "num_filter": "16", 
        "num_group": "1", 
        "pad": "(1, 1)", 
        "stride": "(2, 2)"
      }, 
      "inputs": [[0, 0, 0], [1, 0, 0]]
    }, 
    {
      "op": "null", 
      "name": "shufflenasoneshotfix0_hybridsequential0_batchnorm0_gamma", 
      "attrs": {
        "__dtype__": "0", 
        "__init__": "ones", 
        "__lr_mult__": "1.0", 
        "__shape__": "(0,)", 
        "__storage_type__": "0", 
        "__wd_mult__": "1.0"
      }, 
      "inputs": []
    }, 
    {
      "op": "null", 
      "name": "shufflenasoneshotfix0_hybridsequential0_batchnorm0_beta", 
      "attrs": {
        "__dtype__": "0", 
        "__init__": "zeros", 
        "__lr_mult__": "1.0", 
        "__shape__": "(0,)", 
        "__storage_type__": "0", 
        "__wd_mult__": "1.0"
      }, 
      "inputs": []
    }, 
    {
      "op": "null", 
      "name": "shufflenasoneshotfix0_hybridsequential0_batchnorm0_running_mean", 
      "attrs": {
        "__dtype__": "0", 
        "__init__": "zeros", 
        "__lr_mult__": "1.0", 
        "__shape__": "(0,)", 
        "__storage_type__": "0", 
        "__wd_mult__": "1.0"
      }, 
      "inputs": []
    }, 
    {
      "op": "null", 
      "name": "shufflenasoneshotfix0_hybridsequential0_batchnorm0_running_var", 
      "attrs": {
        "__dtype__": "0", 
        "__init__": "ones", 
        "__lr_mult__": "1.0", 
        "__shape__": "(0,)", 
        "__storage_type__": "0", 
        "__wd_mult__": "1.0"
      }, 
      "inputs": []
    }, 
    {
      "op": "BatchNorm", 
      "name": "shufflenasoneshotfix0_hybridsequential0_batchnorm0_fwd", 
      "attrs": {
        "axis": "1", 
        "eps": "1e-05", 
        "fix_gamma": "False", 
        "momentum": "0.1", 
        "use_global_stats": "False"
      }, 
      "inputs": [[2, 0, 0], [3, 0, 0], [4, 0, 0], [5, 0, 2], [6, 0, 2]]
    }, 
    {
      "op": "Activation", 
      "name": "shufflenasoneshotfix0_hybridsequential0_relu0_fwd", 
      "attrs": {"act_type": "relu"}, 
      "inputs": [[7, 0, 0]]
    }, 
    {
      "op": "null", 
      "name": "shufflenasoneshotfix0_hybridsequential0_shufflenetblock0_conv3_weight", 
      "attrs": {
        "__dtype__": "0", 
        "__lr_mult__": "1.0", 
        "__shape__": "(16, 1, 3, 3)", 
        "__storage_type__": "0", 
        "__wd_mult__": "1.0"
      }, 
      "inputs": []
    }, 
    {
      "op": "Convolution", 
      "name": "shufflenasoneshotfix0_hybridsequential0_shufflenetblock0_conv3_fwd", 
      "attrs": {
        "dilate": "(1, 1)", 
        "kernel": "(3, 3)", 
        "layout": "NCHW", 
        "no_bias": "True", 
        "num_filter": "16", 
        "num_group": "16", 
        "pad": "(1, 1)", 
        "stride": "(2, 2)"
      }, 
      "inputs": [[8, 0, 0], [9, 0, 0]]
    }, 
    {
      "op": "null", 
      "name": "shufflenasoneshotfix0_hybridsequential0_shufflenetblock0_batchnorm3_gamma", 
      "attrs": {
        "__dtype__": "0", 
        "__init__": "ones", 
        "__lr_mult__": "1.0", 
        "__shape__": "(0,)", 
        "__storage_type__": "0", 
        "__wd_mult__": "1.0"
      }, 
      "inputs": []
    }, 
    {
      "op": "null", 
      "name": "shufflenasoneshotfix0_hybridsequential0_shufflenetblock0_batchnorm3_beta", 
      "attrs": {
        "__dtype__": "0", 
        "__init__": "zeros", 
        "__lr_mult__": "1.0", 
        "__shape__": "(0,)", 
        "__storage_type__": "0", 
        "__wd_mult__": "1.0"
      }, 
      "inputs": []
    }, 
    {
      "op": "null", 
      "name": "shufflenasoneshotfix0_hybridsequential0_shufflenetblock0_batchnorm3_running_mean", 
      "attrs": {
        "__dtype__": "0", 
        "__init__": "zeros", 
        "__lr_mult__": "1.0", 
        "__shape__": "(0,)", 
        "__storage_type__": "0", 
        "__wd_mult__": "1.0"
      }, 
      "inputs": []
    }, 
    {
      "op": "null", 
      "name": "shufflenasoneshotfix0_hybridsequential0_shufflenetblock0_batchnorm3_running_var", 
      "attrs": {
        "__dtype__": "0", 
        "__init__": "ones", 
        "__lr_mult__": "1.0", 
        "__shape__": "(0,)", 
        "__storage_type__": "0", 
        "__wd_mult__": "1.0"
      }, 
      "inputs": []
    }, 
    {
      "op": "BatchNorm", 
      "name": "shufflenasoneshotfix0_hybridsequential0_shufflenetblock0_batchnorm3_fwd", 
      "attrs": {
        "axis": "1", 
        "eps": "1e-05", 
        "fix_gamma": "False", 
        "momentum": "0.1", 
        "use_global_stats": "False"
      }, 
      "inputs": [[10, 0, 0], [11, 0, 0], [12, 0, 0], [13, 0, 2], [14, 0, 2]]
    }, 
    {
      "op": "null", 
      "name": "shufflenasoneshotfix0_hybridsequential0_shufflenetblock0_conv4_weight", 
      "attrs": {
        "__dtype__": "0", 
        "__lr_mult__": "1.0", 
        "__shape__": "(16, 16, 1, 1)", 
        "__storage_type__": "0", 
        "__wd_mult__": "1.0"
      }, 
      "inputs": []
    }, 
    {
      "op": "Convolution", 
      "name": "shufflenasoneshotfix0_hybridsequential0_shufflenetblock0_conv4_fwd", 
      "attrs": {
        "dilate": "(1, 1)", 
        "kernel": "(1, 1)", 
        "layout": "NCHW", 
        "no_bias": "True", 
        "num_filter": "16", 
        "num_group": "1", 
        "pad": "(0, 0)", 
        "stride": "(1, 1)"
      }, 
      "inputs": [[15, 0, 0], [16, 0, 0]]
    }, 
    {
      "op": "null", 
      "name": "shufflenasoneshotfix0_hybridsequential0_shufflenetblock0_batchnorm4_gamma", 
      "attrs": {
        "__dtype__": "0", 
        "__init__": "ones", 
        "__lr_mult__": "1.0", 
        "__shape__": "(0,)", 
        "__storage_type__": "0", 
        "__wd_mult__": "1.0"
      }, 
      "inputs": []
    }, 
    {
      "op": "null", 
      "name": "shufflenasoneshotfix0_hybridsequential0_shufflenetblock0_batchnorm4_beta", 
      "attrs": {
        "__dtype__": "0", 
        "__init__": "zeros", 
        "__lr_mult__": "1.0", 
        "__shape__": "(0,)", 
        "__storage_type__": "0", 
        "__wd_mult__": "1.0"
      }, 
      "inputs": []
    }, 
    {
      "op": "null", 
      "name": "shufflenasoneshotfix0_hybridsequential0_shufflenetblock0_batchnorm4_running_mean", 
      "attrs": {
        "__dtype__": "0", 
        "__init__": "zeros", 
        "__lr_mult__": "1.0", 
        "__shape__": "(0,)", 
        "__storage_type__": "0", 
        "__wd_mult__": "1.0"
      }, 
      "inputs": []
    }, 
    {
      "op": "null", 
      "name": "shufflenasoneshotfix0_hybridsequential0_shufflenetblock0_batchnorm4_running_var", 
      "attrs": {
        "__dtype__": "0", 
        "__init__": "ones", 
        "__lr_mult__": "1.0", 
        "__shape__": "(0,)", 
        "__storage_type__": "0", 
        "__wd_mult__": "1.0"
      }, 
      "inputs": []
    }, 
    {
      "op": "BatchNorm", 
      "name": "shufflenasoneshotfix0_hybridsequential0_shufflenetblock0_batchnorm4_fwd", 
      "attrs": {
        "axis": "1", 
        "eps": "1e-05", 
        "fix_gamma": "False", 
        "momentum": "0.1", 
        "use_global_stats": "False"
      }, 
      "inputs": [[17, 0, 0], [18, 0, 0], [19, 0, 0], [20, 0, 2], [21, 0, 2]]
    }, 
    {
      "op": "Activation", 
      "name": "shufflenasoneshotfix0_hybridsequential0_shufflenetblock0_relu2_fwd", 
      "attrs": {"act_type": "relu"}, 
      "inputs": [[22, 0, 0]]
    }, 
    {
      "op": "null", 
      "name": "shufflenasoneshotfix0_hybridsequential0_shufflenetblock0_conv0_weight", 
      "attrs": {
        "__dtype__": "0", 
        "__lr_mult__": "1.0", 
        "__shape__": "(44, 16, 1, 1)", 
        "__storage_type__": "0", 
        "__wd_mult__": "1.0"
      }, 
      "inputs": []
    }, 
    {
      "op": "Convolution", 
      "name": "shufflenasoneshotfix0_hybridsequential0_shufflenetblock0_conv0_fwd", 
      "attrs": {
        "dilate": "(1, 1)", 
        "kernel": "(1, 1)", 
        "layout": "NCHW", 
        "no_bias": "True", 
        "num_filter": "44", 
        "num_group": "1", 
        "pad": "(0, 0)", 
        "stride": "(1, 1)"
      }, 
      "inputs": [[8, 0, 0], [24, 0, 0]]
    }, 
    {
      "op": "null", 
      "name": "shufflenasoneshotfix0_hybridsequential0_shufflenetblock0_batchnorm0_gamma", 
      "attrs": {
        "__dtype__": "0", 
        "__init__": "ones", 
        "__lr_mult__": "1.0", 
        "__shape__": "(0,)", 
        "__storage_type__": "0", 
        "__wd_mult__": "1.0"
      }, 
      "inputs": []
    }, 
    {
      "op": "null", 
      "name": "shufflenasoneshotfix0_hybridsequential0_shufflenetblock0_batchnorm0_beta", 
      "attrs": {
        "__dtype__": "0", 
        "__init__": "zeros", 
        "__lr_mult__": "1.0", 
        "__shape__": "(0,)", 
        "__storage_type__": "0", 
        "__wd_mult__": "1.0"
      }, 
      "inputs": []
    }, 
    {
      "op": "null", 
      "name": "shufflenasoneshotfix0_hybridsequential0_shufflenetblock0_batchnorm0_running_mean", 
      "attrs": {
        "__dtype__": "0", 
        "__init__": "zeros", 
        "__lr_mult__": "1.0", 
        "__shape__": "(0,)", 
        "__storage_type__": "0", 
        "__wd_mult__": "1.0"
      }, 
      "inputs": []
    }, 
    {
      "op": "null", 
      "name": "shufflenasoneshotfix0_hybridsequential0_shufflenetblock0_batchnorm0_running_var", 
      "attrs": {
        "__dtype__": "0", 
        "__init__": "ones", 
        "__lr_mult__": "1.0", 
        "__shape__": "(0,)", 
        "__storage_type__": "0", 
        "__wd_mult__": "1.0"
      }, 
      "inputs": []
    }, 
    {
      "op": "BatchNorm", 
      "name": "shufflenasoneshotfix0_hybridsequential0_shufflenetblock0_batchnorm0_fwd", 
      "attrs": {
        "axis": "1", 
        "eps": "1e-05", 
        "fix_gamma": "False", 
        "momentum": "0.1", 
        "use_global_stats": "False"
      }, 
      "inputs": [[25, 0, 0], [26, 0, 0], [27, 0, 0], [28, 0, 2], [29, 0, 2]]
    }, 
    {
      "op": "Activation", 
      "name": "shufflenasoneshotfix0_hybridsequential0_shufflenetblock0_relu0_fwd", 
      "attrs": {"act_type": "relu"}, 
      "inputs": [[30, 0, 0]]
    }, 
    {
      "op": "null", 
      "name": "shufflenasoneshotfix0_hybridsequential0_shufflenetblock0_conv1_weight", 
      "attrs": {
        "__dtype__": "0", 
        "__lr_mult__": "1.0", 
        "__shape__": "(44, 1, 3, 3)", 
        "__storage_type__": "0", 
        "__wd_mult__": "1.0"
      }, 
      "inputs": []
    }, 
    {
      "op": "Convolution", 
      "name": "shufflenasoneshotfix0_hybridsequential0_shufflenetblock0_conv1_fwd", 
      "attrs": {
        "dilate": "(1, 1)", 
        "kernel": "(3, 3)", 
        "layout": "NCHW", 
        "no_bias": "True", 
        "num_filter": "44", 
        "num_group": "44", 
        "pad": "(1, 1)", 
        "stride": "(2, 2)"
      }, 
      "inputs": [[31, 0, 0], [32, 0, 0]]
    }, 
    {
      "op": "null", 
      "name": "shufflenasoneshotfix0_hybridsequential0_shufflenetblock0_batchnorm1_gamma", 
      "attrs": {
        "__dtype__": "0", 
        "__init__": "ones", 
        "__lr_mult__": "1.0", 
        "__shape__": "(0,)", 
        "__storage_type__": "0", 
        "__wd_mult__": "1.0"
      }, 
      "inputs": []
    }, 
    {
      "op": "null", 
      "name": "shufflenasoneshotfix0_hybridsequential0_shufflenetblock0_batchnorm1_beta", 
      "attrs": {
        "__dtype__": "0", 
        "__init__": "zeros", 
        "__lr_mult__": "1.0", 
        "__shape__": "(0,)", 
        "__storage_type__": "0", 
        "__wd_mult__": "1.0"
      }, 
      "inputs": []
    }, 
    {
      "op": "null", 
      "name": "shufflenasoneshotfix0_hybridsequential0_shufflenetblock0_batchnorm1_running_mean", 
      "attrs": {
        "__dtype__": "0", 
        "__init__": "zeros", 
        "__lr_mult__": "1.0", 
        "__shape__": "(0,)", 
        "__storage_type__": "0", 
        "__wd_mult__": "1.0"
      }, 
      "inputs": []
    }, 
    {
      "op": "null", 
      "name": "shufflenasoneshotfix0_hybridsequential0_shufflenetblock0_batchnorm1_running_var", 
      "attrs": {
        "__dtype__": "0", 
        "__init__": "ones", 
        "__lr_mult__": "1.0", 
        "__shape__": "(0,)", 
        "__storage_type__": "0", 
        "__wd_mult__": "1.0"
      }, 
      "inputs": []
    }, 
    {
      "op": "BatchNorm", 
      "name": "shufflenasoneshotfix0_hybridsequential0_shufflenetblock0_batchnorm1_fwd", 
      "attrs": {
        "axis": "1", 
        "eps": "1e-05", 
        "fix_gamma": "False", 
        "momentum": "0.1", 
        "use_global_stats": "False"
      }, 
      "inputs": [[33, 0, 0], [34, 0, 0], [35, 0, 0], [36, 0, 2], [37, 0, 2]]
    }, 
    {
      "op": "null", 
      "name": "shufflenasoneshotfix0_hybridsequential0_shufflenetblock0_conv2_weight", 
      "attrs": {
        "__dtype__": "0", 
        "__lr_mult__": "1.0", 
        "__shape__": "(48, 44, 1, 1)", 
        "__storage_type__": "0", 
        "__wd_mult__": "1.0"
      }, 
      "inputs": []
    }, 
    {
      "op": "Convolution", 
      "name": "shufflenasoneshotfix0_hybridsequential0_shufflenetblock0_conv2_fwd", 
      "attrs": {
        "dilate": "(1, 1)", 
        "kernel": "(1, 1)", 
        "layout": "NCHW", 
        "no_bias": "True", 
        "num_filter": "48", 
        "num_group": "1", 
        "pad": "(0, 0)", 
        "stride": "(1, 1)"
      }, 
      "inputs": [[38, 0, 0], [39, 0, 0]]
    }, 
    {
      "op": "null", 
      "name": "shufflenasoneshotfix0_hybridsequential0_shufflenetblock0_batchnorm2_gamma", 
      "attrs": {
        "__dtype__": "0", 
        "__init__": "ones", 
        "__lr_mult__": "1.0", 
        "__shape__": "(0,)", 
        "__storage_type__": "0", 
        "__wd_mult__": "1.0"
      }, 
      "inputs": []
    }, 
    {
      "op": "null", 
      "name": "shufflenasoneshotfix0_hybridsequential0_shufflenetblock0_batchnorm2_beta", 
      "attrs": {
        "__dtype__": "0", 
        "__init__": "zeros", 
        "__lr_mult__": "1.0", 
        "__shape__": "(0,)", 
        "__storage_type__": "0", 
        "__wd_mult__": "1.0"
      }, 
      "inputs": []
    }, 
    {
      "op": "null", 
      "name": "shufflenasoneshotfix0_hybridsequential0_shufflenetblock0_batchnorm2_running_mean", 
      "attrs": {
        "__dtype__": "0", 
        "__init__": "zeros", 
        "__lr_mult__": "1.0", 
        "__shape__": "(0,)", 
        "__storage_type__": "0", 
        "__wd_mult__": "1.0"
      }, 
      "inputs": []
    }, 
    {
      "op": "null", 
      "name": "shufflenasoneshotfix0_hybridsequential0_shufflenetblock0_batchnorm2_running_var", 
      "attrs": {
        "__dtype__": "0", 
        "__init__": "ones", 
        "__lr_mult__": "1.0", 
        "__shape__": "(0,)", 
        "__storage_type__": "0", 
        "__wd_mult__": "1.0"
      }, 
      "inputs": []
    }, 
    {
      "op": "BatchNorm", 
      "name": "shufflenasoneshotfix0_hybridsequential0_shufflenetblock0_batchnorm2_fwd", 
      "attrs": {
        "axis": "1", 
        "eps": "1e-05", 
        "fix_gamma": "False", 
        "momentum": "0.1", 
        "use_global_stats": "False"
      }, 
      "inputs": [[40, 0, 0], [41, 0, 0], [42, 0, 0], [43, 0, 2], [44, 0, 2]]
    }, 
    {
      "op": "Activation", 
      "name": "shufflenasoneshotfix0_hybridsequential0_shufflenetblock0_relu1_fwd", 
      "attrs": {"act_type": "relu"}, 
      "inputs": [[45, 0, 0]]
    }, 
    {
      "op": "Concat", 
      "name": "shufflenasoneshotfix0_hybridsequential0_shufflenetblock0_concat0", 
      "attrs": {
        "dim": "1", 
        "num_args": "2"
      }, 
      "inputs": [[23, 0, 0], [46, 0, 0]]
    }, 
    {
      "op": "Reshape", 
      "name": "shufflenasoneshotfix0_hybridsequential0_shufflenetblock1_shufflechannels0_reshape0", 
      "attrs": {"shape": "(0, -4, 2, -1, -2)"}, 
      "inputs": [[47, 0, 0]]
    }, 
    {
      "op": "SwapAxis", 
      "name": "shufflenasoneshotfix0_hybridsequential0_shufflenetblock1_shufflechannels0_swapaxes0", 
      "attrs": {
        "dim1": "1", 
        "dim2": "2"
      }, 
      "inputs": [[48, 0, 0]]
    }, 
    {
      "op": "Reshape", 
      "name": "shufflenasoneshotfix0_hybridsequential0_shufflenetblock1_shufflechannels0_reshape1", 
      "attrs": {"shape": "(0, -3, -2)"}, 
      "inputs": [[49, 0, 0]]
    }, 
    {
      "op": "slice", 
      "name": "shufflenasoneshotfix0_hybridsequential0_shufflenetblock1_shufflechannels0_slice0", 
      "attrs": {
        "begin": "(None, None, None, None)", 
        "end": "(None, 32, None, None)"
      }, 
      "inputs": [[50, 0, 0]]
    }, 
    {
      "op": "slice", 
      "name": "shufflenasoneshotfix0_hybridsequential0_shufflenetblock1_shufflechannels0_slice1", 
      "attrs": {
        "begin": "(None, 32, None, None)", 
        "end": "(None, None, None, None)"
      }, 
      "inputs": [[50, 0, 0]]
    }, 
    {
      "op": "null", 
      "name": "shufflenasoneshotfix0_hybridsequential0_shufflenetblock1_conv0_weight", 
      "attrs": {
        "__dtype__": "0", 
        "__lr_mult__": "1.0", 
        "__shape__": "(38, 32, 1, 1)", 
        "__storage_type__": "0", 
        "__wd_mult__": "1.0"
      }, 
      "inputs": []
    }, 
    {
      "op": "Convolution", 
      "name": "shufflenasoneshotfix0_hybridsequential0_shufflenetblock1_conv0_fwd", 
      "attrs": {
        "dilate": "(1, 1)", 
        "kernel": "(1, 1)", 
        "layout": "NCHW", 
        "no_bias": "True", 
        "num_filter": "38", 
        "num_group": "1", 
        "pad": "(0, 0)", 
        "stride": "(1, 1)"
      }, 
      "inputs": [[52, 0, 0], [53, 0, 0]]
    }, 
    {
      "op": "null", 
      "name": "shufflenasoneshotfix0_hybridsequential0_shufflenetblock1_batchnorm0_gamma", 
      "attrs": {
        "__dtype__": "0", 
        "__init__": "ones", 
        "__lr_mult__": "1.0", 
        "__shape__": "(0,)", 
        "__storage_type__": "0", 
        "__wd_mult__": "1.0"
      }, 
      "inputs": []
    }, 
    {
      "op": "null", 
      "name": "shufflenasoneshotfix0_hybridsequential0_shufflenetblock1_batchnorm0_beta", 
      "attrs": {
        "__dtype__": "0", 
        "__init__": "zeros", 
        "__lr_mult__": "1.0", 
        "__shape__": "(0,)", 
        "__storage_type__": "0", 
        "__wd_mult__": "1.0"
      }, 
      "inputs": []
    }, 
    {
      "op": "null", 
      "name": "shufflenasoneshotfix0_hybridsequential0_shufflenetblock1_batchnorm0_running_mean", 
      "attrs": {
        "__dtype__": "0", 
        "__init__": "zeros", 
        "__lr_mult__": "1.0", 
        "__shape__": "(0,)", 
        "__storage_type__": "0", 
        "__wd_mult__": "1.0"
      }, 
      "inputs": []
    }, 
    {
      "op": "null", 
      "name": "shufflenasoneshotfix0_hybridsequential0_shufflenetblock1_batchnorm0_running_var", 
      "attrs": {
        "__dtype__": "0", 
        "__init__": "ones", 
        "__lr_mult__": "1.0", 
        "__shape__": "(0,)", 
        "__storage_type__": "0", 
        "__wd_mult__": "1.0"
      }, 
      "inputs": []
    }, 
    {
      "op": "BatchNorm", 
      "name": "shufflenasoneshotfix0_hybridsequential0_shufflenetblock1_batchnorm0_fwd", 
      "attrs": {
        "axis": "1", 
        "eps": "1e-05", 
        "fix_gamma": "False", 
        "momentum": "0.1", 
        "use_global_stats": "False"
      }, 
      "inputs": [[54, 0, 0], [55, 0, 0], [56, 0, 0], [57, 0, 2], [58, 0, 2]]
    }, 
    {
      "op": "Activation", 
      "name": "shufflenasoneshotfix0_hybridsequential0_shufflenetblock1_relu0_fwd", 
      "attrs": {"act_type": "relu"}, 
      "inputs": [[59, 0, 0]]
    }, 
    {
      "op": "null", 
      "name": "shufflenasoneshotfix0_hybridsequential0_shufflenetblock1_conv1_weight", 
      "attrs": {
        "__dtype__": "0", 
        "__lr_mult__": "1.0", 
        "__shape__": "(38, 1, 3, 3)", 
        "__storage_type__": "0", 
        "__wd_mult__": "1.0"
      }, 
      "inputs": []
    }, 
    {
      "op": "Convolution", 
      "name": "shufflenasoneshotfix0_hybridsequential0_shufflenetblock1_conv1_fwd", 
      "attrs": {
        "dilate": "(1, 1)", 
        "kernel": "(3, 3)", 
        "layout": "NCHW", 
        "no_bias": "True", 
        "num_filter": "38", 
        "num_group": "38", 
        "pad": "(1, 1)", 
        "stride": "(1, 1)"
      }, 
      "inputs": [[60, 0, 0], [61, 0, 0]]
    }, 
    {
      "op": "null", 
      "name": "shufflenasoneshotfix0_hybridsequential0_shufflenetblock1_batchnorm1_gamma", 
      "attrs": {
        "__dtype__": "0", 
        "__init__": "ones", 
        "__lr_mult__": "1.0", 
        "__shape__": "(0,)", 
        "__storage_type__": "0", 
        "__wd_mult__": "1.0"
      }, 
      "inputs": []
    }, 
    {
      "op": "null", 
      "name": "shufflenasoneshotfix0_hybridsequential0_shufflenetblock1_batchnorm1_beta", 
      "attrs": {
        "__dtype__": "0", 
        "__init__": "zeros", 
        "__lr_mult__": "1.0", 
        "__shape__": "(0,)", 
        "__storage_type__": "0", 
        "__wd_mult__": "1.0"
      }, 
      "inputs": []
    }, 
    {
      "op": "null", 
      "name": "shufflenasoneshotfix0_hybridsequential0_shufflenetblock1_batchnorm1_running_mean", 
      "attrs": {
        "__dtype__": "0", 
        "__init__": "zeros", 
        "__lr_mult__": "1.0", 
        "__shape__": "(0,)", 
        "__storage_type__": "0", 
        "__wd_mult__": "1.0"
      }, 
      "inputs": []
    }, 
    {
      "op": "null", 
      "name": "shufflenasoneshotfix0_hybridsequential0_shufflenetblock1_batchnorm1_running_var", 
      "attrs": {
        "__dtype__": "0", 
        "__init__": "ones", 
        "__lr_mult__": "1.0", 
        "__shape__": "(0,)", 
        "__storage_type__": "0", 
        "__wd_mult__": "1.0"
      }, 
      "inputs": []
    }, 
    {
      "op": "BatchNorm", 
      "name": "shufflenasoneshotfix0_hybridsequential0_shufflenetblock1_batchnorm1_fwd", 
      "attrs": {
        "axis": "1", 
        "eps": "1e-05", 
        "fix_gamma": "False", 
        "momentum": "0.1", 
        "use_global_stats": "False"
      }, 
      "inputs": [[62, 0, 0], [63, 0, 0], [64, 0, 0], [65, 0, 2], [66, 0, 2]]
    }, 
    {
      "op": "null", 
      "name": "shufflenasoneshotfix0_hybridsequential0_shufflenetblock1_conv2_weight", 
      "attrs": {
        "__dtype__": "0", 
        "__lr_mult__": "1.0", 
        "__shape__": "(32, 38, 1, 1)", 
        "__storage_type__": "0", 
        "__wd_mult__": "1.0"
      }, 
      "inputs": []
    }, 
    {
      "op": "Convolution", 
      "name": "shufflenasoneshotfix0_hybridsequential0_shufflenetblock1_conv2_fwd", 
      "attrs": {
        "dilate": "(1, 1)", 
        "kernel": "(1, 1)", 
        "layout": "NCHW", 
        "no_bias": "True", 
        "num_filter": "32", 
        "num_group": "1", 
        "pad": "(0, 0)", 
        "stride": "(1, 1)"
      }, 
      "inputs": [[67, 0, 0], [68, 0, 0]]
    }, 
    {
      "op": "null", 
      "name": "shufflenasoneshotfix0_hybridsequential0_shufflenetblock1_batchnorm2_gamma", 
      "attrs": {
        "__dtype__": "0", 
        "__init__": "ones", 
        "__lr_mult__": "1.0", 
        "__shape__": "(0,)", 
        "__storage_type__": "0", 
        "__wd_mult__": "1.0"
      }, 
      "inputs": []
    }, 
    {
      "op": "null", 
      "name": "shufflenasoneshotfix0_hybridsequential0_shufflenetblock1_batchnorm2_beta", 
      "attrs": {
        "__dtype__": "0", 
        "__init__": "zeros", 
        "__lr_mult__": "1.0", 
        "__shape__": "(0,)", 
        "__storage_type__": "0", 
        "__wd_mult__": "1.0"
      }, 
      "inputs": []
    }, 
    {
      "op": "null", 
      "name": "shufflenasoneshotfix0_hybridsequential0_shufflenetblock1_batchnorm2_running_mean", 
      "attrs": {
        "__dtype__": "0", 
        "__init__": "zeros", 
        "__lr_mult__": "1.0", 
        "__shape__": "(0,)", 
        "__storage_type__": "0", 
        "__wd_mult__": "1.0"
      }, 
      "inputs": []
    }, 
    {
      "op": "null", 
      "name": "shufflenasoneshotfix0_hybridsequential0_shufflenetblock1_batchnorm2_running_var", 
      "attrs": {
        "__dtype__": "0", 
        "__init__": "ones", 
        "__lr_mult__": "1.0", 
        "__shape__": "(0,)", 
        "__storage_type__": "0", 
        "__wd_mult__": "1.0"
      }, 
      "inputs": []
    }, 
    {
      "op": "BatchNorm", 
      "name": "shufflenasoneshotfix0_hybridsequential0_shufflenetblock1_batchnorm2_fwd", 
      "attrs": {
        "axis": "1", 
        "eps": "1e-05", 
        "fix_gamma": "False", 
        "momentum": "0.1", 
        "use_global_stats": "False"
      }, 
      "inputs": [[69, 0, 0], [70, 0, 0], [71, 0, 0], [72, 0, 2], [73, 0, 2]]
    }, 
    {
      "op": "Activation", 
      "name": "shufflenasoneshotfix0_hybridsequential0_shufflenetblock1_relu1_fwd", 
      "attrs": {"act_type": "relu"}, 
      "inputs": [[74, 0, 0]]
    }, 
    {
      "op": "Concat", 
      "name": "shufflenasoneshotfix0_hybridsequential0_shufflenetblock1_concat0", 
      "attrs": {
        "dim": "1", 
        "num_args": "2"
      }, 
      "inputs": [[51, 0, 0], [75, 0, 0]]
    }, 
    {
      "op": "Reshape", 
      "name": "shufflenasoneshotfix0_hybridsequential0_shufflenetblock2_shufflechannels0_reshape0", 
      "attrs": {"shape": "(0, -4, 2, -1, -2)"}, 
      "inputs": [[76, 0, 0]]
    }, 
    {
      "op": "SwapAxis", 
      "name": "shufflenasoneshotfix0_hybridsequential0_shufflenetblock2_shufflechannels0_swapaxes0", 
      "attrs": {
        "dim1": "1", 
        "dim2": "2"
      }, 
      "inputs": [[77, 0, 0]]
    }, 
    {
      "op": "Reshape", 
      "name": "shufflenasoneshotfix0_hybridsequential0_shufflenetblock2_shufflechannels0_reshape1", 
      "attrs": {"shape": "(0, -3, -2)"}, 
      "inputs": [[78, 0, 0]]
    }, 
    {
      "op": "slice", 
      "name": "shufflenasoneshotfix0_hybridsequential0_shufflenetblock2_shufflechannels0_slice0", 
      "attrs": {
        "begin": "(None, None, None, None)", 
        "end": "(None, 32, None, None)"
      }, 
      "inputs": [[79, 0, 0]]
    }, 
    {
      "op": "slice", 
      "name": "shufflenasoneshotfix0_hybridsequential0_shufflenetblock2_shufflechannels0_slice1", 
      "attrs": {
        "begin": "(None, 32, None, None)", 
        "end": "(None, None, None, None)"
      }, 
      "inputs": [[79, 0, 0]]
    }, 
    {
      "op": "null", 
      "name": "shufflenasoneshotfix0_hybridsequential0_shufflenetblock2_conv0_weight", 
      "attrs": {
        "__dtype__": "0", 
        "__lr_mult__": "1.0", 
        "__shape__": "(32, 1, 3, 3)", 
        "__storage_type__": "0", 
        "__wd_mult__": "1.0"
      }, 
      "inputs": []
    }, 
    {
      "op": "Convolution", 
      "name": "shufflenasoneshotfix0_hybridsequential0_shufflenetblock2_conv0_fwd", 
      "attrs": {
        "dilate": "(1, 1)", 
        "kernel": "(3, 3)", 
        "layout": "NCHW", 
        "no_bias": "True", 
        "num_filter": "32", 
        "num_group": "32", 
        "pad": "(1, 1)", 
        "stride": "(1, 1)"
      }, 
      "inputs": [[81, 0, 0], [82, 0, 0]]
    }, 
    {
      "op": "null", 
      "name": "shufflenasoneshotfix0_hybridsequential0_shufflenetblock2_batchnorm0_gamma", 
      "attrs": {
        "__dtype__": "0", 
        "__init__": "ones", 
        "__lr_mult__": "1.0", 
        "__shape__": "(0,)", 
        "__storage_type__": "0", 
        "__wd_mult__": "1.0"
      }, 
      "inputs": []
    }, 
    {
      "op": "null", 
      "name": "shufflenasoneshotfix0_hybridsequential0_shufflenetblock2_batchnorm0_beta", 
      "attrs": {
        "__dtype__": "0", 
        "__init__": "zeros", 
        "__lr_mult__": "1.0", 
        "__shape__": "(0,)", 
        "__storage_type__": "0", 
        "__wd_mult__": "1.0"
      }, 
      "inputs": []
    }, 
    {
      "op": "null", 
      "name": "shufflenasoneshotfix0_hybridsequential0_shufflenetblock2_batchnorm0_running_mean", 
      "attrs": {
        "__dtype__": "0", 
        "__init__": "zeros", 
        "__lr_mult__": "1.0", 
        "__shape__": "(0,)", 
        "__storage_type__": "0", 
        "__wd_mult__": "1.0"
      }, 
      "inputs": []
    }, 
    {
      "op": "null", 
      "name": "shufflenasoneshotfix0_hybridsequential0_shufflenetblock2_batchnorm0_running_var", 
      "attrs": {
        "__dtype__": "0", 
        "__init__": "ones", 
        "__lr_mult__": "1.0", 
        "__shape__": "(0,)", 
        "__storage_type__": "0", 
        "__wd_mult__": "1.0"
      }, 
      "inputs": []
    }, 
    {
      "op": "BatchNorm", 
      "name": "shufflenasoneshotfix0_hybridsequential0_shufflenetblock2_batchnorm0_fwd", 
      "attrs": {
        "axis": "1", 
        "eps": "1e-05", 
        "fix_gamma": "False", 
        "momentum": "0.1", 
        "use_global_stats": "False"
      }, 
      "inputs": [[83, 0, 0], [84, 0, 0], [85, 0, 0], [86, 0, 2], [87, 0, 2]]
    }, 
    {
      "op": "null", 
      "name": "shufflenasoneshotfix0_hybridsequential0_shufflenetblock2_conv1_weight", 
      "attrs": {
        "__dtype__": "0", 
        "__lr_mult__": "1.0", 
        "__shape__": "(25, 32, 1, 1)", 
        "__storage_type__": "0", 
        "__wd_mult__": "1.0"
      }, 
      "inputs": []
    }, 
    {
      "op": "Convolution", 
      "name": "shufflenasoneshotfix0_hybridsequential0_shufflenetblock2_conv1_fwd", 
      "attrs": {
        "dilate": "(1, 1)", 
        "kernel": "(1, 1)", 
        "layout": "NCHW", 
        "no_bias": "True", 
        "num_filter": "25", 
        "num_group": "1", 
        "pad": "(0, 0)", 
        "stride": "(1, 1)"
      }, 
      "inputs": [[88, 0, 0], [89, 0, 0]]
    }, 
    {
      "op": "null", 
      "name": "shufflenasoneshotfix0_hybridsequential0_shufflenetblock2_batchnorm1_gamma", 
      "attrs": {
        "__dtype__": "0", 
        "__init__": "ones", 
        "__lr_mult__": "1.0", 
        "__shape__": "(0,)", 
        "__storage_type__": "0", 
        "__wd_mult__": "1.0"
      }, 
      "inputs": []
    }, 
    {
      "op": "null", 
      "name": "shufflenasoneshotfix0_hybridsequential0_shufflenetblock2_batchnorm1_beta", 
      "attrs": {
        "__dtype__": "0", 
        "__init__": "zeros", 
        "__lr_mult__": "1.0", 
        "__shape__": "(0,)", 
        "__storage_type__": "0", 
        "__wd_mult__": "1.0"
      }, 
      "inputs": []
    }, 
    {
      "op": "null", 
      "name": "shufflenasoneshotfix0_hybridsequential0_shufflenetblock2_batchnorm1_running_mean", 
      "attrs": {
        "__dtype__": "0", 
        "__init__": "zeros", 
        "__lr_mult__": "1.0", 
        "__shape__": "(0,)", 
        "__storage_type__": "0", 
        "__wd_mult__": "1.0"
      }, 
      "inputs": []
    }, 
    {
      "op": "null", 
      "name": "shufflenasoneshotfix0_hybridsequential0_shufflenetblock2_batchnorm1_running_var", 
      "attrs": {
        "__dtype__": "0", 
        "__init__": "ones", 
        "__lr_mult__": "1.0", 
        "__shape__": "(0,)", 
        "__storage_type__": "0", 
        "__wd_mult__": "1.0"
      }, 
      "inputs": []
    }, 
    {
      "op": "BatchNorm", 
      "name": "shufflenasoneshotfix0_hybridsequential0_shufflenetblock2_batchnorm1_fwd", 
      "attrs": {
        "axis": "1", 
        "eps": "1e-05", 
        "fix_gamma": "False", 
        "momentum": "0.1", 
        "use_global_stats": "False"
      }, 
      "inputs": [[90, 0, 0], [91, 0, 0], [92, 0, 0], [93, 0, 2], [94, 0, 2]]
    }, 
    {
      "op": "Activation", 
      "name": "shufflenasoneshotfix0_hybridsequential0_shufflenetblock2_relu0_fwd", 
      "attrs": {"act_type": "relu"}, 
      "inputs": [[95, 0, 0]]
    }, 
    {
      "op": "null", 
      "name": "shufflenasoneshotfix0_hybridsequential0_shufflenetblock2_conv2_weight", 
      "attrs": {
        "__dtype__": "0", 
        "__lr_mult__": "1.0", 
        "__shape__": "(25, 1, 3, 3)", 
        "__storage_type__": "0", 
        "__wd_mult__": "1.0"
      }, 
      "inputs": []
    }, 
    {
      "op": "Convolution", 
      "name": "shufflenasoneshotfix0_hybridsequential0_shufflenetblock2_conv2_fwd", 
      "attrs": {
        "dilate": "(1, 1)", 
        "kernel": "(3, 3)", 
        "layout": "NCHW", 
        "no_bias": "True", 
        "num_filter": "25", 
        "num_group": "25", 
        "pad": "(1, 1)", 
        "stride": "(1, 1)"
      }, 
      "inputs": [[96, 0, 0], [97, 0, 0]]
    }, 
    {
      "op": "null", 
      "name": "shufflenasoneshotfix0_hybridsequential0_shufflenetblock2_batchnorm2_gamma", 
      "attrs": {
        "__dtype__": "0", 
        "__init__": "ones", 
        "__lr_mult__": "1.0", 
        "__shape__": "(0,)", 
        "__storage_type__": "0", 
        "__wd_mult__": "1.0"
      }, 
      "inputs": []
    }, 
    {
      "op": "null", 
      "name": "shufflenasoneshotfix0_hybridsequential0_shufflenetblock2_batchnorm2_beta", 
      "attrs": {
        "__dtype__": "0", 
        "__init__": "zeros", 
        "__lr_mult__": "1.0", 
        "__shape__": "(0,)", 
        "__storage_type__": "0", 
        "__wd_mult__": "1.0"
      }, 
      "inputs": []
    }, 
    {
      "op": "null", 
      "name": "shufflenasoneshotfix0_hybridsequential0_shufflenetblock2_batchnorm2_running_mean", 
      "attrs": {
        "__dtype__": "0", 
        "__init__": "zeros", 
        "__lr_mult__": "1.0", 
        "__shape__": "(0,)", 
        "__storage_type__": "0", 
        "__wd_mult__": "1.0"
      }, 
      "inputs": []
    }, 
    {
      "op": "null", 
      "name": "shufflenasoneshotfix0_hybridsequential0_shufflenetblock2_batchnorm2_running_var", 
      "attrs": {
        "__dtype__": "0", 
        "__init__": "ones", 
        "__lr_mult__": "1.0", 
        "__shape__": "(0,)", 
        "__storage_type__": "0", 
        "__wd_mult__": "1.0"
      }, 
      "inputs": []
    }, 
    {
      "op": "BatchNorm", 
      "name": "shufflenasoneshotfix0_hybridsequential0_shufflenetblock2_batchnorm2_fwd", 
      "attrs": {
        "axis": "1", 
        "eps": "1e-05", 
        "fix_gamma": "False", 
        "momentum": "0.1", 
        "use_global_stats": "False"
      }, 
      "inputs": [[98, 0, 0], [99, 0, 0], [100, 0, 0], [101, 0, 2], [102, 0, 2]]
    }, 
    {
      "op": "null", 
      "name": "shufflenasoneshotfix0_hybridsequential0_shufflenetblock2_conv3_weight", 
      "attrs": {
        "__dtype__": "0", 
        "__lr_mult__": "1.0", 
        "__shape__": "(25, 25, 1, 1)", 
        "__storage_type__": "0", 
        "__wd_mult__": "1.0"
      }, 
      "inputs": []
    }, 
    {
      "op": "Convolution", 
      "name": "shufflenasoneshotfix0_hybridsequential0_shufflenetblock2_conv3_fwd", 
      "attrs": {
        "dilate": "(1, 1)", 
        "kernel": "(1, 1)", 
        "layout": "NCHW", 
        "no_bias": "True", 
        "num_filter": "25", 
        "num_group": "1", 
        "pad": "(0, 0)", 
        "stride": "(1, 1)"
      }, 
      "inputs": [[103, 0, 0], [104, 0, 0]]
    }, 
    {
      "op": "null", 
      "name": "shufflenasoneshotfix0_hybridsequential0_shufflenetblock2_batchnorm3_gamma", 
      "attrs": {
        "__dtype__": "0", 
        "__init__": "ones", 
        "__lr_mult__": "1.0", 
        "__shape__": "(0,)", 
        "__storage_type__": "0", 
        "__wd_mult__": "1.0"
      }, 
      "inputs": []
    }, 
    {
      "op": "null", 
      "name": "shufflenasoneshotfix0_hybridsequential0_shufflenetblock2_batchnorm3_beta", 
      "attrs": {
        "__dtype__": "0", 
        "__init__": "zeros", 
        "__lr_mult__": "1.0", 
        "__shape__": "(0,)", 
        "__storage_type__": "0", 
        "__wd_mult__": "1.0"
      }, 
      "inputs": []
    }, 
    {
      "op": "null", 
      "name": "shufflenasoneshotfix0_hybridsequential0_shufflenetblock2_batchnorm3_running_mean", 
      "attrs": {
        "__dtype__": "0", 
        "__init__": "zeros", 
        "__lr_mult__": "1.0", 
        "__shape__": "(0,)", 
        "__storage_type__": "0", 
        "__wd_mult__": "1.0"
      }, 
      "inputs": []
    }, 
    {
      "op": "null", 
      "name": "shufflenasoneshotfix0_hybridsequential0_shufflenetblock2_batchnorm3_running_var", 
      "attrs": {
        "__dtype__": "0", 
        "__init__": "ones", 
        "__lr_mult__": "1.0", 
        "__shape__": "(0,)", 
        "__storage_type__": "0", 
        "__wd_mult__": "1.0"
      }, 
      "inputs": []
    }, 
    {
      "op": "BatchNorm", 
      "name": "shufflenasoneshotfix0_hybridsequential0_shufflenetblock2_batchnorm3_fwd", 
      "attrs": {
        "axis": "1", 
        "eps": "1e-05", 
        "fix_gamma": "False", 
        "momentum": "0.1", 
        "use_global_stats": "False"
      }, 
      "inputs": [[105, 0, 0], [106, 0, 0], [107, 0, 0], [108, 0, 2], [109, 0, 2]]
    }, 
    {
      "op": "Activation", 
      "name": "shufflenasoneshotfix0_hybridsequential0_shufflenetblock2_relu1_fwd", 
      "attrs": {"act_type": "relu"}, 
      "inputs": [[110, 0, 0]]
    }, 
    {
      "op": "null", 
      "name": "shufflenasoneshotfix0_hybridsequential0_shufflenetblock2_conv4_weight", 
      "attrs": {
        "__dtype__": "0", 
        "__lr_mult__": "1.0", 
        "__shape__": "(25, 1, 3, 3)", 
        "__storage_type__": "0", 
        "__wd_mult__": "1.0"
      }, 
      "inputs": []
    }, 
    {
      "op": "Convolution", 
      "name": "shufflenasoneshotfix0_hybridsequential0_shufflenetblock2_conv4_fwd", 
      "attrs": {
        "dilate": "(1, 1)", 
        "kernel": "(3, 3)", 
        "layout": "NCHW", 
        "no_bias": "True", 
        "num_filter": "25", 
        "num_group": "25", 
        "pad": "(1, 1)", 
        "stride": "(1, 1)"
      }, 
      "inputs": [[111, 0, 0], [112, 0, 0]]
    }, 
    {
      "op": "null", 
      "name": "shufflenasoneshotfix0_hybridsequential0_shufflenetblock2_batchnorm4_gamma", 
      "attrs": {
        "__dtype__": "0", 
        "__init__": "ones", 
        "__lr_mult__": "1.0", 
        "__shape__": "(0,)", 
        "__storage_type__": "0", 
        "__wd_mult__": "1.0"
      }, 
      "inputs": []
    }, 
    {
      "op": "null", 
      "name": "shufflenasoneshotfix0_hybridsequential0_shufflenetblock2_batchnorm4_beta", 
      "attrs": {
        "__dtype__": "0", 
        "__init__": "zeros", 
        "__lr_mult__": "1.0", 
        "__shape__": "(0,)", 
        "__storage_type__": "0", 
        "__wd_mult__": "1.0"
      }, 
      "inputs": []
    }, 
    {
      "op": "null", 
      "name": "shufflenasoneshotfix0_hybridsequential0_shufflenetblock2_batchnorm4_running_mean", 
      "attrs": {
        "__dtype__": "0", 
        "__init__": "zeros", 
        "__lr_mult__": "1.0", 
        "__shape__": "(0,)", 
        "__storage_type__": "0", 
        "__wd_mult__": "1.0"
      }, 
      "inputs": []
    }, 
    {
      "op": "null", 
      "name": "shufflenasoneshotfix0_hybridsequential0_shufflenetblock2_batchnorm4_running_var", 
      "attrs": {
        "__dtype__": "0", 
        "__init__": "ones", 
        "__lr_mult__": "1.0", 
        "__shape__": "(0,)", 
        "__storage_type__": "0", 
        "__wd_mult__": "1.0"
      }, 
      "inputs": []
    }, 
    {
      "op": "BatchNorm", 
      "name": "shufflenasoneshotfix0_hybridsequential0_shufflenetblock2_batchnorm4_fwd", 
      "attrs": {
        "axis": "1", 
        "eps": "1e-05", 
        "fix_gamma": "False", 
        "momentum": "0.1", 
        "use_global_stats": "False"
      }, 
      "inputs": [[113, 0, 0], [114, 0, 0], [115, 0, 0], [116, 0, 2], [117, 0, 2]]
    }, 
    {
      "op": "null", 
      "name": "shufflenasoneshotfix0_hybridsequential0_shufflenetblock2_conv5_weight", 
      "attrs": {
        "__dtype__": "0", 
        "__lr_mult__": "1.0", 
        "__shape__": "(32, 25, 1, 1)", 
        "__storage_type__": "0", 
        "__wd_mult__": "1.0"
      }, 
      "inputs": []
    }, 
    {
      "op": "Convolution", 
      "name": "shufflenasoneshotfix0_hybridsequential0_shufflenetblock2_conv5_fwd", 
      "attrs": {
        "dilate": "(1, 1)", 
        "kernel": "(1, 1)", 
        "layout": "NCHW", 
        "no_bias": "True", 
        "num_filter": "32", 
        "num_group": "1", 
        "pad": "(0, 0)", 
        "stride": "(1, 1)"
      }, 
      "inputs": [[118, 0, 0], [119, 0, 0]]
    }, 
    {
      "op": "null", 
      "name": "shufflenasoneshotfix0_hybridsequential0_shufflenetblock2_batchnorm5_gamma", 
      "attrs": {
        "__dtype__": "0", 
        "__init__": "ones", 
        "__lr_mult__": "1.0", 
        "__shape__": "(0,)", 
        "__storage_type__": "0", 
        "__wd_mult__": "1.0"
      }, 
      "inputs": []
    }, 
    {
      "op": "null", 
      "name": "shufflenasoneshotfix0_hybridsequential0_shufflenetblock2_batchnorm5_beta", 
      "attrs": {
        "__dtype__": "0", 
        "__init__": "zeros", 
        "__lr_mult__": "1.0", 
        "__shape__": "(0,)", 
        "__storage_type__": "0", 
        "__wd_mult__": "1.0"
      }, 
      "inputs": []
    }, 
    {
      "op": "null", 
      "name": "shufflenasoneshotfix0_hybridsequential0_shufflenetblock2_batchnorm5_running_mean", 
      "attrs": {
        "__dtype__": "0", 
        "__init__": "zeros", 
        "__lr_mult__": "1.0", 
        "__shape__": "(0,)", 
        "__storage_type__": "0", 
        "__wd_mult__": "1.0"
      }, 
      "inputs": []
    }, 
    {
      "op": "null", 
      "name": "shufflenasoneshotfix0_hybridsequential0_shufflenetblock2_batchnorm5_running_var", 
      "attrs": {
        "__dtype__": "0", 
        "__init__": "ones", 
        "__lr_mult__": "1.0", 
        "__shape__": "(0,)", 
        "__storage_type__": "0", 
        "__wd_mult__": "1.0"
      }, 
      "inputs": []
    }, 
    {
      "op": "BatchNorm", 
      "name": "shufflenasoneshotfix0_hybridsequential0_shufflenetblock2_batchnorm5_fwd", 
      "attrs": {
        "axis": "1", 
        "eps": "1e-05", 
        "fix_gamma": "False", 
        "momentum": "0.1", 
        "use_global_stats": "False"
      }, 
      "inputs": [[120, 0, 0], [121, 0, 0], [122, 0, 0], [123, 0, 2], [124, 0, 2]]
    }, 
    {
      "op": "Activation", 
      "name": "shufflenasoneshotfix0_hybridsequential0_shufflenetblock2_relu2_fwd", 
      "attrs": {"act_type": "relu"}, 
      "inputs": [[125, 0, 0]]
    }, 
    {
      "op": "Concat", 
      "name": "shufflenasoneshotfix0_hybridsequential0_shufflenetblock2_concat0", 
      "attrs": {
        "dim": "1", 
        "num_args": "2"
      }, 
      "inputs": [[80, 0, 0], [126, 0, 0]]
    }, 
    {
      "op": "Reshape", 
      "name": "shufflenasoneshotfix0_hybridsequential0_shufflenetblock3_shufflechannels0_reshape0", 
      "attrs": {"shape": "(0, -4, 2, -1, -2)"}, 
      "inputs": [[127, 0, 0]]
    }, 
    {
      "op": "SwapAxis", 
      "name": "shufflenasoneshotfix0_hybridsequential0_shufflenetblock3_shufflechannels0_swapaxes0", 
      "attrs": {
        "dim1": "1", 
        "dim2": "2"
      }, 
      "inputs": [[128, 0, 0]]
    }, 
    {
      "op": "Reshape", 
      "name": "shufflenasoneshotfix0_hybridsequential0_shufflenetblock3_shufflechannels0_reshape1", 
      "attrs": {"shape": "(0, -3, -2)"}, 
      "inputs": [[129, 0, 0]]
    }, 
    {
      "op": "slice", 
      "name": "shufflenasoneshotfix0_hybridsequential0_shufflenetblock3_shufflechannels0_slice0", 
      "attrs": {
        "begin": "(None, None, None, None)", 
        "end": "(None, 32, None, None)"
      }, 
      "inputs": [[130, 0, 0]]
    }, 
    {
      "op": "slice", 
      "name": "shufflenasoneshotfix0_hybridsequential0_shufflenetblock3_shufflechannels0_slice1", 
      "attrs": {
        "begin": "(None, 32, None, None)", 
        "end": "(None, None, None, None)"
      }, 
      "inputs": [[130, 0, 0]]
    }, 
    {
      "op": "null", 
      "name": "shufflenasoneshotfix0_hybridsequential0_shufflenetblock3_conv0_weight", 
      "attrs": {
        "__dtype__": "0", 
        "__lr_mult__": "1.0", 
        "__shape__": "(38, 32, 1, 1)", 
        "__storage_type__": "0", 
        "__wd_mult__": "1.0"
      }, 
      "inputs": []
    }, 
    {
      "op": "Convolution", 
      "name": "shufflenasoneshotfix0_hybridsequential0_shufflenetblock3_conv0_fwd", 
      "attrs": {
        "dilate": "(1, 1)", 
        "kernel": "(1, 1)", 
        "layout": "NCHW", 
        "no_bias": "True", 
        "num_filter": "38", 
        "num_group": "1", 
        "pad": "(0, 0)", 
        "stride": "(1, 1)"
      }, 
      "inputs": [[132, 0, 0], [133, 0, 0]]
    }, 
    {
      "op": "null", 
      "name": "shufflenasoneshotfix0_hybridsequential0_shufflenetblock3_batchnorm0_gamma", 
      "attrs": {
        "__dtype__": "0", 
        "__init__": "ones", 
        "__lr_mult__": "1.0", 
        "__shape__": "(0,)", 
        "__storage_type__": "0", 
        "__wd_mult__": "1.0"
      }, 
      "inputs": []
    }, 
    {
      "op": "null", 
      "name": "shufflenasoneshotfix0_hybridsequential0_shufflenetblock3_batchnorm0_beta", 
      "attrs": {
        "__dtype__": "0", 
        "__init__": "zeros", 
        "__lr_mult__": "1.0", 
        "__shape__": "(0,)", 
        "__storage_type__": "0", 
        "__wd_mult__": "1.0"
      }, 
      "inputs": []
    }, 
    {
      "op": "null", 
      "name": "shufflenasoneshotfix0_hybridsequential0_shufflenetblock3_batchnorm0_running_mean", 
      "attrs": {
        "__dtype__": "0", 
        "__init__": "zeros", 
        "__lr_mult__": "1.0", 
        "__shape__": "(0,)", 
        "__storage_type__": "0", 
        "__wd_mult__": "1.0"
      }, 
      "inputs": []
    }, 
    {
      "op": "null", 
      "name": "shufflenasoneshotfix0_hybridsequential0_shufflenetblock3_batchnorm0_running_var", 
      "attrs": {
        "__dtype__": "0", 
        "__init__": "ones", 
        "__lr_mult__": "1.0", 
        "__shape__": "(0,)", 
        "__storage_type__": "0", 
        "__wd_mult__": "1.0"
      }, 
      "inputs": []
    }, 
    {
      "op": "BatchNorm", 
      "name": "shufflenasoneshotfix0_hybridsequential0_shufflenetblock3_batchnorm0_fwd", 
      "attrs": {
        "axis": "1", 
        "eps": "1e-05", 
        "fix_gamma": "False", 
        "momentum": "0.1", 
        "use_global_stats": "False"
      }, 
      "inputs": [[134, 0, 0], [135, 0, 0], [136, 0, 0], [137, 0, 2], [138, 0, 2]]
    }, 
    {
      "op": "Activation", 
      "name": "shufflenasoneshotfix0_hybridsequential0_shufflenetblock3_relu0_fwd", 
      "attrs": {"act_type": "relu"}, 
      "inputs": [[139, 0, 0]]
    }, 
    {
      "op": "null", 
      "name": "shufflenasoneshotfix0_hybridsequential0_shufflenetblock3_conv1_weight", 
      "attrs": {
        "__dtype__": "0", 
        "__lr_mult__": "1.0", 
        "__shape__": "(38, 1, 5, 5)", 
        "__storage_type__": "0", 
        "__wd_mult__": "1.0"
      }, 
      "inputs": []
    }, 
    {
      "op": "Convolution", 
      "name": "shufflenasoneshotfix0_hybridsequential0_shufflenetblock3_conv1_fwd", 
      "attrs": {
        "dilate": "(1, 1)", 
        "kernel": "(5, 5)", 
        "layout": "NCHW", 
        "no_bias": "True", 
        "num_filter": "38", 
        "num_group": "38", 
        "pad": "(2, 2)", 
        "stride": "(1, 1)"
      }, 
      "inputs": [[140, 0, 0], [141, 0, 0]]
    }, 
    {
      "op": "null", 
      "name": "shufflenasoneshotfix0_hybridsequential0_shufflenetblock3_batchnorm1_gamma", 
      "attrs": {
        "__dtype__": "0", 
        "__init__": "ones", 
        "__lr_mult__": "1.0", 
        "__shape__": "(0,)", 
        "__storage_type__": "0", 
        "__wd_mult__": "1.0"
      }, 
      "inputs": []
    }, 
    {
      "op": "null", 
      "name": "shufflenasoneshotfix0_hybridsequential0_shufflenetblock3_batchnorm1_beta", 
      "attrs": {
        "__dtype__": "0", 
        "__init__": "zeros", 
        "__lr_mult__": "1.0", 
        "__shape__": "(0,)", 
        "__storage_type__": "0", 
        "__wd_mult__": "1.0"
      }, 
      "inputs": []
    }, 
    {
      "op": "null", 
      "name": "shufflenasoneshotfix0_hybridsequential0_shufflenetblock3_batchnorm1_running_mean", 
      "attrs": {
        "__dtype__": "0", 
        "__init__": "zeros", 
        "__lr_mult__": "1.0", 
        "__shape__": "(0,)", 
        "__storage_type__": "0", 
        "__wd_mult__": "1.0"
      }, 
      "inputs": []
    }, 
    {
      "op": "null", 
      "name": "shufflenasoneshotfix0_hybridsequential0_shufflenetblock3_batchnorm1_running_var", 
      "attrs": {
        "__dtype__": "0", 
        "__init__": "ones", 
        "__lr_mult__": "1.0", 
        "__shape__": "(0,)", 
        "__storage_type__": "0", 
        "__wd_mult__": "1.0"
      }, 
      "inputs": []
    }, 
    {
      "op": "BatchNorm", 
      "name": "shufflenasoneshotfix0_hybridsequential0_shufflenetblock3_batchnorm1_fwd", 
      "attrs": {
        "axis": "1", 
        "eps": "1e-05", 
        "fix_gamma": "False", 
        "momentum": "0.1", 
        "use_global_stats": "False"
      }, 
      "inputs": [[142, 0, 0], [143, 0, 0], [144, 0, 0], [145, 0, 2], [146, 0, 2]]
    }, 
    {
      "op": "null", 
      "name": "shufflenasoneshotfix0_hybridsequential0_shufflenetblock3_conv2_weight", 
      "attrs": {
        "__dtype__": "0", 
        "__lr_mult__": "1.0", 
        "__shape__": "(32, 38, 1, 1)", 
        "__storage_type__": "0", 
        "__wd_mult__": "1.0"
      }, 
      "inputs": []
    }, 
    {
      "op": "Convolution", 
      "name": "shufflenasoneshotfix0_hybridsequential0_shufflenetblock3_conv2_fwd", 
      "attrs": {
        "dilate": "(1, 1)", 
        "kernel": "(1, 1)", 
        "layout": "NCHW", 
        "no_bias": "True", 
        "num_filter": "32", 
        "num_group": "1", 
        "pad": "(0, 0)", 
        "stride": "(1, 1)"
      }, 
      "inputs": [[147, 0, 0], [148, 0, 0]]
    }, 
    {
      "op": "null", 
      "name": "shufflenasoneshotfix0_hybridsequential0_shufflenetblock3_batchnorm2_gamma", 
      "attrs": {
        "__dtype__": "0", 
        "__init__": "ones", 
        "__lr_mult__": "1.0", 
        "__shape__": "(0,)", 
        "__storage_type__": "0", 
        "__wd_mult__": "1.0"
      }, 
      "inputs": []
    }, 
    {
      "op": "null", 
      "name": "shufflenasoneshotfix0_hybridsequential0_shufflenetblock3_batchnorm2_beta", 
      "attrs": {
        "__dtype__": "0", 
        "__init__": "zeros", 
        "__lr_mult__": "1.0", 
        "__shape__": "(0,)", 
        "__storage_type__": "0", 
        "__wd_mult__": "1.0"
      }, 
      "inputs": []
    }, 
    {
      "op": "null", 
      "name": "shufflenasoneshotfix0_hybridsequential0_shufflenetblock3_batchnorm2_running_mean", 
      "attrs": {
        "__dtype__": "0", 
        "__init__": "zeros", 
        "__lr_mult__": "1.0", 
        "__shape__": "(0,)", 
        "__storage_type__": "0", 
        "__wd_mult__": "1.0"
      }, 
      "inputs": []
    }, 
    {
      "op": "null", 
      "name": "shufflenasoneshotfix0_hybridsequential0_shufflenetblock3_batchnorm2_running_var", 
      "attrs": {
        "__dtype__": "0", 
        "__init__": "ones", 
        "__lr_mult__": "1.0", 
        "__shape__": "(0,)", 
        "__storage_type__": "0", 
        "__wd_mult__": "1.0"
      }, 
      "inputs": []
    }, 
    {
      "op": "BatchNorm", 
      "name": "shufflenasoneshotfix0_hybridsequential0_shufflenetblock3_batchnorm2_fwd", 
      "attrs": {
        "axis": "1", 
        "eps": "1e-05", 
        "fix_gamma": "False", 
        "momentum": "0.1", 
        "use_global_stats": "False"
      }, 
      "inputs": [[149, 0, 0], [150, 0, 0], [151, 0, 0], [152, 0, 2], [153, 0, 2]]
    }, 
    {
      "op": "Activation", 
      "name": "shufflenasoneshotfix0_hybridsequential0_shufflenetblock3_relu1_fwd", 
      "attrs": {"act_type": "relu"}, 
      "inputs": [[154, 0, 0]]
    }, 
    {
      "op": "Concat", 
      "name": "shufflenasoneshotfix0_hybridsequential0_shufflenetblock3_concat0", 
      "attrs": {
        "dim": "1", 
        "num_args": "2"
      }, 
      "inputs": [[131, 0, 0], [155, 0, 0]]
    }, 
    {
      "op": "null", 
      "name": "shufflenasoneshotfix0_hybridsequential0_shufflenetblock4_conv3_weight", 
      "attrs": {
        "__dtype__": "0", 
        "__lr_mult__": "1.0", 
        "__shape__": "(64, 1, 5, 5)", 
        "__storage_type__": "0", 
        "__wd_mult__": "1.0"
      }, 
      "inputs": []
    }, 
    {
      "op": "Convolution", 
      "name": "shufflenasoneshotfix0_hybridsequential0_shufflenetblock4_conv3_fwd", 
      "attrs": {
        "dilate": "(1, 1)", 
        "kernel": "(5, 5)", 
        "layout": "NCHW", 
        "no_bias": "True", 
        "num_filter": "64", 
        "num_group": "64", 
        "pad": "(2, 2)", 
        "stride": "(2, 2)"
      }, 
      "inputs": [[156, 0, 0], [157, 0, 0]]
    }, 
    {
      "op": "null", 
      "name": "shufflenasoneshotfix0_hybridsequential0_shufflenetblock4_batchnorm3_gamma", 
      "attrs": {
        "__dtype__": "0", 
        "__init__": "ones", 
        "__lr_mult__": "1.0", 
        "__shape__": "(0,)", 
        "__storage_type__": "0", 
        "__wd_mult__": "1.0"
      }, 
      "inputs": []
    }, 
    {
      "op": "null", 
      "name": "shufflenasoneshotfix0_hybridsequential0_shufflenetblock4_batchnorm3_beta", 
      "attrs": {
        "__dtype__": "0", 
        "__init__": "zeros", 
        "__lr_mult__": "1.0", 
        "__shape__": "(0,)", 
        "__storage_type__": "0", 
        "__wd_mult__": "1.0"
      }, 
      "inputs": []
    }, 
    {
      "op": "null", 
      "name": "shufflenasoneshotfix0_hybridsequential0_shufflenetblock4_batchnorm3_running_mean", 
      "attrs": {
        "__dtype__": "0", 
        "__init__": "zeros", 
        "__lr_mult__": "1.0", 
        "__shape__": "(0,)", 
        "__storage_type__": "0", 
        "__wd_mult__": "1.0"
      }, 
      "inputs": []
    }, 
    {
      "op": "null", 
      "name": "shufflenasoneshotfix0_hybridsequential0_shufflenetblock4_batchnorm3_running_var", 
      "attrs": {
        "__dtype__": "0", 
        "__init__": "ones", 
        "__lr_mult__": "1.0", 
        "__shape__": "(0,)", 
        "__storage_type__": "0", 
        "__wd_mult__": "1.0"
      }, 
      "inputs": []
    }, 
    {
      "op": "BatchNorm", 
      "name": "shufflenasoneshotfix0_hybridsequential0_shufflenetblock4_batchnorm3_fwd", 
      "attrs": {
        "axis": "1", 
        "eps": "1e-05", 
        "fix_gamma": "False", 
        "momentum": "0.1", 
        "use_global_stats": "False"
      }, 
      "inputs": [[158, 0, 0], [159, 0, 0], [160, 0, 0], [161, 0, 2], [162, 0, 2]]
    }, 
    {
      "op": "null", 
      "name": "shufflenasoneshotfix0_hybridsequential0_shufflenetblock4_conv4_weight", 
      "attrs": {
        "__dtype__": "0", 
        "__lr_mult__": "1.0", 
        "__shape__": "(64, 64, 1, 1)", 
        "__storage_type__": "0", 
        "__wd_mult__": "1.0"
      }, 
      "inputs": []
    }, 
    {
      "op": "Convolution", 
      "name": "shufflenasoneshotfix0_hybridsequential0_shufflenetblock4_conv4_fwd", 
      "attrs": {
        "dilate": "(1, 1)", 
        "kernel": "(1, 1)", 
        "layout": "NCHW", 
        "no_bias": "True", 
        "num_filter": "64", 
        "num_group": "1", 
        "pad": "(0, 0)", 
        "stride": "(1, 1)"
      }, 
      "inputs": [[163, 0, 0], [164, 0, 0]]
    }, 
    {
      "op": "null", 
      "name": "shufflenasoneshotfix0_hybridsequential0_shufflenetblock4_batchnorm4_gamma", 
      "attrs": {
        "__dtype__": "0", 
        "__init__": "ones", 
        "__lr_mult__": "1.0", 
        "__shape__": "(0,)", 
        "__storage_type__": "0", 
        "__wd_mult__": "1.0"
      }, 
      "inputs": []
    }, 
    {
      "op": "null", 
      "name": "shufflenasoneshotfix0_hybridsequential0_shufflenetblock4_batchnorm4_beta", 
      "attrs": {
        "__dtype__": "0", 
        "__init__": "zeros", 
        "__lr_mult__": "1.0", 
        "__shape__": "(0,)", 
        "__storage_type__": "0", 
        "__wd_mult__": "1.0"
      }, 
      "inputs": []
    }, 
    {
      "op": "null", 
      "name": "shufflenasoneshotfix0_hybridsequential0_shufflenetblock4_batchnorm4_running_mean", 
      "attrs": {
        "__dtype__": "0", 
        "__init__": "zeros", 
        "__lr_mult__": "1.0", 
        "__shape__": "(0,)", 
        "__storage_type__": "0", 
        "__wd_mult__": "1.0"
      }, 
      "inputs": []
    }, 
    {
      "op": "null", 
      "name": "shufflenasoneshotfix0_hybridsequential0_shufflenetblock4_batchnorm4_running_var", 
      "attrs": {
        "__dtype__": "0", 
        "__init__": "ones", 
        "__lr_mult__": "1.0", 
        "__shape__": "(0,)", 
        "__storage_type__": "0", 
        "__wd_mult__": "1.0"
      }, 
      "inputs": []
    }, 
    {
      "op": "BatchNorm", 
      "name": "shufflenasoneshotfix0_hybridsequential0_shufflenetblock4_batchnorm4_fwd", 
      "attrs": {
        "axis": "1", 
        "eps": "1e-05", 
        "fix_gamma": "False", 
        "momentum": "0.1", 
        "use_global_stats": "False"
      }, 
      "inputs": [[165, 0, 0], [166, 0, 0], [167, 0, 0], [168, 0, 2], [169, 0, 2]]
    }, 
    {
      "op": "Activation", 
      "name": "shufflenasoneshotfix0_hybridsequential0_shufflenetblock4_relu2_fwd", 
      "attrs": {"act_type": "relu"}, 
      "inputs": [[170, 0, 0]]
    }, 
    {
      "op": "null", 
      "name": "shufflenasoneshotfix0_hybridsequential0_shufflenetblock4_conv0_weight", 
      "attrs": {
        "__dtype__": "0", 
        "__lr_mult__": "1.0", 
        "__shape__": "(48, 64, 1, 1)", 
        "__storage_type__": "0", 
        "__wd_mult__": "1.0"
      }, 
      "inputs": []
    }, 
    {
      "op": "Convolution", 
      "name": "shufflenasoneshotfix0_hybridsequential0_shufflenetblock4_conv0_fwd", 
      "attrs": {
        "dilate": "(1, 1)", 
        "kernel": "(1, 1)", 
        "layout": "NCHW", 
        "no_bias": "True", 
        "num_filter": "48", 
        "num_group": "1", 
        "pad": "(0, 0)", 
        "stride": "(1, 1)"
      }, 
      "inputs": [[156, 0, 0], [172, 0, 0]]
    }, 
    {
      "op": "null", 
      "name": "shufflenasoneshotfix0_hybridsequential0_shufflenetblock4_batchnorm0_gamma", 
      "attrs": {
        "__dtype__": "0", 
        "__init__": "ones", 
        "__lr_mult__": "1.0", 
        "__shape__": "(0,)", 
        "__storage_type__": "0", 
        "__wd_mult__": "1.0"
      }, 
      "inputs": []
    }, 
    {
      "op": "null", 
      "name": "shufflenasoneshotfix0_hybridsequential0_shufflenetblock4_batchnorm0_beta", 
      "attrs": {
        "__dtype__": "0", 
        "__init__": "zeros", 
        "__lr_mult__": "1.0", 
        "__shape__": "(0,)", 
        "__storage_type__": "0", 
        "__wd_mult__": "1.0"
      }, 
      "inputs": []
    }, 
    {
      "op": "null", 
      "name": "shufflenasoneshotfix0_hybridsequential0_shufflenetblock4_batchnorm0_running_mean", 
      "attrs": {
        "__dtype__": "0", 
        "__init__": "zeros", 
        "__lr_mult__": "1.0", 
        "__shape__": "(0,)", 
        "__storage_type__": "0", 
        "__wd_mult__": "1.0"
      }, 
      "inputs": []
    }, 
    {
      "op": "null", 
      "name": "shufflenasoneshotfix0_hybridsequential0_shufflenetblock4_batchnorm0_running_var", 
      "attrs": {
        "__dtype__": "0", 
        "__init__": "ones", 
        "__lr_mult__": "1.0", 
        "__shape__": "(0,)", 
        "__storage_type__": "0", 
        "__wd_mult__": "1.0"
      }, 
      "inputs": []
    }, 
    {
      "op": "BatchNorm", 
      "name": "shufflenasoneshotfix0_hybridsequential0_shufflenetblock4_batchnorm0_fwd", 
      "attrs": {
        "axis": "1", 
        "eps": "1e-05", 
        "fix_gamma": "False", 
        "momentum": "0.1", 
        "use_global_stats": "False"
      }, 
      "inputs": [[173, 0, 0], [174, 0, 0], [175, 0, 0], [176, 0, 2], [177, 0, 2]]
    }, 
    {
      "op": "Activation", 
      "name": "shufflenasoneshotfix0_hybridsequential0_shufflenetblock4_relu0_fwd", 
      "attrs": {"act_type": "relu"}, 
      "inputs": [[178, 0, 0]]
    }, 
    {
      "op": "null", 
      "name": "shufflenasoneshotfix0_hybridsequential0_shufflenetblock4_conv1_weight", 
      "attrs": {
        "__dtype__": "0", 
        "__lr_mult__": "1.0", 
        "__shape__": "(48, 1, 5, 5)", 
        "__storage_type__": "0", 
        "__wd_mult__": "1.0"
      }, 
      "inputs": []
    }, 
    {
      "op": "Convolution", 
      "name": "shufflenasoneshotfix0_hybridsequential0_shufflenetblock4_conv1_fwd", 
      "attrs": {
        "dilate": "(1, 1)", 
        "kernel": "(5, 5)", 
        "layout": "NCHW", 
        "no_bias": "True", 
        "num_filter": "48", 
        "num_group": "48", 
        "pad": "(2, 2)", 
        "stride": "(2, 2)"
      }, 
      "inputs": [[179, 0, 0], [180, 0, 0]]
    }, 
    {
      "op": "null", 
      "name": "shufflenasoneshotfix0_hybridsequential0_shufflenetblock4_batchnorm1_gamma", 
      "attrs": {
        "__dtype__": "0", 
        "__init__": "ones", 
        "__lr_mult__": "1.0", 
        "__shape__": "(0,)", 
        "__storage_type__": "0", 
        "__wd_mult__": "1.0"
      }, 
      "inputs": []
    }, 
    {
      "op": "null", 
      "name": "shufflenasoneshotfix0_hybridsequential0_shufflenetblock4_batchnorm1_beta", 
      "attrs": {
        "__dtype__": "0", 
        "__init__": "zeros", 
        "__lr_mult__": "1.0", 
        "__shape__": "(0,)", 
        "__storage_type__": "0", 
        "__wd_mult__": "1.0"
      }, 
      "inputs": []
    }, 
    {
      "op": "null", 
      "name": "shufflenasoneshotfix0_hybridsequential0_shufflenetblock4_batchnorm1_running_mean", 
      "attrs": {
        "__dtype__": "0", 
        "__init__": "zeros", 
        "__lr_mult__": "1.0", 
        "__shape__": "(0,)", 
        "__storage_type__": "0", 
        "__wd_mult__": "1.0"
      }, 
      "inputs": []
    }, 
    {
      "op": "null", 
      "name": "shufflenasoneshotfix0_hybridsequential0_shufflenetblock4_batchnorm1_running_var", 
      "attrs": {
        "__dtype__": "0", 
        "__init__": "ones", 
        "__lr_mult__": "1.0", 
        "__shape__": "(0,)", 
        "__storage_type__": "0", 
        "__wd_mult__": "1.0"
      }, 
      "inputs": []
    }, 
    {
      "op": "BatchNorm", 
      "name": "shufflenasoneshotfix0_hybridsequential0_shufflenetblock4_batchnorm1_fwd", 
      "attrs": {
        "axis": "1", 
        "eps": "1e-05", 
        "fix_gamma": "False", 
        "momentum": "0.1", 
        "use_global_stats": "False"
      }, 
      "inputs": [[181, 0, 0], [182, 0, 0], [183, 0, 0], [184, 0, 2], [185, 0, 2]]
    }, 
    {
      "op": "null", 
      "name": "shufflenasoneshotfix0_hybridsequential0_shufflenetblock4_conv2_weight", 
      "attrs": {
        "__dtype__": "0", 
        "__lr_mult__": "1.0", 
        "__shape__": "(96, 48, 1, 1)", 
        "__storage_type__": "0", 
        "__wd_mult__": "1.0"
      }, 
      "inputs": []
    }, 
    {
      "op": "Convolution", 
      "name": "shufflenasoneshotfix0_hybridsequential0_shufflenetblock4_conv2_fwd", 
      "attrs": {
        "dilate": "(1, 1)", 
        "kernel": "(1, 1)", 
        "layout": "NCHW", 
        "no_bias": "True", 
        "num_filter": "96", 
        "num_group": "1", 
        "pad": "(0, 0)", 
        "stride": "(1, 1)"
      }, 
      "inputs": [[186, 0, 0], [187, 0, 0]]
    }, 
    {
      "op": "null", 
      "name": "shufflenasoneshotfix0_hybridsequential0_shufflenetblock4_batchnorm2_gamma", 
      "attrs": {
        "__dtype__": "0", 
        "__init__": "ones", 
        "__lr_mult__": "1.0", 
        "__shape__": "(0,)", 
        "__storage_type__": "0", 
        "__wd_mult__": "1.0"
      }, 
      "inputs": []
    }, 
    {
      "op": "null", 
      "name": "shufflenasoneshotfix0_hybridsequential0_shufflenetblock4_batchnorm2_beta", 
      "attrs": {
        "__dtype__": "0", 
        "__init__": "zeros", 
        "__lr_mult__": "1.0", 
        "__shape__": "(0,)", 
        "__storage_type__": "0", 
        "__wd_mult__": "1.0"
      }, 
      "inputs": []
    }, 
    {
      "op": "null", 
      "name": "shufflenasoneshotfix0_hybridsequential0_shufflenetblock4_batchnorm2_running_mean", 
      "attrs": {
        "__dtype__": "0", 
        "__init__": "zeros", 
        "__lr_mult__": "1.0", 
        "__shape__": "(0,)", 
        "__storage_type__": "0", 
        "__wd_mult__": "1.0"
      }, 
      "inputs": []
    }, 
    {
      "op": "null", 
      "name": "shufflenasoneshotfix0_hybridsequential0_shufflenetblock4_batchnorm2_running_var", 
      "attrs": {
        "__dtype__": "0", 
        "__init__": "ones", 
        "__lr_mult__": "1.0", 
        "__shape__": "(0,)", 
        "__storage_type__": "0", 
        "__wd_mult__": "1.0"
      }, 
      "inputs": []
    }, 
    {
      "op": "BatchNorm", 
      "name": "shufflenasoneshotfix0_hybridsequential0_shufflenetblock4_batchnorm2_fwd", 
      "attrs": {
        "axis": "1", 
        "eps": "1e-05", 
        "fix_gamma": "False", 
        "momentum": "0.1", 
        "use_global_stats": "False"
      }, 
      "inputs": [[188, 0, 0], [189, 0, 0], [190, 0, 0], [191, 0, 2], [192, 0, 2]]
    }, 
    {
      "op": "Activation", 
      "name": "shufflenasoneshotfix0_hybridsequential0_shufflenetblock4_relu1_fwd", 
      "attrs": {"act_type": "relu"}, 
      "inputs": [[193, 0, 0]]
    }, 
    {
      "op": "Concat", 
      "name": "shufflenasoneshotfix0_hybridsequential0_shufflenetblock4_concat0", 
      "attrs": {
        "dim": "1", 
        "num_args": "2"
      }, 
      "inputs": [[171, 0, 0], [194, 0, 0]]
    }, 
    {
      "op": "Reshape", 
      "name": "shufflenasoneshotfix0_hybridsequential0_shufflenetblock5_shufflechannels0_reshape0", 
      "attrs": {"shape": "(0, -4, 2, -1, -2)"}, 
      "inputs": [[195, 0, 0]]
    }, 
    {
      "op": "SwapAxis", 
      "name": "shufflenasoneshotfix0_hybridsequential0_shufflenetblock5_shufflechannels0_swapaxes0", 
      "attrs": {
        "dim1": "1", 
        "dim2": "2"
      }, 
      "inputs": [[196, 0, 0]]
    }, 
    {
      "op": "Reshape", 
      "name": "shufflenasoneshotfix0_hybridsequential0_shufflenetblock5_shufflechannels0_reshape1", 
      "attrs": {"shape": "(0, -3, -2)"}, 
      "inputs": [[197, 0, 0]]
    }, 
    {
      "op": "slice", 
      "name": "shufflenasoneshotfix0_hybridsequential0_shufflenetblock5_shufflechannels0_slice0", 
      "attrs": {
        "begin": "(None, None, None, None)", 
        "end": "(None, 80, None, None)"
      }, 
      "inputs": [[198, 0, 0]]
    }, 
    {
      "op": "slice", 
      "name": "shufflenasoneshotfix0_hybridsequential0_shufflenetblock5_shufflechannels0_slice1", 
      "attrs": {
        "begin": "(None, 80, None, None)", 
        "end": "(None, None, None, None)"
      }, 
      "inputs": [[198, 0, 0]]
    }, 
    {
      "op": "null", 
      "name": "shufflenasoneshotfix0_hybridsequential0_shufflenetblock5_conv0_weight", 
      "attrs": {
        "__dtype__": "0", 
        "__lr_mult__": "1.0", 
        "__shape__": "(112, 80, 1, 1)", 
        "__storage_type__": "0", 
        "__wd_mult__": "1.0"
      }, 
      "inputs": []
    }, 
    {
      "op": "Convolution", 
      "name": "shufflenasoneshotfix0_hybridsequential0_shufflenetblock5_conv0_fwd", 
      "attrs": {
        "dilate": "(1, 1)", 
        "kernel": "(1, 1)", 
        "layout": "NCHW", 
        "no_bias": "True", 
        "num_filter": "112", 
        "num_group": "1", 
        "pad": "(0, 0)", 
        "stride": "(1, 1)"
      }, 
      "inputs": [[200, 0, 0], [201, 0, 0]]
    }, 
    {
      "op": "null", 
      "name": "shufflenasoneshotfix0_hybridsequential0_shufflenetblock5_batchnorm0_gamma", 
      "attrs": {
        "__dtype__": "0", 
        "__init__": "ones", 
        "__lr_mult__": "1.0", 
        "__shape__": "(0,)", 
        "__storage_type__": "0", 
        "__wd_mult__": "1.0"
      }, 
      "inputs": []
    }, 
    {
      "op": "null", 
      "name": "shufflenasoneshotfix0_hybridsequential0_shufflenetblock5_batchnorm0_beta", 
      "attrs": {
        "__dtype__": "0", 
        "__init__": "zeros", 
        "__lr_mult__": "1.0", 
        "__shape__": "(0,)", 
        "__storage_type__": "0", 
        "__wd_mult__": "1.0"
      }, 
      "inputs": []
    }, 
    {
      "op": "null", 
      "name": "shufflenasoneshotfix0_hybridsequential0_shufflenetblock5_batchnorm0_running_mean", 
      "attrs": {
        "__dtype__": "0", 
        "__init__": "zeros", 
        "__lr_mult__": "1.0", 
        "__shape__": "(0,)", 
        "__storage_type__": "0", 
        "__wd_mult__": "1.0"
      }, 
      "inputs": []
    }, 
    {
      "op": "null", 
      "name": "shufflenasoneshotfix0_hybridsequential0_shufflenetblock5_batchnorm0_running_var", 
      "attrs": {
        "__dtype__": "0", 
        "__init__": "ones", 
        "__lr_mult__": "1.0", 
        "__shape__": "(0,)", 
        "__storage_type__": "0", 
        "__wd_mult__": "1.0"
      }, 
      "inputs": []
    }, 
    {
      "op": "BatchNorm", 
      "name": "shufflenasoneshotfix0_hybridsequential0_shufflenetblock5_batchnorm0_fwd", 
      "attrs": {
        "axis": "1", 
        "eps": "1e-05", 
        "fix_gamma": "False", 
        "momentum": "0.1", 
        "use_global_stats": "False"
      }, 
      "inputs": [[202, 0, 0], [203, 0, 0], [204, 0, 0], [205, 0, 2], [206, 0, 2]]
    }, 
    {
      "op": "Activation", 
      "name": "shufflenasoneshotfix0_hybridsequential0_shufflenetblock5_relu0_fwd", 
      "attrs": {"act_type": "relu"}, 
      "inputs": [[207, 0, 0]]
    }, 
    {
      "op": "null", 
      "name": "shufflenasoneshotfix0_hybridsequential0_shufflenetblock5_conv1_weight", 
      "attrs": {
        "__dtype__": "0", 
        "__lr_mult__": "1.0", 
        "__shape__": "(112, 1, 5, 5)", 
        "__storage_type__": "0", 
        "__wd_mult__": "1.0"
      }, 
      "inputs": []
    }, 
    {
      "op": "Convolution", 
      "name": "shufflenasoneshotfix0_hybridsequential0_shufflenetblock5_conv1_fwd", 
      "attrs": {
        "dilate": "(1, 1)", 
        "kernel": "(5, 5)", 
        "layout": "NCHW", 
        "no_bias": "True", 
        "num_filter": "112", 
        "num_group": "112", 
        "pad": "(2, 2)", 
        "stride": "(1, 1)"
      }, 
      "inputs": [[208, 0, 0], [209, 0, 0]]
    }, 
    {
      "op": "null", 
      "name": "shufflenasoneshotfix0_hybridsequential0_shufflenetblock5_batchnorm1_gamma", 
      "attrs": {
        "__dtype__": "0", 
        "__init__": "ones", 
        "__lr_mult__": "1.0", 
        "__shape__": "(0,)", 
        "__storage_type__": "0", 
        "__wd_mult__": "1.0"
      }, 
      "inputs": []
    }, 
    {
      "op": "null", 
      "name": "shufflenasoneshotfix0_hybridsequential0_shufflenetblock5_batchnorm1_beta", 
      "attrs": {
        "__dtype__": "0", 
        "__init__": "zeros", 
        "__lr_mult__": "1.0", 
        "__shape__": "(0,)", 
        "__storage_type__": "0", 
        "__wd_mult__": "1.0"
      }, 
      "inputs": []
    }, 
    {
      "op": "null", 
      "name": "shufflenasoneshotfix0_hybridsequential0_shufflenetblock5_batchnorm1_running_mean", 
      "attrs": {
        "__dtype__": "0", 
        "__init__": "zeros", 
        "__lr_mult__": "1.0", 
        "__shape__": "(0,)", 
        "__storage_type__": "0", 
        "__wd_mult__": "1.0"
      }, 
      "inputs": []
    }, 
    {
      "op": "null", 
      "name": "shufflenasoneshotfix0_hybridsequential0_shufflenetblock5_batchnorm1_running_var", 
      "attrs": {
        "__dtype__": "0", 
        "__init__": "ones", 
        "__lr_mult__": "1.0", 
        "__shape__": "(0,)", 
        "__storage_type__": "0", 
        "__wd_mult__": "1.0"
      }, 
      "inputs": []
    }, 
    {
      "op": "BatchNorm", 
      "name": "shufflenasoneshotfix0_hybridsequential0_shufflenetblock5_batchnorm1_fwd", 
      "attrs": {
        "axis": "1", 
        "eps": "1e-05", 
        "fix_gamma": "False", 
        "momentum": "0.1", 
        "use_global_stats": "False"
      }, 
      "inputs": [[210, 0, 0], [211, 0, 0], [212, 0, 0], [213, 0, 2], [214, 0, 2]]
    }, 
    {
      "op": "null", 
      "name": "shufflenasoneshotfix0_hybridsequential0_shufflenetblock5_conv2_weight", 
      "attrs": {
        "__dtype__": "0", 
        "__lr_mult__": "1.0", 
        "__shape__": "(80, 112, 1, 1)", 
        "__storage_type__": "0", 
        "__wd_mult__": "1.0"
      }, 
      "inputs": []
    }, 
    {
      "op": "Convolution", 
      "name": "shufflenasoneshotfix0_hybridsequential0_shufflenetblock5_conv2_fwd", 
      "attrs": {
        "dilate": "(1, 1)", 
        "kernel": "(1, 1)", 
        "layout": "NCHW", 
        "no_bias": "True", 
        "num_filter": "80", 
        "num_group": "1", 
        "pad": "(0, 0)", 
        "stride": "(1, 1)"
      }, 
      "inputs": [[215, 0, 0], [216, 0, 0]]
    }, 
    {
      "op": "null", 
      "name": "shufflenasoneshotfix0_hybridsequential0_shufflenetblock5_batchnorm2_gamma", 
      "attrs": {
        "__dtype__": "0", 
        "__init__": "ones", 
        "__lr_mult__": "1.0", 
        "__shape__": "(0,)", 
        "__storage_type__": "0", 
        "__wd_mult__": "1.0"
      }, 
      "inputs": []
    }, 
    {
      "op": "null", 
      "name": "shufflenasoneshotfix0_hybridsequential0_shufflenetblock5_batchnorm2_beta", 
      "attrs": {
        "__dtype__": "0", 
        "__init__": "zeros", 
        "__lr_mult__": "1.0", 
        "__shape__": "(0,)", 
        "__storage_type__": "0", 
        "__wd_mult__": "1.0"
      }, 
      "inputs": []
    }, 
    {
      "op": "null", 
      "name": "shufflenasoneshotfix0_hybridsequential0_shufflenetblock5_batchnorm2_running_mean", 
      "attrs": {
        "__dtype__": "0", 
        "__init__": "zeros", 
        "__lr_mult__": "1.0", 
        "__shape__": "(0,)", 
        "__storage_type__": "0", 
        "__wd_mult__": "1.0"
      }, 
      "inputs": []
    }, 
    {
      "op": "null", 
      "name": "shufflenasoneshotfix0_hybridsequential0_shufflenetblock5_batchnorm2_running_var", 
      "attrs": {
        "__dtype__": "0", 
        "__init__": "ones", 
        "__lr_mult__": "1.0", 
        "__shape__": "(0,)", 
        "__storage_type__": "0", 
        "__wd_mult__": "1.0"
      }, 
      "inputs": []
    }, 
    {
      "op": "BatchNorm", 
      "name": "shufflenasoneshotfix0_hybridsequential0_shufflenetblock5_batchnorm2_fwd", 
      "attrs": {
        "axis": "1", 
        "eps": "1e-05", 
        "fix_gamma": "False", 
        "momentum": "0.1", 
        "use_global_stats": "False"
      }, 
      "inputs": [[217, 0, 0], [218, 0, 0], [219, 0, 0], [220, 0, 2], [221, 0, 2]]
    }, 
    {
      "op": "Activation", 
      "name": "shufflenasoneshotfix0_hybridsequential0_shufflenetblock5_relu1_fwd", 
      "attrs": {"act_type": "relu"}, 
      "inputs": [[222, 0, 0]]
    }, 
    {
      "op": "Concat", 
      "name": "shufflenasoneshotfix0_hybridsequential0_shufflenetblock5_concat0", 
      "attrs": {
        "dim": "1", 
        "num_args": "2"
      }, 
      "inputs": [[199, 0, 0], [223, 0, 0]]
    }, 
    {
      "op": "Reshape", 
      "name": "shufflenasoneshotfix0_hybridsequential0_shufflenetblock6_shufflechannels0_reshape0", 
      "attrs": {"shape": "(0, -4, 2, -1, -2)"}, 
      "inputs": [[224, 0, 0]]
    }, 
    {
      "op": "SwapAxis", 
      "name": "shufflenasoneshotfix0_hybridsequential0_shufflenetblock6_shufflechannels0_swapaxes0", 
      "attrs": {
        "dim1": "1", 
        "dim2": "2"
      }, 
      "inputs": [[225, 0, 0]]
    }, 
    {
      "op": "Reshape", 
      "name": "shufflenasoneshotfix0_hybridsequential0_shufflenetblock6_shufflechannels0_reshape1", 
      "attrs": {"shape": "(0, -3, -2)"}, 
      "inputs": [[226, 0, 0]]
    }, 
    {
      "op": "slice", 
      "name": "shufflenasoneshotfix0_hybridsequential0_shufflenetblock6_shufflechannels0_slice0", 
      "attrs": {
        "begin": "(None, None, None, None)", 
        "end": "(None, 80, None, None)"
      }, 
      "inputs": [[227, 0, 0]]
    }, 
    {
      "op": "slice", 
      "name": "shufflenasoneshotfix0_hybridsequential0_shufflenetblock6_shufflechannels0_slice1", 
      "attrs": {
        "begin": "(None, 80, None, None)", 
        "end": "(None, None, None, None)"
      }, 
      "inputs": [[227, 0, 0]]
    }, 
    {
      "op": "null", 
      "name": "shufflenasoneshotfix0_hybridsequential0_shufflenetblock6_conv0_weight", 
      "attrs": {
        "__dtype__": "0", 
        "__lr_mult__": "1.0", 
        "__shape__": "(64, 80, 1, 1)", 
        "__storage_type__": "0", 
        "__wd_mult__": "1.0"
      }, 
      "inputs": []
    }, 
    {
      "op": "Convolution", 
      "name": "shufflenasoneshotfix0_hybridsequential0_shufflenetblock6_conv0_fwd", 
      "attrs": {
        "dilate": "(1, 1)", 
        "kernel": "(1, 1)", 
        "layout": "NCHW", 
        "no_bias": "True", 
        "num_filter": "64", 
        "num_group": "1", 
        "pad": "(0, 0)", 
        "stride": "(1, 1)"
      }, 
      "inputs": [[229, 0, 0], [230, 0, 0]]
    }, 
    {
      "op": "null", 
      "name": "shufflenasoneshotfix0_hybridsequential0_shufflenetblock6_batchnorm0_gamma", 
      "attrs": {
        "__dtype__": "0", 
        "__init__": "ones", 
        "__lr_mult__": "1.0", 
        "__shape__": "(0,)", 
        "__storage_type__": "0", 
        "__wd_mult__": "1.0"
      }, 
      "inputs": []
    }, 
    {
      "op": "null", 
      "name": "shufflenasoneshotfix0_hybridsequential0_shufflenetblock6_batchnorm0_beta", 
      "attrs": {
        "__dtype__": "0", 
        "__init__": "zeros", 
        "__lr_mult__": "1.0", 
        "__shape__": "(0,)", 
        "__storage_type__": "0", 
        "__wd_mult__": "1.0"
      }, 
      "inputs": []
    }, 
    {
      "op": "null", 
      "name": "shufflenasoneshotfix0_hybridsequential0_shufflenetblock6_batchnorm0_running_mean", 
      "attrs": {
        "__dtype__": "0", 
        "__init__": "zeros", 
        "__lr_mult__": "1.0", 
        "__shape__": "(0,)", 
        "__storage_type__": "0", 
        "__wd_mult__": "1.0"
      }, 
      "inputs": []
    }, 
    {
      "op": "null", 
      "name": "shufflenasoneshotfix0_hybridsequential0_shufflenetblock6_batchnorm0_running_var", 
      "attrs": {
        "__dtype__": "0", 
        "__init__": "ones", 
        "__lr_mult__": "1.0", 
        "__shape__": "(0,)", 
        "__storage_type__": "0", 
        "__wd_mult__": "1.0"
      }, 
      "inputs": []
    }, 
    {
      "op": "BatchNorm", 
      "name": "shufflenasoneshotfix0_hybridsequential0_shufflenetblock6_batchnorm0_fwd", 
      "attrs": {
        "axis": "1", 
        "eps": "1e-05", 
        "fix_gamma": "False", 
        "momentum": "0.1", 
        "use_global_stats": "False"
      }, 
      "inputs": [[231, 0, 0], [232, 0, 0], [233, 0, 0], [234, 0, 2], [235, 0, 2]]
    }, 
    {
      "op": "Activation", 
      "name": "shufflenasoneshotfix0_hybridsequential0_shufflenetblock6_relu0_fwd", 
      "attrs": {"act_type": "relu"}, 
      "inputs": [[236, 0, 0]]
    }, 
    {
      "op": "null", 
      "name": "shufflenasoneshotfix0_hybridsequential0_shufflenetblock6_conv1_weight", 
      "attrs": {
        "__dtype__": "0", 
        "__lr_mult__": "1.0", 
        "__shape__": "(64, 1, 3, 3)", 
        "__storage_type__": "0", 
        "__wd_mult__": "1.0"
      }, 
      "inputs": []
    }, 
    {
      "op": "Convolution", 
      "name": "shufflenasoneshotfix0_hybridsequential0_shufflenetblock6_conv1_fwd", 
      "attrs": {
        "dilate": "(1, 1)", 
        "kernel": "(3, 3)", 
        "layout": "NCHW", 
        "no_bias": "True", 
        "num_filter": "64", 
        "num_group": "64", 
        "pad": "(1, 1)", 
        "stride": "(1, 1)"
      }, 
      "inputs": [[237, 0, 0], [238, 0, 0]]
    }, 
    {
      "op": "null", 
      "name": "shufflenasoneshotfix0_hybridsequential0_shufflenetblock6_batchnorm1_gamma", 
      "attrs": {
        "__dtype__": "0", 
        "__init__": "ones", 
        "__lr_mult__": "1.0", 
        "__shape__": "(0,)", 
        "__storage_type__": "0", 
        "__wd_mult__": "1.0"
      }, 
      "inputs": []
    }, 
    {
      "op": "null", 
      "name": "shufflenasoneshotfix0_hybridsequential0_shufflenetblock6_batchnorm1_beta", 
      "attrs": {
        "__dtype__": "0", 
        "__init__": "zeros", 
        "__lr_mult__": "1.0", 
        "__shape__": "(0,)", 
        "__storage_type__": "0", 
        "__wd_mult__": "1.0"
      }, 
      "inputs": []
    }, 
    {
      "op": "null", 
      "name": "shufflenasoneshotfix0_hybridsequential0_shufflenetblock6_batchnorm1_running_mean", 
      "attrs": {
        "__dtype__": "0", 
        "__init__": "zeros", 
        "__lr_mult__": "1.0", 
        "__shape__": "(0,)", 
        "__storage_type__": "0", 
        "__wd_mult__": "1.0"
      }, 
      "inputs": []
    }, 
    {
      "op": "null", 
      "name": "shufflenasoneshotfix0_hybridsequential0_shufflenetblock6_batchnorm1_running_var", 
      "attrs": {
        "__dtype__": "0", 
        "__init__": "ones", 
        "__lr_mult__": "1.0", 
        "__shape__": "(0,)", 
        "__storage_type__": "0", 
        "__wd_mult__": "1.0"
      }, 
      "inputs": []
    }, 
    {
      "op": "BatchNorm", 
      "name": "shufflenasoneshotfix0_hybridsequential0_shufflenetblock6_batchnorm1_fwd", 
      "attrs": {
        "axis": "1", 
        "eps": "1e-05", 
        "fix_gamma": "False", 
        "momentum": "0.1", 
        "use_global_stats": "False"
      }, 
      "inputs": [[239, 0, 0], [240, 0, 0], [241, 0, 0], [242, 0, 2], [243, 0, 2]]
    }, 
    {
      "op": "null", 
      "name": "shufflenasoneshotfix0_hybridsequential0_shufflenetblock6_conv2_weight", 
      "attrs": {
        "__dtype__": "0", 
        "__lr_mult__": "1.0", 
        "__shape__": "(80, 64, 1, 1)", 
        "__storage_type__": "0", 
        "__wd_mult__": "1.0"
      }, 
      "inputs": []
    }, 
    {
      "op": "Convolution", 
      "name": "shufflenasoneshotfix0_hybridsequential0_shufflenetblock6_conv2_fwd", 
      "attrs": {
        "dilate": "(1, 1)", 
        "kernel": "(1, 1)", 
        "layout": "NCHW", 
        "no_bias": "True", 
        "num_filter": "80", 
        "num_group": "1", 
        "pad": "(0, 0)", 
        "stride": "(1, 1)"
      }, 
      "inputs": [[244, 0, 0], [245, 0, 0]]
    }, 
    {
      "op": "null", 
      "name": "shufflenasoneshotfix0_hybridsequential0_shufflenetblock6_batchnorm2_gamma", 
      "attrs": {
        "__dtype__": "0", 
        "__init__": "ones", 
        "__lr_mult__": "1.0", 
        "__shape__": "(0,)", 
        "__storage_type__": "0", 
        "__wd_mult__": "1.0"
      }, 
      "inputs": []
    }, 
    {
      "op": "null", 
      "name": "shufflenasoneshotfix0_hybridsequential0_shufflenetblock6_batchnorm2_beta", 
      "attrs": {
        "__dtype__": "0", 
        "__init__": "zeros", 
        "__lr_mult__": "1.0", 
        "__shape__": "(0,)", 
        "__storage_type__": "0", 
        "__wd_mult__": "1.0"
      }, 
      "inputs": []
    }, 
    {
      "op": "null", 
      "name": "shufflenasoneshotfix0_hybridsequential0_shufflenetblock6_batchnorm2_running_mean", 
      "attrs": {
        "__dtype__": "0", 
        "__init__": "zeros", 
        "__lr_mult__": "1.0", 
        "__shape__": "(0,)", 
        "__storage_type__": "0", 
        "__wd_mult__": "1.0"
      }, 
      "inputs": []
    }, 
    {
      "op": "null", 
      "name": "shufflenasoneshotfix0_hybridsequential0_shufflenetblock6_batchnorm2_running_var", 
      "attrs": {
        "__dtype__": "0", 
        "__init__": "ones", 
        "__lr_mult__": "1.0", 
        "__shape__": "(0,)", 
        "__storage_type__": "0", 
        "__wd_mult__": "1.0"
      }, 
      "inputs": []
    }, 
    {
      "op": "BatchNorm", 
      "name": "shufflenasoneshotfix0_hybridsequential0_shufflenetblock6_batchnorm2_fwd", 
      "attrs": {
        "axis": "1", 
        "eps": "1e-05", 
        "fix_gamma": "False", 
        "momentum": "0.1", 
        "use_global_stats": "False"
      }, 
      "inputs": [[246, 0, 0], [247, 0, 0], [248, 0, 0], [249, 0, 2], [250, 0, 2]]
    }, 
    {
      "op": "Activation", 
      "name": "shufflenasoneshotfix0_hybridsequential0_shufflenetblock6_relu1_fwd", 
      "attrs": {"act_type": "relu"}, 
      "inputs": [[251, 0, 0]]
    }, 
    {
      "op": "Concat", 
      "name": "shufflenasoneshotfix0_hybridsequential0_shufflenetblock6_concat0", 
      "attrs": {
        "dim": "1", 
        "num_args": "2"
      }, 
      "inputs": [[228, 0, 0], [252, 0, 0]]
    }, 
    {
      "op": "Reshape", 
      "name": "shufflenasoneshotfix0_hybridsequential0_shufflenetblock7_shufflechannels0_reshape0", 
      "attrs": {"shape": "(0, -4, 2, -1, -2)"}, 
      "inputs": [[253, 0, 0]]
    }, 
    {
      "op": "SwapAxis", 
      "name": "shufflenasoneshotfix0_hybridsequential0_shufflenetblock7_shufflechannels0_swapaxes0", 
      "attrs": {
        "dim1": "1", 
        "dim2": "2"
      }, 
      "inputs": [[254, 0, 0]]
    }, 
    {
      "op": "Reshape", 
      "name": "shufflenasoneshotfix0_hybridsequential0_shufflenetblock7_shufflechannels0_reshape1", 
      "attrs": {"shape": "(0, -3, -2)"}, 
      "inputs": [[255, 0, 0]]
    }, 
    {
      "op": "slice", 
      "name": "shufflenasoneshotfix0_hybridsequential0_shufflenetblock7_shufflechannels0_slice0", 
      "attrs": {
        "begin": "(None, None, None, None)", 
        "end": "(None, 80, None, None)"
      }, 
      "inputs": [[256, 0, 0]]
    }, 
    {
      "op": "slice", 
      "name": "shufflenasoneshotfix0_hybridsequential0_shufflenetblock7_shufflechannels0_slice1", 
      "attrs": {
        "begin": "(None, 80, None, None)", 
        "end": "(None, None, None, None)"
      }, 
      "inputs": [[256, 0, 0]]
    }, 
    {
      "op": "null", 
      "name": "shufflenasoneshotfix0_hybridsequential0_shufflenetblock7_conv0_weight", 
      "attrs": {
        "__dtype__": "0", 
        "__lr_mult__": "1.0", 
        "__shape__": "(80, 80, 1, 1)", 
        "__storage_type__": "0", 
        "__wd_mult__": "1.0"
      }, 
      "inputs": []
    }, 
    {
      "op": "Convolution", 
      "name": "shufflenasoneshotfix0_hybridsequential0_shufflenetblock7_conv0_fwd", 
      "attrs": {
        "dilate": "(1, 1)", 
        "kernel": "(1, 1)", 
        "layout": "NCHW", 
        "no_bias": "True", 
        "num_filter": "80", 
        "num_group": "1", 
        "pad": "(0, 0)", 
        "stride": "(1, 1)"
      }, 
      "inputs": [[258, 0, 0], [259, 0, 0]]
    }, 
    {
      "op": "null", 
      "name": "shufflenasoneshotfix0_hybridsequential0_shufflenetblock7_batchnorm0_gamma", 
      "attrs": {
        "__dtype__": "0", 
        "__init__": "ones", 
        "__lr_mult__": "1.0", 
        "__shape__": "(0,)", 
        "__storage_type__": "0", 
        "__wd_mult__": "1.0"
      }, 
      "inputs": []
    }, 
    {
      "op": "null", 
      "name": "shufflenasoneshotfix0_hybridsequential0_shufflenetblock7_batchnorm0_beta", 
      "attrs": {
        "__dtype__": "0", 
        "__init__": "zeros", 
        "__lr_mult__": "1.0", 
        "__shape__": "(0,)", 
        "__storage_type__": "0", 
        "__wd_mult__": "1.0"
      }, 
      "inputs": []
    }, 
    {
      "op": "null", 
      "name": "shufflenasoneshotfix0_hybridsequential0_shufflenetblock7_batchnorm0_running_mean", 
      "attrs": {
        "__dtype__": "0", 
        "__init__": "zeros", 
        "__lr_mult__": "1.0", 
        "__shape__": "(0,)", 
        "__storage_type__": "0", 
        "__wd_mult__": "1.0"
      }, 
      "inputs": []
    }, 
    {
      "op": "null", 
      "name": "shufflenasoneshotfix0_hybridsequential0_shufflenetblock7_batchnorm0_running_var", 
      "attrs": {
        "__dtype__": "0", 
        "__init__": "ones", 
        "__lr_mult__": "1.0", 
        "__shape__": "(0,)", 
        "__storage_type__": "0", 
        "__wd_mult__": "1.0"
      }, 
      "inputs": []
    }, 
    {
      "op": "BatchNorm", 
      "name": "shufflenasoneshotfix0_hybridsequential0_shufflenetblock7_batchnorm0_fwd", 
      "attrs": {
        "axis": "1", 
        "eps": "1e-05", 
        "fix_gamma": "False", 
        "momentum": "0.1", 
        "use_global_stats": "False"
      }, 
      "inputs": [[260, 0, 0], [261, 0, 0], [262, 0, 0], [263, 0, 2], [264, 0, 2]]
    }, 
    {
      "op": "Activation", 
      "name": "shufflenasoneshotfix0_hybridsequential0_shufflenetblock7_relu0_fwd", 
      "attrs": {"act_type": "relu"}, 
      "inputs": [[265, 0, 0]]
    }, 
    {
      "op": "null", 
      "name": "shufflenasoneshotfix0_hybridsequential0_shufflenetblock7_conv1_weight", 
      "attrs": {
        "__dtype__": "0", 
        "__lr_mult__": "1.0", 
        "__shape__": "(80, 1, 3, 3)", 
        "__storage_type__": "0", 
        "__wd_mult__": "1.0"
      }, 
      "inputs": []
    }, 
    {
      "op": "Convolution", 
      "name": "shufflenasoneshotfix0_hybridsequential0_shufflenetblock7_conv1_fwd", 
      "attrs": {
        "dilate": "(1, 1)", 
        "kernel": "(3, 3)", 
        "layout": "NCHW", 
        "no_bias": "True", 
        "num_filter": "80", 
        "num_group": "80", 
        "pad": "(1, 1)", 
        "stride": "(1, 1)"
      }, 
      "inputs": [[266, 0, 0], [267, 0, 0]]
    }, 
    {
      "op": "null", 
      "name": "shufflenasoneshotfix0_hybridsequential0_shufflenetblock7_batchnorm1_gamma", 
      "attrs": {
        "__dtype__": "0", 
        "__init__": "ones", 
        "__lr_mult__": "1.0", 
        "__shape__": "(0,)", 
        "__storage_type__": "0", 
        "__wd_mult__": "1.0"
      }, 
      "inputs": []
    }, 
    {
      "op": "null", 
      "name": "shufflenasoneshotfix0_hybridsequential0_shufflenetblock7_batchnorm1_beta", 
      "attrs": {
        "__dtype__": "0", 
        "__init__": "zeros", 
        "__lr_mult__": "1.0", 
        "__shape__": "(0,)", 
        "__storage_type__": "0", 
        "__wd_mult__": "1.0"
      }, 
      "inputs": []
    }, 
    {
      "op": "null", 
      "name": "shufflenasoneshotfix0_hybridsequential0_shufflenetblock7_batchnorm1_running_mean", 
      "attrs": {
        "__dtype__": "0", 
        "__init__": "zeros", 
        "__lr_mult__": "1.0", 
        "__shape__": "(0,)", 
        "__storage_type__": "0", 
        "__wd_mult__": "1.0"
      }, 
      "inputs": []
    }, 
    {
      "op": "null", 
      "name": "shufflenasoneshotfix0_hybridsequential0_shufflenetblock7_batchnorm1_running_var", 
      "attrs": {
        "__dtype__": "0", 
        "__init__": "ones", 
        "__lr_mult__": "1.0", 
        "__shape__": "(0,)", 
        "__storage_type__": "0", 
        "__wd_mult__": "1.0"
      }, 
      "inputs": []
    }, 
    {
      "op": "BatchNorm", 
      "name": "shufflenasoneshotfix0_hybridsequential0_shufflenetblock7_batchnorm1_fwd", 
      "attrs": {
        "axis": "1", 
        "eps": "1e-05", 
        "fix_gamma": "False", 
        "momentum": "0.1", 
        "use_global_stats": "False"
      }, 
      "inputs": [[268, 0, 0], [269, 0, 0], [270, 0, 0], [271, 0, 2], [272, 0, 2]]
    }, 
    {
      "op": "null", 
      "name": "shufflenasoneshotfix0_hybridsequential0_shufflenetblock7_conv2_weight", 
      "attrs": {
        "__dtype__": "0", 
        "__lr_mult__": "1.0", 
        "__shape__": "(80, 80, 1, 1)", 
        "__storage_type__": "0", 
        "__wd_mult__": "1.0"
      }, 
      "inputs": []
    }, 
    {
      "op": "Convolution", 
      "name": "shufflenasoneshotfix0_hybridsequential0_shufflenetblock7_conv2_fwd", 
      "attrs": {
        "dilate": "(1, 1)", 
        "kernel": "(1, 1)", 
        "layout": "NCHW", 
        "no_bias": "True", 
        "num_filter": "80", 
        "num_group": "1", 
        "pad": "(0, 0)", 
        "stride": "(1, 1)"
      }, 
      "inputs": [[273, 0, 0], [274, 0, 0]]
    }, 
    {
      "op": "null", 
      "name": "shufflenasoneshotfix0_hybridsequential0_shufflenetblock7_batchnorm2_gamma", 
      "attrs": {
        "__dtype__": "0", 
        "__init__": "ones", 
        "__lr_mult__": "1.0", 
        "__shape__": "(0,)", 
        "__storage_type__": "0", 
        "__wd_mult__": "1.0"
      }, 
      "inputs": []
    }, 
    {
      "op": "null", 
      "name": "shufflenasoneshotfix0_hybridsequential0_shufflenetblock7_batchnorm2_beta", 
      "attrs": {
        "__dtype__": "0", 
        "__init__": "zeros", 
        "__lr_mult__": "1.0", 
        "__shape__": "(0,)", 
        "__storage_type__": "0", 
        "__wd_mult__": "1.0"
      }, 
      "inputs": []
    }, 
    {
      "op": "null", 
      "name": "shufflenasoneshotfix0_hybridsequential0_shufflenetblock7_batchnorm2_running_mean", 
      "attrs": {
        "__dtype__": "0", 
        "__init__": "zeros", 
        "__lr_mult__": "1.0", 
        "__shape__": "(0,)", 
        "__storage_type__": "0", 
        "__wd_mult__": "1.0"
      }, 
      "inputs": []
    }, 
    {
      "op": "null", 
      "name": "shufflenasoneshotfix0_hybridsequential0_shufflenetblock7_batchnorm2_running_var", 
      "attrs": {
        "__dtype__": "0", 
        "__init__": "ones", 
        "__lr_mult__": "1.0", 
        "__shape__": "(0,)", 
        "__storage_type__": "0", 
        "__wd_mult__": "1.0"
      }, 
      "inputs": []
    }, 
    {
      "op": "BatchNorm", 
      "name": "shufflenasoneshotfix0_hybridsequential0_shufflenetblock7_batchnorm2_fwd", 
      "attrs": {
        "axis": "1", 
        "eps": "1e-05", 
        "fix_gamma": "False", 
        "momentum": "0.1", 
        "use_global_stats": "False"
      }, 
      "inputs": [[275, 0, 0], [276, 0, 0], [277, 0, 0], [278, 0, 2], [279, 0, 2]]
    }, 
    {
      "op": "Activation", 
      "name": "shufflenasoneshotfix0_hybridsequential0_shufflenetblock7_relu1_fwd", 
      "attrs": {"act_type": "relu"}, 
      "inputs": [[280, 0, 0]]
    }, 
    {
      "op": "Concat", 
      "name": "shufflenasoneshotfix0_hybridsequential0_shufflenetblock7_concat0", 
      "attrs": {
        "dim": "1", 
        "num_args": "2"
      }, 
      "inputs": [[257, 0, 0], [281, 0, 0]]
    }, 
    {
      "op": "null", 
      "name": "shufflenasoneshotfix0_hybridsequential0_shufflenetblock8_conv3_weight", 
      "attrs": {
        "__dtype__": "0", 
        "__lr_mult__": "1.0", 
        "__shape__": "(160, 1, 7, 7)", 
        "__storage_type__": "0", 
        "__wd_mult__": "1.0"
      }, 
      "inputs": []
    }, 
    {
      "op": "Convolution", 
      "name": "shufflenasoneshotfix0_hybridsequential0_shufflenetblock8_conv3_fwd", 
      "attrs": {
        "dilate": "(1, 1)", 
        "kernel": "(7, 7)", 
        "layout": "NCHW", 
        "no_bias": "True", 
        "num_filter": "160", 
        "num_group": "160", 
        "pad": "(3, 3)", 
        "stride": "(2, 2)"
      }, 
      "inputs": [[282, 0, 0], [283, 0, 0]]
    }, 
    {
      "op": "null", 
      "name": "shufflenasoneshotfix0_hybridsequential0_shufflenetblock8_batchnorm3_gamma", 
      "attrs": {
        "__dtype__": "0", 
        "__init__": "ones", 
        "__lr_mult__": "1.0", 
        "__shape__": "(0,)", 
        "__storage_type__": "0", 
        "__wd_mult__": "1.0"
      }, 
      "inputs": []
    }, 
    {
      "op": "null", 
      "name": "shufflenasoneshotfix0_hybridsequential0_shufflenetblock8_batchnorm3_beta", 
      "attrs": {
        "__dtype__": "0", 
        "__init__": "zeros", 
        "__lr_mult__": "1.0", 
        "__shape__": "(0,)", 
        "__storage_type__": "0", 
        "__wd_mult__": "1.0"
      }, 
      "inputs": []
    }, 
    {
      "op": "null", 
      "name": "shufflenasoneshotfix0_hybridsequential0_shufflenetblock8_batchnorm3_running_mean", 
      "attrs": {
        "__dtype__": "0", 
        "__init__": "zeros", 
        "__lr_mult__": "1.0", 
        "__shape__": "(0,)", 
        "__storage_type__": "0", 
        "__wd_mult__": "1.0"
      }, 
      "inputs": []
    }, 
    {
      "op": "null", 
      "name": "shufflenasoneshotfix0_hybridsequential0_shufflenetblock8_batchnorm3_running_var", 
      "attrs": {
        "__dtype__": "0", 
        "__init__": "ones", 
        "__lr_mult__": "1.0", 
        "__shape__": "(0,)", 
        "__storage_type__": "0", 
        "__wd_mult__": "1.0"
      }, 
      "inputs": []
    }, 
    {
      "op": "BatchNorm", 
      "name": "shufflenasoneshotfix0_hybridsequential0_shufflenetblock8_batchnorm3_fwd", 
      "attrs": {
        "axis": "1", 
        "eps": "1e-05", 
        "fix_gamma": "False", 
        "momentum": "0.1", 
        "use_global_stats": "False"
      }, 
      "inputs": [[284, 0, 0], [285, 0, 0], [286, 0, 0], [287, 0, 2], [288, 0, 2]]
    }, 
    {
      "op": "null", 
      "name": "shufflenasoneshotfix0_hybridsequential0_shufflenetblock8_conv4_weight", 
      "attrs": {
        "__dtype__": "0", 
        "__lr_mult__": "1.0", 
        "__shape__": "(160, 160, 1, 1)", 
        "__storage_type__": "0", 
        "__wd_mult__": "1.0"
      }, 
      "inputs": []
    }, 
    {
      "op": "Convolution", 
      "name": "shufflenasoneshotfix0_hybridsequential0_shufflenetblock8_conv4_fwd", 
      "attrs": {
        "dilate": "(1, 1)", 
        "kernel": "(1, 1)", 
        "layout": "NCHW", 
        "no_bias": "True", 
        "num_filter": "160", 
        "num_group": "1", 
        "pad": "(0, 0)", 
        "stride": "(1, 1)"
      }, 
      "inputs": [[289, 0, 0], [290, 0, 0]]
    }, 
    {
      "op": "null", 
      "name": "shufflenasoneshotfix0_hybridsequential0_shufflenetblock8_batchnorm4_gamma", 
      "attrs": {
        "__dtype__": "0", 
        "__init__": "ones", 
        "__lr_mult__": "1.0", 
        "__shape__": "(0,)", 
        "__storage_type__": "0", 
        "__wd_mult__": "1.0"
      }, 
      "inputs": []
    }, 
    {
      "op": "null", 
      "name": "shufflenasoneshotfix0_hybridsequential0_shufflenetblock8_batchnorm4_beta", 
      "attrs": {
        "__dtype__": "0", 
        "__init__": "zeros", 
        "__lr_mult__": "1.0", 
        "__shape__": "(0,)", 
        "__storage_type__": "0", 
        "__wd_mult__": "1.0"
      }, 
      "inputs": []
    }, 
    {
      "op": "null", 
      "name": "shufflenasoneshotfix0_hybridsequential0_shufflenetblock8_batchnorm4_running_mean", 
      "attrs": {
        "__dtype__": "0", 
        "__init__": "zeros", 
        "__lr_mult__": "1.0", 
        "__shape__": "(0,)", 
        "__storage_type__": "0", 
        "__wd_mult__": "1.0"
      }, 
      "inputs": []
    }, 
    {
      "op": "null", 
      "name": "shufflenasoneshotfix0_hybridsequential0_shufflenetblock8_batchnorm4_running_var", 
      "attrs": {
        "__dtype__": "0", 
        "__init__": "ones", 
        "__lr_mult__": "1.0", 
        "__shape__": "(0,)", 
        "__storage_type__": "0", 
        "__wd_mult__": "1.0"
      }, 
      "inputs": []
    }, 
    {
      "op": "BatchNorm", 
      "name": "shufflenasoneshotfix0_hybridsequential0_shufflenetblock8_batchnorm4_fwd", 
      "attrs": {
        "axis": "1", 
        "eps": "1e-05", 
        "fix_gamma": "False", 
        "momentum": "0.1", 
        "use_global_stats": "False"
      }, 
      "inputs": [[291, 0, 0], [292, 0, 0], [293, 0, 0], [294, 0, 2], [295, 0, 2]]
    }, 
    {
      "op": "Activation", 
      "name": "shufflenasoneshotfix0_hybridsequential0_shufflenetblock8_relu2_fwd", 
      "attrs": {"act_type": "relu"}, 
      "inputs": [[296, 0, 0]]
    }, 
    {
      "op": "null", 
      "name": "shufflenasoneshotfix0_hybridsequential0_shufflenetblock8_conv0_weight", 
      "attrs": {
        "__dtype__": "0", 
        "__lr_mult__": "1.0", 
        "__shape__": "(96, 160, 1, 1)", 
        "__storage_type__": "0", 
        "__wd_mult__": "1.0"
      }, 
      "inputs": []
    }, 
    {
      "op": "Convolution", 
      "name": "shufflenasoneshotfix0_hybridsequential0_shufflenetblock8_conv0_fwd", 
      "attrs": {
        "dilate": "(1, 1)", 
        "kernel": "(1, 1)", 
        "layout": "NCHW", 
        "no_bias": "True", 
        "num_filter": "96", 
        "num_group": "1", 
        "pad": "(0, 0)", 
        "stride": "(1, 1)"
      }, 
      "inputs": [[282, 0, 0], [298, 0, 0]]
    }, 
    {
      "op": "null", 
      "name": "shufflenasoneshotfix0_hybridsequential0_shufflenetblock8_batchnorm0_gamma", 
      "attrs": {
        "__dtype__": "0", 
        "__init__": "ones", 
        "__lr_mult__": "1.0", 
        "__shape__": "(0,)", 
        "__storage_type__": "0", 
        "__wd_mult__": "1.0"
      }, 
      "inputs": []
    }, 
    {
      "op": "null", 
      "name": "shufflenasoneshotfix0_hybridsequential0_shufflenetblock8_batchnorm0_beta", 
      "attrs": {
        "__dtype__": "0", 
        "__init__": "zeros", 
        "__lr_mult__": "1.0", 
        "__shape__": "(0,)", 
        "__storage_type__": "0", 
        "__wd_mult__": "1.0"
      }, 
      "inputs": []
    }, 
    {
      "op": "null", 
      "name": "shufflenasoneshotfix0_hybridsequential0_shufflenetblock8_batchnorm0_running_mean", 
      "attrs": {
        "__dtype__": "0", 
        "__init__": "zeros", 
        "__lr_mult__": "1.0", 
        "__shape__": "(0,)", 
        "__storage_type__": "0", 
        "__wd_mult__": "1.0"
      }, 
      "inputs": []
    }, 
    {
      "op": "null", 
      "name": "shufflenasoneshotfix0_hybridsequential0_shufflenetblock8_batchnorm0_running_var", 
      "attrs": {
        "__dtype__": "0", 
        "__init__": "ones", 
        "__lr_mult__": "1.0", 
        "__shape__": "(0,)", 
        "__storage_type__": "0", 
        "__wd_mult__": "1.0"
      }, 
      "inputs": []
    }, 
    {
      "op": "BatchNorm", 
      "name": "shufflenasoneshotfix0_hybridsequential0_shufflenetblock8_batchnorm0_fwd", 
      "attrs": {
        "axis": "1", 
        "eps": "1e-05", 
        "fix_gamma": "False", 
        "momentum": "0.1", 
        "use_global_stats": "False"
      }, 
      "inputs": [[299, 0, 0], [300, 0, 0], [301, 0, 0], [302, 0, 2], [303, 0, 2]]
    }, 
    {
      "op": "Activation", 
      "name": "shufflenasoneshotfix0_hybridsequential0_shufflenetblock8_relu0_fwd", 
      "attrs": {"act_type": "relu"}, 
      "inputs": [[304, 0, 0]]
    }, 
    {
      "op": "null", 
      "name": "shufflenasoneshotfix0_hybridsequential0_shufflenetblock8_conv1_weight", 
      "attrs": {
        "__dtype__": "0", 
        "__lr_mult__": "1.0", 
        "__shape__": "(96, 1, 7, 7)", 
        "__storage_type__": "0", 
        "__wd_mult__": "1.0"
      }, 
      "inputs": []
    }, 
    {
      "op": "Convolution", 
      "name": "shufflenasoneshotfix0_hybridsequential0_shufflenetblock8_conv1_fwd", 
      "attrs": {
        "dilate": "(1, 1)", 
        "kernel": "(7, 7)", 
        "layout": "NCHW", 
        "no_bias": "True", 
        "num_filter": "96", 
        "num_group": "96", 
        "pad": "(3, 3)", 
        "stride": "(2, 2)"
      }, 
      "inputs": [[305, 0, 0], [306, 0, 0]]
    }, 
    {
      "op": "null", 
      "name": "shufflenasoneshotfix0_hybridsequential0_shufflenetblock8_batchnorm1_gamma", 
      "attrs": {
        "__dtype__": "0", 
        "__init__": "ones", 
        "__lr_mult__": "1.0", 
        "__shape__": "(0,)", 
        "__storage_type__": "0", 
        "__wd_mult__": "1.0"
      }, 
      "inputs": []
    }, 
    {
      "op": "null", 
      "name": "shufflenasoneshotfix0_hybridsequential0_shufflenetblock8_batchnorm1_beta", 
      "attrs": {
        "__dtype__": "0", 
        "__init__": "zeros", 
        "__lr_mult__": "1.0", 
        "__shape__": "(0,)", 
        "__storage_type__": "0", 
        "__wd_mult__": "1.0"
      }, 
      "inputs": []
    }, 
    {
      "op": "null", 
      "name": "shufflenasoneshotfix0_hybridsequential0_shufflenetblock8_batchnorm1_running_mean", 
      "attrs": {
        "__dtype__": "0", 
        "__init__": "zeros", 
        "__lr_mult__": "1.0", 
        "__shape__": "(0,)", 
        "__storage_type__": "0", 
        "__wd_mult__": "1.0"
      }, 
      "inputs": []
    }, 
    {
      "op": "null", 
      "name": "shufflenasoneshotfix0_hybridsequential0_shufflenetblock8_batchnorm1_running_var", 
      "attrs": {
        "__dtype__": "0", 
        "__init__": "ones", 
        "__lr_mult__": "1.0", 
        "__shape__": "(0,)", 
        "__storage_type__": "0", 
        "__wd_mult__": "1.0"
      }, 
      "inputs": []
    }, 
    {
      "op": "BatchNorm", 
      "name": "shufflenasoneshotfix0_hybridsequential0_shufflenetblock8_batchnorm1_fwd", 
      "attrs": {
        "axis": "1", 
        "eps": "1e-05", 
        "fix_gamma": "False", 
        "momentum": "0.1", 
        "use_global_stats": "False"
      }, 
      "inputs": [[307, 0, 0], [308, 0, 0], [309, 0, 0], [310, 0, 2], [311, 0, 2]]
    }, 
    {
      "op": "null", 
      "name": "shufflenasoneshotfix0_hybridsequential0_shufflenetblock8_conv2_weight", 
      "attrs": {
        "__dtype__": "0", 
        "__lr_mult__": "1.0", 
        "__shape__": "(160, 96, 1, 1)", 
        "__storage_type__": "0", 
        "__wd_mult__": "1.0"
      }, 
      "inputs": []
    }, 
    {
      "op": "Convolution", 
      "name": "shufflenasoneshotfix0_hybridsequential0_shufflenetblock8_conv2_fwd", 
      "attrs": {
        "dilate": "(1, 1)", 
        "kernel": "(1, 1)", 
        "layout": "NCHW", 
        "no_bias": "True", 
        "num_filter": "160", 
        "num_group": "1", 
        "pad": "(0, 0)", 
        "stride": "(1, 1)"
      }, 
      "inputs": [[312, 0, 0], [313, 0, 0]]
    }, 
    {
      "op": "null", 
      "name": "shufflenasoneshotfix0_hybridsequential0_shufflenetblock8_batchnorm2_gamma", 
      "attrs": {
        "__dtype__": "0", 
        "__init__": "ones", 
        "__lr_mult__": "1.0", 
        "__shape__": "(0,)", 
        "__storage_type__": "0", 
        "__wd_mult__": "1.0"
      }, 
      "inputs": []
    }, 
    {
      "op": "null", 
      "name": "shufflenasoneshotfix0_hybridsequential0_shufflenetblock8_batchnorm2_beta", 
      "attrs": {
        "__dtype__": "0", 
        "__init__": "zeros", 
        "__lr_mult__": "1.0", 
        "__shape__": "(0,)", 
        "__storage_type__": "0", 
        "__wd_mult__": "1.0"
      }, 
      "inputs": []
    }, 
    {
      "op": "null", 
      "name": "shufflenasoneshotfix0_hybridsequential0_shufflenetblock8_batchnorm2_running_mean", 
      "attrs": {
        "__dtype__": "0", 
        "__init__": "zeros", 
        "__lr_mult__": "1.0", 
        "__shape__": "(0,)", 
        "__storage_type__": "0", 
        "__wd_mult__": "1.0"
      }, 
      "inputs": []
    }, 
    {
      "op": "null", 
      "name": "shufflenasoneshotfix0_hybridsequential0_shufflenetblock8_batchnorm2_running_var", 
      "attrs": {
        "__dtype__": "0", 
        "__init__": "ones", 
        "__lr_mult__": "1.0", 
        "__shape__": "(0,)", 
        "__storage_type__": "0", 
        "__wd_mult__": "1.0"
      }, 
      "inputs": []
    }, 
    {
      "op": "BatchNorm", 
      "name": "shufflenasoneshotfix0_hybridsequential0_shufflenetblock8_batchnorm2_fwd", 
      "attrs": {
        "axis": "1", 
        "eps": "1e-05", 
        "fix_gamma": "False", 
        "momentum": "0.1", 
        "use_global_stats": "False"
      }, 
      "inputs": [[314, 0, 0], [315, 0, 0], [316, 0, 0], [317, 0, 2], [318, 0, 2]]
    }, 
    {
      "op": "Activation", 
      "name": "shufflenasoneshotfix0_hybridsequential0_shufflenetblock8_relu1_fwd", 
      "attrs": {"act_type": "relu"}, 
      "inputs": [[319, 0, 0]]
    }, 
    {
      "op": "Concat", 
      "name": "shufflenasoneshotfix0_hybridsequential0_shufflenetblock8_concat0", 
      "attrs": {
        "dim": "1", 
        "num_args": "2"
      }, 
      "inputs": [[297, 0, 0], [320, 0, 0]]
    }, 
    {
      "op": "Reshape", 
      "name": "shufflenasoneshotfix0_hybridsequential0_shufflenetblock9_shufflechannels0_reshape0", 
      "attrs": {"shape": "(0, -4, 2, -1, -2)"}, 
      "inputs": [[321, 0, 0]]
    }, 
    {
      "op": "SwapAxis", 
      "name": "shufflenasoneshotfix0_hybridsequential0_shufflenetblock9_shufflechannels0_swapaxes0", 
      "attrs": {
        "dim1": "1", 
        "dim2": "2"
      }, 
      "inputs": [[322, 0, 0]]
    }, 
    {
      "op": "Reshape", 
      "name": "shufflenasoneshotfix0_hybridsequential0_shufflenetblock9_shufflechannels0_reshape1", 
      "attrs": {"shape": "(0, -3, -2)"}, 
      "inputs": [[323, 0, 0]]
    }, 
    {
      "op": "slice", 
      "name": "shufflenasoneshotfix0_hybridsequential0_shufflenetblock9_shufflechannels0_slice0", 
      "attrs": {
        "begin": "(None, None, None, None)", 
        "end": "(None, 160, None, None)"
      }, 
      "inputs": [[324, 0, 0]]
    }, 
    {
      "op": "slice", 
      "name": "shufflenasoneshotfix0_hybridsequential0_shufflenetblock9_shufflechannels0_slice1", 
      "attrs": {
        "begin": "(None, 160, None, None)", 
        "end": "(None, None, None, None)"
      }, 
      "inputs": [[324, 0, 0]]
    }, 
    {
      "op": "null", 
      "name": "shufflenasoneshotfix0_hybridsequential0_shufflenetblock9_conv0_weight", 
      "attrs": {
        "__dtype__": "0", 
        "__lr_mult__": "1.0", 
        "__shape__": "(192, 160, 1, 1)", 
        "__storage_type__": "0", 
        "__wd_mult__": "1.0"
      }, 
      "inputs": []
    }, 
    {
      "op": "Convolution", 
      "name": "shufflenasoneshotfix0_hybridsequential0_shufflenetblock9_conv0_fwd", 
      "attrs": {
        "dilate": "(1, 1)", 
        "kernel": "(1, 1)", 
        "layout": "NCHW", 
        "no_bias": "True", 
        "num_filter": "192", 
        "num_group": "1", 
        "pad": "(0, 0)", 
        "stride": "(1, 1)"
      }, 
      "inputs": [[326, 0, 0], [327, 0, 0]]
    }, 
    {
      "op": "null", 
      "name": "shufflenasoneshotfix0_hybridsequential0_shufflenetblock9_batchnorm0_gamma", 
      "attrs": {
        "__dtype__": "0", 
        "__init__": "ones", 
        "__lr_mult__": "1.0", 
        "__shape__": "(0,)", 
        "__storage_type__": "0", 
        "__wd_mult__": "1.0"
      }, 
      "inputs": []
    }, 
    {
      "op": "null", 
      "name": "shufflenasoneshotfix0_hybridsequential0_shufflenetblock9_batchnorm0_beta", 
      "attrs": {
        "__dtype__": "0", 
        "__init__": "zeros", 
        "__lr_mult__": "1.0", 
        "__shape__": "(0,)", 
        "__storage_type__": "0", 
        "__wd_mult__": "1.0"
      }, 
      "inputs": []
    }, 
    {
      "op": "null", 
      "name": "shufflenasoneshotfix0_hybridsequential0_shufflenetblock9_batchnorm0_running_mean", 
      "attrs": {
        "__dtype__": "0", 
        "__init__": "zeros", 
        "__lr_mult__": "1.0", 
        "__shape__": "(0,)", 
        "__storage_type__": "0", 
        "__wd_mult__": "1.0"
      }, 
      "inputs": []
    }, 
    {
      "op": "null", 
      "name": "shufflenasoneshotfix0_hybridsequential0_shufflenetblock9_batchnorm0_running_var", 
      "attrs": {
        "__dtype__": "0", 
        "__init__": "ones", 
        "__lr_mult__": "1.0", 
        "__shape__": "(0,)", 
        "__storage_type__": "0", 
        "__wd_mult__": "1.0"
      }, 
      "inputs": []
    }, 
    {
      "op": "BatchNorm", 
      "name": "shufflenasoneshotfix0_hybridsequential0_shufflenetblock9_batchnorm0_fwd", 
      "attrs": {
        "axis": "1", 
        "eps": "1e-05", 
        "fix_gamma": "False", 
        "momentum": "0.1", 
        "use_global_stats": "False"
      }, 
      "inputs": [[328, 0, 0], [329, 0, 0], [330, 0, 0], [331, 0, 2], [332, 0, 2]]
    }, 
    {
      "op": "Activation", 
      "name": "shufflenasoneshotfix0_hybridsequential0_shufflenetblock9_relu0_fwd", 
      "attrs": {"act_type": "relu"}, 
      "inputs": [[333, 0, 0]]
    }, 
    {
      "op": "null", 
      "name": "shufflenasoneshotfix0_hybridsequential0_shufflenetblock9_conv1_weight", 
      "attrs": {
        "__dtype__": "0", 
        "__lr_mult__": "1.0", 
        "__shape__": "(192, 1, 3, 3)", 
        "__storage_type__": "0", 
        "__wd_mult__": "1.0"
      }, 
      "inputs": []
    }, 
    {
      "op": "Convolution", 
      "name": "shufflenasoneshotfix0_hybridsequential0_shufflenetblock9_conv1_fwd", 
      "attrs": {
        "dilate": "(1, 1)", 
        "kernel": "(3, 3)", 
        "layout": "NCHW", 
        "no_bias": "True", 
        "num_filter": "192", 
        "num_group": "192", 
        "pad": "(1, 1)", 
        "stride": "(1, 1)"
      }, 
      "inputs": [[334, 0, 0], [335, 0, 0]]
    }, 
    {
      "op": "null", 
      "name": "shufflenasoneshotfix0_hybridsequential0_shufflenetblock9_batchnorm1_gamma", 
      "attrs": {
        "__dtype__": "0", 
        "__init__": "ones", 
        "__lr_mult__": "1.0", 
        "__shape__": "(0,)", 
        "__storage_type__": "0", 
        "__wd_mult__": "1.0"
      }, 
      "inputs": []
    }, 
    {
      "op": "null", 
      "name": "shufflenasoneshotfix0_hybridsequential0_shufflenetblock9_batchnorm1_beta", 
      "attrs": {
        "__dtype__": "0", 
        "__init__": "zeros", 
        "__lr_mult__": "1.0", 
        "__shape__": "(0,)", 
        "__storage_type__": "0", 
        "__wd_mult__": "1.0"
      }, 
      "inputs": []
    }, 
    {
      "op": "null", 
      "name": "shufflenasoneshotfix0_hybridsequential0_shufflenetblock9_batchnorm1_running_mean", 
      "attrs": {
        "__dtype__": "0", 
        "__init__": "zeros", 
        "__lr_mult__": "1.0", 
        "__shape__": "(0,)", 
        "__storage_type__": "0", 
        "__wd_mult__": "1.0"
      }, 
      "inputs": []
    }, 
    {
      "op": "null", 
      "name": "shufflenasoneshotfix0_hybridsequential0_shufflenetblock9_batchnorm1_running_var", 
      "attrs": {
        "__dtype__": "0", 
        "__init__": "ones", 
        "__lr_mult__": "1.0", 
        "__shape__": "(0,)", 
        "__storage_type__": "0", 
        "__wd_mult__": "1.0"
      }, 
      "inputs": []
    }, 
    {
      "op": "BatchNorm", 
      "name": "shufflenasoneshotfix0_hybridsequential0_shufflenetblock9_batchnorm1_fwd", 
      "attrs": {
        "axis": "1", 
        "eps": "1e-05", 
        "fix_gamma": "False", 
        "momentum": "0.1", 
        "use_global_stats": "False"
      }, 
      "inputs": [[336, 0, 0], [337, 0, 0], [338, 0, 0], [339, 0, 2], [340, 0, 2]]
    }, 
    {
      "op": "null", 
      "name": "shufflenasoneshotfix0_hybridsequential0_shufflenetblock9_conv2_weight", 
      "attrs": {
        "__dtype__": "0", 
        "__lr_mult__": "1.0", 
        "__shape__": "(160, 192, 1, 1)", 
        "__storage_type__": "0", 
        "__wd_mult__": "1.0"
      }, 
      "inputs": []
    }, 
    {
      "op": "Convolution", 
      "name": "shufflenasoneshotfix0_hybridsequential0_shufflenetblock9_conv2_fwd", 
      "attrs": {
        "dilate": "(1, 1)", 
        "kernel": "(1, 1)", 
        "layout": "NCHW", 
        "no_bias": "True", 
        "num_filter": "160", 
        "num_group": "1", 
        "pad": "(0, 0)", 
        "stride": "(1, 1)"
      }, 
      "inputs": [[341, 0, 0], [342, 0, 0]]
    }, 
    {
      "op": "null", 
      "name": "shufflenasoneshotfix0_hybridsequential0_shufflenetblock9_batchnorm2_gamma", 
      "attrs": {
        "__dtype__": "0", 
        "__init__": "ones", 
        "__lr_mult__": "1.0", 
        "__shape__": "(0,)", 
        "__storage_type__": "0", 
        "__wd_mult__": "1.0"
      }, 
      "inputs": []
    }, 
    {
      "op": "null", 
      "name": "shufflenasoneshotfix0_hybridsequential0_shufflenetblock9_batchnorm2_beta", 
      "attrs": {
        "__dtype__": "0", 
        "__init__": "zeros", 
        "__lr_mult__": "1.0", 
        "__shape__": "(0,)", 
        "__storage_type__": "0", 
        "__wd_mult__": "1.0"
      }, 
      "inputs": []
    }, 
    {
      "op": "null", 
      "name": "shufflenasoneshotfix0_hybridsequential0_shufflenetblock9_batchnorm2_running_mean", 
      "attrs": {
        "__dtype__": "0", 
        "__init__": "zeros", 
        "__lr_mult__": "1.0", 
        "__shape__": "(0,)", 
        "__storage_type__": "0", 
        "__wd_mult__": "1.0"
      }, 
      "inputs": []
    }, 
    {
      "op": "null", 
      "name": "shufflenasoneshotfix0_hybridsequential0_shufflenetblock9_batchnorm2_running_var", 
      "attrs": {
        "__dtype__": "0", 
        "__init__": "ones", 
        "__lr_mult__": "1.0", 
        "__shape__": "(0,)", 
        "__storage_type__": "0", 
        "__wd_mult__": "1.0"
      }, 
      "inputs": []
    }, 
    {
      "op": "BatchNorm", 
      "name": "shufflenasoneshotfix0_hybridsequential0_shufflenetblock9_batchnorm2_fwd", 
      "attrs": {
        "axis": "1", 
        "eps": "1e-05", 
        "fix_gamma": "False", 
        "momentum": "0.1", 
        "use_global_stats": "False"
      }, 
      "inputs": [[343, 0, 0], [344, 0, 0], [345, 0, 0], [346, 0, 2], [347, 0, 2]]
    }, 
    {
      "op": "Activation", 
      "name": "shufflenasoneshotfix0_hybridsequential0_shufflenetblock9_relu1_fwd", 
      "attrs": {"act_type": "relu"}, 
      "inputs": [[348, 0, 0]]
    }, 
    {
      "op": "Concat", 
      "name": "shufflenasoneshotfix0_hybridsequential0_shufflenetblock9_concat0", 
      "attrs": {
        "dim": "1", 
        "num_args": "2"
      }, 
      "inputs": [[325, 0, 0], [349, 0, 0]]
    }, 
    {
      "op": "Reshape", 
      "name": "shufflenasoneshotfix0_hybridsequential0_shufflenetblock10_shufflechannels0_reshape0", 
      "attrs": {"shape": "(0, -4, 2, -1, -2)"}, 
      "inputs": [[350, 0, 0]]
    }, 
    {
      "op": "SwapAxis", 
      "name": "shufflenasoneshotfix0_hybridsequential0_shufflenetblock10_shufflechannels0_swapaxes0", 
      "attrs": {
        "dim1": "1", 
        "dim2": "2"
      }, 
      "inputs": [[351, 0, 0]]
    }, 
    {
      "op": "Reshape", 
      "name": "shufflenasoneshotfix0_hybridsequential0_shufflenetblock10_shufflechannels0_reshape1", 
      "attrs": {"shape": "(0, -3, -2)"}, 
      "inputs": [[352, 0, 0]]
    }, 
    {
      "op": "slice", 
      "name": "shufflenasoneshotfix0_hybridsequential0_shufflenetblock10_shufflechannels0_slice0", 
      "attrs": {
        "begin": "(None, None, None, None)", 
        "end": "(None, 160, None, None)"
      }, 
      "inputs": [[353, 0, 0]]
    }, 
    {
      "op": "slice", 
      "name": "shufflenasoneshotfix0_hybridsequential0_shufflenetblock10_shufflechannels0_slice1", 
      "attrs": {
        "begin": "(None, 160, None, None)", 
        "end": "(None, None, None, None)"
      }, 
      "inputs": [[353, 0, 0]]
    }, 
    {
      "op": "null", 
      "name": "shufflenasoneshotfix0_hybridsequential0_shufflenetblock10_conv0_weight", 
      "attrs": {
        "__dtype__": "0", 
        "__lr_mult__": "1.0", 
        "__shape__": "(256, 160, 1, 1)", 
        "__storage_type__": "0", 
        "__wd_mult__": "1.0"
      }, 
      "inputs": []
    }, 
    {
      "op": "Convolution", 
      "name": "shufflenasoneshotfix0_hybridsequential0_shufflenetblock10_conv0_fwd", 
      "attrs": {
        "dilate": "(1, 1)", 
        "kernel": "(1, 1)", 
        "layout": "NCHW", 
        "no_bias": "True", 
        "num_filter": "256", 
        "num_group": "1", 
        "pad": "(0, 0)", 
        "stride": "(1, 1)"
      }, 
      "inputs": [[355, 0, 0], [356, 0, 0]]
    }, 
    {
      "op": "null", 
      "name": "shufflenasoneshotfix0_hybridsequential0_shufflenetblock10_batchnorm0_gamma", 
      "attrs": {
        "__dtype__": "0", 
        "__init__": "ones", 
        "__lr_mult__": "1.0", 
        "__shape__": "(0,)", 
        "__storage_type__": "0", 
        "__wd_mult__": "1.0"
      }, 
      "inputs": []
    }, 
    {
      "op": "null", 
      "name": "shufflenasoneshotfix0_hybridsequential0_shufflenetblock10_batchnorm0_beta", 
      "attrs": {
        "__dtype__": "0", 
        "__init__": "zeros", 
        "__lr_mult__": "1.0", 
        "__shape__": "(0,)", 
        "__storage_type__": "0", 
        "__wd_mult__": "1.0"
      }, 
      "inputs": []
    }, 
    {
      "op": "null", 
      "name": "shufflenasoneshotfix0_hybridsequential0_shufflenetblock10_batchnorm0_running_mean", 
      "attrs": {
        "__dtype__": "0", 
        "__init__": "zeros", 
        "__lr_mult__": "1.0", 
        "__shape__": "(0,)", 
        "__storage_type__": "0", 
        "__wd_mult__": "1.0"
      }, 
      "inputs": []
    }, 
    {
      "op": "null", 
      "name": "shufflenasoneshotfix0_hybridsequential0_shufflenetblock10_batchnorm0_running_var", 
      "attrs": {
        "__dtype__": "0", 
        "__init__": "ones", 
        "__lr_mult__": "1.0", 
        "__shape__": "(0,)", 
        "__storage_type__": "0", 
        "__wd_mult__": "1.0"
      }, 
      "inputs": []
    }, 
    {
      "op": "BatchNorm", 
      "name": "shufflenasoneshotfix0_hybridsequential0_shufflenetblock10_batchnorm0_fwd", 
      "attrs": {
        "axis": "1", 
        "eps": "1e-05", 
        "fix_gamma": "False", 
        "momentum": "0.1", 
        "use_global_stats": "False"
      }, 
      "inputs": [[357, 0, 0], [358, 0, 0], [359, 0, 0], [360, 0, 2], [361, 0, 2]]
    }, 
    {
      "op": "Activation", 
      "name": "shufflenasoneshotfix0_hybridsequential0_shufflenetblock10_relu0_fwd", 
      "attrs": {"act_type": "relu"}, 
      "inputs": [[362, 0, 0]]
    }, 
    {
      "op": "null", 
      "name": "shufflenasoneshotfix0_hybridsequential0_shufflenetblock10_conv1_weight", 
      "attrs": {
        "__dtype__": "0", 
        "__lr_mult__": "1.0", 
        "__shape__": "(256, 1, 7, 7)", 
        "__storage_type__": "0", 
        "__wd_mult__": "1.0"
      }, 
      "inputs": []
    }, 
    {
      "op": "Convolution", 
      "name": "shufflenasoneshotfix0_hybridsequential0_shufflenetblock10_conv1_fwd", 
      "attrs": {
        "dilate": "(1, 1)", 
        "kernel": "(7, 7)", 
        "layout": "NCHW", 
        "no_bias": "True", 
        "num_filter": "256", 
        "num_group": "256", 
        "pad": "(3, 3)", 
        "stride": "(1, 1)"
      }, 
      "inputs": [[363, 0, 0], [364, 0, 0]]
    }, 
    {
      "op": "null", 
      "name": "shufflenasoneshotfix0_hybridsequential0_shufflenetblock10_batchnorm1_gamma", 
      "attrs": {
        "__dtype__": "0", 
        "__init__": "ones", 
        "__lr_mult__": "1.0", 
        "__shape__": "(0,)", 
        "__storage_type__": "0", 
        "__wd_mult__": "1.0"
      }, 
      "inputs": []
    }, 
    {
      "op": "null", 
      "name": "shufflenasoneshotfix0_hybridsequential0_shufflenetblock10_batchnorm1_beta", 
      "attrs": {
        "__dtype__": "0", 
        "__init__": "zeros", 
        "__lr_mult__": "1.0", 
        "__shape__": "(0,)", 
        "__storage_type__": "0", 
        "__wd_mult__": "1.0"
      }, 
      "inputs": []
    }, 
    {
      "op": "null", 
      "name": "shufflenasoneshotfix0_hybridsequential0_shufflenetblock10_batchnorm1_running_mean", 
      "attrs": {
        "__dtype__": "0", 
        "__init__": "zeros", 
        "__lr_mult__": "1.0", 
        "__shape__": "(0,)", 
        "__storage_type__": "0", 
        "__wd_mult__": "1.0"
      }, 
      "inputs": []
    }, 
    {
      "op": "null", 
      "name": "shufflenasoneshotfix0_hybridsequential0_shufflenetblock10_batchnorm1_running_var", 
      "attrs": {
        "__dtype__": "0", 
        "__init__": "ones", 
        "__lr_mult__": "1.0", 
        "__shape__": "(0,)", 
        "__storage_type__": "0", 
        "__wd_mult__": "1.0"
      }, 
      "inputs": []
    }, 
    {
      "op": "BatchNorm", 
      "name": "shufflenasoneshotfix0_hybridsequential0_shufflenetblock10_batchnorm1_fwd", 
      "attrs": {
        "axis": "1", 
        "eps": "1e-05", 
        "fix_gamma": "False", 
        "momentum": "0.1", 
        "use_global_stats": "False"
      }, 
      "inputs": [[365, 0, 0], [366, 0, 0], [367, 0, 0], [368, 0, 2], [369, 0, 2]]
    }, 
    {
      "op": "null", 
      "name": "shufflenasoneshotfix0_hybridsequential0_shufflenetblock10_conv2_weight", 
      "attrs": {
        "__dtype__": "0", 
        "__lr_mult__": "1.0", 
        "__shape__": "(160, 256, 1, 1)", 
        "__storage_type__": "0", 
        "__wd_mult__": "1.0"
      }, 
      "inputs": []
    }, 
    {
      "op": "Convolution", 
      "name": "shufflenasoneshotfix0_hybridsequential0_shufflenetblock10_conv2_fwd", 
      "attrs": {
        "dilate": "(1, 1)", 
        "kernel": "(1, 1)", 
        "layout": "NCHW", 
        "no_bias": "True", 
        "num_filter": "160", 
        "num_group": "1", 
        "pad": "(0, 0)", 
        "stride": "(1, 1)"
      }, 
      "inputs": [[370, 0, 0], [371, 0, 0]]
    }, 
    {
      "op": "null", 
      "name": "shufflenasoneshotfix0_hybridsequential0_shufflenetblock10_batchnorm2_gamma", 
      "attrs": {
        "__dtype__": "0", 
        "__init__": "ones", 
        "__lr_mult__": "1.0", 
        "__shape__": "(0,)", 
        "__storage_type__": "0", 
        "__wd_mult__": "1.0"
      }, 
      "inputs": []
    }, 
    {
      "op": "null", 
      "name": "shufflenasoneshotfix0_hybridsequential0_shufflenetblock10_batchnorm2_beta", 
      "attrs": {
        "__dtype__": "0", 
        "__init__": "zeros", 
        "__lr_mult__": "1.0", 
        "__shape__": "(0,)", 
        "__storage_type__": "0", 
        "__wd_mult__": "1.0"
      }, 
      "inputs": []
    }, 
    {
      "op": "null", 
      "name": "shufflenasoneshotfix0_hybridsequential0_shufflenetblock10_batchnorm2_running_mean", 
      "attrs": {
        "__dtype__": "0", 
        "__init__": "zeros", 
        "__lr_mult__": "1.0", 
        "__shape__": "(0,)", 
        "__storage_type__": "0", 
        "__wd_mult__": "1.0"
      }, 
      "inputs": []
    }, 
    {
      "op": "null", 
      "name": "shufflenasoneshotfix0_hybridsequential0_shufflenetblock10_batchnorm2_running_var", 
      "attrs": {
        "__dtype__": "0", 
        "__init__": "ones", 
        "__lr_mult__": "1.0", 
        "__shape__": "(0,)", 
        "__storage_type__": "0", 
        "__wd_mult__": "1.0"
      }, 
      "inputs": []
    }, 
    {
      "op": "BatchNorm", 
      "name": "shufflenasoneshotfix0_hybridsequential0_shufflenetblock10_batchnorm2_fwd", 
      "attrs": {
        "axis": "1", 
        "eps": "1e-05", 
        "fix_gamma": "False", 
        "momentum": "0.1", 
        "use_global_stats": "False"
      }, 
      "inputs": [[372, 0, 0], [373, 0, 0], [374, 0, 0], [375, 0, 2], [376, 0, 2]]
    }, 
    {
      "op": "Activation", 
      "name": "shufflenasoneshotfix0_hybridsequential0_shufflenetblock10_relu1_fwd", 
      "attrs": {"act_type": "relu"}, 
      "inputs": [[377, 0, 0]]
    }, 
    {
      "op": "Concat", 
      "name": "shufflenasoneshotfix0_hybridsequential0_shufflenetblock10_concat0", 
      "attrs": {
        "dim": "1", 
        "num_args": "2"
      }, 
      "inputs": [[354, 0, 0], [378, 0, 0]]
    }, 
    {
      "op": "Reshape", 
      "name": "shufflenasoneshotfix0_hybridsequential0_shufflenetblock11_shufflechannels0_reshape0", 
      "attrs": {"shape": "(0, -4, 2, -1, -2)"}, 
      "inputs": [[379, 0, 0]]
    }, 
    {
      "op": "SwapAxis", 
      "name": "shufflenasoneshotfix0_hybridsequential0_shufflenetblock11_shufflechannels0_swapaxes0", 
      "attrs": {
        "dim1": "1", 
        "dim2": "2"
      }, 
      "inputs": [[380, 0, 0]]
    }, 
    {
      "op": "Reshape", 
      "name": "shufflenasoneshotfix0_hybridsequential0_shufflenetblock11_shufflechannels0_reshape1", 
      "attrs": {"shape": "(0, -3, -2)"}, 
      "inputs": [[381, 0, 0]]
    }, 
    {
      "op": "slice", 
      "name": "shufflenasoneshotfix0_hybridsequential0_shufflenetblock11_shufflechannels0_slice0", 
      "attrs": {
        "begin": "(None, None, None, None)", 
        "end": "(None, 160, None, None)"
      }, 
      "inputs": [[382, 0, 0]]
    }, 
    {
      "op": "slice", 
      "name": "shufflenasoneshotfix0_hybridsequential0_shufflenetblock11_shufflechannels0_slice1", 
      "attrs": {
        "begin": "(None, 160, None, None)", 
        "end": "(None, None, None, None)"
      }, 
      "inputs": [[382, 0, 0]]
    }, 
    {
      "op": "null", 
      "name": "shufflenasoneshotfix0_hybridsequential0_shufflenetblock11_conv0_weight", 
      "attrs": {
        "__dtype__": "0", 
        "__lr_mult__": "1.0", 
        "__shape__": "(192, 160, 1, 1)", 
        "__storage_type__": "0", 
        "__wd_mult__": "1.0"
      }, 
      "inputs": []
    }, 
    {
      "op": "Convolution", 
      "name": "shufflenasoneshotfix0_hybridsequential0_shufflenetblock11_conv0_fwd", 
      "attrs": {
        "dilate": "(1, 1)", 
        "kernel": "(1, 1)", 
        "layout": "NCHW", 
        "no_bias": "True", 
        "num_filter": "192", 
        "num_group": "1", 
        "pad": "(0, 0)", 
        "stride": "(1, 1)"
      }, 
      "inputs": [[384, 0, 0], [385, 0, 0]]
    }, 
    {
      "op": "null", 
      "name": "shufflenasoneshotfix0_hybridsequential0_shufflenetblock11_batchnorm0_gamma", 
      "attrs": {
        "__dtype__": "0", 
        "__init__": "ones", 
        "__lr_mult__": "1.0", 
        "__shape__": "(0,)", 
        "__storage_type__": "0", 
        "__wd_mult__": "1.0"
      }, 
      "inputs": []
    }, 
    {
      "op": "null", 
      "name": "shufflenasoneshotfix0_hybridsequential0_shufflenetblock11_batchnorm0_beta", 
      "attrs": {
        "__dtype__": "0", 
        "__init__": "zeros", 
        "__lr_mult__": "1.0", 
        "__shape__": "(0,)", 
        "__storage_type__": "0", 
        "__wd_mult__": "1.0"
      }, 
      "inputs": []
    }, 
    {
      "op": "null", 
      "name": "shufflenasoneshotfix0_hybridsequential0_shufflenetblock11_batchnorm0_running_mean", 
      "attrs": {
        "__dtype__": "0", 
        "__init__": "zeros", 
        "__lr_mult__": "1.0", 
        "__shape__": "(0,)", 
        "__storage_type__": "0", 
        "__wd_mult__": "1.0"
      }, 
      "inputs": []
    }, 
    {
      "op": "null", 
      "name": "shufflenasoneshotfix0_hybridsequential0_shufflenetblock11_batchnorm0_running_var", 
      "attrs": {
        "__dtype__": "0", 
        "__init__": "ones", 
        "__lr_mult__": "1.0", 
        "__shape__": "(0,)", 
        "__storage_type__": "0", 
        "__wd_mult__": "1.0"
      }, 
      "inputs": []
    }, 
    {
      "op": "BatchNorm", 
      "name": "shufflenasoneshotfix0_hybridsequential0_shufflenetblock11_batchnorm0_fwd", 
      "attrs": {
        "axis": "1", 
        "eps": "1e-05", 
        "fix_gamma": "False", 
        "momentum": "0.1", 
        "use_global_stats": "False"
      }, 
      "inputs": [[386, 0, 0], [387, 0, 0], [388, 0, 0], [389, 0, 2], [390, 0, 2]]
    }, 
    {
      "op": "Activation", 
      "name": "shufflenasoneshotfix0_hybridsequential0_shufflenetblock11_relu0_fwd", 
      "attrs": {"act_type": "relu"}, 
      "inputs": [[391, 0, 0]]
    }, 
    {
      "op": "null", 
      "name": "shufflenasoneshotfix0_hybridsequential0_shufflenetblock11_conv1_weight", 
      "attrs": {
        "__dtype__": "0", 
        "__lr_mult__": "1.0", 
        "__shape__": "(192, 1, 5, 5)", 
        "__storage_type__": "0", 
        "__wd_mult__": "1.0"
      }, 
      "inputs": []
    }, 
    {
      "op": "Convolution", 
      "name": "shufflenasoneshotfix0_hybridsequential0_shufflenetblock11_conv1_fwd", 
      "attrs": {
        "dilate": "(1, 1)", 
        "kernel": "(5, 5)", 
        "layout": "NCHW", 
        "no_bias": "True", 
        "num_filter": "192", 
        "num_group": "192", 
        "pad": "(2, 2)", 
        "stride": "(1, 1)"
      }, 
      "inputs": [[392, 0, 0], [393, 0, 0]]
    }, 
    {
      "op": "null", 
      "name": "shufflenasoneshotfix0_hybridsequential0_shufflenetblock11_batchnorm1_gamma", 
      "attrs": {
        "__dtype__": "0", 
        "__init__": "ones", 
        "__lr_mult__": "1.0", 
        "__shape__": "(0,)", 
        "__storage_type__": "0", 
        "__wd_mult__": "1.0"
      }, 
      "inputs": []
    }, 
    {
      "op": "null", 
      "name": "shufflenasoneshotfix0_hybridsequential0_shufflenetblock11_batchnorm1_beta", 
      "attrs": {
        "__dtype__": "0", 
        "__init__": "zeros", 
        "__lr_mult__": "1.0", 
        "__shape__": "(0,)", 
        "__storage_type__": "0", 
        "__wd_mult__": "1.0"
      }, 
      "inputs": []
    }, 
    {
      "op": "null", 
      "name": "shufflenasoneshotfix0_hybridsequential0_shufflenetblock11_batchnorm1_running_mean", 
      "attrs": {
        "__dtype__": "0", 
        "__init__": "zeros", 
        "__lr_mult__": "1.0", 
        "__shape__": "(0,)", 
        "__storage_type__": "0", 
        "__wd_mult__": "1.0"
      }, 
      "inputs": []
    }, 
    {
      "op": "null", 
      "name": "shufflenasoneshotfix0_hybridsequential0_shufflenetblock11_batchnorm1_running_var", 
      "attrs": {
        "__dtype__": "0", 
        "__init__": "ones", 
        "__lr_mult__": "1.0", 
        "__shape__": "(0,)", 
        "__storage_type__": "0", 
        "__wd_mult__": "1.0"
      }, 
      "inputs": []
    }, 
    {
      "op": "BatchNorm", 
      "name": "shufflenasoneshotfix0_hybridsequential0_shufflenetblock11_batchnorm1_fwd", 
      "attrs": {
        "axis": "1", 
        "eps": "1e-05", 
        "fix_gamma": "False", 
        "momentum": "0.1", 
        "use_global_stats": "False"
      }, 
      "inputs": [[394, 0, 0], [395, 0, 0], [396, 0, 0], [397, 0, 2], [398, 0, 2]]
    }, 
    {
      "op": "null", 
      "name": "shufflenasoneshotfix0_hybridsequential0_shufflenetblock11_conv2_weight", 
      "attrs": {
        "__dtype__": "0", 
        "__lr_mult__": "1.0", 
        "__shape__": "(160, 192, 1, 1)", 
        "__storage_type__": "0", 
        "__wd_mult__": "1.0"
      }, 
      "inputs": []
    }, 
    {
      "op": "Convolution", 
      "name": "shufflenasoneshotfix0_hybridsequential0_shufflenetblock11_conv2_fwd", 
      "attrs": {
        "dilate": "(1, 1)", 
        "kernel": "(1, 1)", 
        "layout": "NCHW", 
        "no_bias": "True", 
        "num_filter": "160", 
        "num_group": "1", 
        "pad": "(0, 0)", 
        "stride": "(1, 1)"
      }, 
      "inputs": [[399, 0, 0], [400, 0, 0]]
    }, 
    {
      "op": "null", 
      "name": "shufflenasoneshotfix0_hybridsequential0_shufflenetblock11_batchnorm2_gamma", 
      "attrs": {
        "__dtype__": "0", 
        "__init__": "ones", 
        "__lr_mult__": "1.0", 
        "__shape__": "(0,)", 
        "__storage_type__": "0", 
        "__wd_mult__": "1.0"
      }, 
      "inputs": []
    }, 
    {
      "op": "null", 
      "name": "shufflenasoneshotfix0_hybridsequential0_shufflenetblock11_batchnorm2_beta", 
      "attrs": {
        "__dtype__": "0", 
        "__init__": "zeros", 
        "__lr_mult__": "1.0", 
        "__shape__": "(0,)", 
        "__storage_type__": "0", 
        "__wd_mult__": "1.0"
      }, 
      "inputs": []
    }, 
    {
      "op": "null", 
      "name": "shufflenasoneshotfix0_hybridsequential0_shufflenetblock11_batchnorm2_running_mean", 
      "attrs": {
        "__dtype__": "0", 
        "__init__": "zeros", 
        "__lr_mult__": "1.0", 
        "__shape__": "(0,)", 
        "__storage_type__": "0", 
        "__wd_mult__": "1.0"
      }, 
      "inputs": []
    }, 
    {
      "op": "null", 
      "name": "shufflenasoneshotfix0_hybridsequential0_shufflenetblock11_batchnorm2_running_var", 
      "attrs": {
        "__dtype__": "0", 
        "__init__": "ones", 
        "__lr_mult__": "1.0", 
        "__shape__": "(0,)", 
        "__storage_type__": "0", 
        "__wd_mult__": "1.0"
      }, 
      "inputs": []
    }, 
    {
      "op": "BatchNorm", 
      "name": "shufflenasoneshotfix0_hybridsequential0_shufflenetblock11_batchnorm2_fwd", 
      "attrs": {
        "axis": "1", 
        "eps": "1e-05", 
        "fix_gamma": "False", 
        "momentum": "0.1", 
        "use_global_stats": "False"
      }, 
      "inputs": [[401, 0, 0], [402, 0, 0], [403, 0, 0], [404, 0, 2], [405, 0, 2]]
    }, 
    {
      "op": "Activation", 
      "name": "shufflenasoneshotfix0_hybridsequential0_shufflenetblock11_relu1_fwd", 
      "attrs": {"act_type": "relu"}, 
      "inputs": [[406, 0, 0]]
    }, 
    {
      "op": "Concat", 
      "name": "shufflenasoneshotfix0_hybridsequential0_shufflenetblock11_concat0", 
      "attrs": {
        "dim": "1", 
        "num_args": "2"
      }, 
      "inputs": [[383, 0, 0], [407, 0, 0]]
    }, 
    {
      "op": "Reshape", 
      "name": "shufflenasoneshotfix0_hybridsequential0_shufflenetblock12_shufflechannels0_reshape0", 
      "attrs": {"shape": "(0, -4, 2, -1, -2)"}, 
      "inputs": [[408, 0, 0]]
    }, 
    {
      "op": "SwapAxis", 
      "name": "shufflenasoneshotfix0_hybridsequential0_shufflenetblock12_shufflechannels0_swapaxes0", 
      "attrs": {
        "dim1": "1", 
        "dim2": "2"
      }, 
      "inputs": [[409, 0, 0]]
    }, 
    {
      "op": "Reshape", 
      "name": "shufflenasoneshotfix0_hybridsequential0_shufflenetblock12_shufflechannels0_reshape1", 
      "attrs": {"shape": "(0, -3, -2)"}, 
      "inputs": [[410, 0, 0]]
    }, 
    {
      "op": "slice", 
      "name": "shufflenasoneshotfix0_hybridsequential0_shufflenetblock12_shufflechannels0_slice0", 
      "attrs": {
        "begin": "(None, None, None, None)", 
        "end": "(None, 160, None, None)"
      }, 
      "inputs": [[411, 0, 0]]
    }, 
    {
      "op": "slice", 
      "name": "shufflenasoneshotfix0_hybridsequential0_shufflenetblock12_shufflechannels0_slice1", 
      "attrs": {
        "begin": "(None, 160, None, None)", 
        "end": "(None, None, None, None)"
      }, 
      "inputs": [[411, 0, 0]]
    }, 
    {
      "op": "null", 
      "name": "shufflenasoneshotfix0_hybridsequential0_shufflenetblock12_conv0_weight", 
      "attrs": {
        "__dtype__": "0", 
        "__lr_mult__": "1.0", 
        "__shape__": "(160, 160, 1, 1)", 
        "__storage_type__": "0", 
        "__wd_mult__": "1.0"
      }, 
      "inputs": []
    }, 
    {
      "op": "Convolution", 
      "name": "shufflenasoneshotfix0_hybridsequential0_shufflenetblock12_conv0_fwd", 
      "attrs": {
        "dilate": "(1, 1)", 
        "kernel": "(1, 1)", 
        "layout": "NCHW", 
        "no_bias": "True", 
        "num_filter": "160", 
        "num_group": "1", 
        "pad": "(0, 0)", 
        "stride": "(1, 1)"
      }, 
      "inputs": [[413, 0, 0], [414, 0, 0]]
    }, 
    {
      "op": "null", 
      "name": "shufflenasoneshotfix0_hybridsequential0_shufflenetblock12_batchnorm0_gamma", 
      "attrs": {
        "__dtype__": "0", 
        "__init__": "ones", 
        "__lr_mult__": "1.0", 
        "__shape__": "(0,)", 
        "__storage_type__": "0", 
        "__wd_mult__": "1.0"
      }, 
      "inputs": []
    }, 
    {
      "op": "null", 
      "name": "shufflenasoneshotfix0_hybridsequential0_shufflenetblock12_batchnorm0_beta", 
      "attrs": {
        "__dtype__": "0", 
        "__init__": "zeros", 
        "__lr_mult__": "1.0", 
        "__shape__": "(0,)", 
        "__storage_type__": "0", 
        "__wd_mult__": "1.0"
      }, 
      "inputs": []
    }, 
    {
      "op": "null", 
      "name": "shufflenasoneshotfix0_hybridsequential0_shufflenetblock12_batchnorm0_running_mean", 
      "attrs": {
        "__dtype__": "0", 
        "__init__": "zeros", 
        "__lr_mult__": "1.0", 
        "__shape__": "(0,)", 
        "__storage_type__": "0", 
        "__wd_mult__": "1.0"
      }, 
      "inputs": []
    }, 
    {
      "op": "null", 
      "name": "shufflenasoneshotfix0_hybridsequential0_shufflenetblock12_batchnorm0_running_var", 
      "attrs": {
        "__dtype__": "0", 
        "__init__": "ones", 
        "__lr_mult__": "1.0", 
        "__shape__": "(0,)", 
        "__storage_type__": "0", 
        "__wd_mult__": "1.0"
      }, 
      "inputs": []
    }, 
    {
      "op": "BatchNorm", 
      "name": "shufflenasoneshotfix0_hybridsequential0_shufflenetblock12_batchnorm0_fwd", 
      "attrs": {
        "axis": "1", 
        "eps": "1e-05", 
        "fix_gamma": "False", 
        "momentum": "0.1", 
        "use_global_stats": "False"
      }, 
      "inputs": [[415, 0, 0], [416, 0, 0], [417, 0, 0], [418, 0, 2], [419, 0, 2]]
    }, 
    {
      "op": "Activation", 
      "name": "shufflenasoneshotfix0_hybridsequential0_shufflenetblock12_relu0_fwd", 
      "attrs": {"act_type": "relu"}, 
      "inputs": [[420, 0, 0]]
    }, 
    {
      "op": "null", 
      "name": "shufflenasoneshotfix0_hybridsequential0_shufflenetblock12_conv1_weight", 
      "attrs": {
        "__dtype__": "0", 
        "__lr_mult__": "1.0", 
        "__shape__": "(160, 1, 5, 5)", 
        "__storage_type__": "0", 
        "__wd_mult__": "1.0"
      }, 
      "inputs": []
    }, 
    {
      "op": "Convolution", 
      "name": "shufflenasoneshotfix0_hybridsequential0_shufflenetblock12_conv1_fwd", 
      "attrs": {
        "dilate": "(1, 1)", 
        "kernel": "(5, 5)", 
        "layout": "NCHW", 
        "no_bias": "True", 
        "num_filter": "160", 
        "num_group": "160", 
        "pad": "(2, 2)", 
        "stride": "(1, 1)"
      }, 
      "inputs": [[421, 0, 0], [422, 0, 0]]
    }, 
    {
      "op": "null", 
      "name": "shufflenasoneshotfix0_hybridsequential0_shufflenetblock12_batchnorm1_gamma", 
      "attrs": {
        "__dtype__": "0", 
        "__init__": "ones", 
        "__lr_mult__": "1.0", 
        "__shape__": "(0,)", 
        "__storage_type__": "0", 
        "__wd_mult__": "1.0"
      }, 
      "inputs": []
    }, 
    {
      "op": "null", 
      "name": "shufflenasoneshotfix0_hybridsequential0_shufflenetblock12_batchnorm1_beta", 
      "attrs": {
        "__dtype__": "0", 
        "__init__": "zeros", 
        "__lr_mult__": "1.0", 
        "__shape__": "(0,)", 
        "__storage_type__": "0", 
        "__wd_mult__": "1.0"
      }, 
      "inputs": []
    }, 
    {
      "op": "null", 
      "name": "shufflenasoneshotfix0_hybridsequential0_shufflenetblock12_batchnorm1_running_mean", 
      "attrs": {
        "__dtype__": "0", 
        "__init__": "zeros", 
        "__lr_mult__": "1.0", 
        "__shape__": "(0,)", 
        "__storage_type__": "0", 
        "__wd_mult__": "1.0"
      }, 
      "inputs": []
    }, 
    {
      "op": "null", 
      "name": "shufflenasoneshotfix0_hybridsequential0_shufflenetblock12_batchnorm1_running_var", 
      "attrs": {
        "__dtype__": "0", 
        "__init__": "ones", 
        "__lr_mult__": "1.0", 
        "__shape__": "(0,)", 
        "__storage_type__": "0", 
        "__wd_mult__": "1.0"
      }, 
      "inputs": []
    }, 
    {
      "op": "BatchNorm", 
      "name": "shufflenasoneshotfix0_hybridsequential0_shufflenetblock12_batchnorm1_fwd", 
      "attrs": {
        "axis": "1", 
        "eps": "1e-05", 
        "fix_gamma": "False", 
        "momentum": "0.1", 
        "use_global_stats": "False"
      }, 
      "inputs": [[423, 0, 0], [424, 0, 0], [425, 0, 0], [426, 0, 2], [427, 0, 2]]
    }, 
    {
      "op": "null", 
      "name": "shufflenasoneshotfix0_hybridsequential0_shufflenetblock12_conv2_weight", 
      "attrs": {
        "__dtype__": "0", 
        "__lr_mult__": "1.0", 
        "__shape__": "(160, 160, 1, 1)", 
        "__storage_type__": "0", 
        "__wd_mult__": "1.0"
      }, 
      "inputs": []
    }, 
    {
      "op": "Convolution", 
      "name": "shufflenasoneshotfix0_hybridsequential0_shufflenetblock12_conv2_fwd", 
      "attrs": {
        "dilate": "(1, 1)", 
        "kernel": "(1, 1)", 
        "layout": "NCHW", 
        "no_bias": "True", 
        "num_filter": "160", 
        "num_group": "1", 
        "pad": "(0, 0)", 
        "stride": "(1, 1)"
      }, 
      "inputs": [[428, 0, 0], [429, 0, 0]]
    }, 
    {
      "op": "null", 
      "name": "shufflenasoneshotfix0_hybridsequential0_shufflenetblock12_batchnorm2_gamma", 
      "attrs": {
        "__dtype__": "0", 
        "__init__": "ones", 
        "__lr_mult__": "1.0", 
        "__shape__": "(0,)", 
        "__storage_type__": "0", 
        "__wd_mult__": "1.0"
      }, 
      "inputs": []
    }, 
    {
      "op": "null", 
      "name": "shufflenasoneshotfix0_hybridsequential0_shufflenetblock12_batchnorm2_beta", 
      "attrs": {
        "__dtype__": "0", 
        "__init__": "zeros", 
        "__lr_mult__": "1.0", 
        "__shape__": "(0,)", 
        "__storage_type__": "0", 
        "__wd_mult__": "1.0"
      }, 
      "inputs": []
    }, 
    {
      "op": "null", 
      "name": "shufflenasoneshotfix0_hybridsequential0_shufflenetblock12_batchnorm2_running_mean", 
      "attrs": {
        "__dtype__": "0", 
        "__init__": "zeros", 
        "__lr_mult__": "1.0", 
        "__shape__": "(0,)", 
        "__storage_type__": "0", 
        "__wd_mult__": "1.0"
      }, 
      "inputs": []
    }, 
    {
      "op": "null", 
      "name": "shufflenasoneshotfix0_hybridsequential0_shufflenetblock12_batchnorm2_running_var", 
      "attrs": {
        "__dtype__": "0", 
        "__init__": "ones", 
        "__lr_mult__": "1.0", 
        "__shape__": "(0,)", 
        "__storage_type__": "0", 
        "__wd_mult__": "1.0"
      }, 
      "inputs": []
    }, 
    {
      "op": "BatchNorm", 
      "name": "shufflenasoneshotfix0_hybridsequential0_shufflenetblock12_batchnorm2_fwd", 
      "attrs": {
        "axis": "1", 
        "eps": "1e-05", 
        "fix_gamma": "False", 
        "momentum": "0.1", 
        "use_global_stats": "False"
      }, 
      "inputs": [[430, 0, 0], [431, 0, 0], [432, 0, 0], [433, 0, 2], [434, 0, 2]]
    }, 
    {
      "op": "Activation", 
      "name": "shufflenasoneshotfix0_hybridsequential0_shufflenetblock12_relu1_fwd", 
      "attrs": {"act_type": "relu"}, 
      "inputs": [[435, 0, 0]]
    }, 
    {
      "op": "Concat", 
      "name": "shufflenasoneshotfix0_hybridsequential0_shufflenetblock12_concat0", 
      "attrs": {
        "dim": "1", 
        "num_args": "2"
      }, 
      "inputs": [[412, 0, 0], [436, 0, 0]]
    }, 
    {
      "op": "Reshape", 
      "name": "shufflenasoneshotfix0_hybridsequential0_shufflenetblock13_shufflechannels0_reshape0", 
      "attrs": {"shape": "(0, -4, 2, -1, -2)"}, 
      "inputs": [[437, 0, 0]]
    }, 
    {
      "op": "SwapAxis", 
      "name": "shufflenasoneshotfix0_hybridsequential0_shufflenetblock13_shufflechannels0_swapaxes0", 
      "attrs": {
        "dim1": "1", 
        "dim2": "2"
      }, 
      "inputs": [[438, 0, 0]]
    }, 
    {
      "op": "Reshape", 
      "name": "shufflenasoneshotfix0_hybridsequential0_shufflenetblock13_shufflechannels0_reshape1", 
      "attrs": {"shape": "(0, -3, -2)"}, 
      "inputs": [[439, 0, 0]]
    }, 
    {
      "op": "slice", 
      "name": "shufflenasoneshotfix0_hybridsequential0_shufflenetblock13_shufflechannels0_slice0", 
      "attrs": {
        "begin": "(None, None, None, None)", 
        "end": "(None, 160, None, None)"
      }, 
      "inputs": [[440, 0, 0]]
    }, 
    {
      "op": "slice", 
      "name": "shufflenasoneshotfix0_hybridsequential0_shufflenetblock13_shufflechannels0_slice1", 
      "attrs": {
        "begin": "(None, 160, None, None)", 
        "end": "(None, None, None, None)"
      }, 
      "inputs": [[440, 0, 0]]
    }, 
    {
      "op": "null", 
      "name": "shufflenasoneshotfix0_hybridsequential0_shufflenetblock13_conv0_weight", 
      "attrs": {
        "__dtype__": "0", 
        "__lr_mult__": "1.0", 
        "__shape__": "(224, 160, 1, 1)", 
        "__storage_type__": "0", 
        "__wd_mult__": "1.0"
      }, 
      "inputs": []
    }, 
    {
      "op": "Convolution", 
      "name": "shufflenasoneshotfix0_hybridsequential0_shufflenetblock13_conv0_fwd", 
      "attrs": {
        "dilate": "(1, 1)", 
        "kernel": "(1, 1)", 
        "layout": "NCHW", 
        "no_bias": "True", 
        "num_filter": "224", 
        "num_group": "1", 
        "pad": "(0, 0)", 
        "stride": "(1, 1)"
      }, 
      "inputs": [[442, 0, 0], [443, 0, 0]]
    }, 
    {
      "op": "null", 
      "name": "shufflenasoneshotfix0_hybridsequential0_shufflenetblock13_batchnorm0_gamma", 
      "attrs": {
        "__dtype__": "0", 
        "__init__": "ones", 
        "__lr_mult__": "1.0", 
        "__shape__": "(0,)", 
        "__storage_type__": "0", 
        "__wd_mult__": "1.0"
      }, 
      "inputs": []
    }, 
    {
      "op": "null", 
      "name": "shufflenasoneshotfix0_hybridsequential0_shufflenetblock13_batchnorm0_beta", 
      "attrs": {
        "__dtype__": "0", 
        "__init__": "zeros", 
        "__lr_mult__": "1.0", 
        "__shape__": "(0,)", 
        "__storage_type__": "0", 
        "__wd_mult__": "1.0"
      }, 
      "inputs": []
    }, 
    {
      "op": "null", 
      "name": "shufflenasoneshotfix0_hybridsequential0_shufflenetblock13_batchnorm0_running_mean", 
      "attrs": {
        "__dtype__": "0", 
        "__init__": "zeros", 
        "__lr_mult__": "1.0", 
        "__shape__": "(0,)", 
        "__storage_type__": "0", 
        "__wd_mult__": "1.0"
      }, 
      "inputs": []
    }, 
    {
      "op": "null", 
      "name": "shufflenasoneshotfix0_hybridsequential0_shufflenetblock13_batchnorm0_running_var", 
      "attrs": {
        "__dtype__": "0", 
        "__init__": "ones", 
        "__lr_mult__": "1.0", 
        "__shape__": "(0,)", 
        "__storage_type__": "0", 
        "__wd_mult__": "1.0"
      }, 
      "inputs": []
    }, 
    {
      "op": "BatchNorm", 
…
      "name": "shufflenasoneshotfix0_hybridsequential0_shufflenetblock17_conv0_weight", 
      "attrs": {
        "__dtype__": "0", 
        "__lr_mult__": "1.0", 
        "__shape__": "(384, 320, 1, 1)", 
        "__storage_type__": "0", 
        "__wd_mult__": "1.0"
      }, 
      "inputs": []
    }, 
    {
      "op": "Convolution", 
      "name": "shufflenasoneshotfix0_hybridsequential0_shufflenetblock17_conv0_fwd", 
      "attrs": {
        "dilate": "(1, 1)", 
        "kernel": "(1, 1)", 
        "layout": "NCHW", 
        "no_bias": "True", 
        "num_filter": "384", 
        "num_group": "1", 
        "pad": "(0, 0)", 
        "stride": "(1, 1)"
      }, 
      "inputs": [[568, 0, 0], [569, 0, 0]]
    }, 
    {
      "op": "null", 
      "name": "shufflenasoneshotfix0_hybridsequential0_shufflenetblock17_batchnorm0_gamma", 
      "attrs": {
        "__dtype__": "0", 
        "__init__": "ones", 
        "__lr_mult__": "1.0", 
        "__shape__": "(0,)", 
        "__storage_type__": "0", 
        "__wd_mult__": "1.0"
      }, 
      "inputs": []
    }, 
    {
      "op": "null", 
      "name": "shufflenasoneshotfix0_hybridsequential0_shufflenetblock17_batchnorm0_beta", 
      "attrs": {
        "__dtype__": "0", 
        "__init__": "zeros", 
        "__lr_mult__": "1.0", 
        "__shape__": "(0,)", 
        "__storage_type__": "0", 
        "__wd_mult__": "1.0"
      }, 
      "inputs": []
    }, 
    {
      "op": "null", 
      "name": "shufflenasoneshotfix0_hybridsequential0_shufflenetblock17_batchnorm0_running_mean", 
      "attrs": {
        "__dtype__": "0", 
        "__init__": "zeros", 
        "__lr_mult__": "1.0", 
        "__shape__": "(0,)", 
        "__storage_type__": "0", 
        "__wd_mult__": "1.0"
      }, 
      "inputs": []
    }, 
    {
      "op": "null", 
      "name": "shufflenasoneshotfix0_hybridsequential0_shufflenetblock17_batchnorm0_running_var", 
      "attrs": {
        "__dtype__": "0", 
        "__init__": "ones", 
        "__lr_mult__": "1.0", 
        "__shape__": "(0,)", 
        "__storage_type__": "0", 
        "__wd_mult__": "1.0"
      }, 
      "inputs": []
    }, 
    {
      "op": "BatchNorm", 
      "name": "shufflenasoneshotfix0_hybridsequential0_shufflenetblock17_batchnorm0_fwd", 
      "attrs": {
        "axis": "1", 
        "eps": "1e-05", 
        "fix_gamma": "False", 
        "momentum": "0.1", 
        "use_global_stats": "False"
      }, 
      "inputs": [[570, 0, 0], [571, 0, 0], [572, 0, 0], [573, 0, 2], [574, 0, 2]]
    }, 
    {
      "op": "Activation", 
      "name": "shufflenasoneshotfix0_hybridsequential0_shufflenetblock17_relu0_fwd", 
      "attrs": {"act_type": "relu"}, 
      "inputs": [[575, 0, 0]]
    }, 
    {
      "op": "null", 
      "name": "shufflenasoneshotfix0_hybridsequential0_shufflenetblock17_conv1_weight", 
      "attrs": {
        "__dtype__": "0", 
        "__lr_mult__": "1.0", 
        "__shape__": "(384, 1, 5, 5)", 
        "__storage_type__": "0", 
        "__wd_mult__": "1.0"
      }, 
      "inputs": []
    }, 
    {
      "op": "Convolution", 
      "name": "shufflenasoneshotfix0_hybridsequential0_shufflenetblock17_conv1_fwd", 
      "attrs": {
        "dilate": "(1, 1)", 
        "kernel": "(5, 5)", 
        "layout": "NCHW", 
        "no_bias": "True", 
        "num_filter": "384", 
        "num_group": "384", 
        "pad": "(2, 2)", 
        "stride": "(1, 1)"
      }, 
      "inputs": [[576, 0, 0], [577, 0, 0]]
    }, 
    {
      "op": "null", 
      "name": "shufflenasoneshotfix0_hybridsequential0_shufflenetblock17_batchnorm1_gamma", 
      "attrs": {
        "__dtype__": "0", 
        "__init__": "ones", 
        "__lr_mult__": "1.0", 
        "__shape__": "(0,)", 
        "__storage_type__": "0", 
        "__wd_mult__": "1.0"
      }, 
      "inputs": []
    }, 
    {
      "op": "null", 
      "name": "shufflenasoneshotfix0_hybridsequential0_shufflenetblock17_batchnorm1_beta", 
      "attrs": {
        "__dtype__": "0", 
        "__init__": "zeros", 
        "__lr_mult__": "1.0", 
        "__shape__": "(0,)", 
        "__storage_type__": "0", 
        "__wd_mult__": "1.0"
      }, 
      "inputs": []
    }, 
    {
      "op": "null", 
      "name": "shufflenasoneshotfix0_hybridsequential0_shufflenetblock17_batchnorm1_running_mean", 
      "attrs": {
        "__dtype__": "0", 
        "__init__": "zeros", 
        "__lr_mult__": "1.0", 
        "__shape__": "(0,)", 
        "__storage_type__": "0", 
        "__wd_mult__": "1.0"
      }, 
      "inputs": []
    }, 
    {
      "op": "null", 
      "name": "shufflenasoneshotfix0_hybridsequential0_shufflenetblock17_batchnorm1_running_var", 
      "attrs": {
        "__dtype__": "0", 
        "__init__": "ones", 
        "__lr_mult__": "1.0", 
        "__shape__": "(0,)", 
        "__storage_type__": "0", 
        "__wd_mult__": "1.0"
      }, 
      "inputs": []
    }, 
    {
      "op": "BatchNorm", 
      "name": "shufflenasoneshotfix0_hybridsequential0_shufflenetblock17_batchnorm1_fwd", 
      "attrs": {
        "axis": "1", 
        "eps": "1e-05", 
        "fix_gamma": "False", 
        "momentum": "0.1", 
        "use_global_stats": "False"
      }, 
      "inputs": [[578, 0, 0], [579, 0, 0], [580, 0, 0], [581, 0, 2], [582, 0, 2]]
    }, 
    {
      "op": "null", 
      "name": "shufflenasoneshotfix0_hybridsequential0_shufflenetblock17_conv2_weight", 
      "attrs": {
        "__dtype__": "0", 
        "__lr_mult__": "1.0", 
        "__shape__": "(320, 384, 1, 1)", 
        "__storage_type__": "0", 
        "__wd_mult__": "1.0"
      }, 
      "inputs": []
    }, 
    {
      "op": "Convolution", 
      "name": "shufflenasoneshotfix0_hybridsequential0_shufflenetblock17_conv2_fwd", 
      "attrs": {
        "dilate": "(1, 1)", 
        "kernel": "(1, 1)", 
        "layout": "NCHW", 
        "no_bias": "True", 
        "num_filter": "320", 
        "num_group": "1", 
        "pad": "(0, 0)", 
        "stride": "(1, 1)"
      }, 
      "inputs": [[583, 0, 0], [584, 0, 0]]
    }, 
    {
      "op": "null", 
      "name": "shufflenasoneshotfix0_hybridsequential0_shufflenetblock17_batchnorm2_gamma", 
      "attrs": {
        "__dtype__": "0", 
        "__init__": "ones", 
        "__lr_mult__": "1.0", 
        "__shape__": "(0,)", 
        "__storage_type__": "0", 
        "__wd_mult__": "1.0"
      }, 
      "inputs": []
    }, 
    {
      "op": "null", 
      "name": "shufflenasoneshotfix0_hybridsequential0_shufflenetblock17_batchnorm2_beta", 
      "attrs": {
        "__dtype__": "0", 
        "__init__": "zeros", 
        "__lr_mult__": "1.0", 
        "__shape__": "(0,)", 
        "__storage_type__": "0", 
        "__wd_mult__": "1.0"
      }, 
      "inputs": []
    }, 
    {
      "op": "null", 
      "name": "shufflenasoneshotfix0_hybridsequential0_shufflenetblock17_batchnorm2_running_mean", 
      "attrs": {
        "__dtype__": "0", 
        "__init__": "zeros", 
        "__lr_mult__": "1.0", 
        "__shape__": "(0,)", 
        "__storage_type__": "0", 
        "__wd_mult__": "1.0"
      }, 
      "inputs": []
    }, 
    {
      "op": "null", 
      "name": "shufflenasoneshotfix0_hybridsequential0_shufflenetblock17_batchnorm2_running_var", 
      "attrs": {
        "__dtype__": "0", 
        "__init__": "ones", 
        "__lr_mult__": "1.0", 
        "__shape__": "(0,)", 
        "__storage_type__": "0", 
        "__wd_mult__": "1.0"
      }, 
      "inputs": []
    }, 
    {
      "op": "BatchNorm", 
      "name": "shufflenasoneshotfix0_hybridsequential0_shufflenetblock17_batchnorm2_fwd", 
      "attrs": {
        "axis": "1", 
        "eps": "1e-05", 
        "fix_gamma": "False", 
        "momentum": "0.1", 
        "use_global_stats": "False"
      }, 
      "inputs": [[585, 0, 0], [586, 0, 0], [587, 0, 0], [588, 0, 2], [589, 0, 2]]
    }, 
    {
      "op": "Activation", 
      "name": "shufflenasoneshotfix0_hybridsequential0_shufflenetblock17_relu1_fwd", 
      "attrs": {"act_type": "relu"}, 
      "inputs": [[590, 0, 0]]
    }, 
    {
      "op": "Concat", 
      "name": "shufflenasoneshotfix0_hybridsequential0_shufflenetblock17_concat0", 
      "attrs": {
        "dim": "1", 
        "num_args": "2"
      }, 
      "inputs": [[567, 0, 0], [591, 0, 0]]
    }, 
    {
      "op": "Reshape", 
      "name": "shufflenasoneshotfix0_hybridsequential0_shufflenetblock18_shufflechannels0_reshape0", 
      "attrs": {"shape": "(0, -4, 2, -1, -2)"}, 
      "inputs": [[592, 0, 0]]
    }, 
    {
      "op": "SwapAxis", 
      "name": "shufflenasoneshotfix0_hybridsequential0_shufflenetblock18_shufflechannels0_swapaxes0", 
      "attrs": {
        "dim1": "1", 
        "dim2": "2"
      }, 
      "inputs": [[593, 0, 0]]
    }, 
    {
      "op": "Reshape", 
      "name": "shufflenasoneshotfix0_hybridsequential0_shufflenetblock18_shufflechannels0_reshape1", 
      "attrs": {"shape": "(0, -3, -2)"}, 
      "inputs": [[594, 0, 0]]
    }, 
    {
      "op": "slice", 
      "name": "shufflenasoneshotfix0_hybridsequential0_shufflenetblock18_shufflechannels0_slice0", 
      "attrs": {
        "begin": "(None, None, None, None)", 
        "end": "(None, 320, None, None)"
      }, 
      "inputs": [[595, 0, 0]]
    }, 
    {
      "op": "slice", 
      "name": "shufflenasoneshotfix0_hybridsequential0_shufflenetblock18_shufflechannels0_slice1", 
      "attrs": {
        "begin": "(None, 320, None, None)", 
        "end": "(None, None, None, None)"
      }, 
      "inputs": [[595, 0, 0]]
    }, 
    {
      "op": "null", 
      "name": "shufflenasoneshotfix0_hybridsequential0_shufflenetblock18_conv0_weight", 
      "attrs": {
        "__dtype__": "0", 
        "__lr_mult__": "1.0", 
        "__shape__": "(320, 1, 3, 3)", 
        "__storage_type__": "0", 
        "__wd_mult__": "1.0"
      }, 
      "inputs": []
    }, 
    {
      "op": "Convolution", 
      "name": "shufflenasoneshotfix0_hybridsequential0_shufflenetblock18_conv0_fwd", 
      "attrs": {
        "dilate": "(1, 1)", 
        "kernel": "(3, 3)", 
        "layout": "NCHW", 
        "no_bias": "True", 
        "num_filter": "320", 
        "num_group": "320", 
        "pad": "(1, 1)", 
        "stride": "(1, 1)"
      }, 
      "inputs": [[597, 0, 0], [598, 0, 0]]
    }, 
    {
      "op": "null", 
      "name": "shufflenasoneshotfix0_hybridsequential0_shufflenetblock18_batchnorm0_gamma", 
      "attrs": {
        "__dtype__": "0", 
        "__init__": "ones", 
        "__lr_mult__": "1.0", 
        "__shape__": "(0,)", 
        "__storage_type__": "0", 
        "__wd_mult__": "1.0"
      }, 
      "inputs": []
    }, 
    {
      "op": "null", 
      "name": "shufflenasoneshotfix0_hybridsequential0_shufflenetblock18_batchnorm0_beta", 
      "attrs": {
        "__dtype__": "0", 
        "__init__": "zeros", 
        "__lr_mult__": "1.0", 
        "__shape__": "(0,)", 
        "__storage_type__": "0", 
        "__wd_mult__": "1.0"
      }, 
      "inputs": []
    }, 
    {
      "op": "null", 
      "name": "shufflenasoneshotfix0_hybridsequential0_shufflenetblock18_batchnorm0_running_mean", 
      "attrs": {
        "__dtype__": "0", 
        "__init__": "zeros", 
        "__lr_mult__": "1.0", 
        "__shape__": "(0,)", 
        "__storage_type__": "0", 
        "__wd_mult__": "1.0"
      }, 
      "inputs": []
    }, 
    {
      "op": "null", 
      "name": "shufflenasoneshotfix0_hybridsequential0_shufflenetblock18_batchnorm0_running_var", 
      "attrs": {
        "__dtype__": "0", 
        "__init__": "ones", 
        "__lr_mult__": "1.0", 
        "__shape__": "(0,)", 
        "__storage_type__": "0", 
        "__wd_mult__": "1.0"
      }, 
      "inputs": []
    }, 
    {
      "op": "BatchNorm", 
      "name": "shufflenasoneshotfix0_hybridsequential0_shufflenetblock18_batchnorm0_fwd", 
      "attrs": {
        "axis": "1", 
        "eps": "1e-05", 
        "fix_gamma": "False", 
        "momentum": "0.1", 
        "use_global_stats": "False"
      }, 
      "inputs": [[599, 0, 0], [600, 0, 0], [601, 0, 0], [602, 0, 2], [603, 0, 2]]
    }, 
    {
      "op": "null", 
      "name": "shufflenasoneshotfix0_hybridsequential0_shufflenetblock18_conv1_weight", 
      "attrs": {
        "__dtype__": "0", 
        "__lr_mult__": "1.0", 
        "__shape__": "(320, 320, 1, 1)", 
        "__storage_type__": "0", 
        "__wd_mult__": "1.0"
      }, 
      "inputs": []
    }, 
    {
      "op": "Convolution", 
      "name": "shufflenasoneshotfix0_hybridsequential0_shufflenetblock18_conv1_fwd", 
      "attrs": {
        "dilate": "(1, 1)", 
        "kernel": "(1, 1)", 
        "layout": "NCHW", 
        "no_bias": "True", 
        "num_filter": "320", 
        "num_group": "1", 
        "pad": "(0, 0)", 
        "stride": "(1, 1)"
      }, 
      "inputs": [[604, 0, 0], [605, 0, 0]]
    }, 
    {
      "op": "null", 
      "name": "shufflenasoneshotfix0_hybridsequential0_shufflenetblock18_batchnorm1_gamma", 
      "attrs": {
        "__dtype__": "0", 
        "__init__": "ones", 
        "__lr_mult__": "1.0", 
        "__shape__": "(0,)", 
        "__storage_type__": "0", 
        "__wd_mult__": "1.0"
      }, 
      "inputs": []
    }, 
    {
      "op": "null", 
      "name": "shufflenasoneshotfix0_hybridsequential0_shufflenetblock18_batchnorm1_beta", 
      "attrs": {
        "__dtype__": "0", 
        "__init__": "zeros", 
        "__lr_mult__": "1.0", 
        "__shape__": "(0,)", 
        "__storage_type__": "0", 
        "__wd_mult__": "1.0"
      }, 
      "inputs": []
    }, 
    {
      "op": "null", 
      "name": "shufflenasoneshotfix0_hybridsequential0_shufflenetblock18_batchnorm1_running_mean", 
      "attrs": {
        "__dtype__": "0", 
        "__init__": "zeros", 
        "__lr_mult__": "1.0", 
        "__shape__": "(0,)", 
        "__storage_type__": "0", 
        "__wd_mult__": "1.0"
      }, 
      "inputs": []
    }, 
    {
      "op": "null", 
      "name": "shufflenasoneshotfix0_hybridsequential0_shufflenetblock18_batchnorm1_running_var", 
      "attrs": {
        "__dtype__": "0", 
        "__init__": "ones", 
        "__lr_mult__": "1.0", 
        "__shape__": "(0,)", 
        "__storage_type__": "0", 
        "__wd_mult__": "1.0"
      }, 
      "inputs": []
    }, 
    {
      "op": "BatchNorm", 
      "name": "shufflenasoneshotfix0_hybridsequential0_shufflenetblock18_batchnorm1_fwd", 
      "attrs": {
        "axis": "1", 
        "eps": "1e-05", 
        "fix_gamma": "False", 
        "momentum": "0.1", 
        "use_global_stats": "False"
      }, 
      "inputs": [[606, 0, 0], [607, 0, 0], [608, 0, 0], [609, 0, 2], [610, 0, 2]]
    }, 
    {
      "op": "Activation", 
      "name": "shufflenasoneshotfix0_hybridsequential0_shufflenetblock18_relu0_fwd", 
      "attrs": {"act_type": "relu"}, 
      "inputs": [[611, 0, 0]]
    }, 
    {
      "op": "null", 
      "name": "shufflenasoneshotfix0_hybridsequential0_shufflenetblock18_conv2_weight", 
      "attrs": {
        "__dtype__": "0", 
        "__lr_mult__": "1.0", 
        "__shape__": "(320, 1, 3, 3)", 
        "__storage_type__": "0", 
        "__wd_mult__": "1.0"
      }, 
      "inputs": []
    }, 
    {
      "op": "Convolution", 
      "name": "shufflenasoneshotfix0_hybridsequential0_shufflenetblock18_conv2_fwd", 
      "attrs": {
        "dilate": "(1, 1)", 
        "kernel": "(3, 3)", 
        "layout": "NCHW", 
        "no_bias": "True", 
        "num_filter": "320", 
        "num_group": "320", 
        "pad": "(1, 1)", 
        "stride": "(1, 1)"
      }, 
      "inputs": [[612, 0, 0], [613, 0, 0]]
    }, 
    {
      "op": "null", 
      "name": "shufflenasoneshotfix0_hybridsequential0_shufflenetblock18_batchnorm2_gamma", 
      "attrs": {
        "__dtype__": "0", 
        "__init__": "ones", 
        "__lr_mult__": "1.0", 
        "__shape__": "(0,)", 
        "__storage_type__": "0", 
        "__wd_mult__": "1.0"
      }, 
      "inputs": []
    }, 
    {
      "op": "null", 
      "name": "shufflenasoneshotfix0_hybridsequential0_shufflenetblock18_batchnorm2_beta", 
      "attrs": {
        "__dtype__": "0", 
        "__init__": "zeros", 
        "__lr_mult__": "1.0", 
        "__shape__": "(0,)", 
        "__storage_type__": "0", 
        "__wd_mult__": "1.0"
      }, 
      "inputs": []
    }, 
    {
      "op": "null", 
      "name": "shufflenasoneshotfix0_hybridsequential0_shufflenetblock18_batchnorm2_running_mean", 
      "attrs": {
        "__dtype__": "0", 
        "__init__": "zeros", 
        "__lr_mult__": "1.0", 
        "__shape__": "(0,)", 
        "__storage_type__": "0", 
        "__wd_mult__": "1.0"
      }, 
      "inputs": []
    }, 
    {
      "op": "null", 
      "name": "shufflenasoneshotfix0_hybridsequential0_shufflenetblock18_batchnorm2_running_var", 
      "attrs": {
        "__dtype__": "0", 
        "__init__": "ones", 
        "__lr_mult__": "1.0", 
        "__shape__": "(0,)", 
        "__storage_type__": "0", 
        "__wd_mult__": "1.0"
      }, 
      "inputs": []
    }, 
    {
      "op": "BatchNorm", 
      "name": "shufflenasoneshotfix0_hybridsequential0_shufflenetblock18_batchnorm2_fwd", 
      "attrs": {
        "axis": "1", 
        "eps": "1e-05", 
        "fix_gamma": "False", 
        "momentum": "0.1", 
        "use_global_stats": "False"
      }, 
      "inputs": [[614, 0, 0], [615, 0, 0], [616, 0, 0], [617, 0, 2], [618, 0, 2]]
    }, 
    {
      "op": "null", 
      "name": "shufflenasoneshotfix0_hybridsequential0_shufflenetblock18_conv3_weight", 
      "attrs": {
        "__dtype__": "0", 
        "__lr_mult__": "1.0", 
        "__shape__": "(320, 320, 1, 1)", 
        "__storage_type__": "0", 
        "__wd_mult__": "1.0"
      }, 
      "inputs": []
    }, 
    {
      "op": "Convolution", 
      "name": "shufflenasoneshotfix0_hybridsequential0_shufflenetblock18_conv3_fwd", 
      "attrs": {
        "dilate": "(1, 1)", 
        "kernel": "(1, 1)", 
        "layout": "NCHW", 
        "no_bias": "True", 
        "num_filter": "320", 
        "num_group": "1", 
        "pad": "(0, 0)", 
        "stride": "(1, 1)"
      }, 
      "inputs": [[619, 0, 0], [620, 0, 0]]
    }, 
    {
      "op": "null", 
      "name": "shufflenasoneshotfix0_hybridsequential0_shufflenetblock18_batchnorm3_gamma", 
      "attrs": {
        "__dtype__": "0", 
        "__init__": "ones", 
        "__lr_mult__": "1.0", 
        "__shape__": "(0,)", 
        "__storage_type__": "0", 
        "__wd_mult__": "1.0"
      }, 
      "inputs": []
    }, 
    {
      "op": "null", 
      "name": "shufflenasoneshotfix0_hybridsequential0_shufflenetblock18_batchnorm3_beta", 
      "attrs": {
        "__dtype__": "0", 
        "__init__": "zeros", 
        "__lr_mult__": "1.0", 
        "__shape__": "(0,)", 
        "__storage_type__": "0", 
        "__wd_mult__": "1.0"
      }, 
      "inputs": []
    }, 
    {
      "op": "null", 
      "name": "shufflenasoneshotfix0_hybridsequential0_shufflenetblock18_batchnorm3_running_mean", 
      "attrs": {
        "__dtype__": "0", 
        "__init__": "zeros", 
        "__lr_mult__": "1.0", 
        "__shape__": "(0,)", 
        "__storage_type__": "0", 
        "__wd_mult__": "1.0"
      }, 
      "inputs": []
    }, 
    {
      "op": "null", 
      "name": "shufflenasoneshotfix0_hybridsequential0_shufflenetblock18_batchnorm3_running_var", 
      "attrs": {
        "__dtype__": "0", 
        "__init__": "ones", 
        "__lr_mult__": "1.0", 
        "__shape__": "(0,)", 
        "__storage_type__": "0", 
        "__wd_mult__": "1.0"
      }, 
      "inputs": []
    }, 
    {
      "op": "BatchNorm", 
      "name": "shufflenasoneshotfix0_hybridsequential0_shufflenetblock18_batchnorm3_fwd", 
      "attrs": {
        "axis": "1", 
        "eps": "1e-05", 
        "fix_gamma": "False", 
        "momentum": "0.1", 
        "use_global_stats": "False"
      }, 
      "inputs": [[621, 0, 0], [622, 0, 0], [623, 0, 0], [624, 0, 2], [625, 0, 2]]
    }, 
    {
      "op": "Activation", 
      "name": "shufflenasoneshotfix0_hybridsequential0_shufflenetblock18_relu1_fwd", 
      "attrs": {"act_type": "relu"}, 
      "inputs": [[626, 0, 0]]
    }, 
    {
      "op": "null", 
      "name": "shufflenasoneshotfix0_hybridsequential0_shufflenetblock18_conv4_weight", 
      "attrs": {
        "__dtype__": "0", 
        "__lr_mult__": "1.0", 
        "__shape__": "(320, 1, 3, 3)", 
        "__storage_type__": "0", 
        "__wd_mult__": "1.0"
      }, 
      "inputs": []
    }, 
    {
      "op": "Convolution", 
      "name": "shufflenasoneshotfix0_hybridsequential0_shufflenetblock18_conv4_fwd", 
      "attrs": {
        "dilate": "(1, 1)", 
        "kernel": "(3, 3)", 
        "layout": "NCHW", 
        "no_bias": "True", 
        "num_filter": "320", 
        "num_group": "320", 
        "pad": "(1, 1)", 
        "stride": "(1, 1)"
      }, 
      "inputs": [[627, 0, 0], [628, 0, 0]]
    }, 
    {
      "op": "null", 
      "name": "shufflenasoneshotfix0_hybridsequential0_shufflenetblock18_batchnorm4_gamma", 
      "attrs": {
        "__dtype__": "0", 
        "__init__": "ones", 
        "__lr_mult__": "1.0", 
        "__shape__": "(0,)", 
        "__storage_type__": "0", 
        "__wd_mult__": "1.0"
      }, 
      "inputs": []
    }, 
    {
      "op": "null", 
      "name": "shufflenasoneshotfix0_hybridsequential0_shufflenetblock18_batchnorm4_beta", 
      "attrs": {
        "__dtype__": "0", 
        "__init__": "zeros", 
        "__lr_mult__": "1.0", 
        "__shape__": "(0,)", 
        "__storage_type__": "0", 
        "__wd_mult__": "1.0"
      }, 
      "inputs": []
    }, 
    {
      "op": "null", 
      "name": "shufflenasoneshotfix0_hybridsequential0_shufflenetblock18_batchnorm4_running_mean", 
      "attrs": {
        "__dtype__": "0", 
        "__init__": "zeros", 
        "__lr_mult__": "1.0", 
        "__shape__": "(0,)", 
        "__storage_type__": "0", 
        "__wd_mult__": "1.0"
      }, 
      "inputs": []
    }, 
    {
      "op": "null", 
      "name": "shufflenasoneshotfix0_hybridsequential0_shufflenetblock18_batchnorm4_running_var", 
      "attrs": {
        "__dtype__": "0", 
        "__init__": "ones", 
        "__lr_mult__": "1.0", 
        "__shape__": "(0,)", 
        "__storage_type__": "0", 
        "__wd_mult__": "1.0"
      }, 
      "inputs": []
    }, 
    {
      "op": "BatchNorm", 
      "name": "shufflenasoneshotfix0_hybridsequential0_shufflenetblock18_batchnorm4_fwd", 
      "attrs": {
        "axis": "1", 
        "eps": "1e-05", 
        "fix_gamma": "False", 
        "momentum": "0.1", 
        "use_global_stats": "False"
      }, 
      "inputs": [[629, 0, 0], [630, 0, 0], [631, 0, 0], [632, 0, 2], [633, 0, 2]]
    }, 
    {
      "op": "null", 
      "name": "shufflenasoneshotfix0_hybridsequential0_shufflenetblock18_conv5_weight", 
      "attrs": {
        "__dtype__": "0", 
        "__lr_mult__": "1.0", 
        "__shape__": "(320, 320, 1, 1)", 
        "__storage_type__": "0", 
        "__wd_mult__": "1.0"
      }, 
      "inputs": []
    }, 
    {
      "op": "Convolution", 
      "name": "shufflenasoneshotfix0_hybridsequential0_shufflenetblock18_conv5_fwd", 
      "attrs": {
        "dilate": "(1, 1)", 
        "kernel": "(1, 1)", 
        "layout": "NCHW", 
        "no_bias": "True", 
        "num_filter": "320", 
        "num_group": "1", 
        "pad": "(0, 0)", 
        "stride": "(1, 1)"
      }, 
      "inputs": [[634, 0, 0], [635, 0, 0]]
    }, 
    {
      "op": "null", 
      "name": "shufflenasoneshotfix0_hybridsequential0_shufflenetblock18_batchnorm5_gamma", 
      "attrs": {
        "__dtype__": "0", 
        "__init__": "ones", 
        "__lr_mult__": "1.0", 
        "__shape__": "(0,)", 
        "__storage_type__": "0", 
        "__wd_mult__": "1.0"
      }, 
      "inputs": []
    }, 
    {
      "op": "null", 
      "name": "shufflenasoneshotfix0_hybridsequential0_shufflenetblock18_batchnorm5_beta", 
      "attrs": {
        "__dtype__": "0", 
        "__init__": "zeros", 
        "__lr_mult__": "1.0", 
        "__shape__": "(0,)", 
        "__storage_type__": "0", 
        "__wd_mult__": "1.0"
      }, 
      "inputs": []
    }, 
    {
      "op": "null", 
      "name": "shufflenasoneshotfix0_hybridsequential0_shufflenetblock18_batchnorm5_running_mean", 
      "attrs": {
        "__dtype__": "0", 
        "__init__": "zeros", 
        "__lr_mult__": "1.0", 
        "__shape__": "(0,)", 
        "__storage_type__": "0", 
        "__wd_mult__": "1.0"
      }, 
      "inputs": []
    }, 
    {
      "op": "null", 
      "name": "shufflenasoneshotfix0_hybridsequential0_shufflenetblock18_batchnorm5_running_var", 
      "attrs": {
        "__dtype__": "0", 
        "__init__": "ones", 
        "__lr_mult__": "1.0", 
        "__shape__": "(0,)", 
        "__storage_type__": "0", 
        "__wd_mult__": "1.0"
      }, 
      "inputs": []
    }, 
    {
      "op": "BatchNorm", 
      "name": "shufflenasoneshotfix0_hybridsequential0_shufflenetblock18_batchnorm5_fwd", 
      "attrs": {
        "axis": "1", 
        "eps": "1e-05", 
        "fix_gamma": "False", 
        "momentum": "0.1", 
        "use_global_stats": "False"
      }, 
      "inputs": [[636, 0, 0], [637, 0, 0], [638, 0, 0], [639, 0, 2], [640, 0, 2]]
    }, 
    {
      "op": "Activation", 
      "name": "shufflenasoneshotfix0_hybridsequential0_shufflenetblock18_relu2_fwd", 
      "attrs": {"act_type": "relu"}, 
      "inputs": [[641, 0, 0]]
    }, 
    {
      "op": "Concat", 
      "name": "shufflenasoneshotfix0_hybridsequential0_shufflenetblock18_concat0", 
      "attrs": {
        "dim": "1", 
        "num_args": "2"
      }, 
      "inputs": [[596, 0, 0], [642, 0, 0]]
    }, 
    {
      "op": "Reshape", 
      "name": "shufflenasoneshotfix0_hybridsequential0_shufflenetblock19_shufflechannels0_reshape0", 
      "attrs": {"shape": "(0, -4, 2, -1, -2)"}, 
      "inputs": [[643, 0, 0]]
    }, 
    {
      "op": "SwapAxis", 
      "name": "shufflenasoneshotfix0_hybridsequential0_shufflenetblock19_shufflechannels0_swapaxes0", 
      "attrs": {
        "dim1": "1", 
        "dim2": "2"
      }, 
      "inputs": [[644, 0, 0]]
    }, 
    {
      "op": "Reshape", 
      "name": "shufflenasoneshotfix0_hybridsequential0_shufflenetblock19_shufflechannels0_reshape1", 
      "attrs": {"shape": "(0, -3, -2)"}, 
      "inputs": [[645, 0, 0]]
    }, 
    {
      "op": "slice", 
      "name": "shufflenasoneshotfix0_hybridsequential0_shufflenetblock19_shufflechannels0_slice0", 
      "attrs": {
        "begin": "(None, None, None, None)", 
        "end": "(None, 320, None, None)"
      }, 
      "inputs": [[646, 0, 0]]
    }, 
    {
      "op": "slice", 
      "name": "shufflenasoneshotfix0_hybridsequential0_shufflenetblock19_shufflechannels0_slice1", 
      "attrs": {
        "begin": "(None, 320, None, None)", 
        "end": "(None, None, None, None)"
      }, 
      "inputs": [[646, 0, 0]]
    }, 
    {
      "op": "null", 
      "name": "shufflenasoneshotfix0_hybridsequential0_shufflenetblock19_conv0_weight", 
      "attrs": {
        "__dtype__": "0", 
        "__lr_mult__": "1.0", 
        "__shape__": "(256, 320, 1, 1)", 
        "__storage_type__": "0", 
        "__wd_mult__": "1.0"
      }, 
      "inputs": []
    }, 
    {
      "op": "Convolution", 
      "name": "shufflenasoneshotfix0_hybridsequential0_shufflenetblock19_conv0_fwd", 
      "attrs": {
        "dilate": "(1, 1)", 
        "kernel": "(1, 1)", 
        "layout": "NCHW", 
        "no_bias": "True", 
        "num_filter": "256", 
        "num_group": "1", 
        "pad": "(0, 0)", 
        "stride": "(1, 1)"
      }, 
      "inputs": [[648, 0, 0], [649, 0, 0]]
    }, 
    {
      "op": "null", 
      "name": "shufflenasoneshotfix0_hybridsequential0_shufflenetblock19_batchnorm0_gamma", 
      "attrs": {
        "__dtype__": "0", 
        "__init__": "ones", 
        "__lr_mult__": "1.0", 
        "__shape__": "(0,)", 
        "__storage_type__": "0", 
        "__wd_mult__": "1.0"
      }, 
      "inputs": []
    }, 
    {
      "op": "null", 
      "name": "shufflenasoneshotfix0_hybridsequential0_shufflenetblock19_batchnorm0_beta", 
      "attrs": {
        "__dtype__": "0", 
        "__init__": "zeros", 
        "__lr_mult__": "1.0", 
        "__shape__": "(0,)", 
        "__storage_type__": "0", 
        "__wd_mult__": "1.0"
      }, 
      "inputs": []
    }, 
    {
      "op": "null", 
      "name": "shufflenasoneshotfix0_hybridsequential0_shufflenetblock19_batchnorm0_running_mean", 
      "attrs": {
        "__dtype__": "0", 
        "__init__": "zeros", 
        "__lr_mult__": "1.0", 
        "__shape__": "(0,)", 
        "__storage_type__": "0", 
        "__wd_mult__": "1.0"
      }, 
      "inputs": []
    }, 
    {
      "op": "null", 
      "name": "shufflenasoneshotfix0_hybridsequential0_shufflenetblock19_batchnorm0_running_var", 
      "attrs": {
        "__dtype__": "0", 
        "__init__": "ones", 
        "__lr_mult__": "1.0", 
        "__shape__": "(0,)", 
        "__storage_type__": "0", 
        "__wd_mult__": "1.0"
      }, 
      "inputs": []
    }, 
    {
      "op": "BatchNorm", 
      "name": "shufflenasoneshotfix0_hybridsequential0_shufflenetblock19_batchnorm0_fwd", 
      "attrs": {
        "axis": "1", 
        "eps": "1e-05", 
        "fix_gamma": "False", 
        "momentum": "0.1", 
        "use_global_stats": "False"
      }, 
      "inputs": [[650, 0, 0], [651, 0, 0], [652, 0, 0], [653, 0, 2], [654, 0, 2]]
    }, 
    {
      "op": "Activation", 
      "name": "shufflenasoneshotfix0_hybridsequential0_shufflenetblock19_relu0_fwd", 
      "attrs": {"act_type": "relu"}, 
      "inputs": [[655, 0, 0]]
    }, 
    {
      "op": "null", 
      "name": "shufflenasoneshotfix0_hybridsequential0_shufflenetblock19_conv1_weight", 
      "attrs": {
        "__dtype__": "0", 
        "__lr_mult__": "1.0", 
        "__shape__": "(256, 1, 7, 7)", 
        "__storage_type__": "0", 
        "__wd_mult__": "1.0"
      }, 
      "inputs": []
    }, 
    {
      "op": "Convolution", 
      "name": "shufflenasoneshotfix0_hybridsequential0_shufflenetblock19_conv1_fwd", 
      "attrs": {
        "dilate": "(1, 1)", 
        "kernel": "(7, 7)", 
        "layout": "NCHW", 
        "no_bias": "True", 
        "num_filter": "256", 
        "num_group": "256", 
        "pad": "(3, 3)", 
        "stride": "(1, 1)"
      }, 
      "inputs": [[656, 0, 0], [657, 0, 0]]
    }, 
    {
      "op": "null", 
      "name": "shufflenasoneshotfix0_hybridsequential0_shufflenetblock19_batchnorm1_gamma", 
      "attrs": {
        "__dtype__": "0", 
        "__init__": "ones", 
        "__lr_mult__": "1.0", 
        "__shape__": "(0,)", 
        "__storage_type__": "0", 
        "__wd_mult__": "1.0"
      }, 
      "inputs": []
    }, 
    {
      "op": "null", 
      "name": "shufflenasoneshotfix0_hybridsequential0_shufflenetblock19_batchnorm1_beta", 
      "attrs": {
        "__dtype__": "0", 
        "__init__": "zeros", 
        "__lr_mult__": "1.0", 
        "__shape__": "(0,)", 
        "__storage_type__": "0", 
        "__wd_mult__": "1.0"
      }, 
      "inputs": []
    }, 
    {
      "op": "null", 
      "name": "shufflenasoneshotfix0_hybridsequential0_shufflenetblock19_batchnorm1_running_mean", 
      "attrs": {
        "__dtype__": "0", 
        "__init__": "zeros", 
        "__lr_mult__": "1.0", 
        "__shape__": "(0,)", 
        "__storage_type__": "0", 
        "__wd_mult__": "1.0"
      }, 
      "inputs": []
    }, 
    {
      "op": "null", 
      "name": "shufflenasoneshotfix0_hybridsequential0_shufflenetblock19_batchnorm1_running_var", 
      "attrs": {
        "__dtype__": "0", 
        "__init__": "ones", 
        "__lr_mult__": "1.0", 
        "__shape__": "(0,)", 
        "__storage_type__": "0", 
        "__wd_mult__": "1.0"
      }, 
      "inputs": []
    }, 
    {
      "op": "BatchNorm", 
      "name": "shufflenasoneshotfix0_hybridsequential0_shufflenetblock19_batchnorm1_fwd", 
      "attrs": {
        "axis": "1", 
        "eps": "1e-05", 
        "fix_gamma": "False", 
        "momentum": "0.1", 
        "use_global_stats": "False"
      }, 
      "inputs": [[658, 0, 0], [659, 0, 0], [660, 0, 0], [661, 0, 2], [662, 0, 2]]
    }, 
    {
      "op": "null", 
      "name": "shufflenasoneshotfix0_hybridsequential0_shufflenetblock19_conv2_weight", 
      "attrs": {
        "__dtype__": "0", 
        "__lr_mult__": "1.0", 
        "__shape__": "(320, 256, 1, 1)", 
        "__storage_type__": "0", 
        "__wd_mult__": "1.0"
      }, 
      "inputs": []
    }, 
    {
      "op": "Convolution", 
      "name": "shufflenasoneshotfix0_hybridsequential0_shufflenetblock19_conv2_fwd", 
      "attrs": {
        "dilate": "(1, 1)", 
        "kernel": "(1, 1)", 
        "layout": "NCHW", 
        "no_bias": "True", 
        "num_filter": "320", 
        "num_group": "1", 
        "pad": "(0, 0)", 
        "stride": "(1, 1)"
      }, 
      "inputs": [[663, 0, 0], [664, 0, 0]]
    }, 
    {
      "op": "null", 
      "name": "shufflenasoneshotfix0_hybridsequential0_shufflenetblock19_batchnorm2_gamma", 
      "attrs": {
        "__dtype__": "0", 
        "__init__": "ones", 
        "__lr_mult__": "1.0", 
        "__shape__": "(0,)", 
        "__storage_type__": "0", 
        "__wd_mult__": "1.0"
      }, 
      "inputs": []
    }, 
    {
      "op": "null", 
      "name": "shufflenasoneshotfix0_hybridsequential0_shufflenetblock19_batchnorm2_beta", 
      "attrs": {
        "__dtype__": "0", 
        "__init__": "zeros", 
        "__lr_mult__": "1.0", 
        "__shape__": "(0,)", 
        "__storage_type__": "0", 
        "__wd_mult__": "1.0"
      }, 
      "inputs": []
    }, 
    {
      "op": "null", 
      "name": "shufflenasoneshotfix0_hybridsequential0_shufflenetblock19_batchnorm2_running_mean", 
      "attrs": {
        "__dtype__": "0", 
        "__init__": "zeros", 
        "__lr_mult__": "1.0", 
        "__shape__": "(0,)", 
        "__storage_type__": "0", 
        "__wd_mult__": "1.0"
      }, 
      "inputs": []
    }, 
    {
      "op": "null", 
      "name": "shufflenasoneshotfix0_hybridsequential0_shufflenetblock19_batchnorm2_running_var", 
      "attrs": {
        "__dtype__": "0", 
        "__init__": "ones", 
        "__lr_mult__": "1.0", 
        "__shape__": "(0,)", 
        "__storage_type__": "0", 
        "__wd_mult__": "1.0"
      }, 
      "inputs": []
    }, 
    {
      "op": "BatchNorm", 
      "name": "shufflenasoneshotfix0_hybridsequential0_shufflenetblock19_batchnorm2_fwd", 
      "attrs": {
        "axis": "1", 
        "eps": "1e-05", 
        "fix_gamma": "False", 
        "momentum": "0.1", 
        "use_global_stats": "False"
      }, 
      "inputs": [[665, 0, 0], [666, 0, 0], [667, 0, 0], [668, 0, 2], [669, 0, 2]]
    }, 
    {
      "op": "Activation", 
      "name": "shufflenasoneshotfix0_hybridsequential0_shufflenetblock19_relu1_fwd", 
      "attrs": {"act_type": "relu"}, 
      "inputs": [[670, 0, 0]]
    }, 
    {
      "op": "Concat", 
      "name": "shufflenasoneshotfix0_hybridsequential0_shufflenetblock19_concat0", 
      "attrs": {
        "dim": "1", 
        "num_args": "2"
      }, 
      "inputs": [[647, 0, 0], [671, 0, 0]]
    }, 
    {
      "op": "null", 
      "name": "shufflenasoneshotfix0_hybridsequential0_conv1_weight", 
      "attrs": {
        "__dtype__": "0", 
        "__lr_mult__": "1.0", 
        "__shape__": "(100, 640, 1, 1)", 
        "__storage_type__": "0", 
        "__wd_mult__": "1.0"
      }, 
      "inputs": []
    }, 
    {
      "op": "Convolution", 
      "name": "shufflenasoneshotfix0_hybridsequential0_conv1_fwd", 
      "attrs": {
        "dilate": "(1, 1)", 
        "kernel": "(1, 1)", 
        "layout": "NCHW", 
        "no_bias": "True", 
        "num_filter": "100", 
        "num_group": "1", 
        "pad": "(0, 0)", 
        "stride": "(1, 1)"
      }, 
      "inputs": [[672, 0, 0], [673, 0, 0]]
    }, 
    {
      "op": "null", 
      "name": "shufflenasoneshotfix0_hybridsequential0_batchnorm1_gamma", 
      "attrs": {
        "__dtype__": "0", 
        "__init__": "ones", 
        "__lr_mult__": "1.0", 
        "__shape__": "(0,)", 
        "__storage_type__": "0", 
        "__wd_mult__": "1.0"
      }, 
      "inputs": []
    }, 
    {
      "op": "null", 
      "name": "shufflenasoneshotfix0_hybridsequential0_batchnorm1_beta", 
      "attrs": {
        "__dtype__": "0", 
        "__init__": "zeros", 
        "__lr_mult__": "1.0", 
        "__shape__": "(0,)", 
        "__storage_type__": "0", 
        "__wd_mult__": "1.0"
      }, 
      "inputs": []
    }, 
    {
      "op": "null", 
      "name": "shufflenasoneshotfix0_hybridsequential0_batchnorm1_running_mean", 
      "attrs": {
        "__dtype__": "0", 
        "__init__": "zeros", 
        "__lr_mult__": "1.0", 
        "__shape__": "(0,)", 
        "__storage_type__": "0", 
        "__wd_mult__": "1.0"
      }, 
      "inputs": []
    }, 
    {
      "op": "null", 
      "name": "shufflenasoneshotfix0_hybridsequential0_batchnorm1_running_var", 
      "attrs": {
        "__dtype__": "0", 
        "__init__": "ones", 
        "__lr_mult__": "1.0", 
        "__shape__": "(0,)", 
        "__storage_type__": "0", 
        "__wd_mult__": "1.0"
      }, 
      "inputs": []
    }, 
    {
      "op": "BatchNorm", 
      "name": "shufflenasoneshotfix0_hybridsequential0_batchnorm1_fwd", 
      "attrs": {
        "axis": "1", 
        "eps": "1e-05", 
        "fix_gamma": "False", 
        "momentum": "0.1", 
        "use_global_stats": "False"
      }, 
      "inputs": [[674, 0, 0], [675, 0, 0], [676, 0, 0], [677, 0, 2], [678, 0, 2]]
    }, 
    {
      "op": "Activation", 
      "name": "shufflenasoneshotfix0_hybridsequential0_relu1_fwd", 
      "attrs": {"act_type": "relu"}, 
      "inputs": [[679, 0, 0]]
    }, 
    {
      "op": "Pooling", 
      "name": "shufflenasoneshotfix0_hybridsequential0_pool0_fwd", 
      "attrs": {
        "global_pool": "True", 
        "kernel": "(1, 1)", 
        "layout": "NCHW", 
        "pad": "(0, 0)", 
        "pool_type": "avg", 
        "pooling_convention": "full", 
        "stride": "(1, 1)"
      }, 
      "inputs": [[680, 0, 0]]
    }, 
    {
      "op": "Dropout", 
      "name": "shufflenasoneshotfix0_hybridsequential0_dropout0_fwd", 
      "attrs": {
        "axes": "()", 
        "cudnn_off": "False", 
        "p": "0.1"
      }, 
      "inputs": [[681, 0, 0]]
    }, 
    {
      "op": "null", 
      "name": "shufflenasoneshotfix0_output_conv0_weight", 
      "attrs": {
        "__dtype__": "0", 
        "__lr_mult__": "1.0", 
        "__shape__": "(1000, 100, 1, 1)", 
        "__storage_type__": "0", 
        "__wd_mult__": "1.0"
      }, 
      "inputs": []
    }, 
    {
      "op": "Convolution", 
      "name": "shufflenasoneshotfix0_output_conv0_fwd", 
      "attrs": {
        "dilate": "(1, 1)", 
        "kernel": "(1, 1)", 
        "layout": "NCHW", 
        "no_bias": "True", 
        "num_filter": "1000", 
        "num_group": "1", 
        "pad": "(0, 0)", 
        "stride": "(1, 1)"
      }, 
      "inputs": [[682, 0, 0], [683, 0, 0]]
    }, 
    {
      "op": "Flatten", 
      "name": "shufflenasoneshotfix0_output_flatten0_flatten0", 
      "inputs": [[684, 0, 0]]
    }
  ], 
  "arg_nodes": [
    0, 
    1, 
    3, 
    4, 
    5, 
    6, 
    9, 
    11, 
    12, 
    13, 
    14, 
    16, 
    18, 
    19, 
    20, 
    21, 
    24, 
    26, 
    27, 
    28, 
    29, 
    32, 
    34, 
    35, 
    36, 
    37, 
    39, 
    41, 
    42, 
    43, 
    44, 
    53, 
    55, 
    56, 
    57, 
    58, 
    61, 
    63, 
    64, 
    65, 
    66, 
    68, 
    70, 
    71, 
    72, 
    73, 
    82, 
    84, 
    85, 
    86, 
    87, 
    89, 
    91, 
    92, 
    93, 
    94, 
    97, 
    99, 
    100, 
    101, 
    102, 
    104, 
    106, 
    107, 
    108, 
    109, 
    112, 
    114, 
    115, 
    116, 
    117, 
    119, 
    121, 
    122, 
    123, 
    124, 
    133, 
    135, 
    136, 
    137, 
    138, 
    141, 
    143, 
    144, 
    145, 
    146, 
    148, 
    150, 
    151, 
    152, 
    153, 
    157, 
    159, 
    160, 
    161, 
    162, 
    164, 
    166, 
    167, 
    168, 
    169, 
    172, 
    174, 
    175, 
    176, 
    177, 
    180, 
    182, 
    183, 
    184, 
    185, 
    187, 
    189, 
    190, 
    191, 
    192, 
    201, 
    203, 
    204, 
    205, 
    206, 
    209, 
    211, 
    212, 
    213, 
    214, 
    216, 
    218, 
    219, 
    220, 
    221, 
    230, 
    232, 
    233, 
    234, 
    235, 
    238, 
    240, 
    241, 
    242, 
    243, 
    245, 
    247, 
    248, 
    249, 
    250, 
    259, 
    261, 
    262, 
    263, 
    264, 
    267, 
    269, 
    270, 
    271, 
    272, 
    274, 
    276, 
    277, 
    278, 
    279, 
    283, 
    285, 
    286, 
    287, 
    288, 
    290, 
    292, 
    293, 
    294, 
    295, 
    298, 
    300, 
    301, 
    302, 
    303, 
    306, 
    308, 
    309, 
    310, 
    311, 
    313, 
    315, 
    316, 
    317, 
    318, 
    327, 
    329, 
    330, 
    331, 
    332, 
    335, 
    337, 
    338, 
    339, 
    340, 
    342, 
    344, 
    345, 
    346, 
    347, 
    356, 
    358, 
    359, 
    360, 
    361, 
    364, 
    366, 
    367, 
    368, 
    369, 
    371, 
    373, 
    374, 
    375, 
    376, 
    385, 
    387, 
    388, 
    389, 
    390, 
    393, 
    395, 
    396, 
    397, 
    398, 
    400, 
    402, 
    403, 
    404, 
    405, 
    414, 
    416, 
    417, 
    418, 
    419, 
    422, 
    424, 
    425, 
    426, 
    427, 
    429, 
    431, 
    432, 
    433, 
    434, 
    443, 
    445, 
    446, 
    447, 
    448, 
    451, 
    453, 
    454, 
    455, 
    456, 
    458, 
    460, 
    461, 
    462, 
    463, 
    472, 
    474, 
    475, 
    476, 
    477, 
    480, 
    482, 
    483, 
    484, 
    485, 
    487, 
    489, 
    490, 
    491, 
    492, 
    501, 
    503, 
    504, 
    505, 
    506, 
    509, 
    511, 
    512, 
    513, 
    514, 
    516, 
    518, 
    519, 
    520, 
    521, 
    525, 
    527, 
    528, 
    529, 
    530, 
    532, 
    534, 
    535, 
    536, 
    537, 
    540, 
    542, 
    543, 
    544, 
    545, 
    548, 
    550, 
    551, 
    552, 
    553, 
    555, 
    557, 
    558, 
    559, 
    560, 
    569, 
    571, 
    572, 
    573, 
    574, 
    577, 
    579, 
    580, 
    581, 
    582, 
    584, 
    586, 
    587, 
    588, 
    589, 
    598, 
    600, 
    601, 
    602, 
    603, 
    605, 
    607, 
    608, 
    609, 
    610, 
    613, 
    615, 
    616, 
    617, 
    618, 
    620, 
    622, 
    623, 
    624, 
    625, 
    628, 
    630, 
    631, 
    632, 
    633, 
    635, 
    637, 
    638, 
    639, 
    640, 
    649, 
    651, 
    652, 
    653, 
    654, 
    657, 
    659, 
    660, 
    661, 
    662, 
    664, 
    666, 
    667, 
    668, 
    669, 
    673, 
    675, 
    676, 
    677, 
    678, 
    683
  ], 
  "node_row_ptr": [
    0, 
    1, 
    2, 
    3, 
    4, 
    5, 
    6, 
    7, 
    10, 
    11, 
    12, 
    13, 
    14, 
    15, 
    16, 
    17, 
    20, 
    21, 
    22, 
    23, 
    24, 
    25, 
    26, 
    29, 
    30, 
    31, 
    32, 
    33, 
    34, 
    35, 
    36, 
    39, 
    40, 
    41, 
    42, 
    43, 
    44, 
    45, 
    46, 
    49, 
    50, 
    51, 
    52, 
    53, 
    54, 
    55, 
    58, 
    59, 
    60, 
    61, 
    62, 
    63, 
    64, 
    65, 
    66, 
    67, 
    68, 
    69, 
    70, 
    71, 
    74, 
    75, 
    76, 
    77, 
    78, 
    79, 
    80, 
    81, 
    84, 
    85, 
    86, 
    87, 
    88, 
    89, 
    90, 
    93, 
    94, 
    95, 
    96, 
    97, 
    98, 
    99, 
    100, 
    101, 
    102, 
    103, 
    104, 
    105, 
    106, 
    109, 
    110, 
    111, 
    112, 
    113, 
    114, 
    115, 
    118, 
    119, 
    120, 
    121, 
    122, 
    123, 
    124, 
    125, 
    128, 
    129, 
    130, 
    131, 
    132, 
    133, 
    134, 
    137, 
    138, 
    139, 
    140, 
    141, 
    142, 
    143, 
    144, 
    147, 
    148, 
    149, 
    150, 
    151, 
    152, 
    153, 
    156, 
    157, 
    158, 
    159, 
    160, 
    161, 
    162, 
    163, 
    164, 
    165, 
    166, 
    167, 
    168, 
    169, 
    172, 
    173, 
    174, 
    175, 
    176, 
    177, 
    178, 
    179, 
    182, 
    183, 
    184, 
    185, 
    186, 
    187, 
    188, 
    191, 
    192, 
    193, 
    194, 
    195, 
    196, 
    197, 
    198, 
    199, 
    202, 
    203, 
    204, 
    205, 
    206, 
    207, 
    208, 
    211, 
    212, 
    213, 
    214, 
    215, 
    216, 
    217, 
    218, 
    221, 
    222, 
    223, 
    224, 
    225, 
    226, 
    227, 
    228, 
    231, 
    232, 
    233, 
    234, 
    235, 
    236, 
    237, 
    240, 
    241, 
    242, 
    243, 
    244, 
    245, 
    246, 
    247, 
    248, 
    249, 
    250, 
    251, 
    252, 
    253, 
    256, 
    257, 
    258, 
    259, 
    260, 
    261, 
    262, 
    263, 
    266, 
    267, 
    268, 
    269, 
    270, 
    271, 
    272, 
    275, 
    276, 
    277, 
    278, 
    279, 
    280, 
    281, 
    282, 
    283, 
    284, 
    285, 
    286, 
    287, 
    288, 
    291, 
    292, 
    293, 
    294, 
    295, 
    296, 
    297, 
    298, 
    301, 
    302, 
    303, 
    304, 
    305, 
    306, 
    307, 
    310, 
    311, 
    312, 
    313, 
    314, 
    315, 
    316, 
    317, 
    318, 
    319, 
    320, 
    321, 
    322, 
    323, 
    326, 
    327, 
    328, 
    329, 
    330, 
    331, 
    332, 
    333, 
    336, 
    337, 
    338, 
    339, 
    340, 
    341, 
    342, 
    345, 
    346, 
    347, 
    348, 
    349, 
    350, 
    351, 
    352, 
    353, 
    356, 
    357, 
    358, 
    359, 
    360, 
    361, 
    362, 
    365, 
    366, 
    367, 
    368, 
    369, 
    370, 
    371, 
    372, 
    375, 
    376, 
    377, 
    378, 
    379, 
    380, 
    381, 
    382, 
    385, 
    386, 
    387, 
    388, 
    389, 
    390, 
    391, 
    394, 
    395, 
    396, 
    397, 
    398, 
    399, 
    400, 
    401, 
    402, 
    403, 
    404, 
    405, 
    406, 
    407, 
    410, 
    411, 
    412, 
    413, 
    414, 
    415, 
    416, 
    417, 
    420, 
    421, 
    422, 
    423, 
    424, 
    425, 
    426, 
    429, 
    430, 
    431, 
    432, 
    433, 
    434, 
    435, 
    436, 
    437, 
    438, 
    439, 
    440, 
    441, 
    442, 
    445, 
    446, 
    447, 
    448, 
    449, 
    450, 
    451, 
    452, 
    455, 
    456, 
    457, 
    458, 
    459, 
    460, 
    461, 
    464, 
    465, 
    466, 
    467, 
    468, 
    469, 
    470, 
    471, 
    472, 
    473, 
    474, 
    475, 
    476, 
    477, 
    480, 
    481, 
    482, 
    483, 
    484, 
    485, 
    486, 
    487, 
    490, 
    491, 
    492, 
    493, 
    494, 
    495, 
    496, 
    499, 
    500, 
    501, 
    502, 
    503, 
    504, 
    505, 
    506, 
    507, 
    508, 
    509, 
    510, 
    511, 
    512, 
    515, 
    516, 
    517, 
    518, 
    519, 
    520, 
    521, 
    522, 
    525, 
    526, 
    527, 
    528, 
    529, 
    530, 
    531, 
    534, 
    535, 
    536, 
    537, 
    538, 
    539, 
    540, 
    541, 
    542, 
    543, 
    544, 
    545, 
    546, 
    547, 
    550, 
    551, 
    552, 
    553, 
    554, 
    555, 
    556, 
    557, 
    560, 
    561, 
    562, 
    563, 
    564, 
    565, 
    566, 
    569, 
    570, 
    571, 
    572, 
    573, 
    574, 
    575, 
    576, 
    577, 
    578, 
    579, 
    580, 
    581, 
    582, 
    585, 
    586, 
    587, 
    588, 
    589, 
    590, 
    591, 
    592, 
    595, 
    596, 
    597, 
    598, 
    599, 
    600, 
    601, 
    604, 
    605, 
    606, 
    607, 
    608, 
    609, 
    610, 
    611, 
    612, 
    613, 
    614, 
    615, 
    616, 
    617, 
    620, 
    621, 
    622, 
    623, 
    624, 
    625, 
    626, 
    627, 
    630, 
    631, 
    632, 
    633, 
    634, 
    635, 
    636, 
    639, 
    640, 
    641, 
    642, 
    643, 
    644, 
    645, 
    646, 
    647, 
    650, 
    651, 
    652, 
    653, 
    654, 
    655, 
    656, 
    659, 
    660, 
    661, 
    662, 
    663, 
    664, 
    665, 
    666, 
    669, 
    670, 
    671, 
    672, 
    673, 
    674, 
    675, 
    676, 
    679, 
    680, 
    681, 
    682, 
    683, 
    684, 
    685, 
    688, 
    689, 
    690, 
    691, 
    692, 
    693, 
    694, 
    695, 
    696, 
    697, 
    698, 
    699, 
    700, 
    701, 
    704, 
    705, 
    706, 
    707, 
    708, 
    709, 
    710, 
    711, 
    714, 
    715, 
    716, 
    717, 
    718, 
    719, 
    720, 
    723, 
    724, 
    725, 
    726, 
    727, 
    728, 
    729, 
    730, 
    731, 
    732, 
    733, 
    734, 
    735, 
    736, 
    739, 
    740, 
    741, 
    742, 
    743, 
    744, 
    745, 
    748, 
    749, 
    750, 
    751, 
    752, 
    753, 
    754, 
    755, 
    758, 
    759, 
    760, 
    761, 
    762, 
    763, 
    764, 
    767, 
    768, 
    769, 
    770, 
    771, 
    772, 
    773, 
    774, 
    777, 
    778, 
    779, 
    780, 
    781, 
    782, 
    783, 
    786, 
    787, 
    788, 
    789, 
    790, 
    791, 
    792, 
    793, 
    794, 
    795, 
    796, 
    797, 
    798, 
    799, 
    802, 
    803, 
    804, 
    805, 
    806, 
    807, 
    808, 
    809, 
    812, 
    813, 
    814, 
    815, 
    816, 
    817, 
    818, 
    821, 
    822, 
    823, 
    824, 
    825, 
    826, 
    827, 
    828, 
    829, 
    832, 
    833, 
    834, 
    836, 
    837, 
    838, 
    839
  ], 
  "heads": [[685, 0, 0]], 
  "attrs": {"mxnet_version": ["int", 10500]}
}