{
  "nodes": [
    {
      "op": "null", 
      "name": "data", 
      "inputs": []
    }, 
    {
      "op": "null", 
      "name": "shufflenasoneshotfix0_hybridsequential0_first_conv_weight", 
      "attrs": {
        "__dtype__": "0", 
        "__lr_mult__": "1.0", 
        "__shape__": "(16, 3, 3, 3)", 
        "__storage_type__": "0", 
        "__wd_mult__": "1.0"
      }, 
      "inputs": []
    }, 
    {
      "op": "Convolution", 
      "name": "shufflenasoneshotfix0_hybridsequential0_first_conv_fwd", 
      "attrs": {
        "dilate": "(1, 1)", 
        "kernel": "(3, 3)", 
        "layout": "NCHW", 
        "no_bias": "True", 
        "num_filter": "16", 
        "num_group": "1", 
        "pad": "(1, 1)", 
        "stride": "(2, 2)"
      }, 
      "inputs": [[0, 0, 0], [1, 0, 0]]
    }, 
    {
      "op": "null", 
      "name": "shufflenasoneshotfix0_hybridsequential0_batchnorm0_gamma", 
      "attrs": {
        "__dtype__": "0", 
        "__init__": "ones", 
        "__lr_mult__": "1.0", 
        "__shape__": "(16,)", 
        "__storage_type__": "0", 
        "__wd_mult__": "1.0"
      }, 
      "inputs": []
    }, 
    {
      "op": "null", 
      "name": "shufflenasoneshotfix0_hybridsequential0_batchnorm0_beta", 
      "attrs": {
        "__dtype__": "0", 
        "__init__": "zeros", 
        "__lr_mult__": "1.0", 
        "__shape__": "(16,)", 
        "__storage_type__": "0", 
        "__wd_mult__": "1.0"
      }, 
      "inputs": []
    }, 
    {
      "op": "null", 
      "name": "shufflenasoneshotfix0_hybridsequential0_batchnorm0_running_mean", 
      "attrs": {
        "__dtype__": "0", 
        "__init__": "zeros", 
        "__lr_mult__": "1.0", 
        "__shape__": "(16,)", 
        "__storage_type__": "0", 
        "__wd_mult__": "1.0"
      }, 
      "inputs": []
    }, 
    {
      "op": "null", 
      "name": "shufflenasoneshotfix0_hybridsequential0_batchnorm0_running_var", 
      "attrs": {
        "__dtype__": "0", 
        "__init__": "ones", 
        "__lr_mult__": "1.0", 
        "__shape__": "(16,)", 
        "__storage_type__": "0", 
        "__wd_mult__": "1.0"
      }, 
      "inputs": []
    }, 
    {
      "op": "BatchNorm", 
      "name": "shufflenasoneshotfix0_hybridsequential0_batchnorm0_fwd", 
      "attrs": {
        "axis": "1", 
        "eps": "1e-05", 
        "fix_gamma": "False", 
        "momentum": "0.1", 
        "use_global_stats": "False"
      }, 
      "inputs": [[2, 0, 0], [3, 0, 0], [4, 0, 0], [5, 0, 1], [6, 0, 1]]
    }, 
    {
      "op": "_plus_scalar", 
      "name": "shufflenasoneshotfix0_hybridsequential0_hardswish0__plusscalar0", 
      "attrs": {"scalar": "3"}, 
      "inputs": [[7, 0, 0]]
    }, 
    {
      "op": "clip", 
      "name": "shufflenasoneshotfix0_hybridsequential0_hardswish0_hard_swish", 
      "attrs": {
        "a_max": "6", 
        "a_min": "0"
      }, 
      "inputs": [[8, 0, 0]]
    }, 
    {
      "op": "_div_scalar", 
      "name": "shufflenasoneshotfix0_hybridsequential0_hardswish0__divscalar0", 
      "attrs": {"scalar": "6.0"}, 
      "inputs": [[9, 0, 0]]
    }, 
    {
      "op": "elemwise_mul", 
      "name": "shufflenasoneshotfix0_hybridsequential0_hardswish0__mul0", 
      "inputs": [[7, 0, 0], [10, 0, 0]]
    }, 
    {
      "op": "null", 
      "name": "shufflenasoneshotfix0_hybridsequential0_shufflenetblock0_conv3_weight", 
      "attrs": {
        "__dtype__": "0", 
        "__lr_mult__": "1.0", 
        "__shape__": "(16, 1, 3, 3)", 
        "__storage_type__": "0", 
        "__wd_mult__": "1.0"
      }, 
      "inputs": []
    }, 
    {
      "op": "Convolution", 
      "name": "shufflenasoneshotfix0_hybridsequential0_shufflenetblock0_conv3_fwd", 
      "attrs": {
        "dilate": "(1, 1)", 
        "kernel": "(3, 3)", 
        "layout": "NCHW", 
        "no_bias": "True", 
        "num_filter": "16", 
        "num_group": "16", 
        "pad": "(1, 1)", 
        "stride": "(2, 2)"
      }, 
      "inputs": [[11, 0, 0], [12, 0, 0]]
    }, 
    {
      "op": "null", 
      "name": "shufflenasoneshotfix0_hybridsequential0_shufflenetblock0_batchnorm3_gamma", 
      "attrs": {
        "__dtype__": "0", 
        "__init__": "ones", 
        "__lr_mult__": "1.0", 
        "__shape__": "(16,)", 
        "__storage_type__": "0", 
        "__wd_mult__": "1.0"
      }, 
      "inputs": []
    }, 
    {
      "op": "null", 
      "name": "shufflenasoneshotfix0_hybridsequential0_shufflenetblock0_batchnorm3_beta", 
      "attrs": {
        "__dtype__": "0", 
        "__init__": "zeros", 
        "__lr_mult__": "1.0", 
        "__shape__": "(16,)", 
        "__storage_type__": "0", 
        "__wd_mult__": "1.0"
      }, 
      "inputs": []
    }, 
    {
      "op": "null", 
      "name": "shufflenasoneshotfix0_hybridsequential0_shufflenetblock0_batchnorm3_running_mean", 
      "attrs": {
        "__dtype__": "0", 
        "__init__": "zeros", 
        "__lr_mult__": "1.0", 
        "__shape__": "(16,)", 
        "__storage_type__": "0", 
        "__wd_mult__": "1.0"
      }, 
      "inputs": []
    }, 
    {
      "op": "null", 
      "name": "shufflenasoneshotfix0_hybridsequential0_shufflenetblock0_batchnorm3_running_var", 
      "attrs": {
        "__dtype__": "0", 
        "__init__": "ones", 
        "__lr_mult__": "1.0", 
        "__shape__": "(16,)", 
        "__storage_type__": "0", 
        "__wd_mult__": "1.0"
      }, 
      "inputs": []
    }, 
    {
      "op": "BatchNorm", 
      "name": "shufflenasoneshotfix0_hybridsequential0_shufflenetblock0_batchnorm3_fwd", 
      "attrs": {
        "axis": "1", 
        "eps": "1e-05", 
        "fix_gamma": "False", 
        "momentum": "0.1", 
        "use_global_stats": "False"
      }, 
      "inputs": [[13, 0, 0], [14, 0, 0], [15, 0, 0], [16, 0, 1], [17, 0, 1]]
    }, 
    {
      "op": "null", 
      "name": "shufflenasoneshotfix0_hybridsequential0_shufflenetblock0_conv4_weight", 
      "attrs": {
        "__dtype__": "0", 
        "__lr_mult__": "1.0", 
        "__shape__": "(16, 16, 1, 1)", 
        "__storage_type__": "0", 
        "__wd_mult__": "1.0"
      }, 
      "inputs": []
    }, 
    {
      "op": "Convolution", 
      "name": "shufflenasoneshotfix0_hybridsequential0_shufflenetblock0_conv4_fwd", 
      "attrs": {
        "dilate": "(1, 1)", 
        "kernel": "(1, 1)", 
        "layout": "NCHW", 
        "no_bias": "True", 
        "num_filter": "16", 
        "num_group": "1", 
        "pad": "(0, 0)", 
        "stride": "(1, 1)"
      }, 
      "inputs": [[18, 0, 0], [19, 0, 0]]
    }, 
    {
      "op": "null", 
      "name": "shufflenasoneshotfix0_hybridsequential0_shufflenetblock0_batchnorm4_gamma", 
      "attrs": {
        "__dtype__": "0", 
        "__init__": "ones", 
        "__lr_mult__": "1.0", 
        "__shape__": "(16,)", 
        "__storage_type__": "0", 
        "__wd_mult__": "1.0"
      }, 
      "inputs": []
    }, 
    {
      "op": "null", 
      "name": "shufflenasoneshotfix0_hybridsequential0_shufflenetblock0_batchnorm4_beta", 
      "attrs": {
        "__dtype__": "0", 
        "__init__": "zeros", 
        "__lr_mult__": "1.0", 
        "__shape__": "(16,)", 
        "__storage_type__": "0", 
        "__wd_mult__": "1.0"
      }, 
      "inputs": []
    }, 
    {
      "op": "null", 
      "name": "shufflenasoneshotfix0_hybridsequential0_shufflenetblock0_batchnorm4_running_mean", 
      "attrs": {
        "__dtype__": "0", 
        "__init__": "zeros", 
        "__lr_mult__": "1.0", 
        "__shape__": "(16,)", 
        "__storage_type__": "0", 
        "__wd_mult__": "1.0"
      }, 
      "inputs": []
    }, 
    {
      "op": "null", 
      "name": "shufflenasoneshotfix0_hybridsequential0_shufflenetblock0_batchnorm4_running_var", 
      "attrs": {
        "__dtype__": "0", 
        "__init__": "ones", 
        "__lr_mult__": "1.0", 
        "__shape__": "(16,)", 
        "__storage_type__": "0", 
        "__wd_mult__": "1.0"
      }, 
      "inputs": []
    }, 
    {
      "op": "BatchNorm", 
      "name": "shufflenasoneshotfix0_hybridsequential0_shufflenetblock0_batchnorm4_fwd", 
      "attrs": {
        "axis": "1", 
        "eps": "1e-05", 
        "fix_gamma": "False", 
        "momentum": "0.1", 
        "use_global_stats": "False"
      }, 
      "inputs": [[20, 0, 0], [21, 0, 0], [22, 0, 0], [23, 0, 1], [24, 0, 1]]
    }, 
    {
      "op": "Activation", 
      "name": "shufflenasoneshotfix0_hybridsequential0_shufflenetblock0_relu2_fwd", 
      "attrs": {"act_type": "relu"}, 
      "inputs": [[25, 0, 0]]
    }, 
    {
      "op": "null", 
      "name": "shufflenasoneshotfix0_hybridsequential0_shufflenetblock0_conv0_weight", 
      "attrs": {
        "__dtype__": "0", 
        "__lr_mult__": "1.0", 
        "__shape__": "(57, 16, 1, 1)", 
        "__storage_type__": "0", 
        "__wd_mult__": "1.0"
      }, 
      "inputs": []
    }, 
    {
      "op": "Convolution", 
      "name": "shufflenasoneshotfix0_hybridsequential0_shufflenetblock0_conv0_fwd", 
      "attrs": {
        "dilate": "(1, 1)", 
        "kernel": "(1, 1)", 
        "layout": "NCHW", 
        "no_bias": "True", 
        "num_filter": "57", 
        "num_group": "1", 
        "pad": "(0, 0)", 
        "stride": "(1, 1)"
      }, 
      "inputs": [[11, 0, 0], [27, 0, 0]]
    }, 
    {
      "op": "null", 
      "name": "shufflenasoneshotfix0_hybridsequential0_shufflenetblock0_batchnorm0_gamma", 
      "attrs": {
        "__dtype__": "0", 
        "__init__": "ones", 
        "__lr_mult__": "1.0", 
        "__shape__": "(57,)", 
        "__storage_type__": "0", 
        "__wd_mult__": "1.0"
      }, 
      "inputs": []
    }, 
    {
      "op": "null", 
      "name": "shufflenasoneshotfix0_hybridsequential0_shufflenetblock0_batchnorm0_beta", 
      "attrs": {
        "__dtype__": "0", 
        "__init__": "zeros", 
        "__lr_mult__": "1.0", 
        "__shape__": "(57,)", 
        "__storage_type__": "0", 
        "__wd_mult__": "1.0"
      }, 
      "inputs": []
    }, 
    {
      "op": "null", 
      "name": "shufflenasoneshotfix0_hybridsequential0_shufflenetblock0_batchnorm0_running_mean", 
      "attrs": {
        "__dtype__": "0", 
        "__init__": "zeros", 
        "__lr_mult__": "1.0", 
        "__shape__": "(57,)", 
        "__storage_type__": "0", 
        "__wd_mult__": "1.0"
      }, 
      "inputs": []
    }, 
    {
      "op": "null", 
      "name": "shufflenasoneshotfix0_hybridsequential0_shufflenetblock0_batchnorm0_running_var", 
      "attrs": {
        "__dtype__": "0", 
        "__init__": "ones", 
        "__lr_mult__": "1.0", 
        "__shape__": "(57,)", 
        "__storage_type__": "0", 
        "__wd_mult__": "1.0"
      }, 
      "inputs": []
    }, 
    {
      "op": "BatchNorm", 
      "name": "shufflenasoneshotfix0_hybridsequential0_shufflenetblock0_batchnorm0_fwd", 
      "attrs": {
        "axis": "1", 
        "eps": "1e-05", 
        "fix_gamma": "False", 
        "momentum": "0.1", 
        "use_global_stats": "False"
      }, 
      "inputs": [[28, 0, 0], [29, 0, 0], [30, 0, 0], [31, 0, 1], [32, 0, 1]]
    }, 
    {
      "op": "Activation", 
      "name": "shufflenasoneshotfix0_hybridsequential0_shufflenetblock0_relu0_fwd", 
      "attrs": {"act_type": "relu"}, 
      "inputs": [[33, 0, 0]]
    }, 
    {
      "op": "null", 
      "name": "shufflenasoneshotfix0_hybridsequential0_shufflenetblock0_conv1_weight", 
      "attrs": {
        "__dtype__": "0", 
        "__lr_mult__": "1.0", 
        "__shape__": "(57, 1, 3, 3)", 
        "__storage_type__": "0", 
        "__wd_mult__": "1.0"
      }, 
      "inputs": []
    }, 
    {
      "op": "Convolution", 
      "name": "shufflenasoneshotfix0_hybridsequential0_shufflenetblock0_conv1_fwd", 
      "attrs": {
        "dilate": "(1, 1)", 
        "kernel": "(3, 3)", 
        "layout": "NCHW", 
        "no_bias": "True", 
        "num_filter": "57", 
        "num_group": "57", 
        "pad": "(1, 1)", 
        "stride": "(2, 2)"
      }, 
      "inputs": [[34, 0, 0], [35, 0, 0]]
    }, 
    {
      "op": "null", 
      "name": "shufflenasoneshotfix0_hybridsequential0_shufflenetblock0_batchnorm1_gamma", 
      "attrs": {
        "__dtype__": "0", 
        "__init__": "ones", 
        "__lr_mult__": "1.0", 
        "__shape__": "(57,)", 
        "__storage_type__": "0", 
        "__wd_mult__": "1.0"
      }, 
      "inputs": []
    }, 
    {
      "op": "null", 
      "name": "shufflenasoneshotfix0_hybridsequential0_shufflenetblock0_batchnorm1_beta", 
      "attrs": {
        "__dtype__": "0", 
        "__init__": "zeros", 
        "__lr_mult__": "1.0", 
        "__shape__": "(57,)", 
        "__storage_type__": "0", 
        "__wd_mult__": "1.0"
      }, 
      "inputs": []
    }, 
    {
      "op": "null", 
      "name": "shufflenasoneshotfix0_hybridsequential0_shufflenetblock0_batchnorm1_running_mean", 
      "attrs": {
        "__dtype__": "0", 
        "__init__": "zeros", 
        "__lr_mult__": "1.0", 
        "__shape__": "(57,)", 
        "__storage_type__": "0", 
        "__wd_mult__": "1.0"
      }, 
      "inputs": []
    }, 
    {
      "op": "null", 
      "name": "shufflenasoneshotfix0_hybridsequential0_shufflenetblock0_batchnorm1_running_var", 
      "attrs": {
        "__dtype__": "0", 
        "__init__": "ones", 
        "__lr_mult__": "1.0", 
        "__shape__": "(57,)", 
        "__storage_type__": "0", 
        "__wd_mult__": "1.0"
      }, 
      "inputs": []
    }, 
    {
      "op": "BatchNorm", 
      "name": "shufflenasoneshotfix0_hybridsequential0_shufflenetblock0_batchnorm1_fwd", 
      "attrs": {
        "axis": "1", 
        "eps": "1e-05", 
        "fix_gamma": "False", 
        "momentum": "0.1", 
        "use_global_stats": "False"
      }, 
      "inputs": [[36, 0, 0], [37, 0, 0], [38, 0, 0], [39, 0, 1], [40, 0, 1]]
    }, 
    {
      "op": "null", 
      "name": "shufflenasoneshotfix0_hybridsequential0_shufflenetblock0_conv2_weight", 
      "attrs": {
        "__dtype__": "0", 
        "__lr_mult__": "1.0", 
        "__shape__": "(48, 57, 1, 1)", 
        "__storage_type__": "0", 
        "__wd_mult__": "1.0"
      }, 
      "inputs": []
    }, 
    {
      "op": "Convolution", 
      "name": "shufflenasoneshotfix0_hybridsequential0_shufflenetblock0_conv2_fwd", 
      "attrs": {
        "dilate": "(1, 1)", 
        "kernel": "(1, 1)", 
        "layout": "NCHW", 
        "no_bias": "True", 
        "num_filter": "48", 
        "num_group": "1", 
        "pad": "(0, 0)", 
        "stride": "(1, 1)"
      }, 
      "inputs": [[41, 0, 0], [42, 0, 0]]
    }, 
    {
      "op": "null", 
      "name": "shufflenasoneshotfix0_hybridsequential0_shufflenetblock0_batchnorm2_gamma", 
      "attrs": {
        "__dtype__": "0", 
        "__init__": "ones", 
        "__lr_mult__": "1.0", 
        "__shape__": "(48,)", 
        "__storage_type__": "0", 
        "__wd_mult__": "1.0"
      }, 
      "inputs": []
    }, 
    {
      "op": "null", 
      "name": "shufflenasoneshotfix0_hybridsequential0_shufflenetblock0_batchnorm2_beta", 
      "attrs": {
        "__dtype__": "0", 
        "__init__": "zeros", 
        "__lr_mult__": "1.0", 
        "__shape__": "(48,)", 
        "__storage_type__": "0", 
        "__wd_mult__": "1.0"
      }, 
      "inputs": []
    }, 
    {
      "op": "null", 
      "name": "shufflenasoneshotfix0_hybridsequential0_shufflenetblock0_batchnorm2_running_mean", 
      "attrs": {
        "__dtype__": "0", 
        "__init__": "zeros", 
        "__lr_mult__": "1.0", 
        "__shape__": "(48,)", 
        "__storage_type__": "0", 
        "__wd_mult__": "1.0"
      }, 
      "inputs": []
    }, 
    {
      "op": "null", 
      "name": "shufflenasoneshotfix0_hybridsequential0_shufflenetblock0_batchnorm2_running_var", 
      "attrs": {
        "__dtype__": "0", 
        "__init__": "ones", 
        "__lr_mult__": "1.0", 
        "__shape__": "(48,)", 
        "__storage_type__": "0", 
        "__wd_mult__": "1.0"
      }, 
      "inputs": []
    }, 
    {
      "op": "BatchNorm", 
      "name": "shufflenasoneshotfix0_hybridsequential0_shufflenetblock0_batchnorm2_fwd", 
      "attrs": {
        "axis": "1", 
        "eps": "1e-05", 
        "fix_gamma": "False", 
        "momentum": "0.1", 
        "use_global_stats": "False"
      }, 
      "inputs": [[43, 0, 0], [44, 0, 0], [45, 0, 0], [46, 0, 1], [47, 0, 1]]
    }, 
    {
      "op": "Activation", 
      "name": "shufflenasoneshotfix0_hybridsequential0_shufflenetblock0_relu1_fwd", 
      "attrs": {"act_type": "relu"}, 
      "inputs": [[48, 0, 0]]
    }, 
    {
      "op": "Concat", 
      "name": "shufflenasoneshotfix0_hybridsequential0_shufflenetblock0_concat0", 
      "attrs": {
        "dim": "1", 
        "num_args": "2"
      }, 
      "inputs": [[26, 0, 0], [49, 0, 0]]
    }, 
    {
      "op": "Reshape", 
      "name": "shufflenasoneshotfix0_hybridsequential0_shufflenetblock1_shufflechannels0_reshape0", 
      "attrs": {"shape": "(0, -4, 2, -1, -2)"}, 
      "inputs": [[50, 0, 0]]
    }, 
    {
      "op": "SwapAxis", 
      "name": "shufflenasoneshotfix0_hybridsequential0_shufflenetblock1_shufflechannels0_swapaxes0", 
      "attrs": {
        "dim1": "1", 
        "dim2": "2"
      }, 
      "inputs": [[51, 0, 0]]
    }, 
    {
      "op": "Reshape", 
      "name": "shufflenasoneshotfix0_hybridsequential0_shufflenetblock1_shufflechannels0_reshape1", 
      "attrs": {"shape": "(0, -3, -2)"}, 
      "inputs": [[52, 0, 0]]
    }, 
    {
      "op": "slice", 
      "name": "shufflenasoneshotfix0_hybridsequential0_shufflenetblock1_shufflechannels0_slice0", 
      "attrs": {
        "begin": "(None, None, None, None)", 
        "end": "(None, 32, None, None)"
      }, 
      "inputs": [[53, 0, 0]]
    }, 
    {
      "op": "slice", 
      "name": "shufflenasoneshotfix0_hybridsequential0_shufflenetblock1_shufflechannels0_slice1", 
      "attrs": {
        "begin": "(None, 32, None, None)", 
        "end": "(None, None, None, None)"
      }, 
      "inputs": [[53, 0, 0]]
    }, 
    {
      "op": "null", 
      "name": "shufflenasoneshotfix0_hybridsequential0_shufflenetblock1_conv0_weight", 
      "attrs": {
        "__dtype__": "0", 
        "__lr_mult__": "1.0", 
        "__shape__": "(51, 32, 1, 1)", 
        "__storage_type__": "0", 
        "__wd_mult__": "1.0"
      }, 
      "inputs": []
    }, 
    {
      "op": "Convolution", 
      "name": "shufflenasoneshotfix0_hybridsequential0_shufflenetblock1_conv0_fwd", 
      "attrs": {
        "dilate": "(1, 1)", 
        "kernel": "(1, 1)", 
        "layout": "NCHW", 
        "no_bias": "True", 
        "num_filter": "51", 
        "num_group": "1", 
        "pad": "(0, 0)", 
        "stride": "(1, 1)"
      }, 
      "inputs": [[55, 0, 0], [56, 0, 0]]
    }, 
    {
      "op": "null", 
      "name": "shufflenasoneshotfix0_hybridsequential0_shufflenetblock1_batchnorm0_gamma", 
      "attrs": {
        "__dtype__": "0", 
        "__init__": "ones", 
        "__lr_mult__": "1.0", 
        "__shape__": "(51,)", 
        "__storage_type__": "0", 
        "__wd_mult__": "1.0"
      }, 
      "inputs": []
    }, 
    {
      "op": "null", 
      "name": "shufflenasoneshotfix0_hybridsequential0_shufflenetblock1_batchnorm0_beta", 
      "attrs": {
        "__dtype__": "0", 
        "__init__": "zeros", 
        "__lr_mult__": "1.0", 
        "__shape__": "(51,)", 
        "__storage_type__": "0", 
        "__wd_mult__": "1.0"
      }, 
      "inputs": []
    }, 
    {
      "op": "null", 
      "name": "shufflenasoneshotfix0_hybridsequential0_shufflenetblock1_batchnorm0_running_mean", 
      "attrs": {
        "__dtype__": "0", 
        "__init__": "zeros", 
        "__lr_mult__": "1.0", 
        "__shape__": "(51,)", 
        "__storage_type__": "0", 
        "__wd_mult__": "1.0"
      }, 
      "inputs": []
    }, 
    {
      "op": "null", 
      "name": "shufflenasoneshotfix0_hybridsequential0_shufflenetblock1_batchnorm0_running_var", 
      "attrs": {
        "__dtype__": "0", 
        "__init__": "ones", 
        "__lr_mult__": "1.0", 
        "__shape__": "(51,)", 
        "__storage_type__": "0", 
        "__wd_mult__": "1.0"
      }, 
      "inputs": []
    }, 
    {
      "op": "BatchNorm", 
      "name": "shufflenasoneshotfix0_hybridsequential0_shufflenetblock1_batchnorm0_fwd", 
      "attrs": {
        "axis": "1", 
        "eps": "1e-05", 
        "fix_gamma": "False", 
        "momentum": "0.1", 
        "use_global_stats": "False"
      }, 
      "inputs": [[57, 0, 0], [58, 0, 0], [59, 0, 0], [60, 0, 1], [61, 0, 1]]
    }, 
    {
      "op": "Activation", 
      "name": "shufflenasoneshotfix0_hybridsequential0_shufflenetblock1_relu0_fwd", 
      "attrs": {"act_type": "relu"}, 
      "inputs": [[62, 0, 0]]
    }, 
    {
      "op": "null", 
      "name": "shufflenasoneshotfix0_hybridsequential0_shufflenetblock1_conv1_weight", 
      "attrs": {
        "__dtype__": "0", 
        "__lr_mult__": "1.0", 
        "__shape__": "(51, 1, 3, 3)", 
        "__storage_type__": "0", 
        "__wd_mult__": "1.0"
      }, 
      "inputs": []
    }, 
    {
      "op": "Convolution", 
      "name": "shufflenasoneshotfix0_hybridsequential0_shufflenetblock1_conv1_fwd", 
      "attrs": {
        "dilate": "(1, 1)", 
        "kernel": "(3, 3)", 
        "layout": "NCHW", 
        "no_bias": "True", 
        "num_filter": "51", 
        "num_group": "51", 
        "pad": "(1, 1)", 
        "stride": "(1, 1)"
      }, 
      "inputs": [[63, 0, 0], [64, 0, 0]]
    }, 
    {
      "op": "null", 
      "name": "shufflenasoneshotfix0_hybridsequential0_shufflenetblock1_batchnorm1_gamma", 
      "attrs": {
        "__dtype__": "0", 
        "__init__": "ones", 
        "__lr_mult__": "1.0", 
        "__shape__": "(51,)", 
        "__storage_type__": "0", 
        "__wd_mult__": "1.0"
      }, 
      "inputs": []
    }, 
    {
      "op": "null", 
      "name": "shufflenasoneshotfix0_hybridsequential0_shufflenetblock1_batchnorm1_beta", 
      "attrs": {
        "__dtype__": "0", 
        "__init__": "zeros", 
        "__lr_mult__": "1.0", 
        "__shape__": "(51,)", 
        "__storage_type__": "0", 
        "__wd_mult__": "1.0"
      }, 
      "inputs": []
    }, 
    {
      "op": "null", 
      "name": "shufflenasoneshotfix0_hybridsequential0_shufflenetblock1_batchnorm1_running_mean", 
      "attrs": {
        "__dtype__": "0", 
        "__init__": "zeros", 
        "__lr_mult__": "1.0", 
        "__shape__": "(51,)", 
        "__storage_type__": "0", 
        "__wd_mult__": "1.0"
      }, 
      "inputs": []
    }, 
    {
      "op": "null", 
      "name": "shufflenasoneshotfix0_hybridsequential0_shufflenetblock1_batchnorm1_running_var", 
      "attrs": {
        "__dtype__": "0", 
        "__init__": "ones", 
        "__lr_mult__": "1.0", 
        "__shape__": "(51,)", 
        "__storage_type__": "0", 
        "__wd_mult__": "1.0"
      }, 
      "inputs": []
    }, 
    {
      "op": "BatchNorm", 
      "name": "shufflenasoneshotfix0_hybridsequential0_shufflenetblock1_batchnorm1_fwd", 
      "attrs": {
        "axis": "1", 
        "eps": "1e-05", 
        "fix_gamma": "False", 
        "momentum": "0.1", 
        "use_global_stats": "False"
      }, 
      "inputs": [[65, 0, 0], [66, 0, 0], [67, 0, 0], [68, 0, 1], [69, 0, 1]]
    }, 
    {
      "op": "null", 
      "name": "shufflenasoneshotfix0_hybridsequential0_shufflenetblock1_conv2_weight", 
      "attrs": {
        "__dtype__": "0", 
        "__lr_mult__": "1.0", 
        "__shape__": "(32, 51, 1, 1)", 
        "__storage_type__": "0", 
        "__wd_mult__": "1.0"
      }, 
      "inputs": []
    }, 
    {
      "op": "Convolution", 
      "name": "shufflenasoneshotfix0_hybridsequential0_shufflenetblock1_conv2_fwd", 
      "attrs": {
        "dilate": "(1, 1)", 
        "kernel": "(1, 1)", 
        "layout": "NCHW", 
        "no_bias": "True", 
        "num_filter": "32", 
        "num_group": "1", 
        "pad": "(0, 0)", 
        "stride": "(1, 1)"
      }, 
      "inputs": [[70, 0, 0], [71, 0, 0]]
    }, 
    {
      "op": "null", 
      "name": "shufflenasoneshotfix0_hybridsequential0_shufflenetblock1_batchnorm2_gamma", 
      "attrs": {
        "__dtype__": "0", 
        "__init__": "ones", 
        "__lr_mult__": "1.0", 
        "__shape__": "(32,)", 
        "__storage_type__": "0", 
        "__wd_mult__": "1.0"
      }, 
      "inputs": []
    }, 
    {
      "op": "null", 
      "name": "shufflenasoneshotfix0_hybridsequential0_shufflenetblock1_batchnorm2_beta", 
      "attrs": {
        "__dtype__": "0", 
        "__init__": "zeros", 
        "__lr_mult__": "1.0", 
        "__shape__": "(32,)", 
        "__storage_type__": "0", 
        "__wd_mult__": "1.0"
      }, 
      "inputs": []
    }, 
    {
      "op": "null", 
      "name": "shufflenasoneshotfix0_hybridsequential0_shufflenetblock1_batchnorm2_running_mean", 
      "attrs": {
        "__dtype__": "0", 
        "__init__": "zeros", 
        "__lr_mult__": "1.0", 
        "__shape__": "(32,)", 
        "__storage_type__": "0", 
        "__wd_mult__": "1.0"
      }, 
      "inputs": []
    }, 
    {
      "op": "null", 
      "name": "shufflenasoneshotfix0_hybridsequential0_shufflenetblock1_batchnorm2_running_var", 
      "attrs": {
        "__dtype__": "0", 
        "__init__": "ones", 
        "__lr_mult__": "1.0", 
        "__shape__": "(32,)", 
        "__storage_type__": "0", 
        "__wd_mult__": "1.0"
      }, 
      "inputs": []
    }, 
    {
      "op": "BatchNorm", 
      "name": "shufflenasoneshotfix0_hybridsequential0_shufflenetblock1_batchnorm2_fwd", 
      "attrs": {
        "axis": "1", 
        "eps": "1e-05", 
        "fix_gamma": "False", 
        "momentum": "0.1", 
        "use_global_stats": "False"
      }, 
      "inputs": [[72, 0, 0], [73, 0, 0], [74, 0, 0], [75, 0, 1], [76, 0, 1]]
    }, 
    {
      "op": "Activation", 
      "name": "shufflenasoneshotfix0_hybridsequential0_shufflenetblock1_relu1_fwd", 
      "attrs": {"act_type": "relu"}, 
      "inputs": [[77, 0, 0]]
    }, 
    {
      "op": "Concat", 
      "name": "shufflenasoneshotfix0_hybridsequential0_shufflenetblock1_concat0", 
      "attrs": {
        "dim": "1", 
        "num_args": "2"
      }, 
      "inputs": [[54, 0, 0], [78, 0, 0]]
    }, 
    {
      "op": "Reshape", 
      "name": "shufflenasoneshotfix0_hybridsequential0_shufflenetblock2_shufflechannels0_reshape0", 
      "attrs": {"shape": "(0, -4, 2, -1, -2)"}, 
      "inputs": [[79, 0, 0]]
    }, 
    {
      "op": "SwapAxis", 
      "name": "shufflenasoneshotfix0_hybridsequential0_shufflenetblock2_shufflechannels0_swapaxes0", 
      "attrs": {
        "dim1": "1", 
        "dim2": "2"
      }, 
      "inputs": [[80, 0, 0]]
    }, 
    {
      "op": "Reshape", 
      "name": "shufflenasoneshotfix0_hybridsequential0_shufflenetblock2_shufflechannels0_reshape1", 
      "attrs": {"shape": "(0, -3, -2)"}, 
      "inputs": [[81, 0, 0]]
    }, 
    {
      "op": "slice", 
      "name": "shufflenasoneshotfix0_hybridsequential0_shufflenetblock2_shufflechannels0_slice0", 
      "attrs": {
        "begin": "(None, None, None, None)", 
        "end": "(None, 32, None, None)"
      }, 
      "inputs": [[82, 0, 0]]
    }, 
    {
      "op": "slice", 
      "name": "shufflenasoneshotfix0_hybridsequential0_shufflenetblock2_shufflechannels0_slice1", 
      "attrs": {
        "begin": "(None, 32, None, None)", 
        "end": "(None, None, None, None)"
      }, 
      "inputs": [[82, 0, 0]]
    }, 
    {
      "op": "null", 
      "name": "shufflenasoneshotfix0_hybridsequential0_shufflenetblock2_conv0_weight", 
      "attrs": {
        "__dtype__": "0", 
        "__lr_mult__": "1.0", 
        "__shape__": "(44, 32, 1, 1)", 
        "__storage_type__": "0", 
        "__wd_mult__": "1.0"
      }, 
      "inputs": []
    }, 
    {
      "op": "Convolution", 
      "name": "shufflenasoneshotfix0_hybridsequential0_shufflenetblock2_conv0_fwd", 
      "attrs": {
        "dilate": "(1, 1)", 
        "kernel": "(1, 1)", 
        "layout": "NCHW", 
        "no_bias": "True", 
        "num_filter": "44", 
        "num_group": "1", 
        "pad": "(0, 0)", 
        "stride": "(1, 1)"
      }, 
      "inputs": [[84, 0, 0], [85, 0, 0]]
    }, 
    {
      "op": "null", 
      "name": "shufflenasoneshotfix0_hybridsequential0_shufflenetblock2_batchnorm0_gamma", 
      "attrs": {
        "__dtype__": "0", 
        "__init__": "ones", 
        "__lr_mult__": "1.0", 
        "__shape__": "(44,)", 
        "__storage_type__": "0", 
        "__wd_mult__": "1.0"
      }, 
      "inputs": []
    }, 
    {
      "op": "null", 
      "name": "shufflenasoneshotfix0_hybridsequential0_shufflenetblock2_batchnorm0_beta", 
      "attrs": {
        "__dtype__": "0", 
        "__init__": "zeros", 
        "__lr_mult__": "1.0", 
        "__shape__": "(44,)", 
        "__storage_type__": "0", 
        "__wd_mult__": "1.0"
      }, 
      "inputs": []
    }, 
    {
      "op": "null", 
      "name": "shufflenasoneshotfix0_hybridsequential0_shufflenetblock2_batchnorm0_running_mean", 
      "attrs": {
        "__dtype__": "0", 
        "__init__": "zeros", 
        "__lr_mult__": "1.0", 
        "__shape__": "(44,)", 
        "__storage_type__": "0", 
        "__wd_mult__": "1.0"
      }, 
      "inputs": []
    }, 
    {
      "op": "null", 
      "name": "shufflenasoneshotfix0_hybridsequential0_shufflenetblock2_batchnorm0_running_var", 
      "attrs": {
        "__dtype__": "0", 
        "__init__": "ones", 
        "__lr_mult__": "1.0", 
        "__shape__": "(44,)", 
        "__storage_type__": "0", 
        "__wd_mult__": "1.0"
      }, 
      "inputs": []
    }, 
    {
      "op": "BatchNorm", 
      "name": "shufflenasoneshotfix0_hybridsequential0_shufflenetblock2_batchnorm0_fwd", 
      "attrs": {
        "axis": "1", 
        "eps": "1e-05", 
        "fix_gamma": "False", 
        "momentum": "0.1", 
        "use_global_stats": "False"
      }, 
      "inputs": [[86, 0, 0], [87, 0, 0], [88, 0, 0], [89, 0, 1], [90, 0, 1]]
    }, 
    {
      "op": "Activation", 
      "name": "shufflenasoneshotfix0_hybridsequential0_shufflenetblock2_relu0_fwd", 
      "attrs": {"act_type": "relu"}, 
      "inputs": [[91, 0, 0]]
    }, 
    {
      "op": "null", 
      "name": "shufflenasoneshotfix0_hybridsequential0_shufflenetblock2_conv1_weight", 
      "attrs": {
        "__dtype__": "0", 
        "__lr_mult__": "1.0", 
        "__shape__": "(44, 1, 3, 3)", 
        "__storage_type__": "0", 
        "__wd_mult__": "1.0"
      }, 
      "inputs": []
    }, 
    {
      "op": "Convolution", 
      "name": "shufflenasoneshotfix0_hybridsequential0_shufflenetblock2_conv1_fwd", 
      "attrs": {
        "dilate": "(1, 1)", 
        "kernel": "(3, 3)", 
        "layout": "NCHW", 
        "no_bias": "True", 
        "num_filter": "44", 
        "num_group": "44", 
        "pad": "(1, 1)", 
        "stride": "(1, 1)"
      }, 
      "inputs": [[92, 0, 0], [93, 0, 0]]
    }, 
    {
      "op": "null", 
      "name": "shufflenasoneshotfix0_hybridsequential0_shufflenetblock2_batchnorm1_gamma", 
      "attrs": {
        "__dtype__": "0", 
        "__init__": "ones", 
        "__lr_mult__": "1.0", 
        "__shape__": "(44,)", 
        "__storage_type__": "0", 
        "__wd_mult__": "1.0"
      }, 
      "inputs": []
    }, 
    {
      "op": "null", 
      "name": "shufflenasoneshotfix0_hybridsequential0_shufflenetblock2_batchnorm1_beta", 
      "attrs": {
        "__dtype__": "0", 
        "__init__": "zeros", 
        "__lr_mult__": "1.0", 
        "__shape__": "(44,)", 
        "__storage_type__": "0", 
        "__wd_mult__": "1.0"
      }, 
      "inputs": []
    }, 
    {
      "op": "null", 
      "name": "shufflenasoneshotfix0_hybridsequential0_shufflenetblock2_batchnorm1_running_mean", 
      "attrs": {
        "__dtype__": "0", 
        "__init__": "zeros", 
        "__lr_mult__": "1.0", 
        "__shape__": "(44,)", 
        "__storage_type__": "0", 
        "__wd_mult__": "1.0"
      }, 
      "inputs": []
    }, 
    {
      "op": "null", 
      "name": "shufflenasoneshotfix0_hybridsequential0_shufflenetblock2_batchnorm1_running_var", 
      "attrs": {
        "__dtype__": "0", 
        "__init__": "ones", 
        "__lr_mult__": "1.0", 
        "__shape__": "(44,)", 
        "__storage_type__": "0", 
        "__wd_mult__": "1.0"
      }, 
      "inputs": []
    }, 
    {
      "op": "BatchNorm", 
      "name": "shufflenasoneshotfix0_hybridsequential0_shufflenetblock2_batchnorm1_fwd", 
      "attrs": {
        "axis": "1", 
        "eps": "1e-05", 
        "fix_gamma": "False", 
        "momentum": "0.1", 
        "use_global_stats": "False"
      }, 
      "inputs": [[94, 0, 0], [95, 0, 0], [96, 0, 0], [97, 0, 1], [98, 0, 1]]
    }, 
    {
      "op": "null", 
      "name": "shufflenasoneshotfix0_hybridsequential0_shufflenetblock2_conv2_weight", 
      "attrs": {
        "__dtype__": "0", 
        "__lr_mult__": "1.0", 
        "__shape__": "(32, 44, 1, 1)", 
        "__storage_type__": "0", 
        "__wd_mult__": "1.0"
      }, 
      "inputs": []
    }, 
    {
      "op": "Convolution", 
      "name": "shufflenasoneshotfix0_hybridsequential0_shufflenetblock2_conv2_fwd", 
      "attrs": {
        "dilate": "(1, 1)", 
        "kernel": "(1, 1)", 
        "layout": "NCHW", 
        "no_bias": "True", 
        "num_filter": "32", 
        "num_group": "1", 
        "pad": "(0, 0)", 
        "stride": "(1, 1)"
      }, 
      "inputs": [[99, 0, 0], [100, 0, 0]]
    }, 
    {
      "op": "null", 
      "name": "shufflenasoneshotfix0_hybridsequential0_shufflenetblock2_batchnorm2_gamma", 
      "attrs": {
        "__dtype__": "0", 
        "__init__": "ones", 
        "__lr_mult__": "1.0", 
        "__shape__": "(32,)", 
        "__storage_type__": "0", 
        "__wd_mult__": "1.0"
      }, 
      "inputs": []
    }, 
    {
      "op": "null", 
      "name": "shufflenasoneshotfix0_hybridsequential0_shufflenetblock2_batchnorm2_beta", 
      "attrs": {
        "__dtype__": "0", 
        "__init__": "zeros", 
        "__lr_mult__": "1.0", 
        "__shape__": "(32,)", 
        "__storage_type__": "0", 
        "__wd_mult__": "1.0"
      }, 
      "inputs": []
    }, 
    {
      "op": "null", 
      "name": "shufflenasoneshotfix0_hybridsequential0_shufflenetblock2_batchnorm2_running_mean", 
      "attrs": {
        "__dtype__": "0", 
        "__init__": "zeros", 
        "__lr_mult__": "1.0", 
        "__shape__": "(32,)", 
        "__storage_type__": "0", 
        "__wd_mult__": "1.0"
      }, 
      "inputs": []
    }, 
    {
      "op": "null", 
      "name": "shufflenasoneshotfix0_hybridsequential0_shufflenetblock2_batchnorm2_running_var", 
      "attrs": {
        "__dtype__": "0", 
        "__init__": "ones", 
        "__lr_mult__": "1.0", 
        "__shape__": "(32,)", 
        "__storage_type__": "0", 
        "__wd_mult__": "1.0"
      }, 
      "inputs": []
    }, 
    {
      "op": "BatchNorm", 
      "name": "shufflenasoneshotfix0_hybridsequential0_shufflenetblock2_batchnorm2_fwd", 
      "attrs": {
        "axis": "1", 
        "eps": "1e-05", 
        "fix_gamma": "False", 
        "momentum": "0.1", 
        "use_global_stats": "False"
      }, 
      "inputs": [[101, 0, 0], [102, 0, 0], [103, 0, 0], [104, 0, 1], [105, 0, 1]]
    }, 
    {
      "op": "Activation", 
      "name": "shufflenasoneshotfix0_hybridsequential0_shufflenetblock2_relu1_fwd", 
      "attrs": {"act_type": "relu"}, 
      "inputs": [[106, 0, 0]]
    }, 
    {
      "op": "Concat", 
      "name": "shufflenasoneshotfix0_hybridsequential0_shufflenetblock2_concat0", 
      "attrs": {
        "dim": "1", 
        "num_args": "2"
      }, 
      "inputs": [[83, 0, 0], [107, 0, 0]]
    }, 
    {
      "op": "Reshape", 
      "name": "shufflenasoneshotfix0_hybridsequential0_shufflenetblock3_shufflechannels0_reshape0", 
      "attrs": {"shape": "(0, -4, 2, -1, -2)"}, 
      "inputs": [[108, 0, 0]]
    }, 
    {
      "op": "SwapAxis", 
      "name": "shufflenasoneshotfix0_hybridsequential0_shufflenetblock3_shufflechannels0_swapaxes0", 
      "attrs": {
        "dim1": "1", 
        "dim2": "2"
      }, 
      "inputs": [[109, 0, 0]]
    }, 
    {
      "op": "Reshape", 
      "name": "shufflenasoneshotfix0_hybridsequential0_shufflenetblock3_shufflechannels0_reshape1", 
      "attrs": {"shape": "(0, -3, -2)"}, 
      "inputs": [[110, 0, 0]]
    }, 
    {
      "op": "slice", 
      "name": "shufflenasoneshotfix0_hybridsequential0_shufflenetblock3_shufflechannels0_slice0", 
      "attrs": {
        "begin": "(None, None, None, None)", 
        "end": "(None, 32, None, None)"
      }, 
      "inputs": [[111, 0, 0]]
    }, 
    {
      "op": "slice", 
      "name": "shufflenasoneshotfix0_hybridsequential0_shufflenetblock3_shufflechannels0_slice1", 
      "attrs": {
        "begin": "(None, 32, None, None)", 
        "end": "(None, None, None, None)"
      }, 
      "inputs": [[111, 0, 0]]
    }, 
    {
      "op": "null", 
      "name": "shufflenasoneshotfix0_hybridsequential0_shufflenetblock3_conv0_weight", 
      "attrs": {
        "__dtype__": "0", 
        "__lr_mult__": "1.0", 
        "__shape__": "(57, 32, 1, 1)", 
        "__storage_type__": "0", 
        "__wd_mult__": "1.0"
      }, 
      "inputs": []
    }, 
    {
      "op": "Convolution", 
      "name": "shufflenasoneshotfix0_hybridsequential0_shufflenetblock3_conv0_fwd", 
      "attrs": {
        "dilate": "(1, 1)", 
        "kernel": "(1, 1)", 
        "layout": "NCHW", 
        "no_bias": "True", 
        "num_filter": "57", 
        "num_group": "1", 
        "pad": "(0, 0)", 
        "stride": "(1, 1)"
      }, 
      "inputs": [[113, 0, 0], [114, 0, 0]]
    }, 
    {
      "op": "null", 
      "name": "shufflenasoneshotfix0_hybridsequential0_shufflenetblock3_batchnorm0_gamma", 
      "attrs": {
        "__dtype__": "0", 
        "__init__": "ones", 
        "__lr_mult__": "1.0", 
        "__shape__": "(57,)", 
        "__storage_type__": "0", 
        "__wd_mult__": "1.0"
      }, 
      "inputs": []
    }, 
    {
      "op": "null", 
      "name": "shufflenasoneshotfix0_hybridsequential0_shufflenetblock3_batchnorm0_beta", 
      "attrs": {
        "__dtype__": "0", 
        "__init__": "zeros", 
        "__lr_mult__": "1.0", 
        "__shape__": "(57,)", 
        "__storage_type__": "0", 
        "__wd_mult__": "1.0"
      }, 
      "inputs": []
    }, 
    {
      "op": "null", 
      "name": "shufflenasoneshotfix0_hybridsequential0_shufflenetblock3_batchnorm0_running_mean", 
      "attrs": {
        "__dtype__": "0", 
        "__init__": "zeros", 
        "__lr_mult__": "1.0", 
        "__shape__": "(57,)", 
        "__storage_type__": "0", 
        "__wd_mult__": "1.0"
      }, 
      "inputs": []
    }, 
    {
      "op": "null", 
      "name": "shufflenasoneshotfix0_hybridsequential0_shufflenetblock3_batchnorm0_running_var", 
      "attrs": {
        "__dtype__": "0", 
        "__init__": "ones", 
        "__lr_mult__": "1.0", 
        "__shape__": "(57,)", 
        "__storage_type__": "0", 
        "__wd_mult__": "1.0"
      }, 
      "inputs": []
    }, 
    {
      "op": "BatchNorm", 
      "name": "shufflenasoneshotfix0_hybridsequential0_shufflenetblock3_batchnorm0_fwd", 
      "attrs": {
        "axis": "1", 
        "eps": "1e-05", 
        "fix_gamma": "False", 
        "momentum": "0.1", 
        "use_global_stats": "False"
      }, 
      "inputs": [[115, 0, 0], [116, 0, 0], [117, 0, 0], [118, 0, 1], [119, 0, 1]]
    }, 
    {
      "op": "Activation", 
      "name": "shufflenasoneshotfix0_hybridsequential0_shufflenetblock3_relu0_fwd", 
      "attrs": {"act_type": "relu"}, 
      "inputs": [[120, 0, 0]]
    }, 
    {
      "op": "null", 
      "name": "shufflenasoneshotfix0_hybridsequential0_shufflenetblock3_conv1_weight", 
      "attrs": {
        "__dtype__": "0", 
        "__lr_mult__": "1.0", 
        "__shape__": "(57, 1, 5, 5)", 
        "__storage_type__": "0", 
        "__wd_mult__": "1.0"
      }, 
      "inputs": []
    }, 
    {
      "op": "Convolution", 
      "name": "shufflenasoneshotfix0_hybridsequential0_shufflenetblock3_conv1_fwd", 
      "attrs": {
        "dilate": "(1, 1)", 
        "kernel": "(5, 5)", 
        "layout": "NCHW", 
        "no_bias": "True", 
        "num_filter": "57", 
        "num_group": "57", 
        "pad": "(2, 2)", 
        "stride": "(1, 1)"
      }, 
      "inputs": [[121, 0, 0], [122, 0, 0]]
    }, 
    {
      "op": "null", 
      "name": "shufflenasoneshotfix0_hybridsequential0_shufflenetblock3_batchnorm1_gamma", 
      "attrs": {
        "__dtype__": "0", 
        "__init__": "ones", 
        "__lr_mult__": "1.0", 
        "__shape__": "(57,)", 
        "__storage_type__": "0", 
        "__wd_mult__": "1.0"
      }, 
      "inputs": []
    }, 
    {
      "op": "null", 
      "name": "shufflenasoneshotfix0_hybridsequential0_shufflenetblock3_batchnorm1_beta", 
      "attrs": {
        "__dtype__": "0", 
        "__init__": "zeros", 
        "__lr_mult__": "1.0", 
        "__shape__": "(57,)", 
        "__storage_type__": "0", 
        "__wd_mult__": "1.0"
      }, 
      "inputs": []
    }, 
    {
      "op": "null", 
      "name": "shufflenasoneshotfix0_hybridsequential0_shufflenetblock3_batchnorm1_running_mean", 
      "attrs": {
        "__dtype__": "0", 
        "__init__": "zeros", 
        "__lr_mult__": "1.0", 
        "__shape__": "(57,)", 
        "__storage_type__": "0", 
        "__wd_mult__": "1.0"
      }, 
      "inputs": []
    }, 
    {
      "op": "null", 
      "name": "shufflenasoneshotfix0_hybridsequential0_shufflenetblock3_batchnorm1_running_var", 
      "attrs": {
        "__dtype__": "0", 
        "__init__": "ones", 
        "__lr_mult__": "1.0", 
        "__shape__": "(57,)", 
        "__storage_type__": "0", 
        "__wd_mult__": "1.0"
      }, 
      "inputs": []
    }, 
    {
      "op": "BatchNorm", 
      "name": "shufflenasoneshotfix0_hybridsequential0_shufflenetblock3_batchnorm1_fwd", 
      "attrs": {
        "axis": "1", 
        "eps": "1e-05", 
        "fix_gamma": "False", 
        "momentum": "0.1", 
        "use_global_stats": "False"
      }, 
      "inputs": [[123, 0, 0], [124, 0, 0], [125, 0, 0], [126, 0, 1], [127, 0, 1]]
    }, 
    {
      "op": "null", 
      "name": "shufflenasoneshotfix0_hybridsequential0_shufflenetblock3_conv2_weight", 
      "attrs": {
        "__dtype__": "0", 
        "__lr_mult__": "1.0", 
        "__shape__": "(32, 57, 1, 1)", 
        "__storage_type__": "0", 
        "__wd_mult__": "1.0"
      }, 
      "inputs": []
    }, 
    {
      "op": "Convolution", 
      "name": "shufflenasoneshotfix0_hybridsequential0_shufflenetblock3_conv2_fwd", 
      "attrs": {
        "dilate": "(1, 1)", 
        "kernel": "(1, 1)", 
        "layout": "NCHW", 
        "no_bias": "True", 
        "num_filter": "32", 
        "num_group": "1", 
        "pad": "(0, 0)", 
        "stride": "(1, 1)"
      }, 
      "inputs": [[128, 0, 0], [129, 0, 0]]
    }, 
    {
      "op": "null", 
      "name": "shufflenasoneshotfix0_hybridsequential0_shufflenetblock3_batchnorm2_gamma", 
      "attrs": {
        "__dtype__": "0", 
        "__init__": "ones", 
        "__lr_mult__": "1.0", 
        "__shape__": "(32,)", 
        "__storage_type__": "0", 
        "__wd_mult__": "1.0"
      }, 
      "inputs": []
    }, 
    {
      "op": "null", 
      "name": "shufflenasoneshotfix0_hybridsequential0_shufflenetblock3_batchnorm2_beta", 
      "attrs": {
        "__dtype__": "0", 
        "__init__": "zeros", 
        "__lr_mult__": "1.0", 
        "__shape__": "(32,)", 
        "__storage_type__": "0", 
        "__wd_mult__": "1.0"
      }, 
      "inputs": []
    }, 
    {
      "op": "null", 
      "name": "shufflenasoneshotfix0_hybridsequential0_shufflenetblock3_batchnorm2_running_mean", 
      "attrs": {
        "__dtype__": "0", 
        "__init__": "zeros", 
        "__lr_mult__": "1.0", 
        "__shape__": "(32,)", 
        "__storage_type__": "0", 
        "__wd_mult__": "1.0"
      }, 
      "inputs": []
    }, 
    {
      "op": "null", 
      "name": "shufflenasoneshotfix0_hybridsequential0_shufflenetblock3_batchnorm2_running_var", 
      "attrs": {
        "__dtype__": "0", 
        "__init__": "ones", 
        "__lr_mult__": "1.0", 
        "__shape__": "(32,)", 
        "__storage_type__": "0", 
        "__wd_mult__": "1.0"
      }, 
      "inputs": []
    }, 
    {
      "op": "BatchNorm", 
      "name": "shufflenasoneshotfix0_hybridsequential0_shufflenetblock3_batchnorm2_fwd", 
      "attrs": {
        "axis": "1", 
        "eps": "1e-05", 
        "fix_gamma": "False", 
        "momentum": "0.1", 
        "use_global_stats": "False"
      }, 
      "inputs": [[130, 0, 0], [131, 0, 0], [132, 0, 0], [133, 0, 1], [134, 0, 1]]
    }, 
    {
      "op": "Activation", 
      "name": "shufflenasoneshotfix0_hybridsequential0_shufflenetblock3_relu1_fwd", 
      "attrs": {"act_type": "relu"}, 
      "inputs": [[135, 0, 0]]
    }, 
    {
      "op": "Concat", 
      "name": "shufflenasoneshotfix0_hybridsequential0_shufflenetblock3_concat0", 
      "attrs": {
        "dim": "1", 
        "num_args": "2"
      }, 
      "inputs": [[112, 0, 0], [136, 0, 0]]
    }, 
    {
      "op": "null", 
      "name": "shufflenasoneshotfix0_hybridsequential0_shufflenetblock4_conv3_weight", 
      "attrs": {
        "__dtype__": "0", 
        "__lr_mult__": "1.0", 
        "__shape__": "(64, 1, 3, 3)", 
        "__storage_type__": "0", 
        "__wd_mult__": "1.0"
      }, 
      "inputs": []
    }, 
    {
      "op": "Convolution", 
      "name": "shufflenasoneshotfix0_hybridsequential0_shufflenetblock4_conv3_fwd", 
      "attrs": {
        "dilate": "(1, 1)", 
        "kernel": "(3, 3)", 
        "layout": "NCHW", 
        "no_bias": "True", 
        "num_filter": "64", 
        "num_group": "64", 
        "pad": "(1, 1)", 
        "stride": "(2, 2)"
      }, 
      "inputs": [[137, 0, 0], [138, 0, 0]]
    }, 
    {
      "op": "null", 
      "name": "shufflenasoneshotfix0_hybridsequential0_shufflenetblock4_batchnorm3_gamma", 
      "attrs": {
        "__dtype__": "0", 
        "__init__": "ones", 
        "__lr_mult__": "1.0", 
        "__shape__": "(64,)", 
        "__storage_type__": "0", 
        "__wd_mult__": "1.0"
      }, 
      "inputs": []
    }, 
    {
      "op": "null", 
      "name": "shufflenasoneshotfix0_hybridsequential0_shufflenetblock4_batchnorm3_beta", 
      "attrs": {
        "__dtype__": "0", 
        "__init__": "zeros", 
        "__lr_mult__": "1.0", 
        "__shape__": "(64,)", 
        "__storage_type__": "0", 
        "__wd_mult__": "1.0"
      }, 
      "inputs": []
    }, 
    {
      "op": "null", 
      "name": "shufflenasoneshotfix0_hybridsequential0_shufflenetblock4_batchnorm3_running_mean", 
      "attrs": {
        "__dtype__": "0", 
        "__init__": "zeros", 
        "__lr_mult__": "1.0", 
        "__shape__": "(64,)", 
        "__storage_type__": "0", 
        "__wd_mult__": "1.0"
      }, 
      "inputs": []
    }, 
    {
      "op": "null", 
      "name": "shufflenasoneshotfix0_hybridsequential0_shufflenetblock4_batchnorm3_running_var", 
      "attrs": {
        "__dtype__": "0", 
        "__init__": "ones", 
        "__lr_mult__": "1.0", 
        "__shape__": "(64,)", 
        "__storage_type__": "0", 
        "__wd_mult__": "1.0"
      }, 
      "inputs": []
    }, 
    {
      "op": "BatchNorm", 
      "name": "shufflenasoneshotfix0_hybridsequential0_shufflenetblock4_batchnorm3_fwd", 
      "attrs": {
        "axis": "1", 
        "eps": "1e-05", 
        "fix_gamma": "False", 
        "momentum": "0.1", 
        "use_global_stats": "False"
      }, 
      "inputs": [[139, 0, 0], [140, 0, 0], [141, 0, 0], [142, 0, 1], [143, 0, 1]]
    }, 
    {
      "op": "null", 
      "name": "shufflenasoneshotfix0_hybridsequential0_shufflenetblock4_conv4_weight", 
      "attrs": {
        "__dtype__": "0", 
        "__lr_mult__": "1.0", 
        "__shape__": "(64, 64, 1, 1)", 
        "__storage_type__": "0", 
        "__wd_mult__": "1.0"
      }, 
      "inputs": []
    }, 
    {
      "op": "Convolution", 
      "name": "shufflenasoneshotfix0_hybridsequential0_shufflenetblock4_conv4_fwd", 
      "attrs": {
        "dilate": "(1, 1)", 
        "kernel": "(1, 1)", 
        "layout": "NCHW", 
        "no_bias": "True", 
        "num_filter": "64", 
        "num_group": "1", 
        "pad": "(0, 0)", 
        "stride": "(1, 1)"
      }, 
      "inputs": [[144, 0, 0], [145, 0, 0]]
    }, 
    {
      "op": "null", 
      "name": "shufflenasoneshotfix0_hybridsequential0_shufflenetblock4_batchnorm4_gamma", 
      "attrs": {
        "__dtype__": "0", 
        "__init__": "ones", 
        "__lr_mult__": "1.0", 
        "__shape__": "(64,)", 
        "__storage_type__": "0", 
        "__wd_mult__": "1.0"
      }, 
      "inputs": []
    }, 
    {
      "op": "null", 
      "name": "shufflenasoneshotfix0_hybridsequential0_shufflenetblock4_batchnorm4_beta", 
      "attrs": {
        "__dtype__": "0", 
        "__init__": "zeros", 
        "__lr_mult__": "1.0", 
        "__shape__": "(64,)", 
        "__storage_type__": "0", 
        "__wd_mult__": "1.0"
      }, 
      "inputs": []
    }, 
    {
      "op": "null", 
      "name": "shufflenasoneshotfix0_hybridsequential0_shufflenetblock4_batchnorm4_running_mean", 
      "attrs": {
        "__dtype__": "0", 
        "__init__": "zeros", 
        "__lr_mult__": "1.0", 
        "__shape__": "(64,)", 
        "__storage_type__": "0", 
        "__wd_mult__": "1.0"
      }, 
      "inputs": []
    }, 
    {
      "op": "null", 
      "name": "shufflenasoneshotfix0_hybridsequential0_shufflenetblock4_batchnorm4_running_var", 
      "attrs": {
        "__dtype__": "0", 
        "__init__": "ones", 
        "__lr_mult__": "1.0", 
        "__shape__": "(64,)", 
        "__storage_type__": "0", 
        "__wd_mult__": "1.0"
      }, 
      "inputs": []
    }, 
    {
      "op": "BatchNorm", 
      "name": "shufflenasoneshotfix0_hybridsequential0_shufflenetblock4_batchnorm4_fwd", 
      "attrs": {
        "axis": "1", 
        "eps": "1e-05", 
        "fix_gamma": "False", 
        "momentum": "0.1", 
        "use_global_stats": "False"
      }, 
      "inputs": [[146, 0, 0], [147, 0, 0], [148, 0, 0], [149, 0, 1], [150, 0, 1]]
    }, 
    {
      "op": "_plus_scalar", 
      "name": "shufflenasoneshotfix0_hybridsequential0_shufflenetblock4_hardswish2__plusscalar0", 
      "attrs": {"scalar": "3"}, 
      "inputs": [[151, 0, 0]]
    }, 
    {
      "op": "clip", 
      "name": "shufflenasoneshotfix0_hybridsequential0_shufflenetblock4_hardswish2_hard_swish", 
      "attrs": {
        "a_max": "6", 
        "a_min": "0"
      }, 
      "inputs": [[152, 0, 0]]
    }, 
    {
      "op": "_div_scalar", 
      "name": "shufflenasoneshotfix0_hybridsequential0_shufflenetblock4_hardswish2__divscalar0", 
      "attrs": {"scalar": "6.0"}, 
      "inputs": [[153, 0, 0]]
    }, 
    {
      "op": "elemwise_mul", 
      "name": "shufflenasoneshotfix0_hybridsequential0_shufflenetblock4_hardswish2__mul0", 
      "inputs": [[151, 0, 0], [154, 0, 0]]
    }, 
    {
      "op": "null", 
      "name": "shufflenasoneshotfix0_hybridsequential0_shufflenetblock4_conv0_weight", 
      "attrs": {
        "__dtype__": "0", 
        "__lr_mult__": "1.0", 
        "__shape__": "(96, 64, 1, 1)", 
        "__storage_type__": "0", 
        "__wd_mult__": "1.0"
      }, 
      "inputs": []
    }, 
    {
      "op": "Convolution", 
      "name": "shufflenasoneshotfix0_hybridsequential0_shufflenetblock4_conv0_fwd", 
      "attrs": {
        "dilate": "(1, 1)", 
        "kernel": "(1, 1)", 
        "layout": "NCHW", 
        "no_bias": "True", 
        "num_filter": "96", 
        "num_group": "1", 
        "pad": "(0, 0)", 
        "stride": "(1, 1)"
      }, 
      "inputs": [[137, 0, 0], [156, 0, 0]]
    }, 
    {
      "op": "null", 
      "name": "shufflenasoneshotfix0_hybridsequential0_shufflenetblock4_batchnorm0_gamma", 
      "attrs": {
        "__dtype__": "0", 
        "__init__": "ones", 
        "__lr_mult__": "1.0", 
        "__shape__": "(96,)", 
        "__storage_type__": "0", 
        "__wd_mult__": "1.0"
      }, 
      "inputs": []
    }, 
    {
      "op": "null", 
      "name": "shufflenasoneshotfix0_hybridsequential0_shufflenetblock4_batchnorm0_beta", 
      "attrs": {
        "__dtype__": "0", 
        "__init__": "zeros", 
        "__lr_mult__": "1.0", 
        "__shape__": "(96,)", 
        "__storage_type__": "0", 
        "__wd_mult__": "1.0"
      }, 
      "inputs": []
    }, 
    {
      "op": "null", 
      "name": "shufflenasoneshotfix0_hybridsequential0_shufflenetblock4_batchnorm0_running_mean", 
      "attrs": {
        "__dtype__": "0", 
        "__init__": "zeros", 
        "__lr_mult__": "1.0", 
        "__shape__": "(96,)", 
        "__storage_type__": "0", 
        "__wd_mult__": "1.0"
      }, 
      "inputs": []
    }, 
    {
      "op": "null", 
      "name": "shufflenasoneshotfix0_hybridsequential0_shufflenetblock4_batchnorm0_running_var", 
      "attrs": {
        "__dtype__": "0", 
        "__init__": "ones", 
        "__lr_mult__": "1.0", 
        "__shape__": "(96,)", 
        "__storage_type__": "0", 
        "__wd_mult__": "1.0"
      }, 
      "inputs": []
    }, 
    {
      "op": "BatchNorm", 
      "name": "shufflenasoneshotfix0_hybridsequential0_shufflenetblock4_batchnorm0_fwd", 
      "attrs": {
        "axis": "1", 
        "eps": "1e-05", 
        "fix_gamma": "False", 
        "momentum": "0.1", 
        "use_global_stats": "False"
      }, 
      "inputs": [[157, 0, 0], [158, 0, 0], [159, 0, 0], [160, 0, 1], [161, 0, 1]]
    }, 
    {
      "op": "_plus_scalar", 
      "name": "shufflenasoneshotfix0_hybridsequential0_shufflenetblock4_hardswish0__plusscalar0", 
      "attrs": {"scalar": "3"}, 
      "inputs": [[162, 0, 0]]
    }, 
    {
      "op": "clip", 
      "name": "shufflenasoneshotfix0_hybridsequential0_shufflenetblock4_hardswish0_hard_swish", 
      "attrs": {
        "a_max": "6", 
        "a_min": "0"
      }, 
      "inputs": [[163, 0, 0]]
    }, 
    {
      "op": "_div_scalar", 
      "name": "shufflenasoneshotfix0_hybridsequential0_shufflenetblock4_hardswish0__divscalar0", 
      "attrs": {"scalar": "6.0"}, 
      "inputs": [[164, 0, 0]]
    }, 
    {
      "op": "elemwise_mul", 
      "name": "shufflenasoneshotfix0_hybridsequential0_shufflenetblock4_hardswish0__mul0", 
      "inputs": [[162, 0, 0], [165, 0, 0]]
    }, 
    {
      "op": "null", 
      "name": "shufflenasoneshotfix0_hybridsequential0_shufflenetblock4_conv1_weight", 
      "attrs": {
        "__dtype__": "0", 
        "__lr_mult__": "1.0", 
        "__shape__": "(96, 1, 3, 3)", 
        "__storage_type__": "0", 
        "__wd_mult__": "1.0"
      }, 
      "inputs": []
    }, 
    {
      "op": "Convolution", 
      "name": "shufflenasoneshotfix0_hybridsequential0_shufflenetblock4_conv1_fwd", 
      "attrs": {
        "dilate": "(1, 1)", 
        "kernel": "(3, 3)", 
        "layout": "NCHW", 
        "no_bias": "True", 
        "num_filter": "96", 
        "num_group": "96", 
        "pad": "(1, 1)", 
        "stride": "(2, 2)"
      }, 
      "inputs": [[166, 0, 0], [167, 0, 0]]
    }, 
    {
      "op": "null", 
      "name": "shufflenasoneshotfix0_hybridsequential0_shufflenetblock4_batchnorm1_gamma", 
      "attrs": {
        "__dtype__": "0", 
        "__init__": "ones", 
        "__lr_mult__": "1.0", 
        "__shape__": "(96,)", 
        "__storage_type__": "0", 
        "__wd_mult__": "1.0"
      }, 
      "inputs": []
    }, 
    {
      "op": "null", 
      "name": "shufflenasoneshotfix0_hybridsequential0_shufflenetblock4_batchnorm1_beta", 
      "attrs": {
        "__dtype__": "0", 
        "__init__": "zeros", 
        "__lr_mult__": "1.0", 
        "__shape__": "(96,)", 
        "__storage_type__": "0", 
        "__wd_mult__": "1.0"
      }, 
      "inputs": []
    }, 
    {
      "op": "null", 
      "name": "shufflenasoneshotfix0_hybridsequential0_shufflenetblock4_batchnorm1_running_mean", 
      "attrs": {
        "__dtype__": "0", 
        "__init__": "zeros", 
        "__lr_mult__": "1.0", 
        "__shape__": "(96,)", 
        "__storage_type__": "0", 
        "__wd_mult__": "1.0"
      }, 
      "inputs": []
    }, 
    {
      "op": "null", 
      "name": "shufflenasoneshotfix0_hybridsequential0_shufflenetblock4_batchnorm1_running_var", 
      "attrs": {
        "__dtype__": "0", 
        "__init__": "ones", 
        "__lr_mult__": "1.0", 
        "__shape__": "(96,)", 
        "__storage_type__": "0", 
        "__wd_mult__": "1.0"
      }, 
      "inputs": []
    }, 
    {
      "op": "BatchNorm", 
      "name": "shufflenasoneshotfix0_hybridsequential0_shufflenetblock4_batchnorm1_fwd", 
      "attrs": {
        "axis": "1", 
        "eps": "1e-05", 
        "fix_gamma": "False", 
        "momentum": "0.1", 
        "use_global_stats": "False"
      }, 
      "inputs": [[168, 0, 0], [169, 0, 0], [170, 0, 0], [171, 0, 1], [172, 0, 1]]
    }, 
    {
      "op": "null", 
      "name": "shufflenasoneshotfix0_hybridsequential0_shufflenetblock4_conv2_weight", 
      "attrs": {
        "__dtype__": "0", 
        "__lr_mult__": "1.0", 
        "__shape__": "(96, 96, 1, 1)", 
        "__storage_type__": "0", 
        "__wd_mult__": "1.0"
      }, 
      "inputs": []
    }, 
    {
      "op": "Convolution", 
      "name": "shufflenasoneshotfix0_hybridsequential0_shufflenetblock4_conv2_fwd", 
      "attrs": {
        "dilate": "(1, 1)", 
        "kernel": "(1, 1)", 
        "layout": "NCHW", 
        "no_bias": "True", 
        "num_filter": "96", 
        "num_group": "1", 
        "pad": "(0, 0)", 
        "stride": "(1, 1)"
      }, 
      "inputs": [[173, 0, 0], [174, 0, 0]]
    }, 
    {
      "op": "null", 
      "name": "shufflenasoneshotfix0_hybridsequential0_shufflenetblock4_batchnorm2_gamma", 
      "attrs": {
        "__dtype__": "0", 
        "__init__": "ones", 
        "__lr_mult__": "1.0", 
        "__shape__": "(96,)", 
        "__storage_type__": "0", 
        "__wd_mult__": "1.0"
      }, 
      "inputs": []
    }, 
    {
      "op": "null", 
      "name": "shufflenasoneshotfix0_hybridsequential0_shufflenetblock4_batchnorm2_beta", 
      "attrs": {
        "__dtype__": "0", 
        "__init__": "zeros", 
        "__lr_mult__": "1.0", 
        "__shape__": "(96,)", 
        "__storage_type__": "0", 
        "__wd_mult__": "1.0"
      }, 
      "inputs": []
    }, 
    {
      "op": "null", 
      "name": "shufflenasoneshotfix0_hybridsequential0_shufflenetblock4_batchnorm2_running_mean", 
      "attrs": {
        "__dtype__": "0", 
        "__init__": "zeros", 
        "__lr_mult__": "1.0", 
        "__shape__": "(96,)", 
        "__storage_type__": "0", 
        "__wd_mult__": "1.0"
      }, 
      "inputs": []
    }, 
    {
      "op": "null", 
      "name": "shufflenasoneshotfix0_hybridsequential0_shufflenetblock4_batchnorm2_running_var", 
      "attrs": {
        "__dtype__": "0", 
        "__init__": "ones", 
        "__lr_mult__": "1.0", 
        "__shape__": "(96,)", 
        "__storage_type__": "0", 
        "__wd_mult__": "1.0"
      }, 
      "inputs": []
    }, 
    {
      "op": "BatchNorm", 
      "name": "shufflenasoneshotfix0_hybridsequential0_shufflenetblock4_batchnorm2_fwd", 
      "attrs": {
        "axis": "1", 
        "eps": "1e-05", 
        "fix_gamma": "False", 
        "momentum": "0.1", 
        "use_global_stats": "False"
      }, 
      "inputs": [[175, 0, 0], [176, 0, 0], [177, 0, 0], [178, 0, 1], [179, 0, 1]]
    }, 
    {
      "op": "_plus_scalar", 
      "name": "shufflenasoneshotfix0_hybridsequential0_shufflenetblock4_hardswish1__plusscalar0", 
      "attrs": {"scalar": "3"}, 
      "inputs": [[180, 0, 0]]
    }, 
    {
      "op": "clip", 
      "name": "shufflenasoneshotfix0_hybridsequential0_shufflenetblock4_hardswish1_hard_swish", 
      "attrs": {
        "a_max": "6", 
        "a_min": "0"
      }, 
      "inputs": [[181, 0, 0]]
    }, 
    {
      "op": "_div_scalar", 
      "name": "shufflenasoneshotfix0_hybridsequential0_shufflenetblock4_hardswish1__divscalar0", 
      "attrs": {"scalar": "6.0"}, 
      "inputs": [[182, 0, 0]]
    }, 
    {
      "op": "elemwise_mul", 
      "name": "shufflenasoneshotfix0_hybridsequential0_shufflenetblock4_hardswish1__mul0", 
      "inputs": [[180, 0, 0], [183, 0, 0]]
    }, 
    {
      "op": "Concat", 
      "name": "shufflenasoneshotfix0_hybridsequential0_shufflenetblock4_concat0", 
      "attrs": {
        "dim": "1", 
        "num_args": "2"
      }, 
      "inputs": [[155, 0, 0], [184, 0, 0]]
    }, 
    {
      "op": "Reshape", 
      "name": "shufflenasoneshotfix0_hybridsequential0_shufflenetblock5_shufflechannels0_reshape0", 
      "attrs": {"shape": "(0, -4, 2, -1, -2)"}, 
      "inputs": [[185, 0, 0]]
    }, 
    {
      "op": "SwapAxis", 
      "name": "shufflenasoneshotfix0_hybridsequential0_shufflenetblock5_shufflechannels0_swapaxes0", 
      "attrs": {
        "dim1": "1", 
        "dim2": "2"
      }, 
      "inputs": [[186, 0, 0]]
    }, 
    {
      "op": "Reshape", 
      "name": "shufflenasoneshotfix0_hybridsequential0_shufflenetblock5_shufflechannels0_reshape1", 
      "attrs": {"shape": "(0, -3, -2)"}, 
      "inputs": [[187, 0, 0]]
    }, 
    {
      "op": "slice", 
      "name": "shufflenasoneshotfix0_hybridsequential0_shufflenetblock5_shufflechannels0_slice0", 
      "attrs": {
        "begin": "(None, None, None, None)", 
        "end": "(None, 80, None, None)"
      }, 
      "inputs": [[188, 0, 0]]
    }, 
    {
      "op": "slice", 
      "name": "shufflenasoneshotfix0_hybridsequential0_shufflenetblock5_shufflechannels0_slice1", 
      "attrs": {
        "begin": "(None, 80, None, None)", 
        "end": "(None, None, None, None)"
      }, 
      "inputs": [[188, 0, 0]]
    }, 
    {
      "op": "null", 
      "name": "shufflenasoneshotfix0_hybridsequential0_shufflenetblock5_conv0_weight", 
      "attrs": {
        "__dtype__": "0", 
        "__lr_mult__": "1.0", 
        "__shape__": "(128, 80, 1, 1)", 
        "__storage_type__": "0", 
        "__wd_mult__": "1.0"
      }, 
      "inputs": []
    }, 
    {
      "op": "Convolution", 
      "name": "shufflenasoneshotfix0_hybridsequential0_shufflenetblock5_conv0_fwd", 
      "attrs": {
        "dilate": "(1, 1)", 
        "kernel": "(1, 1)", 
        "layout": "NCHW", 
        "no_bias": "True", 
        "num_filter": "128", 
        "num_group": "1", 
        "pad": "(0, 0)", 
        "stride": "(1, 1)"
      }, 
      "inputs": [[190, 0, 0], [191, 0, 0]]
    }, 
    {
      "op": "null", 
      "name": "shufflenasoneshotfix0_hybridsequential0_shufflenetblock5_batchnorm0_gamma", 
      "attrs": {
        "__dtype__": "0", 
        "__init__": "ones", 
        "__lr_mult__": "1.0", 
        "__shape__": "(128,)", 
        "__storage_type__": "0", 
        "__wd_mult__": "1.0"
      }, 
      "inputs": []
    }, 
    {
      "op": "null", 
      "name": "shufflenasoneshotfix0_hybridsequential0_shufflenetblock5_batchnorm0_beta", 
      "attrs": {
        "__dtype__": "0", 
        "__init__": "zeros", 
        "__lr_mult__": "1.0", 
        "__shape__": "(128,)", 
        "__storage_type__": "0", 
        "__wd_mult__": "1.0"
      }, 
      "inputs": []
    }, 
    {
      "op": "null", 
      "name": "shufflenasoneshotfix0_hybridsequential0_shufflenetblock5_batchnorm0_running_mean", 
      "attrs": {
        "__dtype__": "0", 
        "__init__": "zeros", 
        "__lr_mult__": "1.0", 
        "__shape__": "(128,)", 
        "__storage_type__": "0", 
        "__wd_mult__": "1.0"
      }, 
      "inputs": []
    }, 
    {
      "op": "null", 
      "name": "shufflenasoneshotfix0_hybridsequential0_shufflenetblock5_batchnorm0_running_var", 
      "attrs": {
        "__dtype__": "0", 
        "__init__": "ones", 
        "__lr_mult__": "1.0", 
        "__shape__": "(128,)", 
        "__storage_type__": "0", 
        "__wd_mult__": "1.0"
      }, 
      "inputs": []
    }, 
    {
      "op": "BatchNorm", 
      "name": "shufflenasoneshotfix0_hybridsequential0_shufflenetblock5_batchnorm0_fwd", 
      "attrs": {
        "axis": "1", 
        "eps": "1e-05", 
        "fix_gamma": "False", 
        "momentum": "0.1", 
        "use_global_stats": "False"
      }, 
      "inputs": [[192, 0, 0], [193, 0, 0], [194, 0, 0], [195, 0, 1], [196, 0, 1]]
    }, 
    {
      "op": "_plus_scalar", 
      "name": "shufflenasoneshotfix0_hybridsequential0_shufflenetblock5_hardswish0__plusscalar0", 
      "attrs": {"scalar": "3"}, 
      "inputs": [[197, 0, 0]]
    }, 
    {
      "op": "clip", 
      "name": "shufflenasoneshotfix0_hybridsequential0_shufflenetblock5_hardswish0_hard_swish", 
      "attrs": {
        "a_max": "6", 
        "a_min": "0"
      }, 
      "inputs": [[198, 0, 0]]
    }, 
    {
      "op": "_div_scalar", 
      "name": "shufflenasoneshotfix0_hybridsequential0_shufflenetblock5_hardswish0__divscalar0", 
      "attrs": {"scalar": "6.0"}, 
      "inputs": [[199, 0, 0]]
    }, 
    {
      "op": "elemwise_mul", 
      "name": "shufflenasoneshotfix0_hybridsequential0_shufflenetblock5_hardswish0__mul0", 
      "inputs": [[197, 0, 0], [200, 0, 0]]
    }, 
    {
      "op": "null", 
      "name": "shufflenasoneshotfix0_hybridsequential0_shufflenetblock5_conv1_weight", 
      "attrs": {
        "__dtype__": "0", 
        "__lr_mult__": "1.0", 
        "__shape__": "(128, 1, 3, 3)", 
        "__storage_type__": "0", 
        "__wd_mult__": "1.0"
      }, 
      "inputs": []
    }, 
    {
      "op": "Convolution", 
      "name": "shufflenasoneshotfix0_hybridsequential0_shufflenetblock5_conv1_fwd", 
      "attrs": {
        "dilate": "(1, 1)", 
        "kernel": "(3, 3)", 
        "layout": "NCHW", 
        "no_bias": "True", 
        "num_filter": "128", 
        "num_group": "128", 
        "pad": "(1, 1)", 
        "stride": "(1, 1)"
      }, 
      "inputs": [[201, 0, 0], [202, 0, 0]]
    }, 
    {
      "op": "null", 
      "name": "shufflenasoneshotfix0_hybridsequential0_shufflenetblock5_batchnorm1_gamma", 
      "attrs": {
        "__dtype__": "0", 
        "__init__": "ones", 
        "__lr_mult__": "1.0", 
        "__shape__": "(128,)", 
        "__storage_type__": "0", 
        "__wd_mult__": "1.0"
      }, 
      "inputs": []
    }, 
    {
      "op": "null", 
      "name": "shufflenasoneshotfix0_hybridsequential0_shufflenetblock5_batchnorm1_beta", 
      "attrs": {
        "__dtype__": "0", 
        "__init__": "zeros", 
        "__lr_mult__": "1.0", 
        "__shape__": "(128,)", 
        "__storage_type__": "0", 
        "__wd_mult__": "1.0"
      }, 
      "inputs": []
    }, 
    {
      "op": "null", 
      "name": "shufflenasoneshotfix0_hybridsequential0_shufflenetblock5_batchnorm1_running_mean", 
      "attrs": {
        "__dtype__": "0", 
        "__init__": "zeros", 
        "__lr_mult__": "1.0", 
        "__shape__": "(128,)", 
        "__storage_type__": "0", 
        "__wd_mult__": "1.0"
      }, 
      "inputs": []
    }, 
    {
      "op": "null", 
      "name": "shufflenasoneshotfix0_hybridsequential0_shufflenetblock5_batchnorm1_running_var", 
      "attrs": {
        "__dtype__": "0", 
        "__init__": "ones", 
        "__lr_mult__": "1.0", 
        "__shape__": "(128,)", 
        "__storage_type__": "0", 
        "__wd_mult__": "1.0"
      }, 
      "inputs": []
    }, 
    {
      "op": "BatchNorm", 
      "name": "shufflenasoneshotfix0_hybridsequential0_shufflenetblock5_batchnorm1_fwd", 
      "attrs": {
        "axis": "1", 
        "eps": "1e-05", 
        "fix_gamma": "False", 
        "momentum": "0.1", 
        "use_global_stats": "False"
      }, 
      "inputs": [[203, 0, 0], [204, 0, 0], [205, 0, 0], [206, 0, 1], [207, 0, 1]]
    }, 
    {
      "op": "null", 
      "name": "shufflenasoneshotfix0_hybridsequential0_shufflenetblock5_conv2_weight", 
      "attrs": {
        "__dtype__": "0", 
        "__lr_mult__": "1.0", 
        "__shape__": "(80, 128, 1, 1)", 
        "__storage_type__": "0", 
        "__wd_mult__": "1.0"
      }, 
      "inputs": []
    }, 
    {
      "op": "Convolution", 
      "name": "shufflenasoneshotfix0_hybridsequential0_shufflenetblock5_conv2_fwd", 
      "attrs": {
        "dilate": "(1, 1)", 
        "kernel": "(1, 1)", 
        "layout": "NCHW", 
        "no_bias": "True", 
        "num_filter": "80", 
        "num_group": "1", 
        "pad": "(0, 0)", 
        "stride": "(1, 1)"
      }, 
      "inputs": [[208, 0, 0], [209, 0, 0]]
    }, 
    {
      "op": "null", 
      "name": "shufflenasoneshotfix0_hybridsequential0_shufflenetblock5_batchnorm2_gamma", 
      "attrs": {
        "__dtype__": "0", 
        "__init__": "ones", 
        "__lr_mult__": "1.0", 
        "__shape__": "(80,)", 
        "__storage_type__": "0", 
        "__wd_mult__": "1.0"
      }, 
      "inputs": []
    }, 
    {
      "op": "null", 
      "name": "shufflenasoneshotfix0_hybridsequential0_shufflenetblock5_batchnorm2_beta", 
      "attrs": {
        "__dtype__": "0", 
        "__init__": "zeros", 
        "__lr_mult__": "1.0", 
        "__shape__": "(80,)", 
        "__storage_type__": "0", 
        "__wd_mult__": "1.0"
      }, 
      "inputs": []
    }, 
    {
      "op": "null", 
      "name": "shufflenasoneshotfix0_hybridsequential0_shufflenetblock5_batchnorm2_running_mean", 
      "attrs": {
        "__dtype__": "0", 
        "__init__": "zeros", 
        "__lr_mult__": "1.0", 
        "__shape__": "(80,)", 
        "__storage_type__": "0", 
        "__wd_mult__": "1.0"
      }, 
      "inputs": []
    }, 
    {
      "op": "null", 
      "name": "shufflenasoneshotfix0_hybridsequential0_shufflenetblock5_batchnorm2_running_var", 
      "attrs": {
        "__dtype__": "0", 
        "__init__": "ones", 
        "__lr_mult__": "1.0", 
        "__shape__": "(80,)", 
        "__storage_type__": "0", 
        "__wd_mult__": "1.0"
      }, 
      "inputs": []
    }, 
    {
      "op": "BatchNorm", 
      "name": "shufflenasoneshotfix0_hybridsequential0_shufflenetblock5_batchnorm2_fwd", 
      "attrs": {
        "axis": "1", 
        "eps": "1e-05", 
        "fix_gamma": "False", 
        "momentum": "0.1", 
        "use_global_stats": "False"
      }, 
      "inputs": [[210, 0, 0], [211, 0, 0], [212, 0, 0], [213, 0, 1], [214, 0, 1]]
    }, 
    {
      "op": "_plus_scalar", 
      "name": "shufflenasoneshotfix0_hybridsequential0_shufflenetblock5_hardswish1__plusscalar0", 
      "attrs": {"scalar": "3"}, 
      "inputs": [[215, 0, 0]]
    }, 
    {
      "op": "clip", 
      "name": "shufflenasoneshotfix0_hybridsequential0_shufflenetblock5_hardswish1_hard_swish", 
      "attrs": {
        "a_max": "6", 
        "a_min": "0"
      }, 
      "inputs": [[216, 0, 0]]
    }, 
    {
      "op": "_div_scalar", 
      "name": "shufflenasoneshotfix0_hybridsequential0_shufflenetblock5_hardswish1__divscalar0", 
      "attrs": {"scalar": "6.0"}, 
      "inputs": [[217, 0, 0]]
    }, 
    {
      "op": "elemwise_mul", 
      "name": "shufflenasoneshotfix0_hybridsequential0_shufflenetblock5_hardswish1__mul0", 
      "inputs": [[215, 0, 0], [218, 0, 0]]
    }, 
    {
      "op": "Concat", 
      "name": "shufflenasoneshotfix0_hybridsequential0_shufflenetblock5_concat0", 
      "attrs": {
        "dim": "1", 
        "num_args": "2"
      }, 
      "inputs": [[189, 0, 0], [219, 0, 0]]
    }, 
    {
      "op": "Reshape", 
      "name": "shufflenasoneshotfix0_hybridsequential0_shufflenetblock6_shufflechannels0_reshape0", 
      "attrs": {"shape": "(0, -4, 2, -1, -2)"}, 
      "inputs": [[220, 0, 0]]
    }, 
    {
      "op": "SwapAxis", 
      "name": "shufflenasoneshotfix0_hybridsequential0_shufflenetblock6_shufflechannels0_swapaxes0", 
      "attrs": {
        "dim1": "1", 
        "dim2": "2"
      }, 
      "inputs": [[221, 0, 0]]
    }, 
    {
      "op": "Reshape", 
      "name": "shufflenasoneshotfix0_hybridsequential0_shufflenetblock6_shufflechannels0_reshape1", 
      "attrs": {"shape": "(0, -3, -2)"}, 
      "inputs": [[222, 0, 0]]
    }, 
    {
      "op": "slice", 
      "name": "shufflenasoneshotfix0_hybridsequential0_shufflenetblock6_shufflechannels0_slice0", 
      "attrs": {
        "begin": "(None, None, None, None)", 
        "end": "(None, 80, None, None)"
      }, 
      "inputs": [[223, 0, 0]]
    }, 
    {
      "op": "slice", 
      "name": "shufflenasoneshotfix0_hybridsequential0_shufflenetblock6_shufflechannels0_slice1", 
      "attrs": {
        "begin": "(None, 80, None, None)", 
        "end": "(None, None, None, None)"
      }, 
      "inputs": [[223, 0, 0]]
    }, 
    {
      "op": "null", 
      "name": "shufflenasoneshotfix0_hybridsequential0_shufflenetblock6_conv0_weight", 
      "attrs": {
        "__dtype__": "0", 
        "__lr_mult__": "1.0", 
        "__shape__": "(64, 80, 1, 1)", 
        "__storage_type__": "0", 
        "__wd_mult__": "1.0"
      }, 
      "inputs": []
    }, 
    {
      "op": "Convolution", 
      "name": "shufflenasoneshotfix0_hybridsequential0_shufflenetblock6_conv0_fwd", 
      "attrs": {
        "dilate": "(1, 1)", 
        "kernel": "(1, 1)", 
        "layout": "NCHW", 
        "no_bias": "True", 
        "num_filter": "64", 
        "num_group": "1", 
        "pad": "(0, 0)", 
        "stride": "(1, 1)"
      }, 
      "inputs": [[225, 0, 0], [226, 0, 0]]
    }, 
    {
      "op": "null", 
      "name": "shufflenasoneshotfix0_hybridsequential0_shufflenetblock6_batchnorm0_gamma", 
      "attrs": {
        "__dtype__": "0", 
        "__init__": "ones", 
        "__lr_mult__": "1.0", 
        "__shape__": "(64,)", 
        "__storage_type__": "0", 
        "__wd_mult__": "1.0"
      }, 
      "inputs": []
    }, 
    {
      "op": "null", 
      "name": "shufflenasoneshotfix0_hybridsequential0_shufflenetblock6_batchnorm0_beta", 
      "attrs": {
        "__dtype__": "0", 
        "__init__": "zeros", 
        "__lr_mult__": "1.0", 
        "__shape__": "(64,)", 
        "__storage_type__": "0", 
        "__wd_mult__": "1.0"
      }, 
      "inputs": []
    }, 
    {
      "op": "null", 
      "name": "shufflenasoneshotfix0_hybridsequential0_shufflenetblock6_batchnorm0_running_mean", 
      "attrs": {
        "__dtype__": "0", 
        "__init__": "zeros", 
        "__lr_mult__": "1.0", 
        "__shape__": "(64,)", 
        "__storage_type__": "0", 
        "__wd_mult__": "1.0"
      }, 
      "inputs": []
    }, 
    {
      "op": "null", 
      "name": "shufflenasoneshotfix0_hybridsequential0_shufflenetblock6_batchnorm0_running_var", 
      "attrs": {
        "__dtype__": "0", 
        "__init__": "ones", 
        "__lr_mult__": "1.0", 
        "__shape__": "(64,)", 
        "__storage_type__": "0", 
        "__wd_mult__": "1.0"
      }, 
      "inputs": []
    }, 
    {
      "op": "BatchNorm", 
      "name": "shufflenasoneshotfix0_hybridsequential0_shufflenetblock6_batchnorm0_fwd", 
      "attrs": {
        "axis": "1", 
        "eps": "1e-05", 
        "fix_gamma": "False", 
        "momentum": "0.1", 
        "use_global_stats": "False"
      }, 
      "inputs": [[227, 0, 0], [228, 0, 0], [229, 0, 0], [230, 0, 1], [231, 0, 1]]
    }, 
    {
      "op": "_plus_scalar", 
      "name": "shufflenasoneshotfix0_hybridsequential0_shufflenetblock6_hardswish0__plusscalar0", 
      "attrs": {"scalar": "3"}, 
      "inputs": [[232, 0, 0]]
    }, 
    {
      "op": "clip", 
      "name": "shufflenasoneshotfix0_hybridsequential0_shufflenetblock6_hardswish0_hard_swish", 
      "attrs": {
        "a_max": "6", 
        "a_min": "0"
      }, 
      "inputs": [[233, 0, 0]]
    }, 
    {
      "op": "_div_scalar", 
      "name": "shufflenasoneshotfix0_hybridsequential0_shufflenetblock6_hardswish0__divscalar0", 
      "attrs": {"scalar": "6.0"}, 
      "inputs": [[234, 0, 0]]
    }, 
    {
      "op": "elemwise_mul", 
      "name": "shufflenasoneshotfix0_hybridsequential0_shufflenetblock6_hardswish0__mul0", 
      "inputs": [[232, 0, 0], [235, 0, 0]]
    }, 
    {
      "op": "null", 
      "name": "shufflenasoneshotfix0_hybridsequential0_shufflenetblock6_conv1_weight", 
      "attrs": {
        "__dtype__": "0", 
        "__lr_mult__": "1.0", 
        "__shape__": "(64, 1, 5, 5)", 
        "__storage_type__": "0", 
        "__wd_mult__": "1.0"
      }, 
      "inputs": []
    }, 
    {
      "op": "Convolution", 
      "name": "shufflenasoneshotfix0_hybridsequential0_shufflenetblock6_conv1_fwd", 
      "attrs": {
        "dilate": "(1, 1)", 
        "kernel": "(5, 5)", 
        "layout": "NCHW", 
        "no_bias": "True", 
        "num_filter": "64", 
        "num_group": "64", 
        "pad": "(2, 2)", 
        "stride": "(1, 1)"
      }, 
      "inputs": [[236, 0, 0], [237, 0, 0]]
    }, 
    {
      "op": "null", 
      "name": "shufflenasoneshotfix0_hybridsequential0_shufflenetblock6_batchnorm1_gamma", 
      "attrs": {
        "__dtype__": "0", 
        "__init__": "ones", 
        "__lr_mult__": "1.0", 
        "__shape__": "(64,)", 
        "__storage_type__": "0", 
        "__wd_mult__": "1.0"
      }, 
      "inputs": []
    }, 
    {
      "op": "null", 
      "name": "shufflenasoneshotfix0_hybridsequential0_shufflenetblock6_batchnorm1_beta", 
      "attrs": {
        "__dtype__": "0", 
        "__init__": "zeros", 
        "__lr_mult__": "1.0", 
        "__shape__": "(64,)", 
        "__storage_type__": "0", 
        "__wd_mult__": "1.0"
      }, 
      "inputs": []
    }, 
    {
      "op": "null", 
      "name": "shufflenasoneshotfix0_hybridsequential0_shufflenetblock6_batchnorm1_running_mean", 
      "attrs": {
        "__dtype__": "0", 
        "__init__": "zeros", 
        "__lr_mult__": "1.0", 
        "__shape__": "(64,)", 
        "__storage_type__": "0", 
        "__wd_mult__": "1.0"
      }, 
      "inputs": []
    }, 
    {
      "op": "null", 
      "name": "shufflenasoneshotfix0_hybridsequential0_shufflenetblock6_batchnorm1_running_var", 
      "attrs": {
        "__dtype__": "0", 
        "__init__": "ones", 
        "__lr_mult__": "1.0", 
        "__shape__": "(64,)", 
        "__storage_type__": "0", 
        "__wd_mult__": "1.0"
      }, 
      "inputs": []
    }, 
    {
      "op": "BatchNorm", 
      "name": "shufflenasoneshotfix0_hybridsequential0_shufflenetblock6_batchnorm1_fwd", 
      "attrs": {
        "axis": "1", 
        "eps": "1e-05", 
        "fix_gamma": "False", 
        "momentum": "0.1", 
        "use_global_stats": "False"
      }, 
      "inputs": [[238, 0, 0], [239, 0, 0], [240, 0, 0], [241, 0, 1], [242, 0, 1]]
    }, 
    {
      "op": "null", 
      "name": "shufflenasoneshotfix0_hybridsequential0_shufflenetblock6_conv2_weight", 
      "attrs": {
        "__dtype__": "0", 
        "__lr_mult__": "1.0", 
        "__shape__": "(80, 64, 1, 1)", 
        "__storage_type__": "0", 
        "__wd_mult__": "1.0"
      }, 
      "inputs": []
    }, 
    {
      "op": "Convolution", 
      "name": "shufflenasoneshotfix0_hybridsequential0_shufflenetblock6_conv2_fwd", 
      "attrs": {
        "dilate": "(1, 1)", 
        "kernel": "(1, 1)", 
        "layout": "NCHW", 
        "no_bias": "True", 
        "num_filter": "80", 
        "num_group": "1", 
        "pad": "(0, 0)", 
        "stride": "(1, 1)"
      }, 
      "inputs": [[243, 0, 0], [244, 0, 0]]
    }, 
    {
      "op": "null", 
      "name": "shufflenasoneshotfix0_hybridsequential0_shufflenetblock6_batchnorm2_gamma", 
      "attrs": {
        "__dtype__": "0", 
        "__init__": "ones", 
        "__lr_mult__": "1.0", 
        "__shape__": "(80,)", 
        "__storage_type__": "0", 
        "__wd_mult__": "1.0"
      }, 
      "inputs": []
    }, 
    {
      "op": "null", 
      "name": "shufflenasoneshotfix0_hybridsequential0_shufflenetblock6_batchnorm2_beta", 
      "attrs": {
        "__dtype__": "0", 
        "__init__": "zeros", 
        "__lr_mult__": "1.0", 
        "__shape__": "(80,)", 
        "__storage_type__": "0", 
        "__wd_mult__": "1.0"
      }, 
      "inputs": []
    }, 
    {
      "op": "null", 
      "name": "shufflenasoneshotfix0_hybridsequential0_shufflenetblock6_batchnorm2_running_mean", 
      "attrs": {
        "__dtype__": "0", 
        "__init__": "zeros", 
        "__lr_mult__": "1.0", 
        "__shape__": "(80,)", 
        "__storage_type__": "0", 
        "__wd_mult__": "1.0"
      }, 
      "inputs": []
    }, 
    {
      "op": "null", 
      "name": "shufflenasoneshotfix0_hybridsequential0_shufflenetblock6_batchnorm2_running_var", 
      "attrs": {
        "__dtype__": "0", 
        "__init__": "ones", 
        "__lr_mult__": "1.0", 
        "__shape__": "(80,)", 
        "__storage_type__": "0", 
        "__wd_mult__": "1.0"
      }, 
      "inputs": []
    }, 
    {
      "op": "BatchNorm", 
      "name": "shufflenasoneshotfix0_hybridsequential0_shufflenetblock6_batchnorm2_fwd", 
      "attrs": {
        "axis": "1", 
        "eps": "1e-05", 
        "fix_gamma": "False", 
        "momentum": "0.1", 
        "use_global_stats": "False"
      }, 
      "inputs": [[245, 0, 0], [246, 0, 0], [247, 0, 0], [248, 0, 1], [249, 0, 1]]
    }, 
    {
      "op": "_plus_scalar", 
      "name": "shufflenasoneshotfix0_hybridsequential0_shufflenetblock6_hardswish1__plusscalar0", 
      "attrs": {"scalar": "3"}, 
      "inputs": [[250, 0, 0]]
    }, 
    {
      "op": "clip", 
      "name": "shufflenasoneshotfix0_hybridsequential0_shufflenetblock6_hardswish1_hard_swish", 
      "attrs": {
        "a_max": "6", 
        "a_min": "0"
      }, 
      "inputs": [[251, 0, 0]]
    }, 
    {
      "op": "_div_scalar", 
      "name": "shufflenasoneshotfix0_hybridsequential0_shufflenetblock6_hardswish1__divscalar0", 
      "attrs": {"scalar": "6.0"}, 
      "inputs": [[252, 0, 0]]
    }, 
    {
      "op": "elemwise_mul", 
      "name": "shufflenasoneshotfix0_hybridsequential0_shufflenetblock6_hardswish1__mul0", 
      "inputs": [[250, 0, 0], [253, 0, 0]]
    }, 
    {
      "op": "Concat", 
      "name": "shufflenasoneshotfix0_hybridsequential0_shufflenetblock6_concat0", 
      "attrs": {
        "dim": "1", 
        "num_args": "2"
      }, 
      "inputs": [[224, 0, 0], [254, 0, 0]]
    }, 
    {
      "op": "Reshape", 
      "name": "shufflenasoneshotfix0_hybridsequential0_shufflenetblock7_shufflechannels0_reshape0", 
      "attrs": {"shape": "(0, -4, 2, -1, -2)"}, 
      "inputs": [[255, 0, 0]]
    }, 
    {
      "op": "SwapAxis", 
      "name": "shufflenasoneshotfix0_hybridsequential0_shufflenetblock7_shufflechannels0_swapaxes0", 
      "attrs": {
        "dim1": "1", 
        "dim2": "2"
      }, 
      "inputs": [[256, 0, 0]]
    }, 
    {
      "op": "Reshape", 
      "name": "shufflenasoneshotfix0_hybridsequential0_shufflenetblock7_shufflechannels0_reshape1", 
      "attrs": {"shape": "(0, -3, -2)"}, 
      "inputs": [[257, 0, 0]]
    }, 
    {
      "op": "slice", 
      "name": "shufflenasoneshotfix0_hybridsequential0_shufflenetblock7_shufflechannels0_slice0", 
      "attrs": {
        "begin": "(None, None, None, None)", 
        "end": "(None, 80, None, None)"
      }, 
      "inputs": [[258, 0, 0]]
    }, 
    {
      "op": "slice", 
      "name": "shufflenasoneshotfix0_hybridsequential0_shufflenetblock7_shufflechannels0_slice1", 
      "attrs": {
        "begin": "(None, 80, None, None)", 
        "end": "(None, None, None, None)"
      }, 
      "inputs": [[258, 0, 0]]
    }, 
    {
      "op": "null", 
      "name": "shufflenasoneshotfix0_hybridsequential0_shufflenetblock7_conv0_weight", 
      "attrs": {
        "__dtype__": "0", 
        "__lr_mult__": "1.0", 
        "__shape__": "(80, 80, 1, 1)", 
        "__storage_type__": "0", 
        "__wd_mult__": "1.0"
      }, 
      "inputs": []
    }, 
    {
      "op": "Convolution", 
      "name": "shufflenasoneshotfix0_hybridsequential0_shufflenetblock7_conv0_fwd", 
      "attrs": {
        "dilate": "(1, 1)", 
        "kernel": "(1, 1)", 
        "layout": "NCHW", 
        "no_bias": "True", 
        "num_filter": "80", 
        "num_group": "1", 
        "pad": "(0, 0)", 
        "stride": "(1, 1)"
      }, 
      "inputs": [[260, 0, 0], [261, 0, 0]]
    }, 
    {
      "op": "null", 
      "name": "shufflenasoneshotfix0_hybridsequential0_shufflenetblock7_batchnorm0_gamma", 
      "attrs": {
        "__dtype__": "0", 
        "__init__": "ones", 
        "__lr_mult__": "1.0", 
        "__shape__": "(80,)", 
        "__storage_type__": "0", 
        "__wd_mult__": "1.0"
      }, 
      "inputs": []
    }, 
    {
      "op": "null", 
      "name": "shufflenasoneshotfix0_hybridsequential0_shufflenetblock7_batchnorm0_beta", 
      "attrs": {
        "__dtype__": "0", 
        "__init__": "zeros", 
        "__lr_mult__": "1.0", 
        "__shape__": "(80,)", 
        "__storage_type__": "0", 
        "__wd_mult__": "1.0"
      }, 
      "inputs": []
    }, 
    {
      "op": "null", 
      "name": "shufflenasoneshotfix0_hybridsequential0_shufflenetblock7_batchnorm0_running_mean", 
      "attrs": {
        "__dtype__": "0", 
        "__init__": "zeros", 
        "__lr_mult__": "1.0", 
        "__shape__": "(80,)", 
        "__storage_type__": "0", 
        "__wd_mult__": "1.0"
      }, 
      "inputs": []
    }, 
    {
      "op": "null", 
      "name": "shufflenasoneshotfix0_hybridsequential0_shufflenetblock7_batchnorm0_running_var", 
      "attrs": {
        "__dtype__": "0", 
        "__init__": "ones", 
        "__lr_mult__": "1.0", 
        "__shape__": "(80,)", 
        "__storage_type__": "0", 
        "__wd_mult__": "1.0"
      }, 
      "inputs": []
    }, 
    {
      "op": "BatchNorm", 
      "name": "shufflenasoneshotfix0_hybridsequential0_shufflenetblock7_batchnorm0_fwd", 
      "attrs": {
        "axis": "1", 
        "eps": "1e-05", 
        "fix_gamma": "False", 
        "momentum": "0.1", 
        "use_global_stats": "False"
      }, 
      "inputs": [[262, 0, 0], [263, 0, 0], [264, 0, 0], [265, 0, 1], [266, 0, 1]]
    }, 
    {
      "op": "_plus_scalar", 
      "name": "shufflenasoneshotfix0_hybridsequential0_shufflenetblock7_hardswish0__plusscalar0", 
      "attrs": {"scalar": "3"}, 
      "inputs": [[267, 0, 0]]
    }, 
    {
      "op": "clip", 
      "name": "shufflenasoneshotfix0_hybridsequential0_shufflenetblock7_hardswish0_hard_swish", 
      "attrs": {
        "a_max": "6", 
        "a_min": "0"
      }, 
      "inputs": [[268, 0, 0]]
    }, 
    {
      "op": "_div_scalar", 
      "name": "shufflenasoneshotfix0_hybridsequential0_shufflenetblock7_hardswish0__divscalar0", 
      "attrs": {"scalar": "6.0"}, 
      "inputs": [[269, 0, 0]]
    }, 
    {
      "op": "elemwise_mul", 
      "name": "shufflenasoneshotfix0_hybridsequential0_shufflenetblock7_hardswish0__mul0", 
      "inputs": [[267, 0, 0], [270, 0, 0]]
    }, 
    {
      "op": "null", 
      "name": "shufflenasoneshotfix0_hybridsequential0_shufflenetblock7_conv1_weight", 
      "attrs": {
        "__dtype__": "0", 
        "__lr_mult__": "1.0", 
        "__shape__": "(80, 1, 3, 3)", 
        "__storage_type__": "0", 
        "__wd_mult__": "1.0"
      }, 
      "inputs": []
    }, 
    {
      "op": "Convolution", 
      "name": "shufflenasoneshotfix0_hybridsequential0_shufflenetblock7_conv1_fwd", 
      "attrs": {
        "dilate": "(1, 1)", 
        "kernel": "(3, 3)", 
        "layout": "NCHW", 
        "no_bias": "True", 
        "num_filter": "80", 
        "num_group": "80", 
        "pad": "(1, 1)", 
        "stride": "(1, 1)"
      }, 
      "inputs": [[271, 0, 0], [272, 0, 0]]
    }, 
    {
      "op": "null", 
      "name": "shufflenasoneshotfix0_hybridsequential0_shufflenetblock7_batchnorm1_gamma", 
      "attrs": {
        "__dtype__": "0", 
        "__init__": "ones", 
        "__lr_mult__": "1.0", 
        "__shape__": "(80,)", 
        "__storage_type__": "0", 
        "__wd_mult__": "1.0"
      }, 
      "inputs": []
    }, 
    {
      "op": "null", 
      "name": "shufflenasoneshotfix0_hybridsequential0_shufflenetblock7_batchnorm1_beta", 
      "attrs": {
        "__dtype__": "0", 
        "__init__": "zeros", 
        "__lr_mult__": "1.0", 
        "__shape__": "(80,)", 
        "__storage_type__": "0", 
        "__wd_mult__": "1.0"
      }, 
      "inputs": []
    }, 
    {
      "op": "null", 
      "name": "shufflenasoneshotfix0_hybridsequential0_shufflenetblock7_batchnorm1_running_mean", 
      "attrs": {
        "__dtype__": "0", 
        "__init__": "zeros", 
        "__lr_mult__": "1.0", 
        "__shape__": "(80,)", 
        "__storage_type__": "0", 
        "__wd_mult__": "1.0"
      }, 
      "inputs": []
    }, 
    {
      "op": "null", 
      "name": "shufflenasoneshotfix0_hybridsequential0_shufflenetblock7_batchnorm1_running_var", 
      "attrs": {
        "__dtype__": "0", 
        "__init__": "ones", 
        "__lr_mult__": "1.0", 
        "__shape__": "(80,)", 
        "__storage_type__": "0", 
        "__wd_mult__": "1.0"
      }, 
      "inputs": []
    }, 
    {
      "op": "BatchNorm", 
      "name": "shufflenasoneshotfix0_hybridsequential0_shufflenetblock7_batchnorm1_fwd", 
      "attrs": {
        "axis": "1", 
        "eps": "1e-05", 
        "fix_gamma": "False", 
        "momentum": "0.1", 
        "use_global_stats": "False"
      }, 
      "inputs": [[273, 0, 0], [274, 0, 0], [275, 0, 0], [276, 0, 1], [277, 0, 1]]
    }, 
    {
      "op": "null", 
      "name": "shufflenasoneshotfix0_hybridsequential0_shufflenetblock7_conv2_weight", 
      "attrs": {
        "__dtype__": "0", 
        "__lr_mult__": "1.0", 
        "__shape__": "(80, 80, 1, 1)", 
        "__storage_type__": "0", 
        "__wd_mult__": "1.0"
      }, 
      "inputs": []
    }, 
    {
      "op": "Convolution", 
      "name": "shufflenasoneshotfix0_hybridsequential0_shufflenetblock7_conv2_fwd", 
      "attrs": {
        "dilate": "(1, 1)", 
        "kernel": "(1, 1)", 
        "layout": "NCHW", 
        "no_bias": "True", 
        "num_filter": "80", 
        "num_group": "1", 
        "pad": "(0, 0)", 
        "stride": "(1, 1)"
      }, 
      "inputs": [[278, 0, 0], [279, 0, 0]]
    }, 
    {
      "op": "null", 
      "name": "shufflenasoneshotfix0_hybridsequential0_shufflenetblock7_batchnorm2_gamma", 
      "attrs": {
        "__dtype__": "0", 
        "__init__": "ones", 
        "__lr_mult__": "1.0", 
        "__shape__": "(80,)", 
        "__storage_type__": "0", 
        "__wd_mult__": "1.0"
      }, 
      "inputs": []
    }, 
    {
      "op": "null", 
      "name": "shufflenasoneshotfix0_hybridsequential0_shufflenetblock7_batchnorm2_beta", 
      "attrs": {
        "__dtype__": "0", 
        "__init__": "zeros", 
        "__lr_mult__": "1.0", 
        "__shape__": "(80,)", 
        "__storage_type__": "0", 
        "__wd_mult__": "1.0"
      }, 
      "inputs": []
    }, 
    {
      "op": "null", 
      "name": "shufflenasoneshotfix0_hybridsequential0_shufflenetblock7_batchnorm2_running_mean", 
      "attrs": {
        "__dtype__": "0", 
        "__init__": "zeros", 
        "__lr_mult__": "1.0", 
        "__shape__": "(80,)", 
        "__storage_type__": "0", 
        "__wd_mult__": "1.0"
      }, 
      "inputs": []
    }, 
    {
      "op": "null", 
      "name": "shufflenasoneshotfix0_hybridsequential0_shufflenetblock7_batchnorm2_running_var", 
      "attrs": {
        "__dtype__": "0", 
        "__init__": "ones", 
        "__lr_mult__": "1.0", 
        "__shape__": "(80,)", 
        "__storage_type__": "0", 
        "__wd_mult__": "1.0"
      }, 
      "inputs": []
    }, 
    {
      "op": "BatchNorm", 
      "name": "shufflenasoneshotfix0_hybridsequential0_shufflenetblock7_batchnorm2_fwd", 
      "attrs": {
        "axis": "1", 
        "eps": "1e-05", 
        "fix_gamma": "False", 
        "momentum": "0.1", 
        "use_global_stats": "False"
      }, 
      "inputs": [[280, 0, 0], [281, 0, 0], [282, 0, 0], [283, 0, 1], [284, 0, 1]]
    }, 
    {
      "op": "_plus_scalar", 
      "name": "shufflenasoneshotfix0_hybridsequential0_shufflenetblock7_hardswish1__plusscalar0", 
      "attrs": {"scalar": "3"}, 
      "inputs": [[285, 0, 0]]
    }, 
    {
      "op": "clip", 
      "name": "shufflenasoneshotfix0_hybridsequential0_shufflenetblock7_hardswish1_hard_swish", 
      "attrs": {
        "a_max": "6", 
        "a_min": "0"
      }, 
      "inputs": [[286, 0, 0]]
    }, 
    {
      "op": "_div_scalar", 
      "name": "shufflenasoneshotfix0_hybridsequential0_shufflenetblock7_hardswish1__divscalar0", 
      "attrs": {"scalar": "6.0"}, 
      "inputs": [[287, 0, 0]]
    }, 
    {
      "op": "elemwise_mul", 
      "name": "shufflenasoneshotfix0_hybridsequential0_shufflenetblock7_hardswish1__mul0", 
      "inputs": [[285, 0, 0], [288, 0, 0]]
    }, 
    {
      "op": "Concat", 
      "name": "shufflenasoneshotfix0_hybridsequential0_shufflenetblock7_concat0", 
      "attrs": {
        "dim": "1", 
        "num_args": "2"
      }, 
      "inputs": [[259, 0, 0], [289, 0, 0]]
    }, 
    {
      "op": "null", 
      "name": "shufflenasoneshotfix0_hybridsequential0_shufflenetblock8_conv6_weight", 
      "attrs": {
        "__dtype__": "0", 
        "__lr_mult__": "1.0", 
        "__shape__": "(160, 1, 3, 3)", 
        "__storage_type__": "0", 
        "__wd_mult__": "1.0"
      }, 
      "inputs": []
    }, 
    {
      "op": "Convolution", 
      "name": "shufflenasoneshotfix0_hybridsequential0_shufflenetblock8_conv6_fwd", 
      "attrs": {
        "dilate": "(1, 1)", 
        "kernel": "(3, 3)", 
        "layout": "NCHW", 
        "no_bias": "True", 
        "num_filter": "160", 
        "num_group": "160", 
        "pad": "(1, 1)", 
        "stride": "(2, 2)"
      }, 
      "inputs": [[290, 0, 0], [291, 0, 0]]
    }, 
    {
      "op": "null", 
      "name": "shufflenasoneshotfix0_hybridsequential0_shufflenetblock8_batchnorm6_gamma", 
      "attrs": {
        "__dtype__": "0", 
        "__init__": "ones", 
        "__lr_mult__": "1.0", 
        "__shape__": "(160,)", 
        "__storage_type__": "0", 
        "__wd_mult__": "1.0"
      }, 
      "inputs": []
    }, 
    {
      "op": "null", 
      "name": "shufflenasoneshotfix0_hybridsequential0_shufflenetblock8_batchnorm6_beta", 
      "attrs": {
        "__dtype__": "0", 
        "__init__": "zeros", 
        "__lr_mult__": "1.0", 
        "__shape__": "(160,)", 
        "__storage_type__": "0", 
        "__wd_mult__": "1.0"
      }, 
      "inputs": []
    }, 
    {
      "op": "null", 
      "name": "shufflenasoneshotfix0_hybridsequential0_shufflenetblock8_batchnorm6_running_mean", 
      "attrs": {
        "__dtype__": "0", 
        "__init__": "zeros", 
        "__lr_mult__": "1.0", 
        "__shape__": "(160,)", 
        "__storage_type__": "0", 
        "__wd_mult__": "1.0"
      }, 
      "inputs": []
    }, 
    {
      "op": "null", 
      "name": "shufflenasoneshotfix0_hybridsequential0_shufflenetblock8_batchnorm6_running_var", 
      "attrs": {
        "__dtype__": "0", 
        "__init__": "ones", 
        "__lr_mult__": "1.0", 
        "__shape__": "(160,)", 
        "__storage_type__": "0", 
        "__wd_mult__": "1.0"
      }, 
      "inputs": []
    }, 
    {
      "op": "BatchNorm", 
      "name": "shufflenasoneshotfix0_hybridsequential0_shufflenetblock8_batchnorm6_fwd", 
      "attrs": {
        "axis": "1", 
        "eps": "1e-05", 
        "fix_gamma": "False", 
        "momentum": "0.1", 
        "use_global_stats": "False"
      }, 
      "inputs": [[292, 0, 0], [293, 0, 0], [294, 0, 0], [295, 0, 1], [296, 0, 1]]
    }, 
    {
      "op": "null", 
      "name": "shufflenasoneshotfix0_hybridsequential0_shufflenetblock8_conv7_weight", 
      "attrs": {
        "__dtype__": "0", 
        "__lr_mult__": "1.0", 
        "__shape__": "(160, 160, 1, 1)", 
        "__storage_type__": "0", 
        "__wd_mult__": "1.0"
      }, 
      "inputs": []
    }, 
    {
      "op": "Convolution", 
      "name": "shufflenasoneshotfix0_hybridsequential0_shufflenetblock8_conv7_fwd", 
      "attrs": {
        "dilate": "(1, 1)", 
        "kernel": "(1, 1)", 
        "layout": "NCHW", 
        "no_bias": "True", 
        "num_filter": "160", 
        "num_group": "1", 
        "pad": "(0, 0)", 
        "stride": "(1, 1)"
      }, 
      "inputs": [[297, 0, 0], [298, 0, 0]]
    }, 
    {
      "op": "null", 
      "name": "shufflenasoneshotfix0_hybridsequential0_shufflenetblock8_batchnorm7_gamma", 
      "attrs": {
        "__dtype__": "0", 
        "__init__": "ones", 
        "__lr_mult__": "1.0", 
        "__shape__": "(160,)", 
        "__storage_type__": "0", 
        "__wd_mult__": "1.0"
      }, 
      "inputs": []
    }, 
    {
      "op": "null", 
      "name": "shufflenasoneshotfix0_hybridsequential0_shufflenetblock8_batchnorm7_beta", 
      "attrs": {
        "__dtype__": "0", 
        "__init__": "zeros", 
        "__lr_mult__": "1.0", 
        "__shape__": "(160,)", 
        "__storage_type__": "0", 
        "__wd_mult__": "1.0"
      }, 
      "inputs": []
    }, 
    {
      "op": "null", 
      "name": "shufflenasoneshotfix0_hybridsequential0_shufflenetblock8_batchnorm7_running_mean", 
      "attrs": {
        "__dtype__": "0", 
        "__init__": "zeros", 
        "__lr_mult__": "1.0", 
        "__shape__": "(160,)", 
        "__storage_type__": "0", 
        "__wd_mult__": "1.0"
      }, 
      "inputs": []
    }, 
    {
      "op": "null", 
      "name": "shufflenasoneshotfix0_hybridsequential0_shufflenetblock8_batchnorm7_running_var", 
      "attrs": {
        "__dtype__": "0", 
        "__init__": "ones", 
        "__lr_mult__": "1.0", 
        "__shape__": "(160,)", 
        "__storage_type__": "0", 
        "__wd_mult__": "1.0"
      }, 
      "inputs": []
    }, 
    {
      "op": "BatchNorm", 
      "name": "shufflenasoneshotfix0_hybridsequential0_shufflenetblock8_batchnorm7_fwd", 
      "attrs": {
        "axis": "1", 
        "eps": "1e-05", 
        "fix_gamma": "False", 
        "momentum": "0.1", 
        "use_global_stats": "False"
      }, 
      "inputs": [[299, 0, 0], [300, 0, 0], [301, 0, 0], [302, 0, 1], [303, 0, 1]]
    }, 
    {
      "op": "_plus_scalar", 
      "name": "shufflenasoneshotfix0_hybridsequential0_shufflenetblock8_hardswish3__plusscalar0", 
      "attrs": {"scalar": "3"}, 
      "inputs": [[304, 0, 0]]
    }, 
    {
      "op": "clip", 
      "name": "shufflenasoneshotfix0_hybridsequential0_shufflenetblock8_hardswish3_hard_swish", 
      "attrs": {
        "a_max": "6", 
        "a_min": "0"
      }, 
      "inputs": [[305, 0, 0]]
    }, 
    {
      "op": "_div_scalar", 
      "name": "shufflenasoneshotfix0_hybridsequential0_shufflenetblock8_hardswish3__divscalar0", 
      "attrs": {"scalar": "6.0"}, 
      "inputs": [[306, 0, 0]]
    }, 
    {
      "op": "elemwise_mul", 
      "name": "shufflenasoneshotfix0_hybridsequential0_shufflenetblock8_hardswish3__mul0", 
      "inputs": [[304, 0, 0], [307, 0, 0]]
    }, 
    {
      "op": "null", 
      "name": "shufflenasoneshotfix0_hybridsequential0_shufflenetblock8_conv0_weight", 
      "attrs": {
        "__dtype__": "0", 
        "__lr_mult__": "1.0", 
        "__shape__": "(160, 1, 3, 3)", 
        "__storage_type__": "0", 
        "__wd_mult__": "1.0"
      }, 
      "inputs": []
    }, 
    {
      "op": "Convolution", 
      "name": "shufflenasoneshotfix0_hybridsequential0_shufflenetblock8_conv0_fwd", 
      "attrs": {
        "dilate": "(1, 1)", 
        "kernel": "(3, 3)", 
        "layout": "NCHW", 
        "no_bias": "True", 
        "num_filter": "160", 
        "num_group": "160", 
        "pad": "(1, 1)", 
        "stride": "(2, 2)"
      }, 
      "inputs": [[290, 0, 0], [309, 0, 0]]
    }, 
    {
      "op": "null", 
      "name": "shufflenasoneshotfix0_hybridsequential0_shufflenetblock8_batchnorm0_gamma", 
      "attrs": {
        "__dtype__": "0", 
        "__init__": "ones", 
        "__lr_mult__": "1.0", 
        "__shape__": "(160,)", 
        "__storage_type__": "0", 
        "__wd_mult__": "1.0"
      }, 
      "inputs": []
    }, 
    {
      "op": "null", 
      "name": "shufflenasoneshotfix0_hybridsequential0_shufflenetblock8_batchnorm0_beta", 
      "attrs": {
        "__dtype__": "0", 
        "__init__": "zeros", 
        "__lr_mult__": "1.0", 
        "__shape__": "(160,)", 
        "__storage_type__": "0", 
        "__wd_mult__": "1.0"
      }, 
      "inputs": []
    }, 
    {
      "op": "null", 
      "name": "shufflenasoneshotfix0_hybridsequential0_shufflenetblock8_batchnorm0_running_mean", 
      "attrs": {
        "__dtype__": "0", 
        "__init__": "zeros", 
        "__lr_mult__": "1.0", 
        "__shape__": "(160,)", 
        "__storage_type__": "0", 
        "__wd_mult__": "1.0"
      }, 
      "inputs": []
    }, 
    {
      "op": "null", 
      "name": "shufflenasoneshotfix0_hybridsequential0_shufflenetblock8_batchnorm0_running_var", 
      "attrs": {
        "__dtype__": "0", 
        "__init__": "ones", 
        "__lr_mult__": "1.0", 
        "__shape__": "(160,)", 
        "__storage_type__": "0", 
        "__wd_mult__": "1.0"
      }, 
      "inputs": []
    }, 
    {
      "op": "BatchNorm", 
      "name": "shufflenasoneshotfix0_hybridsequential0_shufflenetblock8_batchnorm0_fwd", 
      "attrs": {
        "axis": "1", 
        "eps": "1e-05", 
        "fix_gamma": "False", 
        "momentum": "0.1", 
        "use_global_stats": "False"
      }, 
      "inputs": [[310, 0, 0], [311, 0, 0], [312, 0, 0], [313, 0, 1], [314, 0, 1]]
    }, 
    {
      "op": "null", 
      "name": "shufflenasoneshotfix0_hybridsequential0_shufflenetblock8_conv1_weight", 
      "attrs": {
        "__dtype__": "0", 
        "__lr_mult__": "1.0", 
        "__shape__": "(96, 160, 1, 1)", 
        "__storage_type__": "0", 
        "__wd_mult__": "1.0"
      }, 
      "inputs": []
    }, 
    {
      "op": "Convolution", 
      "name": "shufflenasoneshotfix0_hybridsequential0_shufflenetblock8_conv1_fwd", 
      "attrs": {
        "dilate": "(1, 1)", 
        "kernel": "(1, 1)", 
        "layout": "NCHW", 
        "no_bias": "True", 
        "num_filter": "96", 
        "num_group": "1", 
        "pad": "(0, 0)", 
        "stride": "(1, 1)"
      }, 
      "inputs": [[315, 0, 0], [316, 0, 0]]
    }, 
    {
      "op": "null", 
      "name": "shufflenasoneshotfix0_hybridsequential0_shufflenetblock8_batchnorm1_gamma", 
      "attrs": {
        "__dtype__": "0", 
        "__init__": "ones", 
        "__lr_mult__": "1.0", 
        "__shape__": "(96,)", 
        "__storage_type__": "0", 
        "__wd_mult__": "1.0"
      }, 
      "inputs": []
    }, 
    {
      "op": "null", 
      "name": "shufflenasoneshotfix0_hybridsequential0_shufflenetblock8_batchnorm1_beta", 
      "attrs": {
        "__dtype__": "0", 
        "__init__": "zeros", 
        "__lr_mult__": "1.0", 
        "__shape__": "(96,)", 
        "__storage_type__": "0", 
        "__wd_mult__": "1.0"
      }, 
      "inputs": []
    }, 
    {
      "op": "null", 
      "name": "shufflenasoneshotfix0_hybridsequential0_shufflenetblock8_batchnorm1_running_mean", 
      "attrs": {
        "__dtype__": "0", 
        "__init__": "zeros", 
        "__lr_mult__": "1.0", 
        "__shape__": "(96,)", 
        "__storage_type__": "0", 
        "__wd_mult__": "1.0"
      }, 
      "inputs": []
    }, 
    {
      "op": "null", 
      "name": "shufflenasoneshotfix0_hybridsequential0_shufflenetblock8_batchnorm1_running_var", 
      "attrs": {
        "__dtype__": "0", 
        "__init__": "ones", 
        "__lr_mult__": "1.0", 
        "__shape__": "(96,)", 
        "__storage_type__": "0", 
        "__wd_mult__": "1.0"
      }, 
      "inputs": []
    }, 
    {
      "op": "BatchNorm", 
      "name": "shufflenasoneshotfix0_hybridsequential0_shufflenetblock8_batchnorm1_fwd", 
      "attrs": {
        "axis": "1", 
        "eps": "1e-05", 
        "fix_gamma": "False", 
        "momentum": "0.1", 
        "use_global_stats": "False"
      }, 
      "inputs": [[317, 0, 0], [318, 0, 0], [319, 0, 0], [320, 0, 1], [321, 0, 1]]
    }, 
    {
      "op": "_plus_scalar", 
      "name": "shufflenasoneshotfix0_hybridsequential0_shufflenetblock8_hardswish0__plusscalar0", 
      "attrs": {"scalar": "3"}, 
      "inputs": [[322, 0, 0]]
    }, 
    {
      "op": "clip", 
      "name": "shufflenasoneshotfix0_hybridsequential0_shufflenetblock8_hardswish0_hard_swish", 
      "attrs": {
        "a_max": "6", 
        "a_min": "0"
      }, 
      "inputs": [[323, 0, 0]]
    }, 
    {
      "op": "_div_scalar", 
      "name": "shufflenasoneshotfix0_hybridsequential0_shufflenetblock8_hardswish0__divscalar0", 
      "attrs": {"scalar": "6.0"}, 
      "inputs": [[324, 0, 0]]
    }, 
    {
      "op": "elemwise_mul", 
      "name": "shufflenasoneshotfix0_hybridsequential0_shufflenetblock8_hardswish0__mul0", 
      "inputs": [[322, 0, 0], [325, 0, 0]]
    }, 
    {
      "op": "null", 
      "name": "shufflenasoneshotfix0_hybridsequential0_shufflenetblock8_conv2_weight", 
      "attrs": {
        "__dtype__": "0", 
        "__lr_mult__": "1.0", 
        "__shape__": "(96, 1, 3, 3)", 
        "__storage_type__": "0", 
        "__wd_mult__": "1.0"
      }, 
      "inputs": []
    }, 
    {
      "op": "Convolution", 
      "name": "shufflenasoneshotfix0_hybridsequential0_shufflenetblock8_conv2_fwd", 
      "attrs": {
        "dilate": "(1, 1)", 
        "kernel": "(3, 3)", 
        "layout": "NCHW", 
        "no_bias": "True", 
        "num_filter": "96", 
        "num_group": "96", 
        "pad": "(1, 1)", 
        "stride": "(1, 1)"
      }, 
      "inputs": [[326, 0, 0], [327, 0, 0]]
    }, 
    {
      "op": "null", 
      "name": "shufflenasoneshotfix0_hybridsequential0_shufflenetblock8_batchnorm2_gamma", 
      "attrs": {
        "__dtype__": "0", 
        "__init__": "ones", 
        "__lr_mult__": "1.0", 
        "__shape__": "(96,)", 
        "__storage_type__": "0", 
        "__wd_mult__": "1.0"
      }, 
      "inputs": []
    }, 
    {
      "op": "null", 
      "name": "shufflenasoneshotfix0_hybridsequential0_shufflenetblock8_batchnorm2_beta", 
      "attrs": {
        "__dtype__": "0", 
        "__init__": "zeros", 
        "__lr_mult__": "1.0", 
        "__shape__": "(96,)", 
        "__storage_type__": "0", 
        "__wd_mult__": "1.0"
      }, 
      "inputs": []
    }, 
    {
      "op": "null", 
      "name": "shufflenasoneshotfix0_hybridsequential0_shufflenetblock8_batchnorm2_running_mean", 
      "attrs": {
        "__dtype__": "0", 
        "__init__": "zeros", 
        "__lr_mult__": "1.0", 
        "__shape__": "(96,)", 
        "__storage_type__": "0", 
        "__wd_mult__": "1.0"
      }, 
      "inputs": []
    }, 
    {
      "op": "null", 
      "name": "shufflenasoneshotfix0_hybridsequential0_shufflenetblock8_batchnorm2_running_var", 
      "attrs": {
        "__dtype__": "0", 
        "__init__": "ones", 
        "__lr_mult__": "1.0", 
        "__shape__": "(96,)", 
        "__storage_type__": "0", 
        "__wd_mult__": "1.0"
      }, 
      "inputs": []
    }, 
    {
      "op": "BatchNorm", 
      "name": "shufflenasoneshotfix0_hybridsequential0_shufflenetblock8_batchnorm2_fwd", 
      "attrs": {
        "axis": "1", 
        "eps": "1e-05", 
        "fix_gamma": "False", 
        "momentum": "0.1", 
        "use_global_stats": "False"
      }, 
      "inputs": [[328, 0, 0], [329, 0, 0], [330, 0, 0], [331, 0, 1], [332, 0, 1]]
    }, 
    {
      "op": "null", 
      "name": "shufflenasoneshotfix0_hybridsequential0_shufflenetblock8_conv3_weight", 
      "attrs": {
        "__dtype__": "0", 
        "__lr_mult__": "1.0", 
        "__shape__": "(96, 96, 1, 1)", 
        "__storage_type__": "0", 
        "__wd_mult__": "1.0"
      }, 
      "inputs": []
    }, 
    {
      "op": "Convolution", 
      "name": "shufflenasoneshotfix0_hybridsequential0_shufflenetblock8_conv3_fwd", 
      "attrs": {
        "dilate": "(1, 1)", 
        "kernel": "(1, 1)", 
        "layout": "NCHW", 
        "no_bias": "True", 
        "num_filter": "96", 
        "num_group": "1", 
        "pad": "(0, 0)", 
        "stride": "(1, 1)"
      }, 
      "inputs": [[333, 0, 0], [334, 0, 0]]
    }, 
    {
      "op": "null", 
      "name": "shufflenasoneshotfix0_hybridsequential0_shufflenetblock8_batchnorm3_gamma", 
      "attrs": {
        "__dtype__": "0", 
        "__init__": "ones", 
        "__lr_mult__": "1.0", 
        "__shape__": "(96,)", 
        "__storage_type__": "0", 
        "__wd_mult__": "1.0"
      }, 
      "inputs": []
    }, 
    {
      "op": "null", 
      "name": "shufflenasoneshotfix0_hybridsequential0_shufflenetblock8_batchnorm3_beta", 
      "attrs": {
        "__dtype__": "0", 
        "__init__": "zeros", 
        "__lr_mult__": "1.0", 
        "__shape__": "(96,)", 
        "__storage_type__": "0", 
        "__wd_mult__": "1.0"
      }, 
      "inputs": []
    }, 
    {
      "op": "null", 
      "name": "shufflenasoneshotfix0_hybridsequential0_shufflenetblock8_batchnorm3_running_mean", 
      "attrs": {
        "__dtype__": "0", 
        "__init__": "zeros", 
        "__lr_mult__": "1.0", 
        "__shape__": "(96,)", 
        "__storage_type__": "0", 
        "__wd_mult__": "1.0"
      }, 
      "inputs": []
    }, 
    {
      "op": "null", 
      "name": "shufflenasoneshotfix0_hybridsequential0_shufflenetblock8_batchnorm3_running_var", 
      "attrs": {
        "__dtype__": "0", 
        "__init__": "ones", 
        "__lr_mult__": "1.0", 
        "__shape__": "(96,)", 
        "__storage_type__": "0", 
        "__wd_mult__": "1.0"
      }, 
      "inputs": []
    }, 
    {
      "op": "BatchNorm", 
      "name": "shufflenasoneshotfix0_hybridsequential0_shufflenetblock8_batchnorm3_fwd", 
      "attrs": {
        "axis": "1", 
        "eps": "1e-05", 
        "fix_gamma": "False", 
        "momentum": "0.1", 
        "use_global_stats": "False"
      }, 
      "inputs": [[335, 0, 0], [336, 0, 0], [337, 0, 0], [338, 0, 1], [339, 0, 1]]
    }, 
    {
      "op": "_plus_scalar", 
      "name": "shufflenasoneshotfix0_hybridsequential0_shufflenetblock8_hardswish1__plusscalar0", 
      "attrs": {"scalar": "3"}, 
      "inputs": [[340, 0, 0]]
    }, 
    {
      "op": "clip", 
      "name": "shufflenasoneshotfix0_hybridsequential0_shufflenetblock8_hardswish1_hard_swish", 
      "attrs": {
        "a_max": "6", 
        "a_min": "0"
      }, 
      "inputs": [[341, 0, 0]]
    }, 
    {
      "op": "_div_scalar", 
      "name": "shufflenasoneshotfix0_hybridsequential0_shufflenetblock8_hardswish1__divscalar0", 
      "attrs": {"scalar": "6.0"}, 
      "inputs": [[342, 0, 0]]
    }, 
    {
      "op": "elemwise_mul", 
      "name": "shufflenasoneshotfix0_hybridsequential0_shufflenetblock8_hardswish1__mul0", 
      "inputs": [[340, 0, 0], [343, 0, 0]]
    }, 
    {
      "op": "null", 
      "name": "shufflenasoneshotfix0_hybridsequential0_shufflenetblock8_conv4_weight", 
      "attrs": {
        "__dtype__": "0", 
        "__lr_mult__": "1.0", 
        "__shape__": "(96, 1, 3, 3)", 
        "__storage_type__": "0", 
        "__wd_mult__": "1.0"
      }, 
      "inputs": []
    }, 
    {
      "op": "Convolution", 
      "name": "shufflenasoneshotfix0_hybridsequential0_shufflenetblock8_conv4_fwd", 
      "attrs": {
        "dilate": "(1, 1)", 
        "kernel": "(3, 3)", 
        "layout": "NCHW", 
        "no_bias": "True", 
        "num_filter": "96", 
        "num_group": "96", 
        "pad": "(1, 1)", 
        "stride": "(1, 1)"
      }, 
      "inputs": [[344, 0, 0], [345, 0, 0]]
    }, 
    {
      "op": "null", 
      "name": "shufflenasoneshotfix0_hybridsequential0_shufflenetblock8_batchnorm4_gamma", 
      "attrs": {
        "__dtype__": "0", 
        "__init__": "ones", 
        "__lr_mult__": "1.0", 
        "__shape__": "(96,)", 
        "__storage_type__": "0", 
        "__wd_mult__": "1.0"
      }, 
      "inputs": []
    }, 
    {
      "op": "null", 
      "name": "shufflenasoneshotfix0_hybridsequential0_shufflenetblock8_batchnorm4_beta", 
      "attrs": {
        "__dtype__": "0", 
        "__init__": "zeros", 
        "__lr_mult__": "1.0", 
        "__shape__": "(96,)", 
        "__storage_type__": "0", 
        "__wd_mult__": "1.0"
      }, 
      "inputs": []
    }, 
    {
      "op": "null", 
      "name": "shufflenasoneshotfix0_hybridsequential0_shufflenetblock8_batchnorm4_running_mean", 
      "attrs": {
        "__dtype__": "0", 
        "__init__": "zeros", 
        "__lr_mult__": "1.0", 
        "__shape__": "(96,)", 
        "__storage_type__": "0", 
        "__wd_mult__": "1.0"
      }, 
      "inputs": []
    }, 
    {
      "op": "null", 
      "name": "shufflenasoneshotfix0_hybridsequential0_shufflenetblock8_batchnorm4_running_var", 
      "attrs": {
        "__dtype__": "0", 
        "__init__": "ones", 
        "__lr_mult__": "1.0", 
        "__shape__": "(96,)", 
        "__storage_type__": "0", 
        "__wd_mult__": "1.0"
      }, 
      "inputs": []
    }, 
    {
      "op": "BatchNorm", 
      "name": "shufflenasoneshotfix0_hybridsequential0_shufflenetblock8_batchnorm4_fwd", 
      "attrs": {
        "axis": "1", 
        "eps": "1e-05", 
        "fix_gamma": "False", 
        "momentum": "0.1", 
        "use_global_stats": "False"
      }, 
      "inputs": [[346, 0, 0], [347, 0, 0], [348, 0, 0], [349, 0, 1], [350, 0, 1]]
    }, 
    {
      "op": "null", 
      "name": "shufflenasoneshotfix0_hybridsequential0_shufflenetblock8_conv5_weight", 
      "attrs": {
        "__dtype__": "0", 
        "__lr_mult__": "1.0", 
        "__shape__": "(160, 96, 1, 1)", 
        "__storage_type__": "0", 
        "__wd_mult__": "1.0"
      }, 
      "inputs": []
    }, 
    {
      "op": "Convolution", 
      "name": "shufflenasoneshotfix0_hybridsequential0_shufflenetblock8_conv5_fwd", 
      "attrs": {
        "dilate": "(1, 1)", 
        "kernel": "(1, 1)", 
        "layout": "NCHW", 
        "no_bias": "True", 
        "num_filter": "160", 
        "num_group": "1", 
        "pad": "(0, 0)", 
        "stride": "(1, 1)"
      }, 
      "inputs": [[351, 0, 0], [352, 0, 0]]
    }, 
    {
      "op": "null", 
      "name": "shufflenasoneshotfix0_hybridsequential0_shufflenetblock8_batchnorm5_gamma", 
      "attrs": {
        "__dtype__": "0", 
        "__init__": "ones", 
        "__lr_mult__": "1.0", 
        "__shape__": "(160,)", 
        "__storage_type__": "0", 
        "__wd_mult__": "1.0"
      }, 
      "inputs": []
    }, 
    {
      "op": "null", 
      "name": "shufflenasoneshotfix0_hybridsequential0_shufflenetblock8_batchnorm5_beta", 
      "attrs": {
        "__dtype__": "0", 
        "__init__": "zeros", 
        "__lr_mult__": "1.0", 
        "__shape__": "(160,)", 
        "__storage_type__": "0", 
        "__wd_mult__": "1.0"
      }, 
      "inputs": []
    }, 
    {
      "op": "null", 
      "name": "shufflenasoneshotfix0_hybridsequential0_shufflenetblock8_batchnorm5_running_mean", 
      "attrs": {
        "__dtype__": "0", 
        "__init__": "zeros", 
        "__lr_mult__": "1.0", 
        "__shape__": "(160,)", 
        "__storage_type__": "0", 
        "__wd_mult__": "1.0"
      }, 
      "inputs": []
    }, 
    {
      "op": "null", 
      "name": "shufflenasoneshotfix0_hybridsequential0_shufflenetblock8_batchnorm5_running_var", 
      "attrs": {
        "__dtype__": "0", 
        "__init__": "ones", 
        "__lr_mult__": "1.0", 
        "__shape__": "(160,)", 
        "__storage_type__": "0", 
        "__wd_mult__": "1.0"
      }, 
      "inputs": []
    }, 
    {
      "op": "BatchNorm", 
      "name": "shufflenasoneshotfix0_hybridsequential0_shufflenetblock8_batchnorm5_fwd", 
      "attrs": {
        "axis": "1", 
        "eps": "1e-05", 
        "fix_gamma": "False", 
        "momentum": "0.1", 
        "use_global_stats": "False"
      }, 
      "inputs": [[353, 0, 0], [354, 0, 0], [355, 0, 0], [356, 0, 1], [357, 0, 1]]
    }, 
    {
      "op": "_plus_scalar", 
      "name": "shufflenasoneshotfix0_hybridsequential0_shufflenetblock8_hardswish2__plusscalar0", 
      "attrs": {"scalar": "3"}, 
      "inputs": [[358, 0, 0]]
    }, 
    {
      "op": "clip", 
      "name": "shufflenasoneshotfix0_hybridsequential0_shufflenetblock8_hardswish2_hard_swish", 
      "attrs": {
        "a_max": "6", 
        "a_min": "0"
      }, 
      "inputs": [[359, 0, 0]]
    }, 
    {
      "op": "_div_scalar", 
      "name": "shufflenasoneshotfix0_hybridsequential0_shufflenetblock8_hardswish2__divscalar0", 
      "attrs": {"scalar": "6.0"}, 
      "inputs": [[360, 0, 0]]
    }, 
    {
      "op": "elemwise_mul", 
      "name": "shufflenasoneshotfix0_hybridsequential0_shufflenetblock8_hardswish2__mul0", 
      "inputs": [[358, 0, 0], [361, 0, 0]]
    }, 
    {
      "op": "Pooling", 
      "name": "shufflenasoneshotfix0_hybridsequential0_shufflenetblock8_se0_pool0_fwd", 
      "attrs": {
        "global_pool": "True", 
        "kernel": "(1, 1)", 
        "layout": "NCHW", 
        "pad": "(0, 0)", 
        "pool_type": "avg", 
        "pooling_convention": "full", 
        "stride": "(1, 1)"
      }, 
      "inputs": [[362, 0, 0]]
    }, 
    {
      "op": "null", 
      "name": "shufflenasoneshotfix0_hybridsequential0_shufflenetblock8_se0_conv_squeeze_weight", 
      "attrs": {
        "__dtype__": "0", 
        "__lr_mult__": "1.0", 
        "__shape__": "(40, 160, 1, 1)", 
        "__storage_type__": "0", 
        "__wd_mult__": "1.0"
      }, 
      "inputs": []
    }, 
    {
      "op": "null", 
      "name": "shufflenasoneshotfix0_hybridsequential0_shufflenetblock8_se0_conv_squeeze_bias", 
      "attrs": {
        "__dtype__": "0", 
        "__init__": "zeros", 
        "__lr_mult__": "1.0", 
        "__shape__": "(40,)", 
        "__storage_type__": "0", 
        "__wd_mult__": "1.0"
      }, 
      "inputs": []
    }, 
    {
      "op": "Convolution", 
      "name": "shufflenasoneshotfix0_hybridsequential0_shufflenetblock8_se0_conv_squeeze_fwd", 
      "attrs": {
        "dilate": "(1, 1)", 
        "kernel": "(1, 1)", 
        "layout": "NCHW", 
        "no_bias": "False", 
        "num_filter": "40", 
        "num_group": "1", 
        "pad": "(0, 0)", 
        "stride": "(1, 1)"
      }, 
      "inputs": [[363, 0, 0], [364, 0, 0], [365, 0, 0]]
    }, 
    {
      "op": "Activation", 
      "name": "shufflenasoneshotfix0_hybridsequential0_shufflenetblock8_se0_relu0_fwd", 
      "attrs": {"act_type": "relu"}, 
      "inputs": [[366, 0, 0]]
    }, 
    {
      "op": "null", 
      "name": "shufflenasoneshotfix0_hybridsequential0_shufflenetblock8_se0_conv_excitation_weight", 
      "attrs": {
        "__dtype__": "0", 
        "__lr_mult__": "1.0", 
        "__shape__": "(160, 40, 1, 1)", 
        "__storage_type__": "0", 
        "__wd_mult__": "1.0"
      }, 
      "inputs": []
    }, 
    {
      "op": "null", 
      "name": "shufflenasoneshotfix0_hybridsequential0_shufflenetblock8_se0_conv_excitation_bias", 
      "attrs": {
        "__dtype__": "0", 
        "__init__": "zeros", 
        "__lr_mult__": "1.0", 
        "__shape__": "(160,)", 
        "__storage_type__": "0", 
        "__wd_mult__": "1.0"
      }, 
      "inputs": []
    }, 
    {
      "op": "Convolution", 
      "name": "shufflenasoneshotfix0_hybridsequential0_shufflenetblock8_se0_conv_excitation_fwd", 
      "attrs": {
        "dilate": "(1, 1)", 
        "kernel": "(1, 1)", 
        "layout": "NCHW", 
        "no_bias": "False", 
        "num_filter": "160", 
        "num_group": "1", 
        "pad": "(0, 0)", 
        "stride": "(1, 1)"
      }, 
      "inputs": [[367, 0, 0], [368, 0, 0], [369, 0, 0]]
    }, 
    {
      "op": "_plus_scalar", 
      "name": "shufflenasoneshotfix0_hybridsequential0_shufflenetblock8_se0_hardsigmoid0__plusscalar0", 
      "attrs": {"scalar": "3"}, 
      "inputs": [[370, 0, 0]]
    }, 
    {
      "op": "clip", 
      "name": "shufflenasoneshotfix0_hybridsequential0_shufflenetblock8_se0_hardsigmoid0_hard_sigmoid", 
      "attrs": {
        "a_max": "6", 
        "a_min": "0"
      }, 
      "inputs": [[371, 0, 0]]
    }, 
    {
      "op": "_div_scalar", 
      "name": "shufflenasoneshotfix0_hybridsequential0_shufflenetblock8_se0_hardsigmoid0__divscalar0", 
      "attrs": {"scalar": "6.0"}, 
      "inputs": [[372, 0, 0]]
    }, 
    {
      "op": "broadcast_mul", 
      "name": "shufflenasoneshotfix0_hybridsequential0_shufflenetblock8_se0_broadcast_mul0", 
      "inputs": [[362, 0, 0], [373, 0, 0]]
    }, 
    {
      "op": "Concat", 
      "name": "shufflenasoneshotfix0_hybridsequential0_shufflenetblock8_concat0", 
      "attrs": {
        "dim": "1", 
        "num_args": "2"
      }, 
      "inputs": [[308, 0, 0], [374, 0, 0]]
    }, 
    {
      "op": "Reshape", 
      "name": "shufflenasoneshotfix0_hybridsequential0_shufflenetblock9_shufflechannels0_reshape0", 
      "attrs": {"shape": "(0, -4, 2, -1, -2)"}, 
      "inputs": [[375, 0, 0]]
    }, 
    {
      "op": "SwapAxis", 
      "name": "shufflenasoneshotfix0_hybridsequential0_shufflenetblock9_shufflechannels0_swapaxes0", 
      "attrs": {
        "dim1": "1", 
        "dim2": "2"
      }, 
      "inputs": [[376, 0, 0]]
    }, 
    {
      "op": "Reshape", 
      "name": "shufflenasoneshotfix0_hybridsequential0_shufflenetblock9_shufflechannels0_reshape1", 
      "attrs": {"shape": "(0, -3, -2)"}, 
      "inputs": [[377, 0, 0]]
    }, 
    {
      "op": "slice", 
      "name": "shufflenasoneshotfix0_hybridsequential0_shufflenetblock9_shufflechannels0_slice0", 
      "attrs": {
        "begin": "(None, None, None, None)", 
        "end": "(None, 160, None, None)"
      }, 
      "inputs": [[378, 0, 0]]
    }, 
    {
      "op": "slice", 
      "name": "shufflenasoneshotfix0_hybridsequential0_shufflenetblock9_shufflechannels0_slice1", 
      "attrs": {
        "begin": "(None, 160, None, None)", 
        "end": "(None, None, None, None)"
      }, 
      "inputs": [[378, 0, 0]]
    }, 
    {
      "op": "null", 
      "name": "shufflenasoneshotfix0_hybridsequential0_shufflenetblock9_conv0_weight", 
      "attrs": {
        "__dtype__": "0", 
        "__lr_mult__": "1.0", 
        "__shape__": "(160, 160, 1, 1)", 
        "__storage_type__": "0", 
        "__wd_mult__": "1.0"
      }, 
      "inputs": []
    }, 
    {
      "op": "Convolution", 
      "name": "shufflenasoneshotfix0_hybridsequential0_shufflenetblock9_conv0_fwd", 
      "attrs": {
        "dilate": "(1, 1)", 
        "kernel": "(1, 1)", 
        "layout": "NCHW", 
        "no_bias": "True", 
        "num_filter": "160", 
        "num_group": "1", 
        "pad": "(0, 0)", 
        "stride": "(1, 1)"
      }, 
      "inputs": [[380, 0, 0], [381, 0, 0]]
    }, 
    {
      "op": "null", 
      "name": "shufflenasoneshotfix0_hybridsequential0_shufflenetblock9_batchnorm0_gamma", 
      "attrs": {
        "__dtype__": "0", 
        "__init__": "ones", 
        "__lr_mult__": "1.0", 
        "__shape__": "(160,)", 
        "__storage_type__": "0", 
        "__wd_mult__": "1.0"
      }, 
      "inputs": []
    }, 
    {
      "op": "null", 
      "name": "shufflenasoneshotfix0_hybridsequential0_shufflenetblock9_batchnorm0_beta", 
      "attrs": {
        "__dtype__": "0", 
        "__init__": "zeros", 
        "__lr_mult__": "1.0", 
        "__shape__": "(160,)", 
        "__storage_type__": "0", 
        "__wd_mult__": "1.0"
      }, 
      "inputs": []
    }, 
    {
      "op": "null", 
      "name": "shufflenasoneshotfix0_hybridsequential0_shufflenetblock9_batchnorm0_running_mean", 
      "attrs": {
        "__dtype__": "0", 
        "__init__": "zeros", 
        "__lr_mult__": "1.0", 
        "__shape__": "(160,)", 
        "__storage_type__": "0", 
        "__wd_mult__": "1.0"
      }, 
      "inputs": []
    }, 
    {
      "op": "null", 
      "name": "shufflenasoneshotfix0_hybridsequential0_shufflenetblock9_batchnorm0_running_var", 
      "attrs": {
        "__dtype__": "0", 
        "__init__": "ones", 
        "__lr_mult__": "1.0", 
        "__shape__": "(160,)", 
        "__storage_type__": "0", 
        "__wd_mult__": "1.0"
      }, 
      "inputs": []
    }, 
    {
      "op": "BatchNorm", 
      "name": "shufflenasoneshotfix0_hybridsequential0_shufflenetblock9_batchnorm0_fwd", 
      "attrs": {
        "axis": "1", 
        "eps": "1e-05", 
        "fix_gamma": "False", 
        "momentum": "0.1", 
        "use_global_stats": "False"
      }, 
      "inputs": [[382, 0, 0], [383, 0, 0], [384, 0, 0], [385, 0, 1], [386, 0, 1]]
    }, 
    {
      "op": "_plus_scalar", 
      "name": "shufflenasoneshotfix0_hybridsequential0_shufflenetblock9_hardswish0__plusscalar0", 
      "attrs": {"scalar": "3"}, 
      "inputs": [[387, 0, 0]]
    }, 
    {
      "op": "clip", 
      "name": "shufflenasoneshotfix0_hybridsequential0_shufflenetblock9_hardswish0_hard_swish", 
      "attrs": {
        "a_max": "6", 
        "a_min": "0"
      }, 
      "inputs": [[388, 0, 0]]
    }, 
    {
      "op": "_div_scalar", 
      "name": "shufflenasoneshotfix0_hybridsequential0_shufflenetblock9_hardswish0__divscalar0", 
      "attrs": {"scalar": "6.0"}, 
      "inputs": [[389, 0, 0]]
    }, 
    {
      "op": "elemwise_mul", 
      "name": "shufflenasoneshotfix0_hybridsequential0_shufflenetblock9_hardswish0__mul0", 
      "inputs": [[387, 0, 0], [390, 0, 0]]
    }, 
    {
      "op": "null", 
      "name": "shufflenasoneshotfix0_hybridsequential0_shufflenetblock9_conv1_weight", 
      "attrs": {
        "__dtype__": "0", 
        "__lr_mult__": "1.0", 
        "__shape__": "(160, 1, 7, 7)", 
        "__storage_type__": "0", 
        "__wd_mult__": "1.0"
      }, 
      "inputs": []
    }, 
    {
      "op": "Convolution", 
      "name": "shufflenasoneshotfix0_hybridsequential0_shufflenetblock9_conv1_fwd", 
      "attrs": {
        "dilate": "(1, 1)", 
        "kernel": "(7, 7)", 
        "layout": "NCHW", 
        "no_bias": "True", 
        "num_filter": "160", 
        "num_group": "160", 
        "pad": "(3, 3)", 
        "stride": "(1, 1)"
      }, 
      "inputs": [[391, 0, 0], [392, 0, 0]]
    }, 
    {
      "op": "null", 
      "name": "shufflenasoneshotfix0_hybridsequential0_shufflenetblock9_batchnorm1_gamma", 
      "attrs": {
        "__dtype__": "0", 
        "__init__": "ones", 
        "__lr_mult__": "1.0", 
        "__shape__": "(160,)", 
        "__storage_type__": "0", 
        "__wd_mult__": "1.0"
      }, 
      "inputs": []
    }, 
    {
      "op": "null", 
      "name": "shufflenasoneshotfix0_hybridsequential0_shufflenetblock9_batchnorm1_beta", 
      "attrs": {
        "__dtype__": "0", 
        "__init__": "zeros", 
        "__lr_mult__": "1.0", 
        "__shape__": "(160,)", 
        "__storage_type__": "0", 
        "__wd_mult__": "1.0"
      }, 
      "inputs": []
    }, 
    {
      "op": "null", 
      "name": "shufflenasoneshotfix0_hybridsequential0_shufflenetblock9_batchnorm1_running_mean", 
      "attrs": {
        "__dtype__": "0", 
        "__init__": "zeros", 
        "__lr_mult__": "1.0", 
        "__shape__": "(160,)", 
        "__storage_type__": "0", 
        "__wd_mult__": "1.0"
      }, 
      "inputs": []
    }, 
    {
      "op": "null", 
      "name": "shufflenasoneshotfix0_hybridsequential0_shufflenetblock9_batchnorm1_running_var", 
      "attrs": {
        "__dtype__": "0", 
        "__init__": "ones", 
        "__lr_mult__": "1.0", 
        "__shape__": "(160,)", 
        "__storage_type__": "0", 
        "__wd_mult__": "1.0"
      }, 
      "inputs": []
    }, 
    {
      "op": "BatchNorm", 
      "name": "shufflenasoneshotfix0_hybridsequential0_shufflenetblock9_batchnorm1_fwd", 
      "attrs": {
        "axis": "1", 
        "eps": "1e-05", 
        "fix_gamma": "False", 
        "momentum": "0.1", 
        "use_global_stats": "False"
      }, 
      "inputs": [[393, 0, 0], [394, 0, 0], [395, 0, 0], [396, 0, 1], [397, 0, 1]]
    }, 
    {
      "op": "null", 
      "name": "shufflenasoneshotfix0_hybridsequential0_shufflenetblock9_conv2_weight", 
      "attrs": {
        "__dtype__": "0", 
        "__lr_mult__": "1.0", 
        "__shape__": "(160, 160, 1, 1)", 
        "__storage_type__": "0", 
        "__wd_mult__": "1.0"
      }, 
      "inputs": []
    }, 
    {
      "op": "Convolution", 
      "name": "shufflenasoneshotfix0_hybridsequential0_shufflenetblock9_conv2_fwd", 
      "attrs": {
        "dilate": "(1, 1)", 
        "kernel": "(1, 1)", 
        "layout": "NCHW", 
        "no_bias": "True", 
        "num_filter": "160", 
        "num_group": "1", 
        "pad": "(0, 0)", 
        "stride": "(1, 1)"
      }, 
      "inputs": [[398, 0, 0], [399, 0, 0]]
    }, 
    {
      "op": "null", 
      "name": "shufflenasoneshotfix0_hybridsequential0_shufflenetblock9_batchnorm2_gamma", 
      "attrs": {
        "__dtype__": "0", 
        "__init__": "ones", 
        "__lr_mult__": "1.0", 
        "__shape__": "(160,)", 
        "__storage_type__": "0", 
        "__wd_mult__": "1.0"
      }, 
      "inputs": []
    }, 
    {
      "op": "null", 
      "name": "shufflenasoneshotfix0_hybridsequential0_shufflenetblock9_batchnorm2_beta", 
      "attrs": {
        "__dtype__": "0", 
        "__init__": "zeros", 
        "__lr_mult__": "1.0", 
        "__shape__": "(160,)", 
        "__storage_type__": "0", 
        "__wd_mult__": "1.0"
      }, 
      "inputs": []
    }, 
    {
      "op": "null", 
      "name": "shufflenasoneshotfix0_hybridsequential0_shufflenetblock9_batchnorm2_running_mean", 
      "attrs": {
        "__dtype__": "0", 
        "__init__": "zeros", 
        "__lr_mult__": "1.0", 
        "__shape__": "(160,)", 
        "__storage_type__": "0", 
        "__wd_mult__": "1.0"
      }, 
      "inputs": []
    }, 
    {
      "op": "null", 
      "name": "shufflenasoneshotfix0_hybridsequential0_shufflenetblock9_batchnorm2_running_var", 
      "attrs": {
        "__dtype__": "0", 
        "__init__": "ones", 
        "__lr_mult__": "1.0", 
        "__shape__": "(160,)", 
        "__storage_type__": "0", 
        "__wd_mult__": "1.0"
      }, 
      "inputs": []
    }, 
    {
      "op": "BatchNorm", 
      "name": "shufflenasoneshotfix0_hybridsequential0_shufflenetblock9_batchnorm2_fwd", 
      "attrs": {
        "axis": "1", 
        "eps": "1e-05", 
        "fix_gamma": "False", 
        "momentum": "0.1", 
        "use_global_stats": "False"
      }, 
      "inputs": [[400, 0, 0], [401, 0, 0], [402, 0, 0], [403, 0, 1], [404, 0, 1]]
    }, 
    {
      "op": "_plus_scalar", 
      "name": "shufflenasoneshotfix0_hybridsequential0_shufflenetblock9_hardswish1__plusscalar0", 
      "attrs": {"scalar": "3"}, 
      "inputs": [[405, 0, 0]]
    }, 
    {
      "op": "clip", 
      "name": "shufflenasoneshotfix0_hybridsequential0_shufflenetblock9_hardswish1_hard_swish", 
      "attrs": {
        "a_max": "6", 
        "a_min": "0"
      }, 
      "inputs": [[406, 0, 0]]
    }, 
    {
      "op": "_div_scalar", 
      "name": "shufflenasoneshotfix0_hybridsequential0_shufflenetblock9_hardswish1__divscalar0", 
      "attrs": {"scalar": "6.0"}, 
      "inputs": [[407, 0, 0]]
    }, 
    {
      "op": "elemwise_mul", 
      "name": "shufflenasoneshotfix0_hybridsequential0_shufflenetblock9_hardswish1__mul0", 
      "inputs": [[405, 0, 0], [408, 0, 0]]
    }, 
    {
      "op": "Pooling", 
      "name": "shufflenasoneshotfix0_hybridsequential0_shufflenetblock9_se0_pool0_fwd", 
      "attrs": {
        "global_pool": "True", 
        "kernel": "(1, 1)", 
        "layout": "NCHW", 
        "pad": "(0, 0)", 
        "pool_type": "avg", 
        "pooling_convention": "full", 
        "stride": "(1, 1)"
      }, 
      "inputs": [[409, 0, 0]]
    }, 
    {
      "op": "null", 
      "name": "shufflenasoneshotfix0_hybridsequential0_shufflenetblock9_se0_conv_squeeze_weight", 
      "attrs": {
        "__dtype__": "0", 
        "__lr_mult__": "1.0", 
        "__shape__": "(40, 160, 1, 1)", 
        "__storage_type__": "0", 
        "__wd_mult__": "1.0"
      }, 
      "inputs": []
    }, 
    {
      "op": "null", 
      "name": "shufflenasoneshotfix0_hybridsequential0_shufflenetblock9_se0_conv_squeeze_bias", 
      "attrs": {
        "__dtype__": "0", 
        "__init__": "zeros", 
        "__lr_mult__": "1.0", 
        "__shape__": "(40,)", 
        "__storage_type__": "0", 
        "__wd_mult__": "1.0"
      }, 
      "inputs": []
    }, 
    {
      "op": "Convolution", 
      "name": "shufflenasoneshotfix0_hybridsequential0_shufflenetblock9_se0_conv_squeeze_fwd", 
      "attrs": {
        "dilate": "(1, 1)", 
        "kernel": "(1, 1)", 
        "layout": "NCHW", 
        "no_bias": "False", 
        "num_filter": "40", 
        "num_group": "1", 
        "pad": "(0, 0)", 
        "stride": "(1, 1)"
      }, 
      "inputs": [[410, 0, 0], [411, 0, 0], [412, 0, 0]]
    }, 
    {
      "op": "Activation", 
      "name": "shufflenasoneshotfix0_hybridsequential0_shufflenetblock9_se0_relu0_fwd", 
      "attrs": {"act_type": "relu"}, 
      "inputs": [[413, 0, 0]]
    }, 
    {
      "op": "null", 
      "name": "shufflenasoneshotfix0_hybridsequential0_shufflenetblock9_se0_conv_excitation_weight", 
      "attrs": {
        "__dtype__": "0", 
        "__lr_mult__": "1.0", 
        "__shape__": "(160, 40, 1, 1)", 
        "__storage_type__": "0", 
        "__wd_mult__": "1.0"
      }, 
      "inputs": []
    }, 
    {
      "op": "null", 
      "name": "shufflenasoneshotfix0_hybridsequential0_shufflenetblock9_se0_conv_excitation_bias", 
      "attrs": {
        "__dtype__": "0", 
        "__init__": "zeros", 
        "__lr_mult__": "1.0", 
        "__shape__": "(160,)", 
        "__storage_type__": "0", 
        "__wd_mult__": "1.0"
      }, 
      "inputs": []
    }, 
    {
      "op": "Convolution", 
      "name": "shufflenasoneshotfix0_hybridsequential0_shufflenetblock9_se0_conv_excitation_fwd", 
      "attrs": {
        "dilate": "(1, 1)", 
        "kernel": "(1, 1)", 
        "layout": "NCHW", 
        "no_bias": "False", 
        "num_filter": "160", 
        "num_group": "1", 
        "pad": "(0, 0)", 
        "stride": "(1, 1)"
      }, 
      "inputs": [[414, 0, 0], [415, 0, 0], [416, 0, 0]]
    }, 
    {
      "op": "_plus_scalar", 
      "name": "shufflenasoneshotfix0_hybridsequential0_shufflenetblock9_se0_hardsigmoid0__plusscalar0", 
      "attrs": {"scalar": "3"}, 
      "inputs": [[417, 0, 0]]
    }, 
    {
      "op": "clip", 
      "name": "shufflenasoneshotfix0_hybridsequential0_shufflenetblock9_se0_hardsigmoid0_hard_sigmoid", 
      "attrs": {
        "a_max": "6", 
        "a_min": "0"
      }, 
      "inputs": [[418, 0, 0]]
    }, 
    {
      "op": "_div_scalar", 
      "name": "shufflenasoneshotfix0_hybridsequential0_shufflenetblock9_se0_hardsigmoid0__divscalar0", 
      "attrs": {"scalar": "6.0"}, 
      "inputs": [[419, 0, 0]]
    }, 
    {
      "op": "broadcast_mul", 
      "name": "shufflenasoneshotfix0_hybridsequential0_shufflenetblock9_se0_broadcast_mul0", 
      "inputs": [[409, 0, 0], [420, 0, 0]]
    }, 
    {
      "op": "Concat", 
      "name": "shufflenasoneshotfix0_hybridsequential0_shufflenetblock9_concat0", 
      "attrs": {
        "dim": "1", 
        "num_args": "2"
      }, 
      "inputs": [[379, 0, 0], [421, 0, 0]]
    }, 
    {
      "op": "Reshape", 
      "name": "shufflenasoneshotfix0_hybridsequential0_shufflenetblock10_shufflechannels0_reshape0", 
      "attrs": {"shape": "(0, -4, 2, -1, -2)"}, 
      "inputs": [[422, 0, 0]]
    }, 
    {
      "op": "SwapAxis", 
      "name": "shufflenasoneshotfix0_hybridsequential0_shufflenetblock10_shufflechannels0_swapaxes0", 
      "attrs": {
        "dim1": "1", 
        "dim2": "2"
      }, 
      "inputs": [[423, 0, 0]]
    }, 
    {
      "op": "Reshape", 
      "name": "shufflenasoneshotfix0_hybridsequential0_shufflenetblock10_shufflechannels0_reshape1", 
      "attrs": {"shape": "(0, -3, -2)"}, 
      "inputs": [[424, 0, 0]]
    }, 
    {
      "op": "slice", 
      "name": "shufflenasoneshotfix0_hybridsequential0_shufflenetblock10_shufflechannels0_slice0", 
      "attrs": {
        "begin": "(None, None, None, None)", 
        "end": "(None, 160, None, None)"
      }, 
      "inputs": [[425, 0, 0]]
    }, 
    {
      "op": "slice", 
      "name": "shufflenasoneshotfix0_hybridsequential0_shufflenetblock10_shufflechannels0_slice1", 
      "attrs": {
        "begin": "(None, 160, None, None)", 
        "end": "(None, None, None, None)"
      }, 
      "inputs": [[425, 0, 0]]
    }, 
    {
      "op": "null", 
      "name": "shufflenasoneshotfix0_hybridsequential0_shufflenetblock10_conv0_weight", 
      "attrs": {
        "__dtype__": "0", 
        "__lr_mult__": "1.0", 
        "__shape__": "(96, 160, 1, 1)", 
        "__storage_type__": "0", 
        "__wd_mult__": "1.0"
      }, 
      "inputs": []
    }, 
    {
      "op": "Convolution", 
      "name": "shufflenasoneshotfix0_hybridsequential0_shufflenetblock10_conv0_fwd", 
      "attrs": {
        "dilate": "(1, 1)", 
        "kernel": "(1, 1)", 
        "layout": "NCHW", 
        "no_bias": "True", 
        "num_filter": "96", 
        "num_group": "1", 
        "pad": "(0, 0)", 
        "stride": "(1, 1)"
      }, 
      "inputs": [[427, 0, 0], [428, 0, 0]]
    }, 
    {
      "op": "null", 
      "name": "shufflenasoneshotfix0_hybridsequential0_shufflenetblock10_batchnorm0_gamma", 
      "attrs": {
        "__dtype__": "0", 
        "__init__": "ones", 
        "__lr_mult__": "1.0", 
        "__shape__": "(96,)", 
        "__storage_type__": "0", 
        "__wd_mult__": "1.0"
      }, 
      "inputs": []
    }, 
    {
      "op": "null", 
      "name": "shufflenasoneshotfix0_hybridsequential0_shufflenetblock10_batchnorm0_beta", 
      "attrs": {
        "__dtype__": "0", 
        "__init__": "zeros", 
        "__lr_mult__": "1.0", 
        "__shape__": "(96,)", 
        "__storage_type__": "0", 
        "__wd_mult__": "1.0"
      }, 
      "inputs": []
    }, 
    {
      "op": "null", 
      "name": "shufflenasoneshotfix0_hybridsequential0_shufflenetblock10_batchnorm0_running_mean", 
      "attrs": {
        "__dtype__": "0", 
        "__init__": "zeros", 
        "__lr_mult__": "1.0", 
        "__shape__": "(96,)", 
        "__storage_type__": "0", 
        "__wd_mult__": "1.0"
      }, 
      "inputs": []
    }, 
    {
      "op": "null", 
      "name": "shufflenasoneshotfix0_hybridsequential0_shufflenetblock10_batchnorm0_running_var", 
      "attrs": {
        "__dtype__": "0", 
        "__init__": "ones", 
        "__lr_mult__": "1.0", 
        "__shape__": "(96,)", 
        "__storage_type__": "0", 
        "__wd_mult__": "1.0"
      }, 
      "inputs": []
    }, 
    {
      "op": "BatchNorm", 
      "name": "shufflenasoneshotfix0_hybridsequential0_shufflenetblock10_batchnorm0_fwd", 
      "attrs": {
        "axis": "1", 
        "eps": "1e-05", 
        "fix_gamma": "False", 
        "momentum": "0.1", 
        "use_global_stats": "False"
      }, 
      "inputs": [[429, 0, 0], [430, 0, 0], [431, 0, 0], [432, 0, 1], [433, 0, 1]]
    }, 
    {
      "op": "_plus_scalar", 
      "name": "shufflenasoneshotfix0_hybridsequential0_shufflenetblock10_hardswish0__plusscalar0", 
      "attrs": {"scalar": "3"}, 
      "inputs": [[434, 0, 0]]
    }, 
    {
      "op": "clip", 
      "name": "shufflenasoneshotfix0_hybridsequential0_shufflenetblock10_hardswish0_hard_swish", 
      "attrs": {
        "a_max": "6", 
        "a_min": "0"
      }, 
      "inputs": [[435, 0, 0]]
    }, 
    {
      "op": "_div_scalar", 
      "name": "shufflenasoneshotfix0_hybridsequential0_shufflenetblock10_hardswish0__divscalar0", 
      "attrs": {"scalar": "6.0"}, 
      "inputs": [[436, 0, 0]]
    }, 
    {
      "op": "elemwise_mul", 
      "name": "shufflenasoneshotfix0_hybridsequential0_shufflenetblock10_hardswish0__mul0", 
      "inputs": [[434, 0, 0], [437, 0, 0]]
    }, 
    {
      "op": "null", 
      "name": "shufflenasoneshotfix0_hybridsequential0_shufflenetblock10_conv1_weight", 
      "attrs": {
        "__dtype__": "0", 
        "__lr_mult__": "1.0", 
        "__shape__": "(96, 1, 3, 3)", 
        "__storage_type__": "0", 
        "__wd_mult__": "1.0"
      }, 
      "inputs": []
    }, 
    {
      "op": "Convolution", 
      "name": "shufflenasoneshotfix0_hybridsequential0_shufflenetblock10_conv1_fwd", 
      "attrs": {
        "dilate": "(1, 1)", 
        "kernel": "(3, 3)", 
        "layout": "NCHW", 
        "no_bias": "True", 
        "num_filter": "96", 
        "num_group": "96", 
        "pad": "(1, 1)", 
        "stride": "(1, 1)"
      }, 
      "inputs": [[438, 0, 0], [439, 0, 0]]
    }, 
    {
      "op": "null", 
      "name": "shufflenasoneshotfix0_hybridsequential0_shufflenetblock10_batchnorm1_gamma", 
      "attrs": {
        "__dtype__": "0", 
        "__init__": "ones", 
        "__lr_mult__": "1.0", 
        "__shape__": "(96,)", 
        "__storage_type__": "0", 
        "__wd_mult__": "1.0"
      }, 
      "inputs": []
    }, 
    {
      "op": "null", 
      "name": "shufflenasoneshotfix0_hybridsequential0_shufflenetblock10_batchnorm1_beta", 
      "attrs": {
        "__dtype__": "0", 
        "__init__": "zeros", 
        "__lr_mult__": "1.0", 
        "__shape__": "(96,)", 
        "__storage_type__": "0", 
        "__wd_mult__": "1.0"
      }, 
      "inputs": []
    }, 
    {
      "op": "null", 
      "name": "shufflenasoneshotfix0_hybridsequential0_shufflenetblock10_batchnorm1_running_mean", 
      "attrs": {
        "__dtype__": "0", 
        "__init__": "zeros", 
        "__lr_mult__": "1.0", 
        "__shape__": "(96,)", 
        "__storage_type__": "0", 
        "__wd_mult__": "1.0"
      }, 
      "inputs": []
    }, 
    {
      "op": "null", 
      "name": "shufflenasoneshotfix0_hybridsequential0_shufflenetblock10_batchnorm1_running_var", 
      "attrs": {
        "__dtype__": "0", 
        "__init__": "ones", 
        "__lr_mult__": "1.0", 
        "__shape__": "(96,)", 
        "__storage_type__": "0", 
        "__wd_mult__": "1.0"
      }, 
      "inputs": []
    }, 
    {
      "op": "BatchNorm", 
      "name": "shufflenasoneshotfix0_hybridsequential0_shufflenetblock10_batchnorm1_fwd", 
      "attrs": {
        "axis": "1", 
        "eps": "1e-05", 
        "fix_gamma": "False", 
        "momentum": "0.1", 
        "use_global_stats": "False"
      }, 
      "inputs": [[440, 0, 0], [441, 0, 0], [442, 0, 0], [443, 0, 1], [444, 0, 1]]
    }, 
    {
      "op": "null", 
      "name": "shufflenasoneshotfix0_hybridsequential0_shufflenetblock10_conv2_weight", 
      "attrs": {
        "__dtype__": "0", 
        "__lr_mult__": "1.0", 
        "__shape__": "(160, 96, 1, 1)", 
        "__storage_type__": "0", 
        "__wd_mult__": "1.0"
      }, 
      "inputs": []
    }, 
    {
      "op": "Convolution", 
      "name": "shufflenasoneshotfix0_hybridsequential0_shufflenetblock10_conv2_fwd", 
      "attrs": {
        "dilate": "(1, 1)", 
        "kernel": "(1, 1)", 
        "layout": "NCHW", 
        "no_bias": "True", 
        "num_filter": "160", 
        "num_group": "1", 
        "pad": "(0, 0)", 
        "stride": "(1, 1)"
      }, 
      "inputs": [[445, 0, 0], [446, 0, 0]]
    }, 
    {
      "op": "null", 
      "name": "shufflenasoneshotfix0_hybridsequential0_shufflenetblock10_batchnorm2_gamma", 
      "attrs": {
        "__dtype__": "0", 
        "__init__": "ones", 
        "__lr_mult__": "1.0", 
        "__shape__": "(160,)", 
        "__storage_type__": "0", 
        "__wd_mult__": "1.0"
      }, 
      "inputs": []
    }, 
    {
      "op": "null", 
      "name": "shufflenasoneshotfix0_hybridsequential0_shufflenetblock10_batchnorm2_beta", 
      "attrs": {
        "__dtype__": "0", 
        "__init__": "zeros", 
        "__lr_mult__": "1.0", 
        "__shape__": "(160,)", 
        "__storage_type__": "0", 
        "__wd_mult__": "1.0"
      }, 
      "inputs": []
    }, 
    {
      "op": "null", 
      "name": "shufflenasoneshotfix0_hybridsequential0_shufflenetblock10_batchnorm2_running_mean", 
      "attrs": {
        "__dtype__": "0", 
        "__init__": "zeros", 
        "__lr_mult__": "1.0", 
        "__shape__": "(160,)", 
        "__storage_type__": "0", 
        "__wd_mult__": "1.0"
      }, 
      "inputs": []
    }, 
    {
      "op": "null", 
      "name": "shufflenasoneshotfix0_hybridsequential0_shufflenetblock10_batchnorm2_running_var", 
      "attrs": {
        "__dtype__": "0", 
        "__init__": "ones", 
        "__lr_mult__": "1.0", 
        "__shape__": "(160,)", 
        "__storage_type__": "0", 
        "__wd_mult__": "1.0"
      }, 
      "inputs": []
    }, 
    {
      "op": "BatchNorm", 
      "name": "shufflenasoneshotfix0_hybridsequential0_shufflenetblock10_batchnorm2_fwd", 
      "attrs": {
        "axis": "1", 
        "eps": "1e-05", 
        "fix_gamma": "False", 
        "momentum": "0.1", 
        "use_global_stats": "False"
      }, 
      "inputs": [[447, 0, 0], [448, 0, 0], [449, 0, 0], [450, 0, 1], [451, 0, 1]]
    }, 
    {
      "op": "_plus_scalar", 
      "name": "shufflenasoneshotfix0_hybridsequential0_shufflenetblock10_hardswish1__plusscalar0", 
      "attrs": {"scalar": "3"}, 
      "inputs": [[452, 0, 0]]
    }, 
    {
      "op": "clip", 
      "name": "shufflenasoneshotfix0_hybridsequential0_shufflenetblock10_hardswish1_hard_swish", 
      "attrs": {
        "a_max": "6", 
        "a_min": "0"
      }, 
      "inputs": [[453, 0, 0]]
    }, 
    {
      "op": "_div_scalar", 
      "name": "shufflenasoneshotfix0_hybridsequential0_shufflenetblock10_hardswish1__divscalar0", 
      "attrs": {"scalar": "6.0"}, 
      "inputs": [[454, 0, 0]]
    }, 
    {
      "op": "elemwise_mul", 
      "name": "shufflenasoneshotfix0_hybridsequential0_shufflenetblock10_hardswish1__mul0", 
      "inputs": [[452, 0, 0], [455, 0, 0]]
    }, 
    {
      "op": "Pooling", 
      "name": "shufflenasoneshotfix0_hybridsequential0_shufflenetblock10_se0_pool0_fwd", 
      "attrs": {
        "global_pool": "True", 
        "kernel": "(1, 1)", 
        "layout": "NCHW", 
        "pad": "(0, 0)", 
        "pool_type": "avg", 
        "pooling_convention": "full", 
        "stride": "(1, 1)"
      }, 
      "inputs": [[456, 0, 0]]
    }, 
    {
      "op": "null", 
      "name": "shufflenasoneshotfix0_hybridsequential0_shufflenetblock10_se0_conv_squeeze_weight", 
      "attrs": {
        "__dtype__": "0", 
        "__lr_mult__": "1.0", 
        "__shape__": "(40, 160, 1, 1)", 
        "__storage_type__": "0", 
        "__wd_mult__": "1.0"
      }, 
      "inputs": []
    }, 
    {
      "op": "null", 
      "name": "shufflenasoneshotfix0_hybridsequential0_shufflenetblock10_se0_conv_squeeze_bias", 
      "attrs": {
        "__dtype__": "0", 
        "__init__": "zeros", 
        "__lr_mult__": "1.0", 
        "__shape__": "(40,)", 
        "__storage_type__": "0", 
        "__wd_mult__": "1.0"
      }, 
      "inputs": []
    }, 
    {
      "op": "Convolution", 
      "name": "shufflenasoneshotfix0_hybridsequential0_shufflenetblock10_se0_conv_squeeze_fwd", 
      "attrs": {
        "dilate": "(1, 1)", 
        "kernel": "(1, 1)", 
        "layout": "NCHW", 
        "no_bias": "False", 
        "num_filter": "40", 
        "num_group": "1", 
        "pad": "(0, 0)", 
        "stride": "(1, 1)"
      }, 
      "inputs": [[457, 0, 0], [458, 0, 0], [459, 0, 0]]
    }, 
    {
      "op": "Activation", 
      "name": "shufflenasoneshotfix0_hybridsequential0_shufflenetblock10_se0_relu0_fwd", 
      "attrs": {"act_type": "relu"}, 
      "inputs": [[460, 0, 0]]
    }, 
    {
      "op": "null", 
      "name": "shufflenasoneshotfix0_hybridsequential0_shufflenetblock10_se0_conv_excitation_weight", 
      "attrs": {
        "__dtype__": "0", 
        "__lr_mult__": "1.0", 
        "__shape__": "(160, 40, 1, 1)", 
        "__storage_type__": "0", 
        "__wd_mult__": "1.0"
      }, 
      "inputs": []
    }, 
    {
      "op": "null", 
      "name": "shufflenasoneshotfix0_hybridsequential0_shufflenetblock10_se0_conv_excitation_bias", 
      "attrs": {
        "__dtype__": "0", 
        "__init__": "zeros", 
        "__lr_mult__": "1.0", 
        "__shape__": "(160,)", 
        "__storage_type__": "0", 
        "__wd_mult__": "1.0"
      }, 
      "inputs": []
    }, 
    {
      "op": "Convolution", 
      "name": "shufflenasoneshotfix0_hybridsequential0_shufflenetblock10_se0_conv_excitation_fwd", 
      "attrs": {
        "dilate": "(1, 1)", 
        "kernel": "(1, 1)", 
        "layout": "NCHW", 
        "no_bias": "False", 
        "num_filter": "160", 
        "num_group": "1", 
        "pad": "(0, 0)", 
        "stride": "(1, 1)"
      }, 
      "inputs": [[461, 0, 0], [462, 0, 0], [463, 0, 0]]
    }, 
    {
      "op": "_plus_scalar", 
      "name": "shufflenasoneshotfix0_hybridsequential0_shufflenetblock10_se0_hardsigmoid0__plusscalar0", 
      "attrs": {"scalar": "3"}, 
      "inputs": [[464, 0, 0]]
    }, 
    {
      "op": "clip", 
      "name": "shufflenasoneshotfix0_hybridsequential0_shufflenetblock10_se0_hardsigmoid0_hard_sigmoid", 
      "attrs": {
        "a_max": "6", 
        "a_min": "0"
      }, 
      "inputs": [[465, 0, 0]]
    }, 
    {
      "op": "_div_scalar", 
      "name": "shufflenasoneshotfix0_hybridsequential0_shufflenetblock10_se0_hardsigmoid0__divscalar0", 
      "attrs": {"scalar": "6.0"}, 
      "inputs": [[466, 0, 0]]
    }, 
    {
      "op": "broadcast_mul", 
      "name": "shufflenasoneshotfix0_hybridsequential0_shufflenetblock10_se0_broadcast_mul0", 
      "inputs": [[456, 0, 0], [467, 0, 0]]
    }, 
    {
      "op": "Concat", 
      "name": "shufflenasoneshotfix0_hybridsequential0_shufflenetblock10_concat0", 
…
      "inputs": [[798, 0, 0]]
    }, 
    {
      "op": "null", 
      "name": "shufflenasoneshotfix0_hybridsequential0_shufflenetblock17_se0_conv_squeeze_weight", 
      "attrs": {
        "__dtype__": "0", 
        "__lr_mult__": "1.0", 
        "__shape__": "(80, 320, 1, 1)", 
        "__storage_type__": "0", 
        "__wd_mult__": "1.0"
      }, 
      "inputs": []
    }, 
    {
      "op": "null", 
      "name": "shufflenasoneshotfix0_hybridsequential0_shufflenetblock17_se0_conv_squeeze_bias", 
      "attrs": {
        "__dtype__": "0", 
        "__init__": "zeros", 
        "__lr_mult__": "1.0", 
        "__shape__": "(80,)", 
        "__storage_type__": "0", 
        "__wd_mult__": "1.0"
      }, 
      "inputs": []
    }, 
    {
      "op": "Convolution", 
      "name": "shufflenasoneshotfix0_hybridsequential0_shufflenetblock17_se0_conv_squeeze_fwd", 
      "attrs": {
        "dilate": "(1, 1)", 
        "kernel": "(1, 1)", 
        "layout": "NCHW", 
        "no_bias": "False", 
        "num_filter": "80", 
        "num_group": "1", 
        "pad": "(0, 0)", 
        "stride": "(1, 1)"
      }, 
      "inputs": [[799, 0, 0], [800, 0, 0], [801, 0, 0]]
    }, 
    {
      "op": "Activation", 
      "name": "shufflenasoneshotfix0_hybridsequential0_shufflenetblock17_se0_relu0_fwd", 
      "attrs": {"act_type": "relu"}, 
      "inputs": [[802, 0, 0]]
    }, 
    {
      "op": "null", 
      "name": "shufflenasoneshotfix0_hybridsequential0_shufflenetblock17_se0_conv_excitation_weight", 
      "attrs": {
        "__dtype__": "0", 
        "__lr_mult__": "1.0", 
        "__shape__": "(320, 80, 1, 1)", 
        "__storage_type__": "0", 
        "__wd_mult__": "1.0"
      }, 
      "inputs": []
    }, 
    {
      "op": "null", 
      "name": "shufflenasoneshotfix0_hybridsequential0_shufflenetblock17_se0_conv_excitation_bias", 
      "attrs": {
        "__dtype__": "0", 
        "__init__": "zeros", 
        "__lr_mult__": "1.0", 
        "__shape__": "(320,)", 
        "__storage_type__": "0", 
        "__wd_mult__": "1.0"
      }, 
      "inputs": []
    }, 
    {
      "op": "Convolution", 
      "name": "shufflenasoneshotfix0_hybridsequential0_shufflenetblock17_se0_conv_excitation_fwd", 
      "attrs": {
        "dilate": "(1, 1)", 
        "kernel": "(1, 1)", 
        "layout": "NCHW", 
        "no_bias": "False", 
        "num_filter": "320", 
        "num_group": "1", 
        "pad": "(0, 0)", 
        "stride": "(1, 1)"
      }, 
      "inputs": [[803, 0, 0], [804, 0, 0], [805, 0, 0]]
    }, 
    {
      "op": "_plus_scalar", 
      "name": "shufflenasoneshotfix0_hybridsequential0_shufflenetblock17_se0_hardsigmoid0__plusscalar0", 
      "attrs": {"scalar": "3"}, 
      "inputs": [[806, 0, 0]]
    }, 
    {
      "op": "clip", 
      "name": "shufflenasoneshotfix0_hybridsequential0_shufflenetblock17_se0_hardsigmoid0_hard_sigmoid", 
      "attrs": {
        "a_max": "6", 
        "a_min": "0"
      }, 
      "inputs": [[807, 0, 0]]
    }, 
    {
      "op": "_div_scalar", 
      "name": "shufflenasoneshotfix0_hybridsequential0_shufflenetblock17_se0_hardsigmoid0__divscalar0", 
      "attrs": {"scalar": "6.0"}, 
      "inputs": [[808, 0, 0]]
    }, 
    {
      "op": "broadcast_mul", 
      "name": "shufflenasoneshotfix0_hybridsequential0_shufflenetblock17_se0_broadcast_mul0", 
      "inputs": [[798, 0, 0], [809, 0, 0]]
    }, 
    {
      "op": "Concat", 
      "name": "shufflenasoneshotfix0_hybridsequential0_shufflenetblock17_concat0", 
      "attrs": {
        "dim": "1", 
        "num_args": "2"
      }, 
      "inputs": [[768, 0, 0], [810, 0, 0]]
    }, 
    {
      "op": "Reshape", 
      "name": "shufflenasoneshotfix0_hybridsequential0_shufflenetblock18_shufflechannels0_reshape0", 
      "attrs": {"shape": "(0, -4, 2, -1, -2)"}, 
      "inputs": [[811, 0, 0]]
    }, 
    {
      "op": "SwapAxis", 
      "name": "shufflenasoneshotfix0_hybridsequential0_shufflenetblock18_shufflechannels0_swapaxes0", 
      "attrs": {
        "dim1": "1", 
        "dim2": "2"
      }, 
      "inputs": [[812, 0, 0]]
    }, 
    {
      "op": "Reshape", 
      "name": "shufflenasoneshotfix0_hybridsequential0_shufflenetblock18_shufflechannels0_reshape1", 
      "attrs": {"shape": "(0, -3, -2)"}, 
      "inputs": [[813, 0, 0]]
    }, 
    {
      "op": "slice", 
      "name": "shufflenasoneshotfix0_hybridsequential0_shufflenetblock18_shufflechannels0_slice0", 
      "attrs": {
        "begin": "(None, None, None, None)", 
        "end": "(None, 320, None, None)"
      }, 
      "inputs": [[814, 0, 0]]
    }, 
    {
      "op": "slice", 
      "name": "shufflenasoneshotfix0_hybridsequential0_shufflenetblock18_shufflechannels0_slice1", 
      "attrs": {
        "begin": "(None, 320, None, None)", 
        "end": "(None, None, None, None)"
      }, 
      "inputs": [[814, 0, 0]]
    }, 
    {
      "op": "null", 
      "name": "shufflenasoneshotfix0_hybridsequential0_shufflenetblock18_conv0_weight", 
      "attrs": {
        "__dtype__": "0", 
        "__lr_mult__": "1.0", 
        "__shape__": "(320, 320, 1, 1)", 
        "__storage_type__": "0", 
        "__wd_mult__": "1.0"
      }, 
      "inputs": []
    }, 
    {
      "op": "Convolution", 
      "name": "shufflenasoneshotfix0_hybridsequential0_shufflenetblock18_conv0_fwd", 
      "attrs": {
        "dilate": "(1, 1)", 
        "kernel": "(1, 1)", 
        "layout": "NCHW", 
        "no_bias": "True", 
        "num_filter": "320", 
        "num_group": "1", 
        "pad": "(0, 0)", 
        "stride": "(1, 1)"
      }, 
      "inputs": [[816, 0, 0], [817, 0, 0]]
    }, 
    {
      "op": "null", 
      "name": "shufflenasoneshotfix0_hybridsequential0_shufflenetblock18_batchnorm0_gamma", 
      "attrs": {
        "__dtype__": "0", 
        "__init__": "ones", 
        "__lr_mult__": "1.0", 
        "__shape__": "(320,)", 
        "__storage_type__": "0", 
        "__wd_mult__": "1.0"
      }, 
      "inputs": []
    }, 
    {
      "op": "null", 
      "name": "shufflenasoneshotfix0_hybridsequential0_shufflenetblock18_batchnorm0_beta", 
      "attrs": {
        "__dtype__": "0", 
        "__init__": "zeros", 
        "__lr_mult__": "1.0", 
        "__shape__": "(320,)", 
        "__storage_type__": "0", 
        "__wd_mult__": "1.0"
      }, 
      "inputs": []
    }, 
    {
      "op": "null", 
      "name": "shufflenasoneshotfix0_hybridsequential0_shufflenetblock18_batchnorm0_running_mean", 
      "attrs": {
        "__dtype__": "0", 
        "__init__": "zeros", 
        "__lr_mult__": "1.0", 
        "__shape__": "(320,)", 
        "__storage_type__": "0", 
        "__wd_mult__": "1.0"
      }, 
      "inputs": []
    }, 
    {
      "op": "null", 
      "name": "shufflenasoneshotfix0_hybridsequential0_shufflenetblock18_batchnorm0_running_var", 
      "attrs": {
        "__dtype__": "0", 
        "__init__": "ones", 
        "__lr_mult__": "1.0", 
        "__shape__": "(320,)", 
        "__storage_type__": "0", 
        "__wd_mult__": "1.0"
      }, 
      "inputs": []
    }, 
    {
      "op": "BatchNorm", 
      "name": "shufflenasoneshotfix0_hybridsequential0_shufflenetblock18_batchnorm0_fwd", 
      "attrs": {
        "axis": "1", 
        "eps": "1e-05", 
        "fix_gamma": "False", 
        "momentum": "0.1", 
        "use_global_stats": "False"
      }, 
      "inputs": [[818, 0, 0], [819, 0, 0], [820, 0, 0], [821, 0, 1], [822, 0, 1]]
    }, 
    {
      "op": "_plus_scalar", 
      "name": "shufflenasoneshotfix0_hybridsequential0_shufflenetblock18_hardswish0__plusscalar0", 
      "attrs": {"scalar": "3"}, 
      "inputs": [[823, 0, 0]]
    }, 
    {
      "op": "clip", 
      "name": "shufflenasoneshotfix0_hybridsequential0_shufflenetblock18_hardswish0_hard_swish", 
      "attrs": {
        "a_max": "6", 
        "a_min": "0"
      }, 
      "inputs": [[824, 0, 0]]
    }, 
    {
      "op": "_div_scalar", 
      "name": "shufflenasoneshotfix0_hybridsequential0_shufflenetblock18_hardswish0__divscalar0", 
      "attrs": {"scalar": "6.0"}, 
      "inputs": [[825, 0, 0]]
    }, 
    {
      "op": "elemwise_mul", 
      "name": "shufflenasoneshotfix0_hybridsequential0_shufflenetblock18_hardswish0__mul0", 
      "inputs": [[823, 0, 0], [826, 0, 0]]
    }, 
    {
      "op": "null", 
      "name": "shufflenasoneshotfix0_hybridsequential0_shufflenetblock18_conv1_weight", 
      "attrs": {
        "__dtype__": "0", 
        "__lr_mult__": "1.0", 
        "__shape__": "(320, 1, 7, 7)", 
        "__storage_type__": "0", 
        "__wd_mult__": "1.0"
      }, 
      "inputs": []
    }, 
    {
      "op": "Convolution", 
      "name": "shufflenasoneshotfix0_hybridsequential0_shufflenetblock18_conv1_fwd", 
      "attrs": {
        "dilate": "(1, 1)", 
        "kernel": "(7, 7)", 
        "layout": "NCHW", 
        "no_bias": "True", 
        "num_filter": "320", 
        "num_group": "320", 
        "pad": "(3, 3)", 
        "stride": "(1, 1)"
      }, 
      "inputs": [[827, 0, 0], [828, 0, 0]]
    }, 
    {
      "op": "null", 
      "name": "shufflenasoneshotfix0_hybridsequential0_shufflenetblock18_batchnorm1_gamma", 
      "attrs": {
        "__dtype__": "0", 
        "__init__": "ones", 
        "__lr_mult__": "1.0", 
        "__shape__": "(320,)", 
        "__storage_type__": "0", 
        "__wd_mult__": "1.0"
      }, 
      "inputs": []
    }, 
    {
      "op": "null", 
      "name": "shufflenasoneshotfix0_hybridsequential0_shufflenetblock18_batchnorm1_beta", 
      "attrs": {
        "__dtype__": "0", 
        "__init__": "zeros", 
        "__lr_mult__": "1.0", 
        "__shape__": "(320,)", 
        "__storage_type__": "0", 
        "__wd_mult__": "1.0"
      }, 
      "inputs": []
    }, 
    {
      "op": "null", 
      "name": "shufflenasoneshotfix0_hybridsequential0_shufflenetblock18_batchnorm1_running_mean", 
      "attrs": {
        "__dtype__": "0", 
        "__init__": "zeros", 
        "__lr_mult__": "1.0", 
        "__shape__": "(320,)", 
        "__storage_type__": "0", 
        "__wd_mult__": "1.0"
      }, 
      "inputs": []
    }, 
    {
      "op": "null", 
      "name": "shufflenasoneshotfix0_hybridsequential0_shufflenetblock18_batchnorm1_running_var", 
      "attrs": {
        "__dtype__": "0", 
        "__init__": "ones", 
        "__lr_mult__": "1.0", 
        "__shape__": "(320,)", 
        "__storage_type__": "0", 
        "__wd_mult__": "1.0"
      }, 
      "inputs": []
    }, 
    {
      "op": "BatchNorm", 
      "name": "shufflenasoneshotfix0_hybridsequential0_shufflenetblock18_batchnorm1_fwd", 
      "attrs": {
        "axis": "1", 
        "eps": "1e-05", 
        "fix_gamma": "False", 
        "momentum": "0.1", 
        "use_global_stats": "False"
      }, 
      "inputs": [[829, 0, 0], [830, 0, 0], [831, 0, 0], [832, 0, 1], [833, 0, 1]]
    }, 
    {
      "op": "null", 
      "name": "shufflenasoneshotfix0_hybridsequential0_shufflenetblock18_conv2_weight", 
      "attrs": {
        "__dtype__": "0", 
        "__lr_mult__": "1.0", 
        "__shape__": "(320, 320, 1, 1)", 
        "__storage_type__": "0", 
        "__wd_mult__": "1.0"
      }, 
      "inputs": []
    }, 
    {
      "op": "Convolution", 
      "name": "shufflenasoneshotfix0_hybridsequential0_shufflenetblock18_conv2_fwd", 
      "attrs": {
        "dilate": "(1, 1)", 
        "kernel": "(1, 1)", 
        "layout": "NCHW", 
        "no_bias": "True", 
        "num_filter": "320", 
        "num_group": "1", 
        "pad": "(0, 0)", 
        "stride": "(1, 1)"
      }, 
      "inputs": [[834, 0, 0], [835, 0, 0]]
    }, 
    {
      "op": "null", 
      "name": "shufflenasoneshotfix0_hybridsequential0_shufflenetblock18_batchnorm2_gamma", 
      "attrs": {
        "__dtype__": "0", 
        "__init__": "ones", 
        "__lr_mult__": "1.0", 
        "__shape__": "(320,)", 
        "__storage_type__": "0", 
        "__wd_mult__": "1.0"
      }, 
      "inputs": []
    }, 
    {
      "op": "null", 
      "name": "shufflenasoneshotfix0_hybridsequential0_shufflenetblock18_batchnorm2_beta", 
      "attrs": {
        "__dtype__": "0", 
        "__init__": "zeros", 
        "__lr_mult__": "1.0", 
        "__shape__": "(320,)", 
        "__storage_type__": "0", 
        "__wd_mult__": "1.0"
      }, 
      "inputs": []
    }, 
    {
      "op": "null", 
      "name": "shufflenasoneshotfix0_hybridsequential0_shufflenetblock18_batchnorm2_running_mean", 
      "attrs": {
        "__dtype__": "0", 
        "__init__": "zeros", 
        "__lr_mult__": "1.0", 
        "__shape__": "(320,)", 
        "__storage_type__": "0", 
        "__wd_mult__": "1.0"
      }, 
      "inputs": []
    }, 
    {
      "op": "null", 
      "name": "shufflenasoneshotfix0_hybridsequential0_shufflenetblock18_batchnorm2_running_var", 
      "attrs": {
        "__dtype__": "0", 
        "__init__": "ones", 
        "__lr_mult__": "1.0", 
        "__shape__": "(320,)", 
        "__storage_type__": "0", 
        "__wd_mult__": "1.0"
      }, 
      "inputs": []
    }, 
    {
      "op": "BatchNorm", 
      "name": "shufflenasoneshotfix0_hybridsequential0_shufflenetblock18_batchnorm2_fwd", 
      "attrs": {
        "axis": "1", 
        "eps": "1e-05", 
        "fix_gamma": "False", 
        "momentum": "0.1", 
        "use_global_stats": "False"
      }, 
      "inputs": [[836, 0, 0], [837, 0, 0], [838, 0, 0], [839, 0, 1], [840, 0, 1]]
    }, 
    {
      "op": "_plus_scalar", 
      "name": "shufflenasoneshotfix0_hybridsequential0_shufflenetblock18_hardswish1__plusscalar0", 
      "attrs": {"scalar": "3"}, 
      "inputs": [[841, 0, 0]]
    }, 
    {
      "op": "clip", 
      "name": "shufflenasoneshotfix0_hybridsequential0_shufflenetblock18_hardswish1_hard_swish", 
      "attrs": {
        "a_max": "6", 
        "a_min": "0"
      }, 
      "inputs": [[842, 0, 0]]
    }, 
    {
      "op": "_div_scalar", 
      "name": "shufflenasoneshotfix0_hybridsequential0_shufflenetblock18_hardswish1__divscalar0", 
      "attrs": {"scalar": "6.0"}, 
      "inputs": [[843, 0, 0]]
    }, 
    {
      "op": "elemwise_mul", 
      "name": "shufflenasoneshotfix0_hybridsequential0_shufflenetblock18_hardswish1__mul0", 
      "inputs": [[841, 0, 0], [844, 0, 0]]
    }, 
    {
      "op": "Pooling", 
      "name": "shufflenasoneshotfix0_hybridsequential0_shufflenetblock18_se0_pool0_fwd", 
      "attrs": {
        "global_pool": "True", 
        "kernel": "(1, 1)", 
        "layout": "NCHW", 
        "pad": "(0, 0)", 
        "pool_type": "avg", 
        "pooling_convention": "full", 
        "stride": "(1, 1)"
      }, 
      "inputs": [[845, 0, 0]]
    }, 
    {
      "op": "null", 
      "name": "shufflenasoneshotfix0_hybridsequential0_shufflenetblock18_se0_conv_squeeze_weight", 
      "attrs": {
        "__dtype__": "0", 
        "__lr_mult__": "1.0", 
        "__shape__": "(80, 320, 1, 1)", 
        "__storage_type__": "0", 
        "__wd_mult__": "1.0"
      }, 
      "inputs": []
    }, 
    {
      "op": "null", 
      "name": "shufflenasoneshotfix0_hybridsequential0_shufflenetblock18_se0_conv_squeeze_bias", 
      "attrs": {
        "__dtype__": "0", 
        "__init__": "zeros", 
        "__lr_mult__": "1.0", 
        "__shape__": "(80,)", 
        "__storage_type__": "0", 
        "__wd_mult__": "1.0"
      }, 
      "inputs": []
    }, 
    {
      "op": "Convolution", 
      "name": "shufflenasoneshotfix0_hybridsequential0_shufflenetblock18_se0_conv_squeeze_fwd", 
      "attrs": {
        "dilate": "(1, 1)", 
        "kernel": "(1, 1)", 
        "layout": "NCHW", 
        "no_bias": "False", 
        "num_filter": "80", 
        "num_group": "1", 
        "pad": "(0, 0)", 
        "stride": "(1, 1)"
      }, 
      "inputs": [[846, 0, 0], [847, 0, 0], [848, 0, 0]]
    }, 
    {
      "op": "Activation", 
      "name": "shufflenasoneshotfix0_hybridsequential0_shufflenetblock18_se0_relu0_fwd", 
      "attrs": {"act_type": "relu"}, 
      "inputs": [[849, 0, 0]]
    }, 
    {
      "op": "null", 
      "name": "shufflenasoneshotfix0_hybridsequential0_shufflenetblock18_se0_conv_excitation_weight", 
      "attrs": {
        "__dtype__": "0", 
        "__lr_mult__": "1.0", 
        "__shape__": "(320, 80, 1, 1)", 
        "__storage_type__": "0", 
        "__wd_mult__": "1.0"
      }, 
      "inputs": []
    }, 
    {
      "op": "null", 
      "name": "shufflenasoneshotfix0_hybridsequential0_shufflenetblock18_se0_conv_excitation_bias", 
      "attrs": {
        "__dtype__": "0", 
        "__init__": "zeros", 
        "__lr_mult__": "1.0", 
        "__shape__": "(320,)", 
        "__storage_type__": "0", 
        "__wd_mult__": "1.0"
      }, 
      "inputs": []
    }, 
    {
      "op": "Convolution", 
      "name": "shufflenasoneshotfix0_hybridsequential0_shufflenetblock18_se0_conv_excitation_fwd", 
      "attrs": {
        "dilate": "(1, 1)", 
        "kernel": "(1, 1)", 
        "layout": "NCHW", 
        "no_bias": "False", 
        "num_filter": "320", 
        "num_group": "1", 
        "pad": "(0, 0)", 
        "stride": "(1, 1)"
      }, 
      "inputs": [[850, 0, 0], [851, 0, 0], [852, 0, 0]]
    }, 
    {
      "op": "_plus_scalar", 
      "name": "shufflenasoneshotfix0_hybridsequential0_shufflenetblock18_se0_hardsigmoid0__plusscalar0", 
      "attrs": {"scalar": "3"}, 
      "inputs": [[853, 0, 0]]
    }, 
    {
      "op": "clip", 
      "name": "shufflenasoneshotfix0_hybridsequential0_shufflenetblock18_se0_hardsigmoid0_hard_sigmoid", 
      "attrs": {
        "a_max": "6", 
        "a_min": "0"
      }, 
      "inputs": [[854, 0, 0]]
    }, 
    {
      "op": "_div_scalar", 
      "name": "shufflenasoneshotfix0_hybridsequential0_shufflenetblock18_se0_hardsigmoid0__divscalar0", 
      "attrs": {"scalar": "6.0"}, 
      "inputs": [[855, 0, 0]]
    }, 
    {
      "op": "broadcast_mul", 
      "name": "shufflenasoneshotfix0_hybridsequential0_shufflenetblock18_se0_broadcast_mul0", 
      "inputs": [[845, 0, 0], [856, 0, 0]]
    }, 
    {
      "op": "Concat", 
      "name": "shufflenasoneshotfix0_hybridsequential0_shufflenetblock18_concat0", 
      "attrs": {
        "dim": "1", 
        "num_args": "2"
      }, 
      "inputs": [[815, 0, 0], [857, 0, 0]]
    }, 
    {
      "op": "Reshape", 
      "name": "shufflenasoneshotfix0_hybridsequential0_shufflenetblock19_shufflechannels0_reshape0", 
      "attrs": {"shape": "(0, -4, 2, -1, -2)"}, 
      "inputs": [[858, 0, 0]]
    }, 
    {
      "op": "SwapAxis", 
      "name": "shufflenasoneshotfix0_hybridsequential0_shufflenetblock19_shufflechannels0_swapaxes0", 
      "attrs": {
        "dim1": "1", 
        "dim2": "2"
      }, 
      "inputs": [[859, 0, 0]]
    }, 
    {
      "op": "Reshape", 
      "name": "shufflenasoneshotfix0_hybridsequential0_shufflenetblock19_shufflechannels0_reshape1", 
      "attrs": {"shape": "(0, -3, -2)"}, 
      "inputs": [[860, 0, 0]]
    }, 
    {
      "op": "slice", 
      "name": "shufflenasoneshotfix0_hybridsequential0_shufflenetblock19_shufflechannels0_slice0", 
      "attrs": {
        "begin": "(None, None, None, None)", 
        "end": "(None, 320, None, None)"
      }, 
      "inputs": [[861, 0, 0]]
    }, 
    {
      "op": "slice", 
      "name": "shufflenasoneshotfix0_hybridsequential0_shufflenetblock19_shufflechannels0_slice1", 
      "attrs": {
        "begin": "(None, 320, None, None)", 
        "end": "(None, None, None, None)"
      }, 
      "inputs": [[861, 0, 0]]
    }, 
    {
      "op": "null", 
      "name": "shufflenasoneshotfix0_hybridsequential0_shufflenetblock19_conv0_weight", 
      "attrs": {
        "__dtype__": "0", 
        "__lr_mult__": "1.0", 
        "__shape__": "(448, 320, 1, 1)", 
        "__storage_type__": "0", 
        "__wd_mult__": "1.0"
      }, 
      "inputs": []
    }, 
    {
      "op": "Convolution", 
      "name": "shufflenasoneshotfix0_hybridsequential0_shufflenetblock19_conv0_fwd", 
      "attrs": {
        "dilate": "(1, 1)", 
        "kernel": "(1, 1)", 
        "layout": "NCHW", 
        "no_bias": "True", 
        "num_filter": "448", 
        "num_group": "1", 
        "pad": "(0, 0)", 
        "stride": "(1, 1)"
      }, 
      "inputs": [[863, 0, 0], [864, 0, 0]]
    }, 
    {
      "op": "null", 
      "name": "shufflenasoneshotfix0_hybridsequential0_shufflenetblock19_batchnorm0_gamma", 
      "attrs": {
        "__dtype__": "0", 
        "__init__": "ones", 
        "__lr_mult__": "1.0", 
        "__shape__": "(448,)", 
        "__storage_type__": "0", 
        "__wd_mult__": "1.0"
      }, 
      "inputs": []
    }, 
    {
      "op": "null", 
      "name": "shufflenasoneshotfix0_hybridsequential0_shufflenetblock19_batchnorm0_beta", 
      "attrs": {
        "__dtype__": "0", 
        "__init__": "zeros", 
        "__lr_mult__": "1.0", 
        "__shape__": "(448,)", 
        "__storage_type__": "0", 
        "__wd_mult__": "1.0"
      }, 
      "inputs": []
    }, 
    {
      "op": "null", 
      "name": "shufflenasoneshotfix0_hybridsequential0_shufflenetblock19_batchnorm0_running_mean", 
      "attrs": {
        "__dtype__": "0", 
        "__init__": "zeros", 
        "__lr_mult__": "1.0", 
        "__shape__": "(448,)", 
        "__storage_type__": "0", 
        "__wd_mult__": "1.0"
      }, 
      "inputs": []
    }, 
    {
      "op": "null", 
      "name": "shufflenasoneshotfix0_hybridsequential0_shufflenetblock19_batchnorm0_running_var", 
      "attrs": {
        "__dtype__": "0", 
        "__init__": "ones", 
        "__lr_mult__": "1.0", 
        "__shape__": "(448,)", 
        "__storage_type__": "0", 
        "__wd_mult__": "1.0"
      }, 
      "inputs": []
    }, 
    {
      "op": "BatchNorm", 
      "name": "shufflenasoneshotfix0_hybridsequential0_shufflenetblock19_batchnorm0_fwd", 
      "attrs": {
        "axis": "1", 
        "eps": "1e-05", 
        "fix_gamma": "False", 
        "momentum": "0.1", 
        "use_global_stats": "False"
      }, 
      "inputs": [[865, 0, 0], [866, 0, 0], [867, 0, 0], [868, 0, 1], [869, 0, 1]]
    }, 
    {
      "op": "_plus_scalar", 
      "name": "shufflenasoneshotfix0_hybridsequential0_shufflenetblock19_hardswish0__plusscalar0", 
      "attrs": {"scalar": "3"}, 
      "inputs": [[870, 0, 0]]
    }, 
    {
      "op": "clip", 
      "name": "shufflenasoneshotfix0_hybridsequential0_shufflenetblock19_hardswish0_hard_swish", 
      "attrs": {
        "a_max": "6", 
        "a_min": "0"
      }, 
      "inputs": [[871, 0, 0]]
    }, 
    {
      "op": "_div_scalar", 
      "name": "shufflenasoneshotfix0_hybridsequential0_shufflenetblock19_hardswish0__divscalar0", 
      "attrs": {"scalar": "6.0"}, 
      "inputs": [[872, 0, 0]]
    }, 
    {
      "op": "elemwise_mul", 
      "name": "shufflenasoneshotfix0_hybridsequential0_shufflenetblock19_hardswish0__mul0", 
      "inputs": [[870, 0, 0], [873, 0, 0]]
    }, 
    {
      "op": "null", 
      "name": "shufflenasoneshotfix0_hybridsequential0_shufflenetblock19_conv1_weight", 
      "attrs": {
        "__dtype__": "0", 
        "__lr_mult__": "1.0", 
        "__shape__": "(448, 1, 3, 3)", 
        "__storage_type__": "0", 
        "__wd_mult__": "1.0"
      }, 
      "inputs": []
    }, 
    {
      "op": "Convolution", 
      "name": "shufflenasoneshotfix0_hybridsequential0_shufflenetblock19_conv1_fwd", 
      "attrs": {
        "dilate": "(1, 1)", 
        "kernel": "(3, 3)", 
        "layout": "NCHW", 
        "no_bias": "True", 
        "num_filter": "448", 
        "num_group": "448", 
        "pad": "(1, 1)", 
        "stride": "(1, 1)"
      }, 
      "inputs": [[874, 0, 0], [875, 0, 0]]
    }, 
    {
      "op": "null", 
      "name": "shufflenasoneshotfix0_hybridsequential0_shufflenetblock19_batchnorm1_gamma", 
      "attrs": {
        "__dtype__": "0", 
        "__init__": "ones", 
        "__lr_mult__": "1.0", 
        "__shape__": "(448,)", 
        "__storage_type__": "0", 
        "__wd_mult__": "1.0"
      }, 
      "inputs": []
    }, 
    {
      "op": "null", 
      "name": "shufflenasoneshotfix0_hybridsequential0_shufflenetblock19_batchnorm1_beta", 
      "attrs": {
        "__dtype__": "0", 
        "__init__": "zeros", 
        "__lr_mult__": "1.0", 
        "__shape__": "(448,)", 
        "__storage_type__": "0", 
        "__wd_mult__": "1.0"
      }, 
      "inputs": []
    }, 
    {
      "op": "null", 
      "name": "shufflenasoneshotfix0_hybridsequential0_shufflenetblock19_batchnorm1_running_mean", 
      "attrs": {
        "__dtype__": "0", 
        "__init__": "zeros", 
        "__lr_mult__": "1.0", 
        "__shape__": "(448,)", 
        "__storage_type__": "0", 
        "__wd_mult__": "1.0"
      }, 
      "inputs": []
    }, 
    {
      "op": "null", 
      "name": "shufflenasoneshotfix0_hybridsequential0_shufflenetblock19_batchnorm1_running_var", 
      "attrs": {
        "__dtype__": "0", 
        "__init__": "ones", 
        "__lr_mult__": "1.0", 
        "__shape__": "(448,)", 
        "__storage_type__": "0", 
        "__wd_mult__": "1.0"
      }, 
      "inputs": []
    }, 
    {
      "op": "BatchNorm", 
      "name": "shufflenasoneshotfix0_hybridsequential0_shufflenetblock19_batchnorm1_fwd", 
      "attrs": {
        "axis": "1", 
        "eps": "1e-05", 
        "fix_gamma": "False", 
        "momentum": "0.1", 
        "use_global_stats": "False"
      }, 
      "inputs": [[876, 0, 0], [877, 0, 0], [878, 0, 0], [879, 0, 1], [880, 0, 1]]
    }, 
    {
      "op": "null", 
      "name": "shufflenasoneshotfix0_hybridsequential0_shufflenetblock19_conv2_weight", 
      "attrs": {
        "__dtype__": "0", 
        "__lr_mult__": "1.0", 
        "__shape__": "(320, 448, 1, 1)", 
        "__storage_type__": "0", 
        "__wd_mult__": "1.0"
      }, 
      "inputs": []
    }, 
    {
      "op": "Convolution", 
      "name": "shufflenasoneshotfix0_hybridsequential0_shufflenetblock19_conv2_fwd", 
      "attrs": {
        "dilate": "(1, 1)", 
        "kernel": "(1, 1)", 
        "layout": "NCHW", 
        "no_bias": "True", 
        "num_filter": "320", 
        "num_group": "1", 
        "pad": "(0, 0)", 
        "stride": "(1, 1)"
      }, 
      "inputs": [[881, 0, 0], [882, 0, 0]]
    }, 
    {
      "op": "null", 
      "name": "shufflenasoneshotfix0_hybridsequential0_shufflenetblock19_batchnorm2_gamma", 
      "attrs": {
        "__dtype__": "0", 
        "__init__": "ones", 
        "__lr_mult__": "1.0", 
        "__shape__": "(320,)", 
        "__storage_type__": "0", 
        "__wd_mult__": "1.0"
      }, 
      "inputs": []
    }, 
    {
      "op": "null", 
      "name": "shufflenasoneshotfix0_hybridsequential0_shufflenetblock19_batchnorm2_beta", 
      "attrs": {
        "__dtype__": "0", 
        "__init__": "zeros", 
        "__lr_mult__": "1.0", 
        "__shape__": "(320,)", 
        "__storage_type__": "0", 
        "__wd_mult__": "1.0"
      }, 
      "inputs": []
    }, 
    {
      "op": "null", 
      "name": "shufflenasoneshotfix0_hybridsequential0_shufflenetblock19_batchnorm2_running_mean", 
      "attrs": {
        "__dtype__": "0", 
        "__init__": "zeros", 
        "__lr_mult__": "1.0", 
        "__shape__": "(320,)", 
        "__storage_type__": "0", 
        "__wd_mult__": "1.0"
      }, 
      "inputs": []
    }, 
    {
      "op": "null", 
      "name": "shufflenasoneshotfix0_hybridsequential0_shufflenetblock19_batchnorm2_running_var", 
      "attrs": {
        "__dtype__": "0", 
        "__init__": "ones", 
        "__lr_mult__": "1.0", 
        "__shape__": "(320,)", 
        "__storage_type__": "0", 
        "__wd_mult__": "1.0"
      }, 
      "inputs": []
    }, 
    {
      "op": "BatchNorm", 
      "name": "shufflenasoneshotfix0_hybridsequential0_shufflenetblock19_batchnorm2_fwd", 
      "attrs": {
        "axis": "1", 
        "eps": "1e-05", 
        "fix_gamma": "False", 
        "momentum": "0.1", 
        "use_global_stats": "False"
      }, 
      "inputs": [[883, 0, 0], [884, 0, 0], [885, 0, 0], [886, 0, 1], [887, 0, 1]]
    }, 
    {
      "op": "_plus_scalar", 
      "name": "shufflenasoneshotfix0_hybridsequential0_shufflenetblock19_hardswish1__plusscalar0", 
      "attrs": {"scalar": "3"}, 
      "inputs": [[888, 0, 0]]
    }, 
    {
      "op": "clip", 
      "name": "shufflenasoneshotfix0_hybridsequential0_shufflenetblock19_hardswish1_hard_swish", 
      "attrs": {
        "a_max": "6", 
        "a_min": "0"
      }, 
      "inputs": [[889, 0, 0]]
    }, 
    {
      "op": "_div_scalar", 
      "name": "shufflenasoneshotfix0_hybridsequential0_shufflenetblock19_hardswish1__divscalar0", 
      "attrs": {"scalar": "6.0"}, 
      "inputs": [[890, 0, 0]]
    }, 
    {
      "op": "elemwise_mul", 
      "name": "shufflenasoneshotfix0_hybridsequential0_shufflenetblock19_hardswish1__mul0", 
      "inputs": [[888, 0, 0], [891, 0, 0]]
    }, 
    {
      "op": "Pooling", 
      "name": "shufflenasoneshotfix0_hybridsequential0_shufflenetblock19_se0_pool0_fwd", 
      "attrs": {
        "global_pool": "True", 
        "kernel": "(1, 1)", 
        "layout": "NCHW", 
        "pad": "(0, 0)", 
        "pool_type": "avg", 
        "pooling_convention": "full", 
        "stride": "(1, 1)"
      }, 
      "inputs": [[892, 0, 0]]
    }, 
    {
      "op": "null", 
      "name": "shufflenasoneshotfix0_hybridsequential0_shufflenetblock19_se0_conv_squeeze_weight", 
      "attrs": {
        "__dtype__": "0", 
        "__lr_mult__": "1.0", 
        "__shape__": "(80, 320, 1, 1)", 
        "__storage_type__": "0", 
        "__wd_mult__": "1.0"
      }, 
      "inputs": []
    }, 
    {
      "op": "null", 
      "name": "shufflenasoneshotfix0_hybridsequential0_shufflenetblock19_se0_conv_squeeze_bias", 
      "attrs": {
        "__dtype__": "0", 
        "__init__": "zeros", 
        "__lr_mult__": "1.0", 
        "__shape__": "(80,)", 
        "__storage_type__": "0", 
        "__wd_mult__": "1.0"
      }, 
      "inputs": []
    }, 
    {
      "op": "Convolution", 
      "name": "shufflenasoneshotfix0_hybridsequential0_shufflenetblock19_se0_conv_squeeze_fwd", 
      "attrs": {
        "dilate": "(1, 1)", 
        "kernel": "(1, 1)", 
        "layout": "NCHW", 
        "no_bias": "False", 
        "num_filter": "80", 
        "num_group": "1", 
        "pad": "(0, 0)", 
        "stride": "(1, 1)"
      }, 
      "inputs": [[893, 0, 0], [894, 0, 0], [895, 0, 0]]
    }, 
    {
      "op": "Activation", 
      "name": "shufflenasoneshotfix0_hybridsequential0_shufflenetblock19_se0_relu0_fwd", 
      "attrs": {"act_type": "relu"}, 
      "inputs": [[896, 0, 0]]
    }, 
    {
      "op": "null", 
      "name": "shufflenasoneshotfix0_hybridsequential0_shufflenetblock19_se0_conv_excitation_weight", 
      "attrs": {
        "__dtype__": "0", 
        "__lr_mult__": "1.0", 
        "__shape__": "(320, 80, 1, 1)", 
        "__storage_type__": "0", 
        "__wd_mult__": "1.0"
      }, 
      "inputs": []
    }, 
    {
      "op": "null", 
      "name": "shufflenasoneshotfix0_hybridsequential0_shufflenetblock19_se0_conv_excitation_bias", 
      "attrs": {
        "__dtype__": "0", 
        "__init__": "zeros", 
        "__lr_mult__": "1.0", 
        "__shape__": "(320,)", 
        "__storage_type__": "0", 
        "__wd_mult__": "1.0"
      }, 
      "inputs": []
    }, 
    {
      "op": "Convolution", 
      "name": "shufflenasoneshotfix0_hybridsequential0_shufflenetblock19_se0_conv_excitation_fwd", 
      "attrs": {
        "dilate": "(1, 1)", 
        "kernel": "(1, 1)", 
        "layout": "NCHW", 
        "no_bias": "False", 
        "num_filter": "320", 
        "num_group": "1", 
        "pad": "(0, 0)", 
        "stride": "(1, 1)"
      }, 
      "inputs": [[897, 0, 0], [898, 0, 0], [899, 0, 0]]
    }, 
    {
      "op": "_plus_scalar", 
      "name": "shufflenasoneshotfix0_hybridsequential0_shufflenetblock19_se0_hardsigmoid0__plusscalar0", 
      "attrs": {"scalar": "3"}, 
      "inputs": [[900, 0, 0]]
    }, 
    {
      "op": "clip", 
      "name": "shufflenasoneshotfix0_hybridsequential0_shufflenetblock19_se0_hardsigmoid0_hard_sigmoid", 
      "attrs": {
        "a_max": "6", 
        "a_min": "0"
      }, 
      "inputs": [[901, 0, 0]]
    }, 
    {
      "op": "_div_scalar", 
      "name": "shufflenasoneshotfix0_hybridsequential0_shufflenetblock19_se0_hardsigmoid0__divscalar0", 
      "attrs": {"scalar": "6.0"}, 
      "inputs": [[902, 0, 0]]
    }, 
    {
      "op": "broadcast_mul", 
      "name": "shufflenasoneshotfix0_hybridsequential0_shufflenetblock19_se0_broadcast_mul0", 
      "inputs": [[892, 0, 0], [903, 0, 0]]
    }, 
    {
      "op": "Concat", 
      "name": "shufflenasoneshotfix0_hybridsequential0_shufflenetblock19_concat0", 
      "attrs": {
        "dim": "1", 
        "num_args": "2"
      }, 
      "inputs": [[862, 0, 0], [904, 0, 0]]
    }, 
    {
      "op": "Pooling", 
      "name": "shufflenasoneshotfix0_hybridsequential0_pool0_fwd", 
      "attrs": {
        "global_pool": "True", 
        "kernel": "(1, 1)", 
        "layout": "NCHW", 
        "pad": "(0, 0)", 
        "pool_type": "avg", 
        "pooling_convention": "full", 
        "stride": "(1, 1)"
      }, 
      "inputs": [[905, 0, 0]]
    }, 
    {
      "op": "null", 
      "name": "shufflenasoneshotfix0_hybridsequential0_conv_fc_weight", 
      "attrs": {
        "__dtype__": "0", 
        "__lr_mult__": "1.0", 
        "__shape__": "(1024, 640, 1, 1)", 
        "__storage_type__": "0", 
        "__wd_mult__": "1.0"
      }, 
      "inputs": []
    }, 
    {
      "op": "null", 
      "name": "shufflenasoneshotfix0_hybridsequential0_conv_fc_bias", 
      "attrs": {
        "__dtype__": "0", 
        "__init__": "zeros", 
        "__lr_mult__": "1.0", 
        "__shape__": "(1024,)", 
        "__storage_type__": "0", 
        "__wd_mult__": "1.0"
      }, 
      "inputs": []
    }, 
    {
      "op": "Convolution", 
      "name": "shufflenasoneshotfix0_hybridsequential0_conv_fc_fwd", 
      "attrs": {
        "dilate": "(1, 1)", 
        "kernel": "(1, 1)", 
        "layout": "NCHW", 
        "no_bias": "False", 
        "num_filter": "1024", 
        "num_group": "1", 
        "pad": "(0, 0)", 
        "stride": "(1, 1)"
      }, 
      "inputs": [[906, 0, 0], [907, 0, 0], [908, 0, 0]]
    }, 
    {
      "op": "_plus_scalar", 
      "name": "shufflenasoneshotfix0_hybridsequential0_hardswish1__plusscalar0", 
      "attrs": {"scalar": "3"}, 
      "inputs": [[909, 0, 0]]
    }, 
    {
      "op": "clip", 
      "name": "shufflenasoneshotfix0_hybridsequential0_hardswish1_hard_swish", 
      "attrs": {
        "a_max": "6", 
        "a_min": "0"
      }, 
      "inputs": [[910, 0, 0]]
    }, 
    {
      "op": "_div_scalar", 
      "name": "shufflenasoneshotfix0_hybridsequential0_hardswish1__divscalar0", 
      "attrs": {"scalar": "6.0"}, 
      "inputs": [[911, 0, 0]]
    }, 
    {
      "op": "elemwise_mul", 
      "name": "shufflenasoneshotfix0_hybridsequential0_hardswish1__mul0", 
      "inputs": [[909, 0, 0], [912, 0, 0]]
    }, 
    {
      "op": "Dropout", 
      "name": "shufflenasoneshotfix0_hybridsequential0_dropout0_fwd", 
      "attrs": {
        "axes": "()", 
        "cudnn_off": "False", 
        "p": "0.2"
      }, 
      "inputs": [[913, 0, 0]]
    }, 
    {
      "op": "null", 
      "name": "shufflenasoneshotfix0_output_conv0_weight", 
      "attrs": {
        "__dtype__": "0", 
        "__lr_mult__": "1.0", 
        "__shape__": "(1000, 1024, 1, 1)", 
        "__storage_type__": "0", 
        "__wd_mult__": "1.0"
      }, 
      "inputs": []
    }, 
    {
      "op": "null", 
      "name": "shufflenasoneshotfix0_output_conv0_bias", 
      "attrs": {
        "__dtype__": "0", 
        "__init__": "zeros", 
        "__lr_mult__": "1.0", 
        "__shape__": "(1000,)", 
        "__storage_type__": "0", 
        "__wd_mult__": "1.0"
      }, 
      "inputs": []
    }, 
    {
      "op": "Convolution", 
      "name": "shufflenasoneshotfix0_output_conv0_fwd", 
      "attrs": {
        "dilate": "(1, 1)", 
        "kernel": "(1, 1)", 
        "layout": "NCHW", 
        "no_bias": "False", 
        "num_filter": "1000", 
        "num_group": "1", 
        "pad": "(0, 0)", 
        "stride": "(1, 1)"
      }, 
      "inputs": [[914, 0, 0], [915, 0, 0], [916, 0, 0]]
    }, 
    {
      "op": "Flatten", 
      "name": "shufflenasoneshotfix0_output_flatten0_flatten0", 
      "inputs": [[917, 0, 0]]
    }, 
    {
      "op": "null", 
      "name": "softmax_label", 
      "inputs": []
    }, 
    {
      "op": "SoftmaxOutput", 
      "name": "softmax", 
      "inputs": [[918, 0, 0], [919, 0, 0]]
    }
  ], 
  "arg_nodes": [
    0, 
    1, 
    3, 
    4, 
    5, 
    6, 
    12, 
    14, 
    15, 
    16, 
    17, 
    19, 
    21, 
    22, 
    23, 
    24, 
    27, 
    29, 
    30, 
    31, 
    32, 
    35, 
    37, 
    38, 
    39, 
    40, 
    42, 
    44, 
    45, 
    46, 
    47, 
    56, 
    58, 
    59, 
    60, 
    61, 
    64, 
    66, 
    67, 
    68, 
    69, 
    71, 
    73, 
    74, 
    75, 
    76, 
    85, 
    87, 
    88, 
    89, 
    90, 
    93, 
    95, 
    96, 
    97, 
    98, 
    100, 
    102, 
    103, 
    104, 
    105, 
    114, 
    116, 
    117, 
    118, 
    119, 
    122, 
    124, 
    125, 
    126, 
    127, 
    129, 
    131, 
    132, 
    133, 
    134, 
    138, 
    140, 
    141, 
    142, 
    143, 
    145, 
    147, 
    148, 
    149, 
    150, 
    156, 
    158, 
    159, 
    160, 
    161, 
    167, 
    169, 
    170, 
    171, 
    172, 
    174, 
    176, 
    177, 
    178, 
    179, 
    191, 
    193, 
    194, 
    195, 
    196, 
    202, 
    204, 
    205, 
    206, 
    207, 
    209, 
    211, 
    212, 
    213, 
    214, 
    226, 
    228, 
    229, 
    230, 
    231, 
    237, 
    239, 
    240, 
    241, 
    242, 
    244, 
    246, 
    247, 
    248, 
    249, 
    261, 
    263, 
    264, 
    265, 
    266, 
    272, 
    274, 
    275, 
    276, 
    277, 
    279, 
    281, 
    282, 
    283, 
    284, 
    291, 
    293, 
    294, 
    295, 
    296, 
    298, 
    300, 
    301, 
    302, 
    303, 
    309, 
    311, 
    312, 
    313, 
    314, 
    316, 
    318, 
    319, 
    320, 
    321, 
    327, 
    329, 
    330, 
    331, 
    332, 
    334, 
    336, 
    337, 
    338, 
    339, 
    345, 
    347, 
    348, 
    349, 
    350, 
    352, 
    354, 
    355, 
    356, 
    357, 
    364, 
    365, 
    368, 
    369, 
    381, 
    383, 
    384, 
    385, 
    386, 
    392, 
    394, 
    395, 
    396, 
    397, 
    399, 
    401, 
    402, 
    403, 
    404, 
    411, 
    412, 
    415, 
    416, 
    428, 
    430, 
    431, 
    432, 
    433, 
    439, 
    441, 
    442, 
    443, 
    444, 
    446, 
    448, 
    449, 
    450, 
    451, 
    458, 
    459, 
    462, 
    463, 
    475, 
    477, 
    478, 
    479, 
    480, 
    486, 
    488, 
    489, 
    490, 
    491, 
    493, 
    495, 
    496, 
    497, 
    498, 
    505, 
    506, 
    509, 
    510, 
    522, 
    524, 
    525, 
    526, 
    527, 
    533, 
    535, 
    536, 
    537, 
    538, 
    540, 
    542, 
    543, 
    544, 
    545, 
    552, 
    553, 
    556, 
    557, 
    569, 
    571, 
    572, 
    573, 
    574, 
    580, 
    582, 
    583, 
    584, 
    585, 
    587, 
    589, 
    590, 
    591, 
    592, 
    599, 
    600, 
    603, 
    604, 
    616, 
    618, 
    619, 
    620, 
    621, 
    627, 
    629, 
    630, 
    631, 
    632, 
    634, 
    636, 
    637, 
    638, 
    639, 
    646, 
    647, 
    650, 
    651, 
    663, 
    665, 
    666, 
    667, 
    668, 
    674, 
    676, 
    677, 
    678, 
    679, 
    681, 
    683, 
    684, 
    685, 
    686, 
    693, 
    694, 
    697, 
    698, 
    705, 
    707, 
    708, 
    709, 
    710, 
    712, 
    714, 
    715, 
    716, 
    717, 
    723, 
    725, 
    726, 
    727, 
    728, 
    734, 
    736, 
    737, 
    738, 
    739, 
    741, 
    743, 
    744, 
    745, 
    746, 
    753, 
    754, 
    757, 
    758, 
    770, 
    772, 
    773, 
    774, 
    775, 
    781, 
    783, 
    784, 
    785, 
    786, 
    788, 
    790, 
    791, 
    792, 
    793, 
    800, 
    801, 
    804, 
    805, 
    817, 
    819, 
    820, 
    821, 
    822, 
    828, 
    830, 
    831, 
    832, 
    833, 
    835, 
    837, 
    838, 
    839, 
    840, 
    847, 
    848, 
    851, 
    852, 
    864, 
    866, 
    867, 
    868, 
    869, 
    875, 
    877, 
    878, 
    879, 
    880, 
    882, 
    884, 
    885, 
    886, 
    887, 
    894, 
    895, 
    898, 
    899, 
    907, 
    908, 
    915, 
    916, 
    919
  ], 
  "node_row_ptr": [
    0, 
    1, 
    2, 
    3, 
    4, 
    5, 
    6, 
    7, 
    10, 
    11, 
    12, 
    13, 
    14, 
    15, 
    16, 
    17, 
    18, 
    19, 
    20, 
    23, 
    24, 
    25, 
    26, 
    27, 
    28, 
    29, 
    32, 
    33, 
    34, 
    35, 
    36, 
    37, 
    38, 
    39, 
    42, 
    43, 
    44, 
    45, 
    46, 
    47, 
    48, 
    49, 
    52, 
    53, 
    54, 
    55, 
    56, 
    57, 
    58, 
    61, 
    62, 
    63, 
    64, 
    65, 
    66, 
    67, 
    68, 
    69, 
    70, 
    71, 
    72, 
    73, 
    74, 
    77, 
    78, 
    79, 
    80, 
    81, 
    82, 
    83, 
    84, 
    87, 
    88, 
    89, 
    90, 
    91, 
    92, 
    93, 
    96, 
    97, 
    98, 
    99, 
    100, 
    101, 
    102, 
    103, 
    104, 
    105, 
    106, 
    107, 
    108, 
    109, 
    112, 
    113, 
    114, 
    115, 
    116, 
    117, 
    118, 
    119, 
    122, 
    123, 
    124, 
    125, 
    126, 
    127, 
    128, 
    131, 
    132, 
    133, 
    134, 
    135, 
    136, 
    137, 
    138, 
    139, 
    140, 
    141, 
    142, 
    143, 
    144, 
    147, 
    148, 
    149, 
    150, 
    151, 
    152, 
    153, 
    154, 
    157, 
    158, 
    159, 
    160, 
    161, 
    162, 
    163, 
    166, 
    167, 
    168, 
    169, 
    170, 
    171, 
    172, 
    173, 
    174, 
    177, 
    178, 
    179, 
    180, 
    181, 
    182, 
    183, 
    186, 
    187, 
    188, 
    189, 
    190, 
    191, 
    192, 
    193, 
    194, 
    195, 
    196, 
    199, 
    200, 
    201, 
    202, 
    203, 
    204, 
    205, 
    206, 
    207, 
    208, 
    209, 
    212, 
    213, 
    214, 
    215, 
    216, 
    217, 
    218, 
    221, 
    222, 
    223, 
    224, 
    225, 
    226, 
    227, 
    228, 
    229, 
    230, 
    231, 
    232, 
    233, 
    234, 
    235, 
    236, 
    237, 
    240, 
    241, 
    242, 
    243, 
    244, 
    245, 
    246, 
    247, 
    248, 
    249, 
    250, 
    253, 
    254, 
    255, 
    256, 
    257, 
    258, 
    259, 
    262, 
    263, 
    264, 
    265, 
    266, 
    267, 
    268, 
    269, 
    270, 
    271, 
    272, 
    273, 
    274, 
    275, 
    276, 
    277, 
    278, 
    281, 
    282, 
    283, 
    284, 
    285, 
    286, 
    287, 
    288, 
    289, 
    290, 
    291, 
    294, 
    295, 
    296, 
    297, 
    298, 
    299, 
    300, 
    303, 
    304, 
    305, 
    306, 
    307, 
    308, 
    309, 
    310, 
    311, 
    312, 
    313, 
    314, 
    315, 
    316, 
    317, 
    318, 
    319, 
    322, 
    323, 
    324, 
    325, 
    326, 
    327, 
    328, 
    329, 
    330, 
    331, 
    332, 
    335, 
    336, 
    337, 
    338, 
    339, 
    340, 
    341, 
    344, 
    345, 
    346, 
    347, 
    348, 
    349, 
    350, 
    351, 
    352, 
    353, 
    354, 
    355, 
    358, 
    359, 
    360, 
    361, 
    362, 
    363, 
    364, 
    367, 
    368, 
    369, 
    370, 
    371, 
    372, 
    373, 
    374, 
    375, 
    376, 
    377, 
    380, 
    381, 
    382, 
    383, 
    384, 
    385, 
    386, 
    389, 
    390, 
    391, 
    392, 
    393, 
    394, 
    395, 
    396, 
    397, 
    398, 
    399, 
    402, 
    403, 
    404, 
    405, 
    406, 
    407, 
    408, 
    411, 
    412, 
    413, 
    414, 
    415, 
    416, 
    417, 
    418, 
    419, 
    420, 
    421, 
    424, 
    425, 
    426, 
    427, 
    428, 
    429, 
    430, 
    433, 
    434, 
    435, 
    436, 
    437, 
    438, 
    439, 
    440, 
    441, 
    442, 
    443, 
    444, 
    445, 
    446, 
    447, 
    448, 
    449, 
    450, 
    451, 
    452, 
    453, 
    454, 
    455, 
    456, 
    457, 
    458, 
    459, 
    460, 
    461, 
    464, 
    465, 
    466, 
    467, 
    468, 
    469, 
    470, 
    471, 
    472, 
    473, 
    474, 
    477, 
    478, 
    479, 
    480, 
    481, 
    482, 
    483, 
    486, 
    487, 
    488, 
    489, 
    490, 
    491, 
    492, 
    493, 
    494, 
    495, 
    496, 
    497, 
    498, 
    499, 
    500, 
    501, 
    502, 
    503, 
    504, 
    505, 
    506, 
    507, 
    508, 
    509, 
    510, 
    511, 
    512, 
    513, 
    514, 
    517, 
    518, 
    519, 
    520, 
    521, 
    522, 
    523, 
    524, 
    525, 
    526, 
    527, 
    530, 
    531, 
    532, 
    533, 
    534, 
    535, 
    536, 
    539, 
    540, 
    541, 
    542, 
    543, 
    544, 
    545, 
    546, 
    547, 
    548, 
    549, 
    550, 
    551, 
    552, 
    553, 
    554, 
    555, 
    556, 
    557, 
    558, 
    559, 
    560, 
    561, 
    562, 
    563, 
    564, 
    565, 
    566, 
    567, 
    570, 
    571, 
    572, 
    573, 
    574, 
    575, 
    576, 
    577, 
    578, 
    579, 
    580, 
    583, 
    584, 
    585, 
    586, 
    587, 
    588, 
    589, 
    592, 
    593, 
    594, 
    595, 
    596, 
    597, 
    598, 
    599, 
    600, 
    601, 
    602, 
    603, 
    604, 
    605, 
    606, 
    607, 
    608, 
    609, 
    610, 
    611, 
    612, 
    613, 
    614, 
    615, 
    616, 
    617, 
    618, 
    619, 
    620, 
    623, 
    624, 
    625, 
    626, 
    627, 
    628, 
    629, 
    630, 
    631, 
    632, 
    633, 
    636, 
    637, 
    638, 
    639, 
    640, 
    641, 
    642, 
    645, 
    646, 
    647, 
    648, 
    649, 
    650, 
    651, 
    652, 
    653, 
    654, 
    655, 
    656, 
    657, 
    658, 
    659, 
    660, 
    661, 
    662, 
    663, 
    664, 
    665, 
    666, 
    667, 
    668, 
    669, 
    670, 
    671, 
    672, 
    673, 
    676, 
    677, 
    678, 
    679, 
    680, 
    681, 
    682, 
    683, 
    684, 
    685, 
    686, 
    689, 
    690, 
    691, 
    692, 
    693, 
    694, 
    695, 
    698, 
    699, 
    700, 
    701, 
    702, 
    703, 
    704, 
    705, 
    706, 
    707, 
    708, 
    709, 
    710, 
    711, 
    712, 
    713, 
    714, 
    715, 
    716, 
    717, 
    718, 
    719, 
    720, 
    721, 
    722, 
    723, 
    724, 
    725, 
    726, 
    729, 
    730, 
    731, 
    732, 
    733, 
    734, 
    735, 
    736, 
    737, 
    738, 
    739, 
    742, 
    743, 
    744, 
    745, 
    746, 
    747, 
    748, 
    751, 
    752, 
    753, 
    754, 
    755, 
    756, 
    757, 
    758, 
    759, 
    760, 
    761, 
    762, 
    763, 
    764, 
    765, 
    766, 
    767, 
    768, 
    769, 
    770, 
    771, 
    772, 
    773, 
    774, 
    775, 
    776, 
    777, 
    778, 
    779, 
    782, 
    783, 
    784, 
    785, 
    786, 
    787, 
    788, 
    789, 
    790, 
    791, 
    792, 
    795, 
    796, 
    797, 
    798, 
    799, 
    800, 
    801, 
    804, 
    805, 
    806, 
    807, 
    808, 
    809, 
    810, 
    811, 
    812, 
    813, 
    814, 
    815, 
    816, 
    817, 
    818, 
    819, 
    820, 
    821, 
    822, 
    823, 
    824, 
    825, 
    826, 
    827, 
    830, 
    831, 
    832, 
    833, 
    834, 
    835, 
    836, 
    839, 
    840, 
    841, 
    842, 
    843, 
    844, 
    845, 
    846, 
    847, 
    848, 
    849, 
    852, 
    853, 
    854, 
    855, 
    856, 
    857, 
    858, 
    859, 
    860, 
    861, 
    862, 
    865, 
    866, 
    867, 
    868, 
    869, 
    870, 
    871, 
    874, 
    875, 
    876, 
    877, 
    878, 
    879, 
    880, 
    881, 
    882, 
    883, 
    884, 
    885, 
    886, 
    887, 
    888, 
    889, 
    890, 
    891, 
    892, 
    893, 
    894, 
    895, 
    896, 
    897, 
    898, 
    899, 
    900, 
    901, 
    902, 
    905, 
    906, 
    907, 
    908, 
    909, 
    910, 
    911, 
    912, 
    913, 
    914, 
    915, 
    918, 
    919, 
    920, 
    921, 
    922, 
    923, 
    924, 
    927, 
    928, 
    929, 
    930, 
    931, 
    932, 
    933, 
    934, 
    935, 
    936, 
    937, 
    938, 
    939, 
    940, 
    941, 
    942, 
    943, 
    944, 
    945, 
    946, 
    947, 
    948, 
    949, 
    950, 
    951, 
    952, 
    953, 
    954, 
    955, 
    958, 
    959, 
    960, 
    961, 
    962, 
    963, 
    964, 
    965, 
    966, 
    967, 
    968, 
    971, 
    972, 
    973, 
    974, 
    975, 
    976, 
    977, 
    980, 
    981, 
    982, 
    983, 
    984, 
    985, 
    986, 
    987, 
    988, 
    989, 
    990, 
    991, 
    992, 
    993, 
    994, 
    995, 
    996, 
    997, 
    998, 
    999, 
    1000, 
    1001, 
    1002, 
    1003, 
    1004, 
    1005, 
    1006, 
    1007, 
    1008, 
    1011, 
    1012, 
    1013, 
    1014, 
    1015, 
    1016, 
    1017, 
    1018, 
    1019, 
    1020, 
    1021, 
    1024, 
    1025, 
    1026, 
    1027, 
    1028, 
    1029, 
    1030, 
    1033, 
    1034, 
    1035, 
    1036, 
    1037, 
    1038, 
    1039, 
    1040, 
    1041, 
    1042, 
    1043, 
    1044, 
    1045, 
    1046, 
    1047, 
    1048, 
    1049, 
    1050, 
    1051, 
    1052, 
    1053, 
    1054, 
    1055, 
    1056, 
    1057, 
    1058, 
    1060, 
    1061, 
    1062, 
    1063, 
    1064, 
    1065, 
    1066
  ], 
  "heads": [[920, 0, 0]], 
  "attrs": {"mxnet_version": ["int", 10500]}
}