{
  "nodes": [
    {
      "op": "null",
      "name": "data",
      "inputs": []
    },
    {
      "op": "_contrib_quantize_v2",
      "name": "data_quantize",
      "attrs": {
        "max_calib_range": "2.626948",
        "min_calib_range": "-2.626948",
        "out_type": "auto"
      },
      "inputs": [[0, 0, 0]]
    },
    {
      "op": "null",
      "name": "shufflenasoneshotfix0_hybridsequential0_first_conv_weight",
      "attrs": {
        "__dtype__": "0",
        "__lr_mult__": "1.0",
        "__shape__": "(16, 3, 3, 3)",
        "__storage_type__": "0",
        "__wd_mult__": "1.0"
      },
      "inputs": []
    },
    {
      "op": "null",
      "name": "shufflenasoneshotfix0_hybridsequential0_batchnorm0_gamma",
      "attrs": {
        "__dtype__": "0",
        "__init__": "ones",
        "__lr_mult__": "1.0",
        "__shape__": "(16,)",
        "__storage_type__": "0",
        "__wd_mult__": "1.0"
      },
      "inputs": []
    },
    {
      "op": "null",
      "name": "shufflenasoneshotfix0_hybridsequential0_batchnorm0_beta",
      "attrs": {
        "__dtype__": "0",
        "__init__": "zeros",
        "__lr_mult__": "1.0",
        "__shape__": "(16,)",
        "__storage_type__": "0",
        "__wd_mult__": "1.0"
      },
      "inputs": []
    },
    {
      "op": "null",
      "name": "shufflenasoneshotfix0_hybridsequential0_batchnorm0_running_mean",
      "attrs": {
        "__dtype__": "0",
        "__init__": "zeros",
        "__lr_mult__": "1.0",
        "__shape__": "(16,)",
        "__storage_type__": "0",
        "__wd_mult__": "1.0"
      },
      "inputs": []
    },
    {
      "op": "null",
      "name": "shufflenasoneshotfix0_hybridsequential0_batchnorm0_running_var",
      "attrs": {
        "__dtype__": "0",
        "__init__": "ones",
        "__lr_mult__": "1.0",
        "__shape__": "(16,)",
        "__storage_type__": "0",
        "__wd_mult__": "1.0"
      },
      "inputs": []
    },
    {
      "op": "_sg_mkldnn_conv",
      "name": "quantized_sg_mkldnn_conv_bn_0",
      "attrs": {
        "max_calib_range": "27.933298",
        "min_calib_range": "-27.933298",
        "quantized": "true",
        "with_bn": "true"
      },
      "inputs": [[1, 0, 0], [2, 0, 0], [3, 0, 0], [4, 0, 0], [5, 0, 1], [6, 0, 1], [1, 1, 0], [1, 2, 0]],
      "subgraphs": [
        {
          "nodes": [
            {
              "op": "null",
              "name": "data0",
              "inputs": []
            },
            {
              "op": "null",
              "name": "shufflenasoneshotfix0_hybridsequential0_first_conv_weight0",
              "inputs": []
            },
            {
              "op": "Convolution",
              "name": "shufflenasoneshotfix0_hybridsequential0_first_conv_fwd",
              "attrs": {
                "dilate": "(1, 1)",
                "kernel": "(3, 3)",
                "layout": "NCHW",
                "no_bias": "True",
                "num_filter": "16",
                "num_group": "1",
                "pad": "(1, 1)",
                "stride": "(2, 2)"
              },
              "inputs": [[0, 0, 0], [1, 0, 0]]
            },
            {
              "op": "null",
              "name": "shufflenasoneshotfix0_hybridsequential0_batchnorm0_gamma0",
              "inputs": []
            },
            {
              "op": "null",
              "name": "shufflenasoneshotfix0_hybridsequential0_batchnorm0_beta0",
              "inputs": []
            },
            {
              "op": "null",
              "name": "shufflenasoneshotfix0_hybridsequential0_batchnorm0_running_mean0",
              "inputs": []
            },
            {
              "op": "null",
              "name": "shufflenasoneshotfix0_hybridsequential0_batchnorm0_running_var0",
              "inputs": []
            },
            {
              "op": "BatchNorm",
              "name": "shufflenasoneshotfix0_hybridsequential0_batchnorm0_fwd",
              "attrs": {
                "axis": "1",
                "eps": "1e-05",
                "fix_gamma": "False",
                "momentum": "0.1",
                "use_global_stats": "False"
              },
              "inputs": [[2, 0, 0], [3, 0, 0], [4, 0, 0], [5, 0, 0], [6, 0, 0]]
            }
          ],
          "arg_nodes": [0, 1, 3, 4, 5, 6],
          "node_row_ptr": [0, 1, 2, 3, 4, 5, 6, 7, 10],
          "heads": [[7, 0, 0]]
        }
      ]
    },
    {
      "op": "_contrib_dequantize",
      "name": "sg_mkldnn_conv_bn_0_dequantize",
      "inputs": [[7, 0, 0], [7, 1, 0], [7, 2, 0]]
    },
    {
      "op": "_plus_scalar",
      "name": "shufflenasoneshotfix0_hybridsequential0_hardswish0__plusscalar0",
      "attrs": {"scalar": "3"},
      "inputs": [[8, 0, 0]]
    },
    {
      "op": "clip",
      "name": "shufflenasoneshotfix0_hybridsequential0_hardswish0_hard_swish",
      "attrs": {
        "a_max": "6",
        "a_min": "0"
      },
      "inputs": [[9, 0, 0]]
    },
    {
      "op": "_div_scalar",
      "name": "shufflenasoneshotfix0_hybridsequential0_hardswish0__divscalar0",
      "attrs": {"scalar": "6.0"},
      "inputs": [[10, 0, 0]]
    },
    {
      "op": "elemwise_mul",
      "name": "shufflenasoneshotfix0_hybridsequential0_hardswish0__mul0",
      "inputs": [[8, 0, 0], [11, 0, 0]]
    },
    {
      "op": "_contrib_quantize_v2",
      "name": "shufflenasoneshotfix0_hybridsequential0_hardswish0__mul0_0_quantize",
      "attrs": {
        "max_calib_range": "11.270991",
        "min_calib_range": "-11.270991",
        "out_type": "auto"
      },
      "inputs": [[12, 0, 0]]
    },
    {
      "op": "null",
      "name": "shufflenasoneshotfix0_hybridsequential0_shufflenetblock0_conv3_weight",
      "attrs": {
        "__dtype__": "0",
        "__lr_mult__": "1.0",
        "__shape__": "(16, 1, 3, 3)",
        "__storage_type__": "0",
        "__wd_mult__": "1.0"
      },
      "inputs": []
    },
    {
      "op": "null",
      "name": "shufflenasoneshotfix0_hybridsequential0_shufflenetblock0_batchnorm3_gamma",
      "attrs": {
        "__dtype__": "0",
        "__init__": "ones",
        "__lr_mult__": "1.0",
        "__shape__": "(16,)",
        "__storage_type__": "0",
        "__wd_mult__": "1.0"
      },
      "inputs": []
    },
    {
      "op": "null",
      "name": "shufflenasoneshotfix0_hybridsequential0_shufflenetblock0_batchnorm3_beta",
      "attrs": {
        "__dtype__": "0",
        "__init__": "zeros",
        "__lr_mult__": "1.0",
        "__shape__": "(16,)",
        "__storage_type__": "0",
        "__wd_mult__": "1.0"
      },
      "inputs": []
    },
    {
      "op": "null",
      "name": "shufflenasoneshotfix0_hybridsequential0_shufflenetblock0_batchnorm3_running_mean",
      "attrs": {
        "__dtype__": "0",
        "__init__": "zeros",
        "__lr_mult__": "1.0",
        "__shape__": "(16,)",
        "__storage_type__": "0",
        "__wd_mult__": "1.0"
      },
      "inputs": []
    },
    {
      "op": "null",
      "name": "shufflenasoneshotfix0_hybridsequential0_shufflenetblock0_batchnorm3_running_var",
      "attrs": {
        "__dtype__": "0",
        "__init__": "ones",
        "__lr_mult__": "1.0",
        "__shape__": "(16,)",
        "__storage_type__": "0",
        "__wd_mult__": "1.0"
      },
      "inputs": []
    },
    {
      "op": "_sg_mkldnn_conv",
      "name": "quantized_sg_mkldnn_conv_bn_1",
      "attrs": {
        "max_calib_range": "59.347382",
        "min_calib_range": "-59.347382",
        "quantized": "true",
        "with_bn": "true"
      },
      "inputs": [[13, 0, 0], [14, 0, 0], [15, 0, 0], [16, 0, 0], [17, 0, 1], [18, 0, 1], [13, 1, 0], [13, 2, 0]],
      "subgraphs": [
        {
          "nodes": [
            {
              "op": "null",
              "name": "shufflenasoneshotfix0_hybridsequential0_hardswish0__mul0_output0",
              "inputs": []
            },
            {
              "op": "null",
              "name": "shufflenasoneshotfix0_hybridsequential0_shufflenetblock0_conv3_weight0",
              "inputs": []
            },
            {
              "op": "Convolution",
              "name": "shufflenasoneshotfix0_hybridsequential0_shufflenetblock0_conv3_fwd",
              "attrs": {
                "dilate": "(1, 1)",
                "kernel": "(3, 3)",
                "layout": "NCHW",
                "no_bias": "True",
                "num_filter": "16",
                "num_group": "16",
                "pad": "(1, 1)",
                "stride": "(2, 2)"
              },
              "inputs": [[0, 0, 0], [1, 0, 0]]
            },
            {
              "op": "null",
              "name": "shufflenasoneshotfix0_hybridsequential0_shufflenetblock0_batchnorm3_gamma0",
              "inputs": []
            },
            {
              "op": "null",
              "name": "shufflenasoneshotfix0_hybridsequential0_shufflenetblock0_batchnorm3_beta0",
              "inputs": []
            },
            {
              "op": "null",
              "name": "shufflenasoneshotfix0_hybridsequential0_shufflenetblock0_batchnorm3_running_mean0",
              "inputs": []
            },
            {
              "op": "null",
              "name": "shufflenasoneshotfix0_hybridsequential0_shufflenetblock0_batchnorm3_running_var0",
              "inputs": []
            },
            {
              "op": "BatchNorm",
              "name": "shufflenasoneshotfix0_hybridsequential0_shufflenetblock0_batchnorm3_fwd",
              "attrs": {
                "axis": "1",
                "eps": "1e-05",
                "fix_gamma": "False",
                "momentum": "0.1",
                "use_global_stats": "False"
              },
              "inputs": [[2, 0, 0], [3, 0, 0], [4, 0, 0], [5, 0, 0], [6, 0, 0]]
            }
          ],
          "arg_nodes": [0, 1, 3, 4, 5, 6],
          "node_row_ptr": [0, 1, 2, 3, 4, 5, 6, 7, 10],
          "heads": [[7, 0, 0]]
        }
      ]
    },
    {
      "op": "null",
      "name": "shufflenasoneshotfix0_hybridsequential0_shufflenetblock0_conv4_weight",
      "attrs": {
        "__dtype__": "0",
        "__lr_mult__": "1.0",
        "__shape__": "(16, 16, 1, 1)",
        "__storage_type__": "0",
        "__wd_mult__": "1.0"
      },
      "inputs": []
    },
    {
      "op": "null",
      "name": "shufflenasoneshotfix0_hybridsequential0_shufflenetblock0_batchnorm4_gamma",
      "attrs": {
        "__dtype__": "0",
        "__init__": "ones",
        "__lr_mult__": "1.0",
        "__shape__": "(16,)",
        "__storage_type__": "0",
        "__wd_mult__": "1.0"
      },
      "inputs": []
    },
    {
      "op": "null",
      "name": "shufflenasoneshotfix0_hybridsequential0_shufflenetblock0_batchnorm4_beta",
      "attrs": {
        "__dtype__": "0",
        "__init__": "zeros",
        "__lr_mult__": "1.0",
        "__shape__": "(16,)",
        "__storage_type__": "0",
        "__wd_mult__": "1.0"
      },
      "inputs": []
    },
    {
      "op": "null",
      "name": "shufflenasoneshotfix0_hybridsequential0_shufflenetblock0_batchnorm4_running_mean",
      "attrs": {
        "__dtype__": "0",
        "__init__": "zeros",
        "__lr_mult__": "1.0",
        "__shape__": "(16,)",
        "__storage_type__": "0",
        "__wd_mult__": "1.0"
      },
      "inputs": []
    },
    {
      "op": "null",
      "name": "shufflenasoneshotfix0_hybridsequential0_shufflenetblock0_batchnorm4_running_var",
      "attrs": {
        "__dtype__": "0",
        "__init__": "ones",
        "__lr_mult__": "1.0",
        "__shape__": "(16,)",
        "__storage_type__": "0",
        "__wd_mult__": "1.0"
      },
      "inputs": []
    },
    {
      "op": "_sg_mkldnn_conv",
      "name": "quantized_sg_mkldnn_conv_bn_act_2",
      "attrs": {
        "max_calib_range": "80.109077",
        "min_calib_range": "0.000000",
        "quantized": "true",
        "with_act": "true",
        "with_bn": "true"
      },
      "inputs": [[19, 0, 0], [20, 0, 0], [21, 0, 0], [22, 0, 0], [23, 0, 1], [24, 0, 1], [19, 1, 0], [19, 2, 0]],
      "subgraphs": [
        {
          "nodes": [
            {
              "op": "null",
              "name": "sg_mkldnn_conv_bn_1_output0",
              "inputs": []
            },
            {
              "op": "null",
              "name": "shufflenasoneshotfix0_hybridsequential0_shufflenetblock0_conv4_weight0",
              "inputs": []
            },
            {
              "op": "Convolution",
              "name": "shufflenasoneshotfix0_hybridsequential0_shufflenetblock0_conv4_fwd",
              "attrs": {
                "dilate": "(1, 1)",
                "kernel": "(1, 1)",
                "layout": "NCHW",
                "no_bias": "True",
                "num_filter": "16",
                "num_group": "1",
                "pad": "(0, 0)",
                "stride": "(1, 1)"
              },
              "inputs": [[0, 0, 0], [1, 0, 0]]
            },
            {
              "op": "null",
              "name": "shufflenasoneshotfix0_hybridsequential0_shufflenetblock0_batchnorm4_gamma0",
              "inputs": []
            },
            {
              "op": "null",
              "name": "shufflenasoneshotfix0_hybridsequential0_shufflenetblock0_batchnorm4_beta0",
              "inputs": []
            },
            {
              "op": "null",
              "name": "shufflenasoneshotfix0_hybridsequential0_shufflenetblock0_batchnorm4_running_mean0",
              "inputs": []
            },
            {
              "op": "null",
              "name": "shufflenasoneshotfix0_hybridsequential0_shufflenetblock0_batchnorm4_running_var0",
              "inputs": []
            },
            {
              "op": "BatchNorm",
              "name": "shufflenasoneshotfix0_hybridsequential0_shufflenetblock0_batchnorm4_fwd",
              "attrs": {
                "axis": "1",
                "eps": "1e-05",
                "fix_gamma": "False",
                "momentum": "0.1",
                "use_global_stats": "False"
              },
              "inputs": [[2, 0, 0], [3, 0, 0], [4, 0, 0], [5, 0, 0], [6, 0, 0]]
            },
            {
              "op": "Activation",
              "name": "shufflenasoneshotfix0_hybridsequential0_shufflenetblock0_relu2_fwd",
              "attrs": {"act_type": "relu"},
              "inputs": [[7, 0, 0]]
            }
          ],
          "arg_nodes": [0, 1, 3, 4, 5, 6],
          "node_row_ptr": [0, 1, 2, 3, 4, 5, 6, 7, 10, 11],
          "heads": [[8, 0, 0]]
        }
      ]
    },
    {
      "op": "_contrib_dequantize",
      "name": "sg_mkldnn_conv_bn_act_2_dequantize",
      "inputs": [[25, 0, 0], [25, 1, 0], [25, 2, 0]]
    },
    {
      "op": "null",
      "name": "shufflenasoneshotfix0_hybridsequential0_shufflenetblock0_conv0_weight",
      "attrs": {
        "__dtype__": "0",
        "__lr_mult__": "1.0",
        "__shape__": "(57, 16, 1, 1)",
        "__storage_type__": "0",
        "__wd_mult__": "1.0"
      },
      "inputs": []
    },
    {
      "op": "null",
      "name": "shufflenasoneshotfix0_hybridsequential0_shufflenetblock0_batchnorm0_gamma",
      "attrs": {
        "__dtype__": "0",
        "__init__": "ones",
        "__lr_mult__": "1.0",
        "__shape__": "(57,)",
        "__storage_type__": "0",
        "__wd_mult__": "1.0"
      },
      "inputs": []
    },
    {
      "op": "null",
      "name": "shufflenasoneshotfix0_hybridsequential0_shufflenetblock0_batchnorm0_beta",
      "attrs": {
        "__dtype__": "0",
        "__init__": "zeros",
        "__lr_mult__": "1.0",
        "__shape__": "(57,)",
        "__storage_type__": "0",
        "__wd_mult__": "1.0"
      },
      "inputs": []
    },
    {
      "op": "null",
      "name": "shufflenasoneshotfix0_hybridsequential0_shufflenetblock0_batchnorm0_running_mean",
      "attrs": {
        "__dtype__": "0",
        "__init__": "zeros",
        "__lr_mult__": "1.0",
        "__shape__": "(57,)",
        "__storage_type__": "0",
        "__wd_mult__": "1.0"
      },
      "inputs": []
    },
    {
      "op": "null",
      "name": "shufflenasoneshotfix0_hybridsequential0_shufflenetblock0_batchnorm0_running_var",
      "attrs": {
        "__dtype__": "0",
        "__init__": "ones",
        "__lr_mult__": "1.0",
        "__shape__": "(57,)",
        "__storage_type__": "0",
        "__wd_mult__": "1.0"
      },
      "inputs": []
    },
    {
      "op": "_sg_mkldnn_conv",
      "name": "quantized_sg_mkldnn_conv_bn_act_3",
      "attrs": {
        "max_calib_range": "37.503616",
        "min_calib_range": "0.000000",
        "quantized": "true",
        "with_act": "true",
        "with_bn": "true"
      },
      "inputs": [[13, 0, 0], [27, 0, 0], [28, 0, 0], [29, 0, 0], [30, 0, 1], [31, 0, 1], [13, 1, 0], [13, 2, 0]],
      "subgraphs": [
        {
          "nodes": [
            {
              "op": "null",
              "name": "shufflenasoneshotfix0_hybridsequential0_hardswish0__mul0_output0",
              "inputs": []
            },
            {
              "op": "null",
              "name": "shufflenasoneshotfix0_hybridsequential0_shufflenetblock0_conv0_weight0",
              "inputs": []
            },
            {
              "op": "Convolution",
              "name": "shufflenasoneshotfix0_hybridsequential0_shufflenetblock0_conv0_fwd",
              "attrs": {
                "dilate": "(1, 1)",
                "kernel": "(1, 1)",
                "layout": "NCHW",
                "no_bias": "True",
                "num_filter": "57",
                "num_group": "1",
                "pad": "(0, 0)",
                "stride": "(1, 1)"
              },
              "inputs": [[0, 0, 0], [1, 0, 0]]
            },
            {
              "op": "null",
              "name": "shufflenasoneshotfix0_hybridsequential0_shufflenetblock0_batchnorm0_gamma0",
              "inputs": []
            },
            {
              "op": "null",
              "name": "shufflenasoneshotfix0_hybridsequential0_shufflenetblock0_batchnorm0_beta0",
              "inputs": []
            },
            {
              "op": "null",
              "name": "shufflenasoneshotfix0_hybridsequential0_shufflenetblock0_batchnorm0_running_mean0",
              "inputs": []
            },
            {
              "op": "null",
              "name": "shufflenasoneshotfix0_hybridsequential0_shufflenetblock0_batchnorm0_running_var0",
              "inputs": []
            },
            {
              "op": "BatchNorm",
              "name": "shufflenasoneshotfix0_hybridsequential0_shufflenetblock0_batchnorm0_fwd",
              "attrs": {
                "axis": "1",
                "eps": "1e-05",
                "fix_gamma": "False",
                "momentum": "0.1",
                "use_global_stats": "False"
              },
              "inputs": [[2, 0, 0], [3, 0, 0], [4, 0, 0], [5, 0, 0], [6, 0, 0]]
            },
            {
              "op": "Activation",
              "name": "shufflenasoneshotfix0_hybridsequential0_shufflenetblock0_relu0_fwd",
              "attrs": {"act_type": "relu"},
              "inputs": [[7, 0, 0]]
            }
          ],
          "arg_nodes": [0, 1, 3, 4, 5, 6],
          "node_row_ptr": [0, 1, 2, 3, 4, 5, 6, 7, 10, 11],
          "heads": [[8, 0, 0]]
        }
      ]
    },
    {
      "op": "null",
      "name": "shufflenasoneshotfix0_hybridsequential0_shufflenetblock0_conv1_weight",
      "attrs": {
        "__dtype__": "0",
        "__lr_mult__": "1.0",
        "__shape__": "(57, 1, 3, 3)",
        "__storage_type__": "0",
        "__wd_mult__": "1.0"
      },
      "inputs": []
    },
    {
      "op": "null",
      "name": "shufflenasoneshotfix0_hybridsequential0_shufflenetblock0_batchnorm1_gamma",
      "attrs": {
        "__dtype__": "0",
        "__init__": "ones",
        "__lr_mult__": "1.0",
        "__shape__": "(57,)",
        "__storage_type__": "0",
        "__wd_mult__": "1.0"
      },
      "inputs": []
    },
    {
      "op": "null",
      "name": "shufflenasoneshotfix0_hybridsequential0_shufflenetblock0_batchnorm1_beta",
      "attrs": {
        "__dtype__": "0",
        "__init__": "zeros",
        "__lr_mult__": "1.0",
        "__shape__": "(57,)",
        "__storage_type__": "0",
        "__wd_mult__": "1.0"
      },
      "inputs": []
    },
    {
      "op": "null",
      "name": "shufflenasoneshotfix0_hybridsequential0_shufflenetblock0_batchnorm1_running_mean",
      "attrs": {
        "__dtype__": "0",
        "__init__": "zeros",
        "__lr_mult__": "1.0",
        "__shape__": "(57,)",
        "__storage_type__": "0",
        "__wd_mult__": "1.0"
      },
      "inputs": []
    },
    {
      "op": "null",
      "name": "shufflenasoneshotfix0_hybridsequential0_shufflenetblock0_batchnorm1_running_var",
      "attrs": {
        "__dtype__": "0",
        "__init__": "ones",
        "__lr_mult__": "1.0",
        "__shape__": "(57,)",
        "__storage_type__": "0",
        "__wd_mult__": "1.0"
      },
      "inputs": []
    },
    {
      "op": "_sg_mkldnn_conv",
      "name": "quantized_sg_mkldnn_conv_bn_4",
      "attrs": {
        "max_calib_range": "14.245909",
        "min_calib_range": "-14.245909",
        "quantized": "true",
        "with_bn": "true"
      },
      "inputs": [[32, 0, 0], [33, 0, 0], [34, 0, 0], [35, 0, 0], [36, 0, 1], [37, 0, 1], [32, 1, 0], [32, 2, 0]],
      "subgraphs": [
        {
          "nodes": [
            {
              "op": "null",
              "name": "sg_mkldnn_conv_bn_act_3_output0",
              "inputs": []
            },
            {
              "op": "null",
              "name": "shufflenasoneshotfix0_hybridsequential0_shufflenetblock0_conv1_weight0",
              "inputs": []
            },
            {
              "op": "Convolution",
              "name": "shufflenasoneshotfix0_hybridsequential0_shufflenetblock0_conv1_fwd",
              "attrs": {
                "dilate": "(1, 1)",
                "kernel": "(3, 3)",
                "layout": "NCHW",
                "no_bias": "True",
                "num_filter": "57",
                "num_group": "57",
                "pad": "(1, 1)",
                "stride": "(2, 2)"
              },
              "inputs": [[0, 0, 0], [1, 0, 0]]
            },
            {
              "op": "null",
              "name": "shufflenasoneshotfix0_hybridsequential0_shufflenetblock0_batchnorm1_gamma0",
              "inputs": []
            },
            {
              "op": "null",
              "name": "shufflenasoneshotfix0_hybridsequential0_shufflenetblock0_batchnorm1_beta0",
              "inputs": []
            },
            {
              "op": "null",
              "name": "shufflenasoneshotfix0_hybridsequential0_shufflenetblock0_batchnorm1_running_mean0",
              "inputs": []
            },
            {
              "op": "null",
              "name": "shufflenasoneshotfix0_hybridsequential0_shufflenetblock0_batchnorm1_running_var0",
              "inputs": []
            },
            {
              "op": "BatchNorm",
              "name": "shufflenasoneshotfix0_hybridsequential0_shufflenetblock0_batchnorm1_fwd",
              "attrs": {
                "axis": "1",
                "eps": "1e-05",
                "fix_gamma": "False",
                "momentum": "0.1",
                "use_global_stats": "False"
              },
              "inputs": [[2, 0, 0], [3, 0, 0], [4, 0, 0], [5, 0, 0], [6, 0, 0]]
            }
          ],
          "arg_nodes": [0, 1, 3, 4, 5, 6],
          "node_row_ptr": [0, 1, 2, 3, 4, 5, 6, 7, 10],
          "heads": [[7, 0, 0]]
        }
      ]
    },
    {
      "op": "null",
      "name": "shufflenasoneshotfix0_hybridsequential0_shufflenetblock0_conv2_weight",
      "attrs": {
        "__dtype__": "0",
        "__lr_mult__": "1.0",
        "__shape__": "(48, 57, 1, 1)",
        "__storage_type__": "0",
        "__wd_mult__": "1.0"
      },
      "inputs": []
    },
    {
      "op": "null",
      "name": "shufflenasoneshotfix0_hybridsequential0_shufflenetblock0_batchnorm2_gamma",
      "attrs": {
        "__dtype__": "0",
        "__init__": "ones",
        "__lr_mult__": "1.0",
        "__shape__": "(48,)",
        "__storage_type__": "0",
        "__wd_mult__": "1.0"
      },
      "inputs": []
    },
    {
      "op": "null",
      "name": "shufflenasoneshotfix0_hybridsequential0_shufflenetblock0_batchnorm2_beta",
      "attrs": {
        "__dtype__": "0",
        "__init__": "zeros",
        "__lr_mult__": "1.0",
        "__shape__": "(48,)",
        "__storage_type__": "0",
        "__wd_mult__": "1.0"
      },
      "inputs": []
    },
    {
      "op": "null",
      "name": "shufflenasoneshotfix0_hybridsequential0_shufflenetblock0_batchnorm2_running_mean",
      "attrs": {
        "__dtype__": "0",
        "__init__": "zeros",
        "__lr_mult__": "1.0",
        "__shape__": "(48,)",
        "__storage_type__": "0",
        "__wd_mult__": "1.0"
      },
      "inputs": []
    },
    {
      "op": "null",
      "name": "shufflenasoneshotfix0_hybridsequential0_shufflenetblock0_batchnorm2_running_var",
      "attrs": {
        "__dtype__": "0",
        "__init__": "ones",
        "__lr_mult__": "1.0",
        "__shape__": "(48,)",
        "__storage_type__": "0",
        "__wd_mult__": "1.0"
      },
      "inputs": []
    },
    {
      "op": "_sg_mkldnn_conv",
      "name": "quantized_sg_mkldnn_conv_bn_act_5",
      "attrs": {
        "max_calib_range": "64.201859",
        "min_calib_range": "0.000000",
        "quantized": "true",
        "with_act": "true",
        "with_bn": "true"
      },
      "inputs": [[38, 0, 0], [39, 0, 0], [40, 0, 0], [41, 0, 0], [42, 0, 1], [43, 0, 1], [38, 1, 0], [38, 2, 0]],
      "subgraphs": [
        {
          "nodes": [
            {
              "op": "null",
              "name": "sg_mkldnn_conv_bn_4_output0",
              "inputs": []
            },
            {
              "op": "null",
              "name": "shufflenasoneshotfix0_hybridsequential0_shufflenetblock0_conv2_weight0",
              "inputs": []
            },
            {
              "op": "Convolution",
              "name": "shufflenasoneshotfix0_hybridsequential0_shufflenetblock0_conv2_fwd",
              "attrs": {
                "dilate": "(1, 1)",
                "kernel": "(1, 1)",
                "layout": "NCHW",
                "no_bias": "True",
                "num_filter": "48",
                "num_group": "1",
                "pad": "(0, 0)",
                "stride": "(1, 1)"
              },
              "inputs": [[0, 0, 0], [1, 0, 0]]
            },
            {
              "op": "null",
              "name": "shufflenasoneshotfix0_hybridsequential0_shufflenetblock0_batchnorm2_gamma0",
              "inputs": []
            },
            {
              "op": "null",
              "name": "shufflenasoneshotfix0_hybridsequential0_shufflenetblock0_batchnorm2_beta0",
              "inputs": []
            },
            {
              "op": "null",
              "name": "shufflenasoneshotfix0_hybridsequential0_shufflenetblock0_batchnorm2_running_mean0",
              "inputs": []
            },
            {
              "op": "null",
              "name": "shufflenasoneshotfix0_hybridsequential0_shufflenetblock0_batchnorm2_running_var0",
              "inputs": []
            },
            {
              "op": "BatchNorm",
              "name": "shufflenasoneshotfix0_hybridsequential0_shufflenetblock0_batchnorm2_fwd",
              "attrs": {
                "axis": "1",
                "eps": "1e-05",
                "fix_gamma": "False",
                "momentum": "0.1",
                "use_global_stats": "False"
              },
              "inputs": [[2, 0, 0], [3, 0, 0], [4, 0, 0], [5, 0, 0], [6, 0, 0]]
            },
            {
              "op": "Activation",
              "name": "shufflenasoneshotfix0_hybridsequential0_shufflenetblock0_relu1_fwd",
              "attrs": {"act_type": "relu"},
              "inputs": [[7, 0, 0]]
            }
          ],
          "arg_nodes": [0, 1, 3, 4, 5, 6],
          "node_row_ptr": [0, 1, 2, 3, 4, 5, 6, 7, 10, 11],
          "heads": [[8, 0, 0]]
        }
      ]
    },
    {
      "op": "_contrib_dequantize",
      "name": "sg_mkldnn_conv_bn_act_5_dequantize",
      "inputs": [[44, 0, 0], [44, 1, 0], [44, 2, 0]]
    },
    {
      "op": "Concat",
      "name": "shufflenasoneshotfix0_hybridsequential0_shufflenetblock0_concat0",
      "attrs": {
        "dim": "1",
        "num_args": "2"
      },
      "inputs": [[26, 0, 0], [45, 0, 0]]
    },
    {
      "op": "Reshape",
      "name": "shufflenasoneshotfix0_hybridsequential0_shufflenetblock1_shufflechannels0_reshape0",
      "attrs": {"shape": "(0, -4, 2, -1, -2)"},
      "inputs": [[46, 0, 0]]
    },
    {
      "op": "SwapAxis",
      "name": "shufflenasoneshotfix0_hybridsequential0_shufflenetblock1_shufflechannels0_swapaxes0",
      "attrs": {
        "dim1": "1",
        "dim2": "2"
      },
      "inputs": [[47, 0, 0]]
    },
    {
      "op": "Reshape",
      "name": "shufflenasoneshotfix0_hybridsequential0_shufflenetblock1_shufflechannels0_reshape1",
      "attrs": {"shape": "(0, -3, -2)"},
      "inputs": [[48, 0, 0]]
    },
    {
      "op": "slice",
      "name": "shufflenasoneshotfix0_hybridsequential0_shufflenetblock1_shufflechannels0_slice0",
      "attrs": {
        "begin": "(None, None, None, None)",
        "end": "(None, 32, None, None)"
      },
      "inputs": [[49, 0, 0]]
    },
    {
      "op": "slice",
      "name": "shufflenasoneshotfix0_hybridsequential0_shufflenetblock1_shufflechannels0_slice1",
      "attrs": {
        "begin": "(None, 32, None, None)",
        "end": "(None, None, None, None)"
      },
      "inputs": [[49, 0, 0]]
    },
    {
      "op": "_contrib_quantize_v2",
      "name": "shufflenasoneshotfix0_hybridsequential0_shufflenetblock1_shufflechannels0_slice1_0_quantize",
      "attrs": {
        "max_calib_range": "46.392097",
        "min_calib_range": "0.000000",
        "out_type": "auto"
      },
      "inputs": [[51, 0, 0]]
    },
    {
      "op": "null",
      "name": "shufflenasoneshotfix0_hybridsequential0_shufflenetblock1_conv0_weight",
      "attrs": {
        "__dtype__": "0",
        "__lr_mult__": "1.0",
        "__shape__": "(51, 32, 1, 1)",
        "__storage_type__": "0",
        "__wd_mult__": "1.0"
      },
      "inputs": []
    },
    {
      "op": "null",
      "name": "shufflenasoneshotfix0_hybridsequential0_shufflenetblock1_batchnorm0_gamma",
      "attrs": {
        "__dtype__": "0",
        "__init__": "ones",
        "__lr_mult__": "1.0",
        "__shape__": "(51,)",
        "__storage_type__": "0",
        "__wd_mult__": "1.0"
      },
      "inputs": []
    },
    {
      "op": "null",
      "name": "shufflenasoneshotfix0_hybridsequential0_shufflenetblock1_batchnorm0_beta",
      "attrs": {
        "__dtype__": "0",
        "__init__": "zeros",
        "__lr_mult__": "1.0",
        "__shape__": "(51,)",
        "__storage_type__": "0",
        "__wd_mult__": "1.0"
      },
      "inputs": []
    },
    {
      "op": "null",
      "name": "shufflenasoneshotfix0_hybridsequential0_shufflenetblock1_batchnorm0_running_mean",
      "attrs": {
        "__dtype__": "0",
        "__init__": "zeros",
        "__lr_mult__": "1.0",
        "__shape__": "(51,)",
        "__storage_type__": "0",
        "__wd_mult__": "1.0"
      },
      "inputs": []
    },
    {
      "op": "null",
      "name": "shufflenasoneshotfix0_hybridsequential0_shufflenetblock1_batchnorm0_running_var",
      "attrs": {
        "__dtype__": "0",
        "__init__": "ones",
        "__lr_mult__": "1.0",
        "__shape__": "(51,)",
        "__storage_type__": "0",
        "__wd_mult__": "1.0"
      },
      "inputs": []
    },
    {
      "op": "_sg_mkldnn_conv",
      "name": "quantized_sg_mkldnn_conv_bn_act_6",
      "attrs": {
        "max_calib_range": "34.995350",
        "min_calib_range": "0.000000",
        "quantized": "true",
        "with_act": "true",
        "with_bn": "true"
      },
      "inputs": [[52, 0, 0], [53, 0, 0], [54, 0, 0], [55, 0, 0], [56, 0, 1], [57, 0, 1], [52, 1, 0], [52, 2, 0]],
      "subgraphs": [
        {
          "nodes": [
            {
              "op": "null",
              "name": "shufflenasoneshotfix0_hybridsequential0_shufflenetblock1_shufflechannels0_slice1_output0",
              "inputs": []
            },
            {
              "op": "null",
              "name": "shufflenasoneshotfix0_hybridsequential0_shufflenetblock1_conv0_weight0",
              "inputs": []
            },
            {
              "op": "Convolution",
              "name": "shufflenasoneshotfix0_hybridsequential0_shufflenetblock1_conv0_fwd",
              "attrs": {
                "dilate": "(1, 1)",
                "kernel": "(1, 1)",
                "layout": "NCHW",
                "no_bias": "True",
                "num_filter": "51",
                "num_group": "1",
                "pad": "(0, 0)",
                "stride": "(1, 1)"
              },
              "inputs": [[0, 0, 0], [1, 0, 0]]
            },
            {
              "op": "null",
              "name": "shufflenasoneshotfix0_hybridsequential0_shufflenetblock1_batchnorm0_gamma0",
              "inputs": []
            },
            {
              "op": "null",
              "name": "shufflenasoneshotfix0_hybridsequential0_shufflenetblock1_batchnorm0_beta0",
              "inputs": []
            },
            {
              "op": "null",
              "name": "shufflenasoneshotfix0_hybridsequential0_shufflenetblock1_batchnorm0_running_mean0",
              "inputs": []
            },
            {
              "op": "null",
              "name": "shufflenasoneshotfix0_hybridsequential0_shufflenetblock1_batchnorm0_running_var0",
              "inputs": []
            },
            {
              "op": "BatchNorm",
              "name": "shufflenasoneshotfix0_hybridsequential0_shufflenetblock1_batchnorm0_fwd",
              "attrs": {
                "axis": "1",
                "eps": "1e-05",
                "fix_gamma": "False",
                "momentum": "0.1",
                "use_global_stats": "False"
              },
              "inputs": [[2, 0, 0], [3, 0, 0], [4, 0, 0], [5, 0, 0], [6, 0, 0]]
            },
            {
              "op": "Activation",
              "name": "shufflenasoneshotfix0_hybridsequential0_shufflenetblock1_relu0_fwd",
              "attrs": {"act_type": "relu"},
              "inputs": [[7, 0, 0]]
            }
          ],
          "arg_nodes": [0, 1, 3, 4, 5, 6],
          "node_row_ptr": [0, 1, 2, 3, 4, 5, 6, 7, 10, 11],
          "heads": [[8, 0, 0]]
        }
      ]
    },
    {
      "op": "null",
      "name": "shufflenasoneshotfix0_hybridsequential0_shufflenetblock1_conv1_weight",
      "attrs": {
        "__dtype__": "0",
        "__lr_mult__": "1.0",
        "__shape__": "(51, 1, 3, 3)",
        "__storage_type__": "0",
        "__wd_mult__": "1.0"
      },
      "inputs": []
    },
    {
      "op": "null",
      "name": "shufflenasoneshotfix0_hybridsequential0_shufflenetblock1_batchnorm1_gamma",
      "attrs": {
        "__dtype__": "0",
        "__init__": "ones",
        "__lr_mult__": "1.0",
        "__shape__": "(51,)",
        "__storage_type__": "0",
        "__wd_mult__": "1.0"
      },
      "inputs": []
    },
    {
      "op": "null",
      "name": "shufflenasoneshotfix0_hybridsequential0_shufflenetblock1_batchnorm1_beta",
      "attrs": {
        "__dtype__": "0",
        "__init__": "zeros",
        "__lr_mult__": "1.0",
        "__shape__": "(51,)",
        "__storage_type__": "0",
        "__wd_mult__": "1.0"
      },
      "inputs": []
    },
    {
      "op": "null",
      "name": "shufflenasoneshotfix0_hybridsequential0_shufflenetblock1_batchnorm1_running_mean",
      "attrs": {
        "__dtype__": "0",
        "__init__": "zeros",
        "__lr_mult__": "1.0",
        "__shape__": "(51,)",
        "__storage_type__": "0",
        "__wd_mult__": "1.0"
      },
      "inputs": []
    },
    {
      "op": "null",
      "name": "shufflenasoneshotfix0_hybridsequential0_shufflenetblock1_batchnorm1_running_var",
      "attrs": {
        "__dtype__": "0",
        "__init__": "ones",
        "__lr_mult__": "1.0",
        "__shape__": "(51,)",
        "__storage_type__": "0",
        "__wd_mult__": "1.0"
      },
      "inputs": []
    },
    {
      "op": "_sg_mkldnn_conv",
      "name": "quantized_sg_mkldnn_conv_bn_7",
      "attrs": {
        "max_calib_range": "35.604637",
        "min_calib_range": "-35.604637",
        "quantized": "true",
        "with_bn": "true"
      },
      "inputs": [[58, 0, 0], [59, 0, 0], [60, 0, 0], [61, 0, 0], [62, 0, 1], [63, 0, 1], [58, 1, 0], [58, 2, 0]],
      "subgraphs": [
        {
          "nodes": [
            {
              "op": "null",
              "name": "sg_mkldnn_conv_bn_act_6_output0",
              "inputs": []
            },
            {
              "op": "null",
              "name": "shufflenasoneshotfix0_hybridsequential0_shufflenetblock1_conv1_weight0",
              "inputs": []
            },
            {
              "op": "Convolution",
              "name": "shufflenasoneshotfix0_hybridsequential0_shufflenetblock1_conv1_fwd",
              "attrs": {
                "dilate": "(1, 1)",
                "kernel": "(3, 3)",
                "layout": "NCHW",
                "no_bias": "True",
                "num_filter": "51",
                "num_group": "51",
                "pad": "(1, 1)",
                "stride": "(1, 1)"
              },
              "inputs": [[0, 0, 0], [1, 0, 0]]
            },
            {
              "op": "null",
              "name": "shufflenasoneshotfix0_hybridsequential0_shufflenetblock1_batchnorm1_gamma0",
              "inputs": []
            },
            {
              "op": "null",
              "name": "shufflenasoneshotfix0_hybridsequential0_shufflenetblock1_batchnorm1_beta0",
              "inputs": []
            },
            {
              "op": "null",
              "name": "shufflenasoneshotfix0_hybridsequential0_shufflenetblock1_batchnorm1_running_mean0",
              "inputs": []
            },
            {
              "op": "null",
              "name": "shufflenasoneshotfix0_hybridsequential0_shufflenetblock1_batchnorm1_running_var0",
              "inputs": []
            },
            {
              "op": "BatchNorm",
              "name": "shufflenasoneshotfix0_hybridsequential0_shufflenetblock1_batchnorm1_fwd",
              "attrs": {
                "axis": "1",
                "eps": "1e-05",
                "fix_gamma": "False",
                "momentum": "0.1",
                "use_global_stats": "False"
              },
              "inputs": [[2, 0, 0], [3, 0, 0], [4, 0, 0], [5, 0, 0], [6, 0, 0]]
            }
          ],
          "arg_nodes": [0, 1, 3, 4, 5, 6],
          "node_row_ptr": [0, 1, 2, 3, 4, 5, 6, 7, 10],
          "heads": [[7, 0, 0]]
        }
      ]
    },
    {
      "op": "null",
      "name": "shufflenasoneshotfix0_hybridsequential0_shufflenetblock1_conv2_weight",
      "attrs": {
        "__dtype__": "0",
        "__lr_mult__": "1.0",
        "__shape__": "(32, 51, 1, 1)",
        "__storage_type__": "0",
        "__wd_mult__": "1.0"
      },
      "inputs": []
    },
    {
      "op": "null",
      "name": "shufflenasoneshotfix0_hybridsequential0_shufflenetblock1_batchnorm2_gamma",
      "attrs": {
        "__dtype__": "0",
        "__init__": "ones",
        "__lr_mult__": "1.0",
        "__shape__": "(32,)",
        "__storage_type__": "0",
        "__wd_mult__": "1.0"
      },
      "inputs": []
    },
    {
      "op": "null",
      "name": "shufflenasoneshotfix0_hybridsequential0_shufflenetblock1_batchnorm2_beta",
      "attrs": {
        "__dtype__": "0",
        "__init__": "zeros",
        "__lr_mult__": "1.0",
        "__shape__": "(32,)",
        "__storage_type__": "0",
        "__wd_mult__": "1.0"
      },
      "inputs": []
    },
    {
      "op": "null",
      "name": "shufflenasoneshotfix0_hybridsequential0_shufflenetblock1_batchnorm2_running_mean",
      "attrs": {
        "__dtype__": "0",
        "__init__": "zeros",
        "__lr_mult__": "1.0",
        "__shape__": "(32,)",
        "__storage_type__": "0",
        "__wd_mult__": "1.0"
      },
      "inputs": []
    },
    {
      "op": "null",
      "name": "shufflenasoneshotfix0_hybridsequential0_shufflenetblock1_batchnorm2_running_var",
      "attrs": {
        "__dtype__": "0",
        "__init__": "ones",
        "__lr_mult__": "1.0",
        "__shape__": "(32,)",
        "__storage_type__": "0",
        "__wd_mult__": "1.0"
      },
      "inputs": []
    },
    {
      "op": "_sg_mkldnn_conv",
      "name": "quantized_sg_mkldnn_conv_bn_act_8",
      "attrs": {
        "max_calib_range": "58.304264",
        "min_calib_range": "0.000000",
        "quantized": "true",
        "with_act": "true",
        "with_bn": "true"
      },
      "inputs": [[64, 0, 0], [65, 0, 0], [66, 0, 0], [67, 0, 0], [68, 0, 1], [69, 0, 1], [64, 1, 0], [64, 2, 0]],
      "subgraphs": [
        {
          "nodes": [
            {
              "op": "null",
              "name": "sg_mkldnn_conv_bn_7_output0",
              "inputs": []
            },
            {
              "op": "null",
              "name": "shufflenasoneshotfix0_hybridsequential0_shufflenetblock1_conv2_weight0",
              "inputs": []
            },
            {
              "op": "Convolution",
              "name": "shufflenasoneshotfix0_hybridsequential0_shufflenetblock1_conv2_fwd",
              "attrs": {
                "dilate": "(1, 1)",
                "kernel": "(1, 1)",
                "layout": "NCHW",
                "no_bias": "True",
                "num_filter": "32",
                "num_group": "1",
                "pad": "(0, 0)",
                "stride": "(1, 1)"
              },
              "inputs": [[0, 0, 0], [1, 0, 0]]
            },
            {
              "op": "null",
              "name": "shufflenasoneshotfix0_hybridsequential0_shufflenetblock1_batchnorm2_gamma0",
              "inputs": []
            },
            {
              "op": "null",
              "name": "shufflenasoneshotfix0_hybridsequential0_shufflenetblock1_batchnorm2_beta0",
              "inputs": []
            },
            {
              "op": "null",
              "name": "shufflenasoneshotfix0_hybridsequential0_shufflenetblock1_batchnorm2_running_mean0",
              "inputs": []
            },
            {
              "op": "null",
              "name": "shufflenasoneshotfix0_hybridsequential0_shufflenetblock1_batchnorm2_running_var0",
              "inputs": []
            },
            {
              "op": "BatchNorm",
              "name": "shufflenasoneshotfix0_hybridsequential0_shufflenetblock1_batchnorm2_fwd",
              "attrs": {
                "axis": "1",
                "eps": "1e-05",
                "fix_gamma": "False",
                "momentum": "0.1",
                "use_global_stats": "False"
              },
              "inputs": [[2, 0, 0], [3, 0, 0], [4, 0, 0], [5, 0, 0], [6, 0, 0]]
            },
            {
              "op": "Activation",
              "name": "shufflenasoneshotfix0_hybridsequential0_shufflenetblock1_relu1_fwd",
              "attrs": {"act_type": "relu"},
              "inputs": [[7, 0, 0]]
            }
          ],
          "arg_nodes": [0, 1, 3, 4, 5, 6],
          "node_row_ptr": [0, 1, 2, 3, 4, 5, 6, 7, 10, 11],
          "heads": [[8, 0, 0]]
        }
      ]
    },
    {
      "op": "_contrib_dequantize",
      "name": "sg_mkldnn_conv_bn_act_8_dequantize",
      "inputs": [[70, 0, 0], [70, 1, 0], [70, 2, 0]]
    },
    {
      "op": "Concat",
      "name": "shufflenasoneshotfix0_hybridsequential0_shufflenetblock1_concat0",
      "attrs": {
        "dim": "1",
        "num_args": "2"
      },
      "inputs": [[50, 0, 0], [71, 0, 0]]
    },
    {
      "op": "Reshape",
      "name": "shufflenasoneshotfix0_hybridsequential0_shufflenetblock2_shufflechannels0_reshape0",
      "attrs": {"shape": "(0, -4, 2, -1, -2)"},
      "inputs": [[72, 0, 0]]
    },
    {
      "op": "SwapAxis",
      "name": "shufflenasoneshotfix0_hybridsequential0_shufflenetblock2_shufflechannels0_swapaxes0",
      "attrs": {
        "dim1": "1",
        "dim2": "2"
      },
      "inputs": [[73, 0, 0]]
    },
    {
      "op": "Reshape",
      "name": "shufflenasoneshotfix0_hybridsequential0_shufflenetblock2_shufflechannels0_reshape1",
      "attrs": {"shape": "(0, -3, -2)"},
      "inputs": [[74, 0, 0]]
    },
    {
      "op": "slice",
      "name": "shufflenasoneshotfix0_hybridsequential0_shufflenetblock2_shufflechannels0_slice0",
      "attrs": {
        "begin": "(None, None, None, None)",
        "end": "(None, 32, None, None)"
      },
      "inputs": [[75, 0, 0]]
    },
    {
      "op": "slice",
      "name": "shufflenasoneshotfix0_hybridsequential0_shufflenetblock2_shufflechannels0_slice1",
      "attrs": {
        "begin": "(None, 32, None, None)",
        "end": "(None, None, None, None)"
      },
      "inputs": [[75, 0, 0]]
    },
    {
      "op": "_contrib_quantize_v2",
      "name": "shufflenasoneshotfix0_hybridsequential0_shufflenetblock2_shufflechannels0_slice1_0_quantize",
      "attrs": {
        "max_calib_range": "80.109077",
        "min_calib_range": "0.000000",
        "out_type": "auto"
      },
      "inputs": [[77, 0, 0]]
    },
    {
      "op": "null",
      "name": "shufflenasoneshotfix0_hybridsequential0_shufflenetblock2_conv0_weight",
      "attrs": {
        "__dtype__": "0",
        "__lr_mult__": "1.0",
        "__shape__": "(44, 32, 1, 1)",
        "__storage_type__": "0",
        "__wd_mult__": "1.0"
      },
      "inputs": []
    },
    {
      "op": "null",
      "name": "shufflenasoneshotfix0_hybridsequential0_shufflenetblock2_batchnorm0_gamma",
      "attrs": {
        "__dtype__": "0",
        "__init__": "ones",
        "__lr_mult__": "1.0",
        "__shape__": "(44,)",
        "__storage_type__": "0",
        "__wd_mult__": "1.0"
      },
      "inputs": []
    },
    {
      "op": "null",
      "name": "shufflenasoneshotfix0_hybridsequential0_shufflenetblock2_batchnorm0_beta",
      "attrs": {
        "__dtype__": "0",
        "__init__": "zeros",
        "__lr_mult__": "1.0",
        "__shape__": "(44,)",
        "__storage_type__": "0",
        "__wd_mult__": "1.0"
      },
      "inputs": []
    },
    {
      "op": "null",
      "name": "shufflenasoneshotfix0_hybridsequential0_shufflenetblock2_batchnorm0_running_mean",
      "attrs": {
        "__dtype__": "0",
        "__init__": "zeros",
        "__lr_mult__": "1.0",
        "__shape__": "(44,)",
        "__storage_type__": "0",
        "__wd_mult__": "1.0"
      },
      "inputs": []
    },
    {
      "op": "null",
      "name": "shufflenasoneshotfix0_hybridsequential0_shufflenetblock2_batchnorm0_running_var",
      "attrs": {
        "__dtype__": "0",
        "__init__": "ones",
        "__lr_mult__": "1.0",
        "__shape__": "(44,)",
        "__storage_type__": "0",
        "__wd_mult__": "1.0"
      },
      "inputs": []
    },
    {
      "op": "_sg_mkldnn_conv",
      "name": "quantized_sg_mkldnn_conv_bn_act_9",
      "attrs": {
        "max_calib_range": "34.954105",
        "min_calib_range": "0.000000",
        "quantized": "true",
        "with_act": "true",
        "with_bn": "true"
      },
      "inputs": [[78, 0, 0], [79, 0, 0], [80, 0, 0], [81, 0, 0], [82, 0, 1], [83, 0, 1], [78, 1, 0], [78, 2, 0]],
      "subgraphs": [
        {
          "nodes": [
            {
              "op": "null",
              "name": "shufflenasoneshotfix0_hybridsequential0_shufflenetblock2_shufflechannels0_slice1_output0",
              "inputs": []
            },
            {
              "op": "null",
              "name": "shufflenasoneshotfix0_hybridsequential0_shufflenetblock2_conv0_weight0",
              "inputs": []
            },
            {
              "op": "Convolution",
              "name": "shufflenasoneshotfix0_hybridsequential0_shufflenetblock2_conv0_fwd",
              "attrs": {
                "dilate": "(1, 1)",
                "kernel": "(1, 1)",
                "layout": "NCHW",
                "no_bias": "True",
                "num_filter": "44",
                "num_group": "1",
                "pad": "(0, 0)",
                "stride": "(1, 1)"
              },
              "inputs": [[0, 0, 0], [1, 0, 0]]
            },
            {
              "op": "null",
              "name": "shufflenasoneshotfix0_hybridsequential0_shufflenetblock2_batchnorm0_gamma0",
              "inputs": []
            },
            {
              "op": "null",
              "name": "shufflenasoneshotfix0_hybridsequential0_shufflenetblock2_batchnorm0_beta0",
              "inputs": []
            },
            {
              "op": "null",
              "name": "shufflenasoneshotfix0_hybridsequential0_shufflenetblock2_batchnorm0_running_mean0",
              "inputs": []
            },
            {
              "op": "null",
              "name": "shufflenasoneshotfix0_hybridsequential0_shufflenetblock2_batchnorm0_running_var0",
              "inputs": []
            },
            {
              "op": "BatchNorm",
              "name": "shufflenasoneshotfix0_hybridsequential0_shufflenetblock2_batchnorm0_fwd",
              "attrs": {
                "axis": "1",
                "eps": "1e-05",
                "fix_gamma": "False",
                "momentum": "0.1",
                "use_global_stats": "False"
              },
              "inputs": [[2, 0, 0], [3, 0, 0], [4, 0, 0], [5, 0, 0], [6, 0, 0]]
            },
            {
              "op": "Activation",
              "name": "shufflenasoneshotfix0_hybridsequential0_shufflenetblock2_relu0_fwd",
              "attrs": {"act_type": "relu"},
              "inputs": [[7, 0, 0]]
            }
          ],
          "arg_nodes": [0, 1, 3, 4, 5, 6],
          "node_row_ptr": [0, 1, 2, 3, 4, 5, 6, 7, 10, 11],
          "heads": [[8, 0, 0]]
        }
      ]
    },
    {
      "op": "null",
      "name": "shufflenasoneshotfix0_hybridsequential0_shufflenetblock2_conv1_weight",
      "attrs": {
        "__dtype__": "0",
        "__lr_mult__": "1.0",
        "__shape__": "(44, 1, 3, 3)",
        "__storage_type__": "0",
        "__wd_mult__": "1.0"
      },
      "inputs": []
    },
    {
      "op": "null",
      "name": "shufflenasoneshotfix0_hybridsequential0_shufflenetblock2_batchnorm1_gamma",
      "attrs": {
        "__dtype__": "0",
        "__init__": "ones",
        "__lr_mult__": "1.0",
        "__shape__": "(44,)",
        "__storage_type__": "0",
        "__wd_mult__": "1.0"
      },
      "inputs": []
    },
    {
      "op": "null",
      "name": "shufflenasoneshotfix0_hybridsequential0_shufflenetblock2_batchnorm1_beta",
      "attrs": {
        "__dtype__": "0",
        "__init__": "zeros",
        "__lr_mult__": "1.0",
        "__shape__": "(44,)",
        "__storage_type__": "0",
        "__wd_mult__": "1.0"
      },
      "inputs": []
    },
    {
      "op": "null",
      "name": "shufflenasoneshotfix0_hybridsequential0_shufflenetblock2_batchnorm1_running_mean",
      "attrs": {
        "__dtype__": "0",
        "__init__": "zeros",
        "__lr_mult__": "1.0",
        "__shape__": "(44,)",
        "__storage_type__": "0",
        "__wd_mult__": "1.0"
      },
      "inputs": []
    },
    {
      "op": "null",
      "name": "shufflenasoneshotfix0_hybridsequential0_shufflenetblock2_batchnorm1_running_var",
      "attrs": {
        "__dtype__": "0",
        "__init__": "ones",
        "__lr_mult__": "1.0",
        "__shape__": "(44,)",
        "__storage_type__": "0",
        "__wd_mult__": "1.0"
      },
      "inputs": []
    },
    {
      "op": "_sg_mkldnn_conv",
      "name": "quantized_sg_mkldnn_conv_bn_10",
      "attrs": {
        "max_calib_range": "30.815722",
        "min_calib_range": "-30.815722",
        "quantized": "true",
        "with_bn": "true"
      },
      "inputs": [[84, 0, 0], [85, 0, 0], [86, 0, 0], [87, 0, 0], [88, 0, 1], [89, 0, 1], [84, 1, 0], [84, 2, 0]],
      "subgraphs": [
        {
          "nodes": [
            {
              "op": "null",
              "name": "sg_mkldnn_conv_bn_act_9_output0",
              "inputs": []
            },
            {
              "op": "null",
              "name": "shufflenasoneshotfix0_hybridsequential0_shufflenetblock2_conv1_weight0",
              "inputs": []
            },
            {
              "op": "Convolution",
              "name": "shufflenasoneshotfix0_hybridsequential0_shufflenetblock2_conv1_fwd",
              "attrs": {
                "dilate": "(1, 1)",
                "kernel": "(3, 3)",
                "layout": "NCHW",
                "no_bias": "True",
                "num_filter": "44",
                "num_group": "44",
                "pad": "(1, 1)",
                "stride": "(1, 1)"
              },
              "inputs": [[0, 0, 0], [1, 0, 0]]
            },
            {
              "op": "null",
              "name": "shufflenasoneshotfix0_hybridsequential0_shufflenetblock2_batchnorm1_gamma0",
              "inputs": []
            },
            {
              "op": "null",
              "name": "shufflenasoneshotfix0_hybridsequential0_shufflenetblock2_batchnorm1_beta0",
              "inputs": []
            },
            {
              "op": "null",
              "name": "shufflenasoneshotfix0_hybridsequential0_shufflenetblock2_batchnorm1_running_mean0",
              "inputs": []
            },
            {
              "op": "null",
              "name": "shufflenasoneshotfix0_hybridsequential0_shufflenetblock2_batchnorm1_running_var0",
              "inputs": []
            },
            {
              "op": "BatchNorm",
              "name": "shufflenasoneshotfix0_hybridsequential0_shufflenetblock2_batchnorm1_fwd",
              "attrs": {
                "axis": "1",
                "eps": "1e-05",
                "fix_gamma": "False",
                "momentum": "0.1",
                "use_global_stats": "False"
              },
              "inputs": [[2, 0, 0], [3, 0, 0], [4, 0, 0], [5, 0, 0], [6, 0, 0]]
            }
          ],
          "arg_nodes": [0, 1, 3, 4, 5, 6],
          "node_row_ptr": [0, 1, 2, 3, 4, 5, 6, 7, 10],
          "heads": [[7, 0, 0]]
        }
      ]
    },
    {
      "op": "null",
      "name": "shufflenasoneshotfix0_hybridsequential0_shufflenetblock2_conv2_weight",
      "attrs": {
        "__dtype__": "0",
        "__lr_mult__": "1.0",
        "__shape__": "(32, 44, 1, 1)",
        "__storage_type__": "0",
        "__wd_mult__": "1.0"
      },
      "inputs": []
    },
    {
      "op": "null",
      "name": "shufflenasoneshotfix0_hybridsequential0_shufflenetblock2_batchnorm2_gamma",
      "attrs": {
        "__dtype__": "0",
        "__init__": "ones",
        "__lr_mult__": "1.0",
        "__shape__": "(32,)",
        "__storage_type__": "0",
        "__wd_mult__": "1.0"
      },
      "inputs": []
    },
    {
      "op": "null",
      "name": "shufflenasoneshotfix0_hybridsequential0_shufflenetblock2_batchnorm2_beta",
      "attrs": {
        "__dtype__": "0",
        "__init__": "zeros",
        "__lr_mult__": "1.0",
        "__shape__": "(32,)",
        "__storage_type__": "0",
        "__wd_mult__": "1.0"
      },
      "inputs": []
    },
    {
      "op": "null",
      "name": "shufflenasoneshotfix0_hybridsequential0_shufflenetblock2_batchnorm2_running_mean",
      "attrs": {
        "__dtype__": "0",
        "__init__": "zeros",
        "__lr_mult__": "1.0",
        "__shape__": "(32,)",
        "__storage_type__": "0",
        "__wd_mult__": "1.0"
      },
      "inputs": []
    },
    {
      "op": "null",
      "name": "shufflenasoneshotfix0_hybridsequential0_shufflenetblock2_batchnorm2_running_var",
      "attrs": {
        "__dtype__": "0",
        "__init__": "ones",
        "__lr_mult__": "1.0",
        "__shape__": "(32,)",
        "__storage_type__": "0",
        "__wd_mult__": "1.0"
      },
      "inputs": []
    },
    {
      "op": "_sg_mkldnn_conv",
      "name": "quantized_sg_mkldnn_conv_bn_act_11",
      "attrs": {
        "max_calib_range": "42.975967",
        "min_calib_range": "0.000000",
        "quantized": "true",
        "with_act": "true",
        "with_bn": "true"
      },
      "inputs": [[90, 0, 0], [91, 0, 0], [92, 0, 0], [93, 0, 0], [94, 0, 1], [95, 0, 1], [90, 1, 0], [90, 2, 0]],
      "subgraphs": [
        {
          "nodes": [
            {
              "op": "null",
              "name": "sg_mkldnn_conv_bn_10_output0",
              "inputs": []
            },
            {
              "op": "null",
              "name": "shufflenasoneshotfix0_hybridsequential0_shufflenetblock2_conv2_weight0",
              "inputs": []
            },
            {
              "op": "Convolution",
              "name": "shufflenasoneshotfix0_hybridsequential0_shufflenetblock2_conv2_fwd",
              "attrs": {
                "dilate": "(1, 1)",
                "kernel": "(1, 1)",
                "layout": "NCHW",
                "no_bias": "True",
                "num_filter": "32",
                "num_group": "1",
                "pad": "(0, 0)",
                "stride": "(1, 1)"
              },
              "inputs": [[0, 0, 0], [1, 0, 0]]
            },
            {
              "op": "null",
              "name": "shufflenasoneshotfix0_hybridsequential0_shufflenetblock2_batchnorm2_gamma0",
              "inputs": []
            },
            {
              "op": "null",
              "name": "shufflenasoneshotfix0_hybridsequential0_shufflenetblock2_batchnorm2_beta0",
              "inputs": []
            },
            {
              "op": "null",
              "name": "shufflenasoneshotfix0_hybridsequential0_shufflenetblock2_batchnorm2_running_mean0",
              "inputs": []
            },
            {
              "op": "null",
              "name": "shufflenasoneshotfix0_hybridsequential0_shufflenetblock2_batchnorm2_running_var0",
              "inputs": []
            },
            {
              "op": "BatchNorm",
              "name": "shufflenasoneshotfix0_hybridsequential0_shufflenetblock2_batchnorm2_fwd",
              "attrs": {
                "axis": "1",
                "eps": "1e-05",
                "fix_gamma": "False",
                "momentum": "0.1",
                "use_global_stats": "False"
              },
              "inputs": [[2, 0, 0], [3, 0, 0], [4, 0, 0], [5, 0, 0], [6, 0, 0]]
            },
            {
              "op": "Activation",
              "name": "shufflenasoneshotfix0_hybridsequential0_shufflenetblock2_relu1_fwd",
              "attrs": {"act_type": "relu"},
              "inputs": [[7, 0, 0]]
            }
          ],
          "arg_nodes": [0, 1, 3, 4, 5, 6],
          "node_row_ptr": [0, 1, 2, 3, 4, 5, 6, 7, 10, 11],
          "heads": [[8, 0, 0]]
        }
      ]
    },
    {
      "op": "_contrib_dequantize",
      "name": "sg_mkldnn_conv_bn_act_11_dequantize",
      "inputs": [[96, 0, 0], [96, 1, 0], [96, 2, 0]]
    },
    {
      "op": "Concat",
      "name": "shufflenasoneshotfix0_hybridsequential0_shufflenetblock2_concat0",
      "attrs": {
        "dim": "1",
        "num_args": "2"
      },
      "inputs": [[76, 0, 0], [97, 0, 0]]
    },
    {
      "op": "Reshape",
      "name": "shufflenasoneshotfix0_hybridsequential0_shufflenetblock3_shufflechannels0_reshape0",
      "attrs": {"shape": "(0, -4, 2, -1, -2)"},
      "inputs": [[98, 0, 0]]
    },
    {
      "op": "SwapAxis",
      "name": "shufflenasoneshotfix0_hybridsequential0_shufflenetblock3_shufflechannels0_swapaxes0",
      "attrs": {
        "dim1": "1",
        "dim2": "2"
      },
      "inputs": [[99, 0, 0]]
    },
    {
      "op": "Reshape",
      "name": "shufflenasoneshotfix0_hybridsequential0_shufflenetblock3_shufflechannels0_reshape1",
      "attrs": {"shape": "(0, -3, -2)"},
      "inputs": [[100, 0, 0]]
    },
    {
      "op": "slice",
      "name": "shufflenasoneshotfix0_hybridsequential0_shufflenetblock3_shufflechannels0_slice0",
      "attrs": {
        "begin": "(None, None, None, None)",
        "end": "(None, 32, None, None)"
      },
      "inputs": [[101, 0, 0]]
    },
    {
      "op": "_contrib_quantize_v2",
      "name": "shufflenasoneshotfix0_hybridsequential0_shufflenetblock3_shufflechannels0_slice0_0_quantize",
      "attrs": {
        "max_calib_range": "46.377499",
        "min_calib_range": "0.000000",
        "out_type": "auto"
      },
      "inputs": [[102, 0, 0]]
    },
    {
      "op": "slice",
      "name": "shufflenasoneshotfix0_hybridsequential0_shufflenetblock3_shufflechannels0_slice1",
      "attrs": {
        "begin": "(None, 32, None, None)",
        "end": "(None, None, None, None)"
      },
      "inputs": [[101, 0, 0]]
    },
    {
      "op": "_contrib_quantize_v2",
      "name": "shufflenasoneshotfix0_hybridsequential0_shufflenetblock3_shufflechannels0_slice1_0_quantize",
      "attrs": {
        "max_calib_range": "45.247826",
        "min_calib_range": "0.000000",
        "out_type": "auto"
      },
      "inputs": [[104, 0, 0]]
    },
    {
      "op": "null",
      "name": "shufflenasoneshotfix0_hybridsequential0_shufflenetblock3_conv0_weight",
      "attrs": {
        "__dtype__": "0",
        "__lr_mult__": "1.0",
        "__shape__": "(57, 32, 1, 1)",
        "__storage_type__": "0",
        "__wd_mult__": "1.0"
      },
      "inputs": []
    },
    {
      "op": "null",
      "name": "shufflenasoneshotfix0_hybridsequential0_shufflenetblock3_batchnorm0_gamma",
      "attrs": {
        "__dtype__": "0",
        "__init__": "ones",
        "__lr_mult__": "1.0",
        "__shape__": "(57,)",
        "__storage_type__": "0",
        "__wd_mult__": "1.0"
      },
      "inputs": []
    },
    {
      "op": "null",
      "name": "shufflenasoneshotfix0_hybridsequential0_shufflenetblock3_batchnorm0_beta",
      "attrs": {
        "__dtype__": "0",
        "__init__": "zeros",
        "__lr_mult__": "1.0",
        "__shape__": "(57,)",
        "__storage_type__": "0",
        "__wd_mult__": "1.0"
      },
      "inputs": []
    },
    {
      "op": "null",
      "name": "shufflenasoneshotfix0_hybridsequential0_shufflenetblock3_batchnorm0_running_mean",
      "attrs": {
        "__dtype__": "0",
        "__init__": "zeros",
        "__lr_mult__": "1.0",
        "__shape__": "(57,)",
        "__storage_type__": "0",
        "__wd_mult__": "1.0"
      },
      "inputs": []
    },
    {
      "op": "null",
      "name": "shufflenasoneshotfix0_hybridsequential0_shufflenetblock3_batchnorm0_running_var",
      "attrs": {
        "__dtype__": "0",
        "__init__": "ones",
        "__lr_mult__": "1.0",
        "__shape__": "(57,)",
        "__storage_type__": "0",
        "__wd_mult__": "1.0"
      },
      "inputs": []
    },
    {
      "op": "_sg_mkldnn_conv",
      "name": "quantized_sg_mkldnn_conv_bn_act_12",
      "attrs": {
        "max_calib_range": "29.488760",
        "min_calib_range": "0.000000",
        "quantized": "true",
        "with_act": "true",
        "with_bn": "true"
      },
      "inputs": [[105, 0, 0], [106, 0, 0], [107, 0, 0], [108, 0, 0], [109, 0, 1], [110, 0, 1], [105, 1, 0], [105, 2, 0]],
      "subgraphs": [
        {
          "nodes": [
            {
              "op": "null",
              "name": "shufflenasoneshotfix0_hybridsequential0_shufflenetblock3_shufflechannels0_slice1_output0",
              "inputs": []
            },
            {
              "op": "null",
              "name": "shufflenasoneshotfix0_hybridsequential0_shufflenetblock3_conv0_weight0",
              "inputs": []
            },
            {
              "op": "Convolution",
              "name": "shufflenasoneshotfix0_hybridsequential0_shufflenetblock3_conv0_fwd",
              "attrs": {
                "dilate": "(1, 1)",
                "kernel": "(1, 1)",
                "layout": "NCHW",
                "no_bias": "True",
                "num_filter": "57",
                "num_group": "1",
                "pad": "(0, 0)",
                "stride": "(1, 1)"
              },
              "inputs": [[0, 0, 0], [1, 0, 0]]
            },
            {
              "op": "null",
              "name": "shufflenasoneshotfix0_hybridsequential0_shufflenetblock3_batchnorm0_gamma0",
              "inputs": []
            },
            {
              "op": "null",
              "name": "shufflenasoneshotfix0_hybridsequential0_shufflenetblock3_batchnorm0_beta0",
              "inputs": []
            },
            {
              "op": "null",
              "name": "shufflenasoneshotfix0_hybridsequential0_shufflenetblock3_batchnorm0_running_mean0",
              "inputs": []
            },
            {
              "op": "null",
              "name": "shufflenasoneshotfix0_hybridsequential0_shufflenetblock3_batchnorm0_running_var0",
              "inputs": []
            },
            {
              "op": "BatchNorm",
              "name": "shufflenasoneshotfix0_hybridsequential0_shufflenetblock3_batchnorm0_fwd",
              "attrs": {
                "axis": "1",
                "eps": "1e-05",
                "fix_gamma": "False",
                "momentum": "0.1",
                "use_global_stats": "False"
              },
              "inputs": [[2, 0, 0], [3, 0, 0], [4, 0, 0], [5, 0, 0], [6, 0, 0]]
            },
            {
              "op": "Activation",
              "name": "shufflenasoneshotfix0_hybridsequential0_shufflenetblock3_relu0_fwd",
              "attrs": {"act_type": "relu"},
              "inputs": [[7, 0, 0]]
            }
          ],
          "arg_nodes": [0, 1, 3, 4, 5, 6],
          "node_row_ptr": [0, 1, 2, 3, 4, 5, 6, 7, 10, 11],
          "heads": [[8, 0, 0]]
        }
      ]
    },
    {
      "op": "null",
      "name": "shufflenasoneshotfix0_hybridsequential0_shufflenetblock3_conv1_weight",
      "attrs": {
        "__dtype__": "0",
        "__lr_mult__": "1.0",
        "__shape__": "(57, 1, 5, 5)",
        "__storage_type__": "0",
        "__wd_mult__": "1.0"
      },
      "inputs": []
    },
    {
      "op": "null",
      "name": "shufflenasoneshotfix0_hybridsequential0_shufflenetblock3_batchnorm1_gamma",
      "attrs": {
        "__dtype__": "0",
        "__init__": "ones",
        "__lr_mult__": "1.0",
        "__shape__": "(57,)",
        "__storage_type__": "0",
        "__wd_mult__": "1.0"
      },
      "inputs": []
    },
    {
      "op": "null",
      "name": "shufflenasoneshotfix0_hybridsequential0_shufflenetblock3_batchnorm1_beta",
      "attrs": {
        "__dtype__": "0",
        "__init__": "zeros",
        "__lr_mult__": "1.0",
        "__shape__": "(57,)",
        "__storage_type__": "0",
        "__wd_mult__": "1.0"
      },
      "inputs": []
    },
    {
      "op": "null",
      "name": "shufflenasoneshotfix0_hybridsequential0_shufflenetblock3_batchnorm1_running_mean",
      "attrs": {
        "__dtype__": "0",
        "__init__": "zeros",
        "__lr_mult__": "1.0",
        "__shape__": "(57,)",
        "__storage_type__": "0",
        "__wd_mult__": "1.0"
      },
      "inputs": []
    },
    {
      "op": "null",
      "name": "shufflenasoneshotfix0_hybridsequential0_shufflenetblock3_batchnorm1_running_var",
      "attrs": {
        "__dtype__": "0",
        "__init__": "ones",
        "__lr_mult__": "1.0",
        "__shape__": "(57,)",
        "__storage_type__": "0",
        "__wd_mult__": "1.0"
      },
      "inputs": []
    },
    {
      "op": "_sg_mkldnn_conv",
      "name": "quantized_sg_mkldnn_conv_bn_13",
      "attrs": {
        "max_calib_range": "24.201633",
        "min_calib_range": "-24.201633",
        "quantized": "true",
        "with_bn": "true"
      },
      "inputs": [[111, 0, 0], [112, 0, 0], [113, 0, 0], [114, 0, 0], [115, 0, 1], [116, 0, 1], [111, 1, 0], [111, 2, 0]],
      "subgraphs": [
        {
          "nodes": [
            {
              "op": "null",
              "name": "sg_mkldnn_conv_bn_act_12_output0",
              "inputs": []
            },
            {
              "op": "null",
              "name": "shufflenasoneshotfix0_hybridsequential0_shufflenetblock3_conv1_weight0",
              "inputs": []
            },
            {
              "op": "Convolution",
              "name": "shufflenasoneshotfix0_hybridsequential0_shufflenetblock3_conv1_fwd",
              "attrs": {
                "dilate": "(1, 1)",
                "kernel": "(5, 5)",
                "layout": "NCHW",
                "no_bias": "True",
                "num_filter": "57",
                "num_group": "57",
                "pad": "(2, 2)",
                "stride": "(1, 1)"
              },
              "inputs": [[0, 0, 0], [1, 0, 0]]
            },
            {
              "op": "null",
              "name": "shufflenasoneshotfix0_hybridsequential0_shufflenetblock3_batchnorm1_gamma0",
              "inputs": []
            },
            {
              "op": "null",
              "name": "shufflenasoneshotfix0_hybridsequential0_shufflenetblock3_batchnorm1_beta0",
              "inputs": []
            },
            {
              "op": "null",
              "name": "shufflenasoneshotfix0_hybridsequential0_shufflenetblock3_batchnorm1_running_mean0",
              "inputs": []
            },
            {
              "op": "null",
              "name": "shufflenasoneshotfix0_hybridsequential0_shufflenetblock3_batchnorm1_running_var0",
              "inputs": []
            },
            {
              "op": "BatchNorm",
              "name": "shufflenasoneshotfix0_hybridsequential0_shufflenetblock3_batchnorm1_fwd",
              "attrs": {
                "axis": "1",
                "eps": "1e-05",
                "fix_gamma": "False",
                "momentum": "0.1",
                "use_global_stats": "False"
              },
              "inputs": [[2, 0, 0], [3, 0, 0], [4, 0, 0], [5, 0, 0], [6, 0, 0]]
            }
          ],
          "arg_nodes": [0, 1, 3, 4, 5, 6],
          "node_row_ptr": [0, 1, 2, 3, 4, 5, 6, 7, 10],
          "heads": [[7, 0, 0]]
        }
      ]
    },
    {
      "op": "null",
      "name": "shufflenasoneshotfix0_hybridsequential0_shufflenetblock3_conv2_weight",
      "attrs": {
        "__dtype__": "0",
        "__lr_mult__": "1.0",
        "__shape__": "(32, 57, 1, 1)",
        "__storage_type__": "0",
        "__wd_mult__": "1.0"
      },
      "inputs": []
    },
    {
      "op": "null",
      "name": "shufflenasoneshotfix0_hybridsequential0_shufflenetblock3_batchnorm2_gamma",
      "attrs": {
        "__dtype__": "0",
        "__init__": "ones",
        "__lr_mult__": "1.0",
        "__shape__": "(32,)",
        "__storage_type__": "0",
        "__wd_mult__": "1.0"
      },
      "inputs": []
    },
    {
      "op": "null",
      "name": "shufflenasoneshotfix0_hybridsequential0_shufflenetblock3_batchnorm2_beta",
      "attrs": {
        "__dtype__": "0",
        "__init__": "zeros",
        "__lr_mult__": "1.0",
        "__shape__": "(32,)",
        "__storage_type__": "0",
        "__wd_mult__": "1.0"
      },
      "inputs": []
    },
    {
      "op": "null",
      "name": "shufflenasoneshotfix0_hybridsequential0_shufflenetblock3_batchnorm2_running_mean",
      "attrs": {
        "__dtype__": "0",
        "__init__": "zeros",
        "__lr_mult__": "1.0",
        "__shape__": "(32,)",
        "__storage_type__": "0",
        "__wd_mult__": "1.0"
      },
      "inputs": []
    },
    {
      "op": "null",
      "name": "shufflenasoneshotfix0_hybridsequential0_shufflenetblock3_batchnorm2_running_var",
      "attrs": {
        "__dtype__": "0",
        "__init__": "ones",
        "__lr_mult__": "1.0",
        "__shape__": "(32,)",
        "__storage_type__": "0",
        "__wd_mult__": "1.0"
      },
      "inputs": []
    },
    {
      "op": "_sg_mkldnn_conv",
      "name": "quantized_sg_mkldnn_conv_bn_act_14",
      "attrs": {
        "max_calib_range": "46.377499",
        "min_calib_range": "0.000000",
        "quantized": "true",
        "with_act": "true",
        "with_bn": "true"
      },
      "inputs": [[117, 0, 0], [118, 0, 0], [119, 0, 0], [120, 0, 0], [121, 0, 1], [122, 0, 1], [117, 1, 0], [117, 2, 0]],
      "subgraphs": [
        {
          "nodes": [
            {
              "op": "null",
              "name": "sg_mkldnn_conv_bn_13_output0",
              "inputs": []
            },
            {
              "op": "null",
              "name": "shufflenasoneshotfix0_hybridsequential0_shufflenetblock3_conv2_weight0",
              "inputs": []
            },
            {
              "op": "Convolution",
              "name": "shufflenasoneshotfix0_hybridsequential0_shufflenetblock3_conv2_fwd",
              "attrs": {
                "dilate": "(1, 1)",
                "kernel": "(1, 1)",
                "layout": "NCHW",
                "no_bias": "True",
                "num_filter": "32",
                "num_group": "1",
                "pad": "(0, 0)",
                "stride": "(1, 1)"
              },
              "inputs": [[0, 0, 0], [1, 0, 0]]
            },
            {
              "op": "null",
              "name": "shufflenasoneshotfix0_hybridsequential0_shufflenetblock3_batchnorm2_gamma0",
              "inputs": []
            },
            {
              "op": "null",
              "name": "shufflenasoneshotfix0_hybridsequential0_shufflenetblock3_batchnorm2_beta0",
              "inputs": []
            },
            {
              "op": "null",
              "name": "shufflenasoneshotfix0_hybridsequential0_shufflenetblock3_batchnorm2_running_mean0",
              "inputs": []
            },
            {
              "op": "null",
              "name": "shufflenasoneshotfix0_hybridsequential0_shufflenetblock3_batchnorm2_running_var0",
              "inputs": []
            },
            {
              "op": "BatchNorm",
              "name": "shufflenasoneshotfix0_hybridsequential0_shufflenetblock3_batchnorm2_fwd",
              "attrs": {
                "axis": "1",
                "eps": "1e-05",
                "fix_gamma": "False",
                "momentum": "0.1",
                "use_global_stats": "False"
              },
              "inputs": [[2, 0, 0], [3, 0, 0], [4, 0, 0], [5, 0, 0], [6, 0, 0]]
            },
            {
              "op": "Activation",
              "name": "shufflenasoneshotfix0_hybridsequential0_shufflenetblock3_relu1_fwd",
              "attrs": {"act_type": "relu"},
              "inputs": [[7, 0, 0]]
            }
          ],
          "arg_nodes": [0, 1, 3, 4, 5, 6],
          "node_row_ptr": [0, 1, 2, 3, 4, 5, 6, 7, 10, 11],
          "heads": [[8, 0, 0]]
        }
      ]
    },
    {
      "op": "_contrib_quantized_concat",
      "name": "quantized_shufflenasoneshotfix0_hybridsequential0_shufflenetblock3_concat0",
      "attrs": {
        "dim": "1",
        "num_args": "2"
      },
      "inputs": [[103, 0, 0], [123, 0, 0], [103, 1, 0], [103, 2, 0], [123, 1, 0], [123, 2, 0]]
    },
    {
      "op": "null",
      "name": "shufflenasoneshotfix0_hybridsequential0_shufflenetblock4_conv3_weight",
      "attrs": {
        "__dtype__": "0",
        "__lr_mult__": "1.0",
        "__shape__": "(64, 1, 3, 3)",
        "__storage_type__": "0",
        "__wd_mult__": "1.0"
      },
      "inputs": []
    },
    {
      "op": "null",
      "name": "shufflenasoneshotfix0_hybridsequential0_shufflenetblock4_batchnorm3_gamma",
      "attrs": {
        "__dtype__": "0",
        "__init__": "ones",
        "__lr_mult__": "1.0",
        "__shape__": "(64,)",
        "__storage_type__": "0",
        "__wd_mult__": "1.0"
      },
      "inputs": []
    },
    {
      "op": "null",
      "name": "shufflenasoneshotfix0_hybridsequential0_shufflenetblock4_batchnorm3_beta",
      "attrs": {
        "__dtype__": "0",
        "__init__": "zeros",
        "__lr_mult__": "1.0",
        "__shape__": "(64,)",
        "__storage_type__": "0",
        "__wd_mult__": "1.0"
      },
      "inputs": []
    },
    {
      "op": "null",
      "name": "shufflenasoneshotfix0_hybridsequential0_shufflenetblock4_batchnorm3_running_mean",
      "attrs": {
        "__dtype__": "0",
        "__init__": "zeros",
        "__lr_mult__": "1.0",
        "__shape__": "(64,)",
        "__storage_type__": "0",
        "__wd_mult__": "1.0"
      },
      "inputs": []
    },
    {
      "op": "null",
      "name": "shufflenasoneshotfix0_hybridsequential0_shufflenetblock4_batchnorm3_running_var",
      "attrs": {
        "__dtype__": "0",
        "__init__": "ones",
        "__lr_mult__": "1.0",
        "__shape__": "(64,)",
        "__storage_type__": "0",
        "__wd_mult__": "1.0"
      },
      "inputs": []
    },
    {
      "op": "_sg_mkldnn_conv",
      "name": "quantized_sg_mkldnn_conv_bn_15",
      "attrs": {
        "max_calib_range": "41.899181",
        "min_calib_range": "-41.899181",
        "quantized": "true",
        "with_bn": "true"
      },
      "inputs": [[124, 0, 0], [125, 0, 0], [126, 0, 0], [127, 0, 0], [128, 0, 1], [129, 0, 1], [124, 1, 0], [124, 2, 0]],
      "subgraphs": [
        {
          "nodes": [
            {
              "op": "null",
              "name": "shufflenasoneshotfix0_hybridsequential0_shufflenetblock3_concat0_output0",
              "inputs": []
            },
            {
              "op": "null",
              "name": "shufflenasoneshotfix0_hybridsequential0_shufflenetblock4_conv3_weight0",
              "inputs": []
            },
            {
              "op": "Convolution",
              "name": "shufflenasoneshotfix0_hybridsequential0_shufflenetblock4_conv3_fwd",
              "attrs": {
                "dilate": "(1, 1)",
                "kernel": "(3, 3)",
                "layout": "NCHW",
                "no_bias": "True",
                "num_filter": "64",
                "num_group": "64",
                "pad": "(1, 1)",
                "stride": "(2, 2)"
              },
              "inputs": [[0, 0, 0], [1, 0, 0]]
            },
            {
              "op": "null",
              "name": "shufflenasoneshotfix0_hybridsequential0_shufflenetblock4_batchnorm3_gamma0",
              "inputs": []
            },
            {
              "op": "null",
              "name": "shufflenasoneshotfix0_hybridsequential0_shufflenetblock4_batchnorm3_beta0",
              "inputs": []
            },
            {
              "op": "null",
              "name": "shufflenasoneshotfix0_hybridsequential0_shufflenetblock4_batchnorm3_running_mean0",
              "inputs": []
            },
            {
              "op": "null",
              "name": "shufflenasoneshotfix0_hybridsequential0_shufflenetblock4_batchnorm3_running_var0",
              "inputs": []
            },
            {
              "op": "BatchNorm",
              "name": "shufflenasoneshotfix0_hybridsequential0_shufflenetblock4_batchnorm3_fwd",
              "attrs": {
                "axis": "1",
                "eps": "1e-05",
                "fix_gamma": "False",
                "momentum": "0.1",
                "use_global_stats": "False"
              },
              "inputs": [[2, 0, 0], [3, 0, 0], [4, 0, 0], [5, 0, 0], [6, 0, 0]]
            }
          ],
          "arg_nodes": [0, 1, 3, 4, 5, 6],
          "node_row_ptr": [0, 1, 2, 3, 4, 5, 6, 7, 10],
          "heads": [[7, 0, 0]]
        }
      ]
    },
    {
      "op": "null",
      "name": "shufflenasoneshotfix0_hybridsequential0_shufflenetblock4_conv4_weight",
      "attrs": {
        "__dtype__": "0",
        "__lr_mult__": "1.0",
        "__shape__": "(64, 64, 1, 1)",
        "__storage_type__": "0",
        "__wd_mult__": "1.0"
      },
      "inputs": []
    },
    {
      "op": "null",
      "name": "shufflenasoneshotfix0_hybridsequential0_shufflenetblock4_batchnorm4_gamma",
      "attrs": {
        "__dtype__": "0",
        "__init__": "ones",
        "__lr_mult__": "1.0",
        "__shape__": "(64,)",
        "__storage_type__": "0",
        "__wd_mult__": "1.0"
      },
      "inputs": []
    },
    {
      "op": "null",
      "name": "shufflenasoneshotfix0_hybridsequential0_shufflenetblock4_batchnorm4_beta",
      "attrs": {
        "__dtype__": "0",
        "__init__": "zeros",
        "__lr_mult__": "1.0",
        "__shape__": "(64,)",
        "__storage_type__": "0",
        "__wd_mult__": "1.0"
      },
      "inputs": []
    },
    {
      "op": "null",
      "name": "shufflenasoneshotfix0_hybridsequential0_shufflenetblock4_batchnorm4_running_mean",
      "attrs": {
        "__dtype__": "0",
        "__init__": "zeros",
        "__lr_mult__": "1.0",
        "__shape__": "(64,)",
        "__storage_type__": "0",
        "__wd_mult__": "1.0"
      },
      "inputs": []
    },
    {
      "op": "null",
      "name": "shufflenasoneshotfix0_hybridsequential0_shufflenetblock4_batchnorm4_running_var",
      "attrs": {
        "__dtype__": "0",
        "__init__": "ones",
        "__lr_mult__": "1.0",
        "__shape__": "(64,)",
        "__storage_type__": "0",
        "__wd_mult__": "1.0"
      },
      "inputs": []
    },
    {
      "op": "_sg_mkldnn_conv",
      "name": "quantized_sg_mkldnn_conv_bn_16",
      "attrs": {
        "max_calib_range": "27.379484",
        "min_calib_range": "-27.379484",
        "quantized": "true",
        "with_bn": "true"
      },
      "inputs": [[130, 0, 0], [131, 0, 0], [132, 0, 0], [133, 0, 0], [134, 0, 1], [135, 0, 1], [130, 1, 0], [130, 2, 0]],
      "subgraphs": [
        {
          "nodes": [
            {
              "op": "null",
              "name": "sg_mkldnn_conv_bn_15_output0",
              "inputs": []
            },
            {
              "op": "null",
              "name": "shufflenasoneshotfix0_hybridsequential0_shufflenetblock4_conv4_weight0",
              "inputs": []
            },
            {
              "op": "Convolution",
              "name": "shufflenasoneshotfix0_hybridsequential0_shufflenetblock4_conv4_fwd",
              "attrs": {
                "dilate": "(1, 1)",
                "kernel": "(1, 1)",
                "layout": "NCHW",
                "no_bias": "True",
                "num_filter": "64",
                "num_group": "1",
                "pad": "(0, 0)",
                "stride": "(1, 1)"
              },
              "inputs": [[0, 0, 0], [1, 0, 0]]
            },
            {
              "op": "null",
              "name": "shufflenasoneshotfix0_hybridsequential0_shufflenetblock4_batchnorm4_gamma0",
              "inputs": []
            },
            {
              "op": "null",
              "name": "shufflenasoneshotfix0_hybridsequential0_shufflenetblock4_batchnorm4_beta0",
              "inputs": []
            },
            {
              "op": "null",
              "name": "shufflenasoneshotfix0_hybridsequential0_shufflenetblock4_batchnorm4_running_mean0",
              "inputs": []
            },
            {
              "op": "null",
              "name": "shufflenasoneshotfix0_hybridsequential0_shufflenetblock4_batchnorm4_running_var0",
              "inputs": []
            },
            {
              "op": "BatchNorm",
              "name": "shufflenasoneshotfix0_hybridsequential0_shufflenetblock4_batchnorm4_fwd",
              "attrs": {
                "axis": "1",
                "eps": "1e-05",
                "fix_gamma": "False",
                "momentum": "0.1",
                "use_global_stats": "False"
              },
              "inputs": [[2, 0, 0], [3, 0, 0], [4, 0, 0], [5, 0, 0], [6, 0, 0]]
            }
          ],
          "arg_nodes": [0, 1, 3, 4, 5, 6],
          "node_row_ptr": [0, 1, 2, 3, 4, 5, 6, 7, 10],
          "heads": [[7, 0, 0]]
        }
      ]
    },
    {
      "op": "_contrib_dequantize",
      "name": "sg_mkldnn_conv_bn_16_dequantize",
      "inputs": [[136, 0, 0], [136, 1, 0], [136, 2, 0]]
    },
    {
      "op": "_plus_scalar",
      "name": "shufflenasoneshotfix0_hybridsequential0_shufflenetblock4_hardswish2__plusscalar0",
      "attrs": {"scalar": "3"},
      "inputs": [[137, 0, 0]]
    },
    {
      "op": "clip",
      "name": "shufflenasoneshotfix0_hybridsequential0_shufflenetblock4_hardswish2_hard_swish",
      "attrs": {
        "a_max": "6",
        "a_min": "0"
      },
      "inputs": [[138, 0, 0]]
    },
    {
      "op": "_div_scalar",
      "name": "shufflenasoneshotfix0_hybridsequential0_shufflenetblock4_hardswish2__divscalar0",
      "attrs": {"scalar": "6.0"},
      "inputs": [[139, 0, 0]]
    },
    {
      "op": "elemwise_mul",
      "name": "shufflenasoneshotfix0_hybridsequential0_shufflenetblock4_hardswish2__mul0",
      "inputs": [[137, 0, 0], [140, 0, 0]]
    },
    {
      "op": "null",
      "name": "shufflenasoneshotfix0_hybridsequential0_shufflenetblock4_conv0_weight",
      "attrs": {
        "__dtype__": "0",
        "__lr_mult__": "1.0",
        "__shape__": "(96, 64, 1, 1)",
        "__storage_type__": "0",
        "__wd_mult__": "1.0"
      },
      "inputs": []
    },
    {
      "op": "null",
      "name": "shufflenasoneshotfix0_hybridsequential0_shufflenetblock4_batchnorm0_gamma",
      "attrs": {
        "__dtype__": "0",
        "__init__": "ones",
        "__lr_mult__": "1.0",
        "__shape__": "(96,)",
        "__storage_type__": "0",
        "__wd_mult__": "1.0"
      },
      "inputs": []
    },
    {
      "op": "null",
      "name": "shufflenasoneshotfix0_hybridsequential0_shufflenetblock4_batchnorm0_beta",
      "attrs": {
        "__dtype__": "0",
        "__init__": "zeros",
        "__lr_mult__": "1.0",
        "__shape__": "(96,)",
        "__storage_type__": "0",
        "__wd_mult__": "1.0"
      },
      "inputs": []
    },
    {
      "op": "null",
      "name": "shufflenasoneshotfix0_hybridsequential0_shufflenetblock4_batchnorm0_running_mean",
      "attrs": {
        "__dtype__": "0",
        "__init__": "zeros",
        "__lr_mult__": "1.0",
        "__shape__": "(96,)",
        "__storage_type__": "0",
        "__wd_mult__": "1.0"
      },
      "inputs": []
    },
    {
      "op": "null",
      "name": "shufflenasoneshotfix0_hybridsequential0_shufflenetblock4_batchnorm0_running_var",
      "attrs": {
        "__dtype__": "0",
        "__init__": "ones",
        "__lr_mult__": "1.0",
        "__shape__": "(96,)",
        "__storage_type__": "0",
        "__wd_mult__": "1.0"
      },
      "inputs": []
    },
    {
      "op": "_sg_mkldnn_conv",
      "name": "quantized_sg_mkldnn_conv_bn_17",
      "attrs": {
        "max_calib_range": "21.030279",
        "min_calib_range": "-21.030279",
        "quantized": "true",
        "with_bn": "true"
      },
      "inputs": [[124, 0, 0], [142, 0, 0], [143, 0, 0], [144, 0, 0], [145, 0, 1], [146, 0, 1], [124, 1, 0], [124, 2, 0]],
      "subgraphs": [
        {
          "nodes": [
            {
              "op": "null",
              "name": "shufflenasoneshotfix0_hybridsequential0_shufflenetblock3_concat0_output0",
              "inputs": []
            },
            {
              "op": "null",
              "name": "shufflenasoneshotfix0_hybridsequential0_shufflenetblock4_conv0_weight0",
              "inputs": []
            },
            {
              "op": "Convolution",
              "name": "shufflenasoneshotfix0_hybridsequential0_shufflenetblock4_conv0_fwd",
              "attrs": {
                "dilate": "(1, 1)",
                "kernel": "(1, 1)",
                "layout": "NCHW",
                "no_bias": "True",
                "num_filter": "96",
                "num_group": "1",
                "pad": "(0, 0)",
                "stride": "(1, 1)"
              },
              "inputs": [[0, 0, 0], [1, 0, 0]]
            },
            {
              "op": "null",
              "name": "shufflenasoneshotfix0_hybridsequential0_shufflenetblock4_batchnorm0_gamma0",
              "inputs": []
            },
            {
              "op": "null",
              "name": "shufflenasoneshotfix0_hybridsequential0_shufflenetblock4_batchnorm0_beta0",
              "inputs": []
            },
            {
              "op": "null",
              "name": "shufflenasoneshotfix0_hybridsequential0_shufflenetblock4_batchnorm0_running_mean0",
              "inputs": []
            },
            {
              "op": "null",
              "name": "shufflenasoneshotfix0_hybridsequential0_shufflenetblock4_batchnorm0_running_var0",
              "inputs": []
            },
            {
              "op": "BatchNorm",
              "name": "shufflenasoneshotfix0_hybridsequential0_shufflenetblock4_batchnorm0_fwd",
              "attrs": {
                "axis": "1",
                "eps": "1e-05",
                "fix_gamma": "False",
                "momentum": "0.1",
                "use_global_stats": "False"
              },
              "inputs": [[2, 0, 0], [3, 0, 0], [4, 0, 0], [5, 0, 0], [6, 0, 0]]
            }
          ],
          "arg_nodes": [0, 1, 3, 4, 5, 6],
          "node_row_ptr": [0, 1, 2, 3, 4, 5, 6, 7, 10],
          "heads": [[7, 0, 0]]
        }
      ]
    },
    {
      "op": "_contrib_dequantize",
      "name": "sg_mkldnn_conv_bn_17_dequantize",
      "inputs": [[147, 0, 0], [147, 1, 0], [147, 2, 0]]
    },
    {
      "op": "_plus_scalar",
      "name": "shufflenasoneshotfix0_hybridsequential0_shufflenetblock4_hardswish0__plusscalar0",
      "attrs": {"scalar": "3"},
      "inputs": [[148, 0, 0]]
    },
    {
      "op": "clip",
      "name": "shufflenasoneshotfix0_hybridsequential0_shufflenetblock4_hardswish0_hard_swish",
      "attrs": {
        "a_max": "6",
        "a_min": "0"
      },
      "inputs": [[149, 0, 0]]
    },
    {
      "op": "_div_scalar",
      "name": "shufflenasoneshotfix0_hybridsequential0_shufflenetblock4_hardswish0__divscalar0",
      "attrs": {"scalar": "6.0"},
      "inputs": [[150, 0, 0]]
    },
    {
      "op": "elemwise_mul",
      "name": "shufflenasoneshotfix0_hybridsequential0_shufflenetblock4_hardswish0__mul0",
      "inputs": [[148, 0, 0], [151, 0, 0]]
    },
    {
      "op": "_contrib_quantize_v2",
      "name": "shufflenasoneshotfix0_hybridsequential0_shufflenetblock4_hardswish0__mul0_0_quantize",
      "attrs": {
        "max_calib_range": "4.426482",
        "min_calib_range": "-4.426482",
        "out_type": "auto"
      },
      "inputs": [[152, 0, 0]]
    },
    {
      "op": "null",
      "name": "shufflenasoneshotfix0_hybridsequential0_shufflenetblock4_conv1_weight",
      "attrs": {
        "__dtype__": "0",
        "__lr_mult__": "1.0",
        "__shape__": "(96, 1, 3, 3)",
        "__storage_type__": "0",
        "__wd_mult__": "1.0"
      },
      "inputs": []
    },
    {
      "op": "null",
      "name": "shufflenasoneshotfix0_hybridsequential0_shufflenetblock4_batchnorm1_gamma",
      "attrs": {
        "__dtype__": "0",
        "__init__": "ones",
        "__lr_mult__": "1.0",
        "__shape__": "(96,)",
        "__storage_type__": "0",
        "__wd_mult__": "1.0"
      },
      "inputs": []
    },
    {
      "op": "null",
      "name": "shufflenasoneshotfix0_hybridsequential0_shufflenetblock4_batchnorm1_beta",
      "attrs": {
        "__dtype__": "0",
        "__init__": "zeros",
        "__lr_mult__": "1.0",
        "__shape__": "(96,)",
        "__storage_type__": "0",
        "__wd_mult__": "1.0"
      },
      "inputs": []
    },
    {
      "op": "null",
      "name": "shufflenasoneshotfix0_hybridsequential0_shufflenetblock4_batchnorm1_running_mean",
      "attrs": {
        "__dtype__": "0",
        "__init__": "zeros",
        "__lr_mult__": "1.0",
        "__shape__": "(96,)",
        "__storage_type__": "0",
        "__wd_mult__": "1.0"
      },
      "inputs": []
    },
    {
      "op": "null",
      "name": "shufflenasoneshotfix0_hybridsequential0_shufflenetblock4_batchnorm1_running_var",
      "attrs": {
        "__dtype__": "0",
        "__init__": "ones",
        "__lr_mult__": "1.0",
        "__shape__": "(96,)",
        "__storage_type__": "0",
        "__wd_mult__": "1.0"
      },
      "inputs": []
    },
    {
      "op": "_sg_mkldnn_conv",
      "name": "quantized_sg_mkldnn_conv_bn_18",
      "attrs": {
        "max_calib_range": "36.991245",
        "min_calib_range": "-36.991245",
        "quantized": "true",
        "with_bn": "true"
      },
      "inputs": [[153, 0, 0], [154, 0, 0], [155, 0, 0], [156, 0, 0], [157, 0, 1], [158, 0, 1], [153, 1, 0], [153, 2, 0]],
      "subgraphs": [
        {
          "nodes": [
            {
              "op": "null",
              "name": "shufflenasoneshotfix0_hybridsequential0_shufflenetblock4_hardswish0__mul0_output0",
              "inputs": []
            },
            {
              "op": "null",
              "name": "shufflenasoneshotfix0_hybridsequential0_shufflenetblock4_conv1_weight0",
              "inputs": []
            },
            {
              "op": "Convolution",
              "name": "shufflenasoneshotfix0_hybridsequential0_shufflenetblock4_conv1_fwd",
              "attrs": {
                "dilate": "(1, 1)",
                "kernel": "(3, 3)",
                "layout": "NCHW",
                "no_bias": "True",
                "num_filter": "96",
                "num_group": "96",
                "pad": "(1, 1)",
                "stride": "(2, 2)"
              },
              "inputs": [[0, 0, 0], [1, 0, 0]]
            },
            {
              "op": "null",
              "name": "shufflenasoneshotfix0_hybridsequential0_shufflenetblock4_batchnorm1_gamma0",
              "inputs": []
            },
            {
              "op": "null",
              "name": "shufflenasoneshotfix0_hybridsequential0_shufflenetblock4_batchnorm1_beta0",
              "inputs": []
            },
            {
              "op": "null",
              "name": "shufflenasoneshotfix0_hybridsequential0_shufflenetblock4_batchnorm1_running_mean0",
              "inputs": []
            },
            {
              "op": "null",
              "name": "shufflenasoneshotfix0_hybridsequential0_shufflenetblock4_batchnorm1_running_var0",
              "inputs": []
            },
            {
              "op": "BatchNorm",
              "name": "shufflenasoneshotfix0_hybridsequential0_shufflenetblock4_batchnorm1_fwd",
              "attrs": {
                "axis": "1",
                "eps": "1e-05",
                "fix_gamma": "False",
                "momentum": "0.1",
                "use_global_stats": "False"
              },
              "inputs": [[2, 0, 0], [3, 0, 0], [4, 0, 0], [5, 0, 0], [6, 0, 0]]
            }
          ],
          "arg_nodes": [0, 1, 3, 4, 5, 6],
          "node_row_ptr": [0, 1, 2, 3, 4, 5, 6, 7, 10],
          "heads": [[7, 0, 0]]
        }
      ]
    },
    {
      "op": "null",
      "name": "shufflenasoneshotfix0_hybridsequential0_shufflenetblock4_conv2_weight",
      "attrs": {
        "__dtype__": "0",
        "__lr_mult__": "1.0",
        "__shape__": "(96, 96, 1, 1)",
        "__storage_type__": "0",
        "__wd_mult__": "1.0"
      },
      "inputs": []
    },
    {
      "op": "null",
      "name": "shufflenasoneshotfix0_hybridsequential0_shufflenetblock4_batchnorm2_gamma",
      "attrs": {
        "__dtype__": "0",
        "__init__": "ones",
        "__lr_mult__": "1.0",
        "__shape__": "(96,)",
        "__storage_type__": "0",
        "__wd_mult__": "1.0"
      },
      "inputs": []
    },
    {
      "op": "null",
      "name": "shufflenasoneshotfix0_hybridsequential0_shufflenetblock4_batchnorm2_beta",
      "attrs": {
        "__dtype__": "0",
        "__init__": "zeros",
        "__lr_mult__": "1.0",
        "__shape__": "(96,)",
        "__storage_type__": "0",
        "__wd_mult__": "1.0"
      },
      "inputs": []
    },
    {
      "op": "null",
      "name": "shufflenasoneshotfix0_hybridsequential0_shufflenetblock4_batchnorm2_running_mean",
      "attrs": {
        "__dtype__": "0",
        "__init__": "zeros",
        "__lr_mult__": "1.0",
        "__shape__": "(96,)",
        "__storage_type__": "0",
        "__wd_mult__": "1.0"
      },
      "inputs": []
    },
    {
      "op": "null",
      "name": "shufflenasoneshotfix0_hybridsequential0_shufflenetblock4_batchnorm2_running_var",
      "attrs": {
        "__dtype__": "0",
        "__init__": "ones",
        "__lr_mult__": "1.0",
        "__shape__": "(96,)",
        "__storage_type__": "0",
        "__wd_mult__": "1.0"
      },
      "inputs": []
    },
    {
      "op": "_sg_mkldnn_conv",
      "name": "quantized_sg_mkldnn_conv_bn_19",
      "attrs": {
        "max_calib_range": "67.895927",
        "min_calib_range": "-67.895927",
        "quantized": "true",
        "with_bn": "true"
      },
      "inputs": [[159, 0, 0], [160, 0, 0], [161, 0, 0], [162, 0, 0], [163, 0, 1], [164, 0, 1], [159, 1, 0], [159, 2, 0]],
      "subgraphs": [
        {
          "nodes": [
            {
              "op": "null",
              "name": "sg_mkldnn_conv_bn_18_output0",
              "inputs": []
            },
            {
              "op": "null",
              "name": "shufflenasoneshotfix0_hybridsequential0_shufflenetblock4_conv2_weight0",
              "inputs": []
            },
            {
              "op": "Convolution",
              "name": "shufflenasoneshotfix0_hybridsequential0_shufflenetblock4_conv2_fwd",
              "attrs": {
                "dilate": "(1, 1)",
                "kernel": "(1, 1)",
                "layout": "NCHW",
                "no_bias": "True",
                "num_filter": "96",
                "num_group": "1",
                "pad": "(0, 0)",
                "stride": "(1, 1)"
              },
              "inputs": [[0, 0, 0], [1, 0, 0]]
            },
            {
              "op": "null",
              "name": "shufflenasoneshotfix0_hybridsequential0_shufflenetblock4_batchnorm2_gamma0",
              "inputs": []
            },
            {
              "op": "null",
              "name": "shufflenasoneshotfix0_hybridsequential0_shufflenetblock4_batchnorm2_beta0",
              "inputs": []
            },
            {
              "op": "null",
              "name": "shufflenasoneshotfix0_hybridsequential0_shufflenetblock4_batchnorm2_running_mean0",
              "inputs": []
            },
            {
              "op": "null",
              "name": "shufflenasoneshotfix0_hybridsequential0_shufflenetblock4_batchnorm2_running_var0",
              "inputs": []
            },
            {
              "op": "BatchNorm",
              "name": "shufflenasoneshotfix0_hybridsequential0_shufflenetblock4_batchnorm2_fwd",
              "attrs": {
                "axis": "1",
                "eps": "1e-05",
                "fix_gamma": "False",
                "momentum": "0.1",
                "use_global_stats": "False"
              },
              "inputs": [[2, 0, 0], [3, 0, 0], [4, 0, 0], [5, 0, 0], [6, 0, 0]]
            }
          ],
          "arg_nodes": [0, 1, 3, 4, 5, 6],
          "node_row_ptr": [0, 1, 2, 3, 4, 5, 6, 7, 10],
          "heads": [[7, 0, 0]]
        }
      ]
    },
    {
      "op": "_contrib_dequantize",
      "name": "sg_mkldnn_conv_bn_19_dequantize",
      "inputs": [[165, 0, 0], [165, 1, 0], [165, 2, 0]]
    },
    {
      "op": "_plus_scalar",
      "name": "shufflenasoneshotfix0_hybridsequential0_shufflenetblock4_hardswish1__plusscalar0",
      "attrs": {"scalar": "3"},
      "inputs": [[166, 0, 0]]
    },
    {
      "op": "clip",
      "name": "shufflenasoneshotfix0_hybridsequential0_shufflenetblock4_hardswish1_hard_swish",
      "attrs": {
        "a_max": "6",
        "a_min": "0"
      },
      "inputs": [[167, 0, 0]]
    },
    {
      "op": "_div_scalar",
      "name": "shufflenasoneshotfix0_hybridsequential0_shufflenetblock4_hardswish1__divscalar0",
      "attrs": {"scalar": "6.0"},
      "inputs": [[168, 0, 0]]
    },
    {
      "op": "elemwise_mul",
      "name": "shufflenasoneshotfix0_hybridsequential0_shufflenetblock4_hardswish1__mul0",
      "inputs": [[166, 0, 0], [169, 0, 0]]
    },
    {
      "op": "Concat",
      "name": "shufflenasoneshotfix0_hybridsequential0_shufflenetblock4_concat0",
      "attrs": {
        "dim": "1",
        "num_args": "2"
      },
      "inputs": [[141, 0, 0], [170, 0, 0]]
    },
    {
      "op": "Reshape",
      "name": "shufflenasoneshotfix0_hybridsequential0_shufflenetblock5_shufflechannels0_reshape0",
      "attrs": {"shape": "(0, -4, 2, -1, -2)"},
      "inputs": [[171, 0, 0]]
    },
    {
      "op": "SwapAxis",
      "name": "shufflenasoneshotfix0_hybridsequential0_shufflenetblock5_shufflechannels0_swapaxes0",
      "attrs": {
        "dim1": "1",
        "dim2": "2"
      },
      "inputs": [[172, 0, 0]]
    },
    {
      "op": "Reshape",
      "name": "shufflenasoneshotfix0_hybridsequential0_shufflenetblock5_shufflechannels0_reshape1",
      "attrs": {"shape": "(0, -3, -2)"},
      "inputs": [[173, 0, 0]]
    },
    {
      "op": "slice",
      "name": "shufflenasoneshotfix0_hybridsequential0_shufflenetblock5_shufflechannels0_slice0",
      "attrs": {
        "begin": "(None, None, None, None)",
        "end": "(None, 80, None, None)"
      },
      "inputs": [[174, 0, 0]]
    },
    {
      "op": "slice",
      "name": "shufflenasoneshotfix0_hybridsequential0_shufflenetblock5_shufflechannels0_slice1",
      "attrs": {
        "begin": "(None, 80, None, None)",
        "end": "(None, None, None, None)"
      },
      "inputs": [[174, 0, 0]]
    },
    {
      "op": "_contrib_quantize_v2",
      "name": "shufflenasoneshotfix0_hybridsequential0_shufflenetblock5_shufflechannels0_slice1_0_quantize",
      "attrs": {
        "max_calib_range": "5.196183",
        "min_calib_range": "-5.196183",
        "out_type": "auto"
      },
      "inputs": [[176, 0, 0]]
    },
    {
      "op": "null",
      "name": "shufflenasoneshotfix0_hybridsequential0_shufflenetblock5_conv0_weight",
      "attrs": {
        "__dtype__": "0",
        "__lr_mult__": "1.0",
        "__shape__": "(128, 80, 1, 1)",
        "__storage_type__": "0",
        "__wd_mult__": "1.0"
      },
      "inputs": []
    },
    {
      "op": "null",
      "name": "shufflenasoneshotfix0_hybridsequential0_shufflenetblock5_batchnorm0_gamma",
      "attrs": {
        "__dtype__": "0",
        "__init__": "ones",
        "__lr_mult__": "1.0",
        "__shape__": "(128,)",
        "__storage_type__": "0",
        "__wd_mult__": "1.0"
      },
      "inputs": []
    },
    {
      "op": "null",
      "name": "shufflenasoneshotfix0_hybridsequential0_shufflenetblock5_batchnorm0_beta",
      "attrs": {
        "__dtype__": "0",
        "__init__": "zeros",
        "__lr_mult__": "1.0",
        "__shape__": "(128,)",
        "__storage_type__": "0",
        "__wd_mult__": "1.0"
      },
      "inputs": []
    },
    {
      "op": "null",
      "name": "shufflenasoneshotfix0_hybridsequential0_shufflenetblock5_batchnorm0_running_mean",
      "attrs": {
        "__dtype__": "0",
        "__init__": "zeros",
        "__lr_mult__": "1.0",
        "__shape__": "(128,)",
        "__storage_type__": "0",
        "__wd_mult__": "1.0"
      },
      "inputs": []
    },
    {
      "op": "null",
      "name": "shufflenasoneshotfix0_hybridsequential0_shufflenetblock5_batchnorm0_running_var",
      "attrs": {
        "__dtype__": "0",
        "__init__": "ones",
        "__lr_mult__": "1.0",
        "__shape__": "(128,)",
        "__storage_type__": "0",
        "__wd_mult__": "1.0"
      },
      "inputs": []
    },
    {
      "op": "_sg_mkldnn_conv",
      "name": "quantized_sg_mkldnn_conv_bn_20",
      "attrs": {
        "max_calib_range": "15.853168",
        "min_calib_range": "-15.853168",
        "quantized": "true",
        "with_bn": "true"
      },
      "inputs": [[177, 0, 0], [178, 0, 0], [179, 0, 0], [180, 0, 0], [181, 0, 1], [182, 0, 1], [177, 1, 0], [177, 2, 0]],
      "subgraphs": [
        {
          "nodes": [
            {
              "op": "null",
              "name": "shufflenasoneshotfix0_hybridsequential0_shufflenetblock5_shufflechannels0_slice1_output0",
              "inputs": []
            },
            {
              "op": "null",
              "name": "shufflenasoneshotfix0_hybridsequential0_shufflenetblock5_conv0_weight0",
              "inputs": []
            },
            {
              "op": "Convolution",
              "name": "shufflenasoneshotfix0_hybridsequential0_shufflenetblock5_conv0_fwd",
              "attrs": {
                "dilate": "(1, 1)",
                "kernel": "(1, 1)",
                "layout": "NCHW",
                "no_bias": "True",
                "num_filter": "128",
                "num_group": "1",
                "pad": "(0, 0)",
                "stride": "(1, 1)"
              },
              "inputs": [[0, 0, 0], [1, 0, 0]]
            },
            {
              "op": "null",
              "name": "shufflenasoneshotfix0_hybridsequential0_shufflenetblock5_batchnorm0_gamma0",
              "inputs": []
            },
            {
              "op": "null",
              "name": "shufflenasoneshotfix0_hybridsequential0_shufflenetblock5_batchnorm0_beta0",
              "inputs": []
            },
            {
              "op": "null",
              "name": "shufflenasoneshotfix0_hybridsequential0_shufflenetblock5_batchnorm0_running_mean0",
              "inputs": []
            },
            {
              "op": "null",
              "name": "shufflenasoneshotfix0_hybridsequential0_shufflenetblock5_batchnorm0_running_var0",
              "inputs": []
            },
            {
              "op": "BatchNorm",
              "name": "shufflenasoneshotfix0_hybridsequential0_shufflenetblock5_batchnorm0_fwd",
              "attrs": {
                "axis": "1",
                "eps": "1e-05",
                "fix_gamma": "False",
                "momentum": "0.1",
                "use_global_stats": "False"
              },
              "inputs": [[2, 0, 0], [3, 0, 0], [4, 0, 0], [5, 0, 0], [6, 0, 0]]
            }
          ],
          "arg_nodes": [0, 1, 3, 4, 5, 6],
          "node_row_ptr": [0, 1, 2, 3, 4, 5, 6, 7, 10],
          "heads": [[7, 0, 0]]
        }
      ]
    },
    {
      "op": "_contrib_dequantize",
      "name": "sg_mkldnn_conv_bn_20_dequantize",
      "inputs": [[183, 0, 0], [183, 1, 0], [183, 2, 0]]
    },
    {
      "op": "_plus_scalar",
      "name": "shufflenasoneshotfix0_hybridsequential0_shufflenetblock5_hardswish0__plusscalar0",
      "attrs": {"scalar": "3"},
      "inputs": [[184, 0, 0]]
    },
    {
      "op": "clip",
      "name": "shufflenasoneshotfix0_hybridsequential0_shufflenetblock5_hardswish0_hard_swish",
      "attrs": {
        "a_max": "6",
        "a_min": "0"
      },
      "inputs": [[185, 0, 0]]
    },
    {
      "op": "_div_scalar",
      "name": "shufflenasoneshotfix0_hybridsequential0_shufflenetblock5_hardswish0__divscalar0",
      "attrs": {"scalar": "6.0"},
      "inputs": [[186, 0, 0]]
    },
    {
      "op": "elemwise_mul",
      "name": "shufflenasoneshotfix0_hybridsequential0_shufflenetblock5_hardswish0__mul0",
      "inputs": [[184, 0, 0], [187, 0, 0]]
    },
    {
      "op": "_contrib_quantize_v2",
      "name": "shufflenasoneshotfix0_hybridsequential0_shufflenetblock5_hardswish0__mul0_0_quantize",
      "attrs": {
        "max_calib_range": "6.633210",
        "min_calib_range": "-6.633210",
        "out_type": "auto"
      },
      "inputs": [[188, 0, 0]]
    },
    {
      "op": "null",
      "name": "shufflenasoneshotfix0_hybridsequential0_shufflenetblock5_conv1_weight",
      "attrs": {
        "__dtype__": "0",
        "__lr_mult__": "1.0",
        "__shape__": "(128, 1, 3, 3)",
        "__storage_type__": "0",
        "__wd_mult__": "1.0"
      },
      "inputs": []
    },
    {
      "op": "null",
      "name": "shufflenasoneshotfix0_hybridsequential0_shufflenetblock5_batchnorm1_gamma",
      "attrs": {
        "__dtype__": "0",
        "__init__": "ones",
        "__lr_mult__": "1.0",
        "__shape__": "(128,)",
        "__storage_type__": "0",
        "__wd_mult__": "1.0"
      },
      "inputs": []
    },
    {
      "op": "null",
      "name": "shufflenasoneshotfix0_hybridsequential0_shufflenetblock5_batchnorm1_beta",
      "attrs": {
        "__dtype__": "0",
        "__init__": "zeros",
        "__lr_mult__": "1.0",
        "__shape__": "(128,)",
        "__storage_type__": "0",
        "__wd_mult__": "1.0"
      },
      "inputs": []
    },
    {
      "op": "null",
      "name": "shufflenasoneshotfix0_hybridsequential0_shufflenetblock5_batchnorm1_running_mean",
      "attrs": {
        "__dtype__": "0",
        "__init__": "zeros",
        "__lr_mult__": "1.0",
        "__shape__": "(128,)",
        "__storage_type__": "0",
        "__wd_mult__": "1.0"
      },
      "inputs": []
    },
    {
      "op": "null",
      "name": "shufflenasoneshotfix0_hybridsequential0_shufflenetblock5_batchnorm1_running_var",
      "attrs": {
        "__dtype__": "0",
        "__init__": "ones",
        "__lr_mult__": "1.0",
        "__shape__": "(128,)",
        "__storage_type__": "0",
        "__wd_mult__": "1.0"
      },
      "inputs": []
    },
    {
      "op": "_sg_mkldnn_conv",
      "name": "quantized_sg_mkldnn_conv_bn_21",
      "attrs": {
        "max_calib_range": "29.653440",
        "min_calib_range": "-29.653440",
        "quantized": "true",
        "with_bn": "true"
      },
      "inputs": [[189, 0, 0], [190, 0, 0], [191, 0, 0], [192, 0, 0], [193, 0, 1], [194, 0, 1], [189, 1, 0], [189, 2, 0]],
      "subgraphs": [
        {
          "nodes": [
            {
              "op": "null",
              "name": "shufflenasoneshotfix0_hybridsequential0_shufflenetblock5_hardswish0__mul0_output0",
              "inputs": []
            },
            {
              "op": "null",
              "name": "shufflenasoneshotfix0_hybridsequential0_shufflenetblock5_conv1_weight0",
              "inputs": []
            },
            {
              "op": "Convolution",
              "name": "shufflenasoneshotfix0_hybridsequential0_shufflenetblock5_conv1_fwd",
              "attrs": {
                "dilate": "(1, 1)",
                "kernel": "(3, 3)",
                "layout": "NCHW",
                "no_bias": "True",
                "num_filter": "128",
                "num_group": "128",
                "pad": "(1, 1)",
                "stride": "(1, 1)"
              },
              "inputs": [[0, 0, 0], [1, 0, 0]]
            },
            {
              "op": "null",
              "name": "shufflenasoneshotfix0_hybridsequential0_shufflenetblock5_batchnorm1_gamma0",
              "inputs": []
            },
            {
              "op": "null",
              "name": "shufflenasoneshotfix0_hybridsequential0_shufflenetblock5_batchnorm1_beta0",
              "inputs": []
            },
            {
              "op": "null",
              "name": "shufflenasoneshotfix0_hybridsequential0_shufflenetblock5_batchnorm1_running_mean0",
              "inputs": []
            },
            {
              "op": "null",
              "name": "shufflenasoneshotfix0_hybridsequential0_shufflenetblock5_batchnorm1_running_var0",
              "inputs": []
            },
            {
              "op": "BatchNorm",
              "name": "shufflenasoneshotfix0_hybridsequential0_shufflenetblock5_batchnorm1_fwd",
              "attrs": {
                "axis": "1",
                "eps": "1e-05",
                "fix_gamma": "False",
                "momentum": "0.1",
                "use_global_stats": "False"
              },
              "inputs": [[2, 0, 0], [3, 0, 0], [4, 0, 0], [5, 0, 0], [6, 0, 0]]
            }
          ],
          "arg_nodes": [0, 1, 3, 4, 5, 6],
          "node_row_ptr": [0, 1, 2, 3, 4, 5, 6, 7, 10],
          "heads": [[7, 0, 0]]
        }
      ]
    },
    {
      "op": "null",
      "name": "shufflenasoneshotfix0_hybridsequential0_shufflenetblock5_conv2_weight",
      "attrs": {
        "__dtype__": "0",
        "__lr_mult__": "1.0",
        "__shape__": "(80, 128, 1, 1)",
        "__storage_type__": "0",
        "__wd_mult__": "1.0"
      },
      "inputs": []
    },
    {
      "op": "null",
      "name": "shufflenasoneshotfix0_hybridsequential0_shufflenetblock5_batchnorm2_gamma",
      "attrs": {
        "__dtype__": "0",
        "__init__": "ones",
        "__lr_mult__": "1.0",
        "__shape__": "(80,)",
        "__storage_type__": "0",
        "__wd_mult__": "1.0"
      },
      "inputs": []
    },
    {
      "op": "null",
      "name": "shufflenasoneshotfix0_hybridsequential0_shufflenetblock5_batchnorm2_beta",
      "attrs": {
        "__dtype__": "0",
        "__init__": "zeros",
        "__lr_mult__": "1.0",
        "__shape__": "(80,)",
        "__storage_type__": "0",
        "__wd_mult__": "1.0"
      },
      "inputs": []
    },
    {
      "op": "null",
      "name": "shufflenasoneshotfix0_hybridsequential0_shufflenetblock5_batchnorm2_running_mean",
      "attrs": {
        "__dtype__": "0",
        "__init__": "zeros",
        "__lr_mult__": "1.0",
        "__shape__": "(80,)",
        "__storage_type__": "0",
        "__wd_mult__": "1.0"
      },
      "inputs": []
    },
    {
      "op": "null",
      "name": "shufflenasoneshotfix0_hybridsequential0_shufflenetblock5_batchnorm2_running_var",
      "attrs": {
        "__dtype__": "0",
        "__init__": "ones",
        "__lr_mult__": "1.0",
        "__shape__": "(80,)",
        "__storage_type__": "0",
        "__wd_mult__": "1.0"
      },
      "inputs": []
    },
    {
      "op": "_sg_mkldnn_conv",
      "name": "quantized_sg_mkldnn_conv_bn_22",
      "attrs": {
        "max_calib_range": "73.557861",
        "min_calib_range": "-73.557861",
        "quantized": "true",
        "with_bn": "true"
      },
      "inputs": [[195, 0, 0], [196, 0, 0], [197, 0, 0], [198, 0, 0], [199, 0, 1], [200, 0, 1], [195, 1, 0], [195, 2, 0]],
      "subgraphs": [
        {
          "nodes": [
            {
              "op": "null",
              "name": "sg_mkldnn_conv_bn_21_output0",
              "inputs": []
            },
            {
              "op": "null",
              "name": "shufflenasoneshotfix0_hybridsequential0_shufflenetblock5_conv2_weight0",
              "inputs": []
            },
            {
              "op": "Convolution",
              "name": "shufflenasoneshotfix0_hybridsequential0_shufflenetblock5_conv2_fwd",
              "attrs": {
                "dilate": "(1, 1)",
                "kernel": "(1, 1)",
                "layout": "NCHW",
                "no_bias": "True",
                "num_filter": "80",
                "num_group": "1",
                "pad": "(0, 0)",
                "stride": "(1, 1)"
              },
              "inputs": [[0, 0, 0], [1, 0, 0]]
            },
            {
              "op": "null",
              "name": "shufflenasoneshotfix0_hybridsequential0_shufflenetblock5_batchnorm2_gamma0",
              "inputs": []
            },
            {
              "op": "null",
              "name": "shufflenasoneshotfix0_hybridsequential0_shufflenetblock5_batchnorm2_beta0",
              "inputs": []
            },
            {
              "op": "null",
              "name": "shufflenasoneshotfix0_hybridsequential0_shufflenetblock5_batchnorm2_running_mean0",
              "inputs": []
            },
            {
              "op": "null",
              "name": "shufflenasoneshotfix0_hybridsequential0_shufflenetblock5_batchnorm2_running_var0",
              "inputs": []
            },
            {
              "op": "BatchNorm",
              "name": "shufflenasoneshotfix0_hybridsequential0_shufflenetblock5_batchnorm2_fwd",
              "attrs": {
                "axis": "1",
                "eps": "1e-05",
                "fix_gamma": "False",
                "momentum": "0.1",
                "use_global_stats": "False"
              },
              "inputs": [[2, 0, 0], [3, 0, 0], [4, 0, 0], [5, 0, 0], [6, 0, 0]]
            }
          ],
          "arg_nodes": [0, 1, 3, 4, 5, 6],
          "node_row_ptr": [0, 1, 2, 3, 4, 5, 6, 7, 10],
          "heads": [[7, 0, 0]]
        }
      ]
    },
    {
      "op": "_contrib_dequantize",
      "name": "sg_mkldnn_conv_bn_22_dequantize",
      "inputs": [[201, 0, 0], [201, 1, 0], [201, 2, 0]]
    },
    {
      "op": "_plus_scalar",
      "name": "shufflenasoneshotfix0_hybridsequential0_shufflenetblock5_hardswish1__plusscalar0",
      "attrs": {"scalar": "3"},
      "inputs": [[202, 0, 0]]
    },
    {
      "op": "clip",
      "name": "shufflenasoneshotfix0_hybridsequential0_shufflenetblock5_hardswish1_hard_swish",
      "attrs": {
        "a_max": "6",
        "a_min": "0"
      },
      "inputs": [[203, 0, 0]]
    },
    {
      "op": "_div_scalar",
      "name": "shufflenasoneshotfix0_hybridsequential0_shufflenetblock5_hardswish1__divscalar0",
      "attrs": {"scalar": "6.0"},
      "inputs": [[204, 0, 0]]
    },
    {
      "op": "elemwise_mul",
      "name": "shufflenasoneshotfix0_hybridsequential0_shufflenetblock5_hardswish1__mul0",
      "inputs": [[202, 0, 0], [205, 0, 0]]
    },
    {
      "op": "Concat",
      "name": "shufflenasoneshotfix0_hybridsequential0_shufflenetblock5_concat0",
      "attrs": {
        "dim": "1",
        "num_args": "2"
      },
      "inputs": [[175, 0, 0], [206, 0, 0]]
    },
    {
      "op": "Reshape",
      "name": "shufflenasoneshotfix0_hybridsequential0_shufflenetblock6_shufflechannels0_reshape0",
      "attrs": {"shape": "(0, -4, 2, -1, -2)"},
      "inputs": [[207, 0, 0]]
    },
    {
      "op": "SwapAxis",
      "name": "shufflenasoneshotfix0_hybridsequential0_shufflenetblock6_shufflechannels0_swapaxes0",
      "attrs": {
        "dim1": "1",
        "dim2": "2"
      },
      "inputs": [[208, 0, 0]]
    },
    {
      "op": "Reshape",
      "name": "shufflenasoneshotfix0_hybridsequential0_shufflenetblock6_shufflechannels0_reshape1",
      "attrs": {"shape": "(0, -3, -2)"},
      "inputs": [[209, 0, 0]]
    },
    {
      "op": "slice",
      "name": "shufflenasoneshotfix0_hybridsequential0_shufflenetblock6_shufflechannels0_slice0",
      "attrs": {
        "begin": "(None, None, None, None)",
        "end": "(None, 80, None, None)"
      },
      "inputs": [[210, 0, 0]]
    },
    {
      "op": "slice",
      "name": "shufflenasoneshotfix0_hybridsequential0_shufflenetblock6_shufflechannels0_slice1",
      "attrs": {
        "begin": "(None, 80, None, None)",
        "end": "(None, None, None, None)"
      },
      "inputs": [[210, 0, 0]]
    },
    {
      "op": "_contrib_quantize_v2",
      "name": "shufflenasoneshotfix0_hybridsequential0_shufflenetblock6_shufflechannels0_slice1_0_quantize",
      "attrs": {
        "max_calib_range": "5.353985",
        "min_calib_range": "-5.353985",
        "out_type": "auto"
      },
      "inputs": [[212, 0, 0]]
    },
    {
      "op": "null",
      "name": "shufflenasoneshotfix0_hybridsequential0_shufflenetblock6_conv0_weight",
      "attrs": {
        "__dtype__": "0",
        "__lr_mult__": "1.0",
        "__shape__": "(64, 80, 1, 1)",
        "__storage_type__": "0",
        "__wd_mult__": "1.0"
      },
      "inputs": []
    },
    {
      "op": "null",
      "name": "shufflenasoneshotfix0_hybridsequential0_shufflenetblock6_batchnorm0_gamma",
      "attrs": {
        "__dtype__": "0",
        "__init__": "ones",
        "__lr_mult__": "1.0",
        "__shape__": "(64,)",
        "__storage_type__": "0",
        "__wd_mult__": "1.0"
      },
      "inputs": []
    },
    {
      "op": "null",
      "name": "shufflenasoneshotfix0_hybridsequential0_shufflenetblock6_batchnorm0_beta",
      "attrs": {
        "__dtype__": "0",
        "__init__": "zeros",
        "__lr_mult__": "1.0",
        "__shape__": "(64,)",
        "__storage_type__": "0",
        "__wd_mult__": "1.0"
      },
      "inputs": []
    },
    {
      "op": "null",
      "name": "shufflenasoneshotfix0_hybridsequential0_shufflenetblock6_batchnorm0_running_mean",
      "attrs": {
        "__dtype__": "0",
        "__init__": "zeros",
        "__lr_mult__": "1.0",
        "__shape__": "(64,)",
        "__storage_type__": "0",
        "__wd_mult__": "1.0"
      },
      "inputs": []
    },
    {
      "op": "null",
      "name": "shufflenasoneshotfix0_hybridsequential0_shufflenetblock6_batchnorm0_running_var",
      "attrs": {
        "__dtype__": "0",
        "__init__": "ones",
        "__lr_mult__": "1.0",
        "__shape__": "(64,)",
        "__storage_type__": "0",
        "__wd_mult__": "1.0"
      },
      "inputs": []
    },
    {
      "op": "_sg_mkldnn_conv",
      "name": "quantized_sg_mkldnn_conv_bn_23",
      "attrs": {
        "max_calib_range": "10.861576",
        "min_calib_range": "-10.861576",
        "quantized": "true",
        "with_bn": "true"
      },
      "inputs": [[213, 0, 0], [214, 0, 0], [215, 0, 0], [216, 0, 0], [217, 0, 1], [218, 0, 1], [213, 1, 0], [213, 2, 0]],
      "subgraphs": [
        {
          "nodes": [
            {
              "op": "null",
              "name": "shufflenasoneshotfix0_hybridsequential0_shufflenetblock6_shufflechannels0_slice1_output0",
              "inputs": []
            },
            {
              "op": "null",
              "name": "shufflenasoneshotfix0_hybridsequential0_shufflenetblock6_conv0_weight0",
              "inputs": []
            },
            {
              "op": "Convolution",
              "name": "shufflenasoneshotfix0_hybridsequential0_shufflenetblock6_conv0_fwd",
              "attrs": {
                "dilate": "(1, 1)",
                "kernel": "(1, 1)",
                "layout": "NCHW",
                "no_bias": "True",
                "num_filter": "64",
                "num_group": "1",
                "pad": "(0, 0)",
                "stride": "(1, 1)"
              },
              "inputs": [[0, 0, 0], [1, 0, 0]]
            },
            {
              "op": "null",
              "name": "shufflenasoneshotfix0_hybridsequential0_shufflenetblock6_batchnorm0_gamma0",
              "inputs": []
            },
            {
              "op": "null",
              "name": "shufflenasoneshotfix0_hybridsequential0_shufflenetblock6_batchnorm0_beta0",
              "inputs": []
            },
            {
              "op": "null",
              "name": "shufflenasoneshotfix0_hybridsequential0_shufflenetblock6_batchnorm0_running_mean0",
              "inputs": []
            },
            {
              "op": "null",
              "name": "shufflenasoneshotfix0_hybridsequential0_shufflenetblock6_batchnorm0_running_var0",
              "inputs": []
            },
            {
              "op": "BatchNorm",
              "name": "shufflenasoneshotfix0_hybridsequential0_shufflenetblock6_batchnorm0_fwd",
              "attrs": {
                "axis": "1",
                "eps": "1e-05",
                "fix_gamma": "False",
                "momentum": "0.1",
                "use_global_stats": "False"
              },
              "inputs": [[2, 0, 0], [3, 0, 0], [4, 0, 0], [5, 0, 0], [6, 0, 0]]
            }
          ],
          "arg_nodes": [0, 1, 3, 4, 5, 6],
          "node_row_ptr": [0, 1, 2, 3, 4, 5, 6, 7, 10],
          "heads": [[7, 0, 0]]
        }
      ]
    },
    {
      "op": "_contrib_dequantize",
      "name": "sg_mkldnn_conv_bn_23_dequantize",
      "inputs": [[219, 0, 0], [219, 1, 0], [219, 2, 0]]
    },
    {
      "op": "_plus_scalar",
      "name": "shufflenasoneshotfix0_hybridsequential0_shufflenetblock6_hardswish0__plusscalar0",
      "attrs": {"scalar": "3"},
      "inputs": [[220, 0, 0]]
    },
    {
      "op": "clip",
      "name": "shufflenasoneshotfix0_hybridsequential0_shufflenetblock6_hardswish0_hard_swish",
      "attrs": {
        "a_max": "6",
        "a_min": "0"
      },
      "inputs": [[221, 0, 0]]
    },
    {
      "op": "_div_scalar",
      "name": "shufflenasoneshotfix0_hybridsequential0_shufflenetblock6_hardswish0__divscalar0",
      "attrs": {"scalar": "6.0"},
      "inputs": [[222, 0, 0]]
    },
    {
      "op": "elemwise_mul",
      "name": "shufflenasoneshotfix0_hybridsequential0_shufflenetblock6_hardswish0__mul0",
      "inputs": [[220, 0, 0], [223, 0, 0]]
    },
    {
      "op": "_contrib_quantize_v2",
      "name": "shufflenasoneshotfix0_hybridsequential0_shufflenetblock6_hardswish0__mul0_0_quantize",
      "attrs": {
        "max_calib_range": "7.543224",
        "min_calib_range": "-7.543224",
        "out_type": "auto"
      },
      "inputs": [[224, 0, 0]]
    },
    {
      "op": "null",
      "name": "shufflenasoneshotfix0_hybridsequential0_shufflenetblock6_conv1_weight",
      "attrs": {
        "__dtype__": "0",
        "__lr_mult__": "1.0",
        "__shape__": "(64, 1, 5, 5)",
        "__storage_type__": "0",
        "__wd_mult__": "1.0"
      },
      "inputs": []
    },
    {
      "op": "null",
      "name": "shufflenasoneshotfix0_hybridsequential0_shufflenetblock6_batchnorm1_gamma",
      "attrs": {
        "__dtype__": "0",
        "__init__": "ones",
        "__lr_mult__": "1.0",
        "__shape__": "(64,)",
        "__storage_type__": "0",
        "__wd_mult__": "1.0"
      },
      "inputs": []
    },
    {
      "op": "null",
      "name": "shufflenasoneshotfix0_hybridsequential0_shufflenetblock6_batchnorm1_beta",
      "attrs": {
        "__dtype__": "0",
        "__init__": "zeros",
        "__lr_mult__": "1.0",
        "__shape__": "(64,)",
        "__storage_type__": "0",
        "__wd_mult__": "1.0"
      },
      "inputs": []
    },
    {
      "op": "null",
      "name": "shufflenasoneshotfix0_hybridsequential0_shufflenetblock6_batchnorm1_running_mean",
      "attrs": {
        "__dtype__": "0",
        "__init__": "zeros",
        "__lr_mult__": "1.0",
        "__shape__": "(64,)",
        "__storage_type__": "0",
        "__wd_mult__": "1.0"
      },
      "inputs": []
    },
    {
      "op": "null",
      "name": "shufflenasoneshotfix0_hybridsequential0_shufflenetblock6_batchnorm1_running_var",
      "attrs": {
        "__dtype__": "0",
        "__init__": "ones",
        "__lr_mult__": "1.0",
        "__shape__": "(64,)",
        "__storage_type__": "0",
        "__wd_mult__": "1.0"
      },
      "inputs": []
    },
    {
      "op": "_sg_mkldnn_conv",
      "name": "quantized_sg_mkldnn_conv_bn_24",
      "attrs": {
        "max_calib_range": "26.026634",
        "min_calib_range": "-26.026634",
        "quantized": "true",
        "with_bn": "true"
      },
      "inputs": [[225, 0, 0], [226, 0, 0], [227, 0, 0], [228, 0, 0], [229, 0, 1], [230, 0, 1], [225, 1, 0], [225, 2, 0]],
      "subgraphs": [
        {
          "nodes": [
            {
              "op": "null",
              "name": "shufflenasoneshotfix0_hybridsequential0_shufflenetblock6_hardswish0__mul0_output0",
              "inputs": []
            },
            {
              "op": "null",
              "name": "shufflenasoneshotfix0_hybridsequential0_shufflenetblock6_conv1_weight0",
              "inputs": []
            },
            {
              "op": "Convolution",
              "name": "shufflenasoneshotfix0_hybridsequential0_shufflenetblock6_conv1_fwd",
              "attrs": {
                "dilate": "(1, 1)",
                "kernel": "(5, 5)",
                "layout": "NCHW",
                "no_bias": "True",
                "num_filter": "64",
                "num_group": "64",
                "pad": "(2, 2)",
                "stride": "(1, 1)"
              },
              "inputs": [[0, 0, 0], [1, 0, 0]]
            },
            {
              "op": "null",
              "name": "shufflenasoneshotfix0_hybridsequential0_shufflenetblock6_batchnorm1_gamma0",
              "inputs": []
            },
            {
              "op": "null",
              "name": "shufflenasoneshotfix0_hybridsequential0_shufflenetblock6_batchnorm1_beta0",
              "inputs": []
            },
            {
              "op": "null",
              "name": "shufflenasoneshotfix0_hybridsequential0_shufflenetblock6_batchnorm1_running_mean0",
              "inputs": []
            },
            {
              "op": "null",
              "name": "shufflenasoneshotfix0_hybridsequential0_shufflenetblock6_batchnorm1_running_var0",
              "inputs": []
            },
            {
              "op": "BatchNorm",
              "name": "shufflenasoneshotfix0_hybridsequential0_shufflenetblock6_batchnorm1_fwd",
              "attrs": {
                "axis": "1",
                "eps": "1e-05",
                "fix_gamma": "False",
                "momentum": "0.1",
                "use_global_stats": "False"
              },
              "inputs": [[2, 0, 0], [3, 0, 0], [4, 0, 0], [5, 0, 0], [6, 0, 0]]
            }
          ],
          "arg_nodes": [0, 1, 3, 4, 5, 6],
          "node_row_ptr": [0, 1, 2, 3, 4, 5, 6, 7, 10],
          "heads": [[7, 0, 0]]
        }
      ]
    },
    {
      "op": "null",
      "name": "shufflenasoneshotfix0_hybridsequential0_shufflenetblock6_conv2_weight",
      "attrs": {
        "__dtype__": "0",
        "__lr_mult__": "1.0",
        "__shape__": "(80, 64, 1, 1)",
        "__storage_type__": "0",
        "__wd_mult__": "1.0"
      },
      "inputs": []
    },
    {
      "op": "null",
      "name": "shufflenasoneshotfix0_hybridsequential0_shufflenetblock6_batchnorm2_gamma",
      "attrs": {
        "__dtype__": "0",
        "__init__": "ones",
        "__lr_mult__": "1.0",
        "__shape__": "(80,)",
        "__storage_type__": "0",
        "__wd_mult__": "1.0"
      },
      "inputs": []
    },
    {
      "op": "null",
      "name": "shufflenasoneshotfix0_hybridsequential0_shufflenetblock6_batchnorm2_beta",
      "attrs": {
        "__dtype__": "0",
        "__init__": "zeros",
        "__lr_mult__": "1.0",
        "__shape__": "(80,)",
        "__storage_type__": "0",
        "__wd_mult__": "1.0"
      },
      "inputs": []
    },
    {
      "op": "null",
      "name": "shufflenasoneshotfix0_hybridsequential0_shufflenetblock6_batchnorm2_running_mean",
      "attrs": {
        "__dtype__": "0",
        "__init__": "zeros",
        "__lr_mult__": "1.0",
        "__shape__": "(80,)",
        "__storage_type__": "0",
        "__wd_mult__": "1.0"
      },
      "inputs": []
    },
    {
      "op": "null",
      "name": "shufflenasoneshotfix0_hybridsequential0_shufflenetblock6_batchnorm2_running_var",
      "attrs": {
        "__dtype__": "0",
        "__init__": "ones",
        "__lr_mult__": "1.0",
        "__shape__": "(80,)",
        "__storage_type__": "0",
        "__wd_mult__": "1.0"
      },
      "inputs": []
    },
    {
      "op": "_sg_mkldnn_conv",
      "name": "quantized_sg_mkldnn_conv_bn_25",
      "attrs": {
        "max_calib_range": "23.070324",
        "min_calib_range": "-23.070324",
        "quantized": "true",
        "with_bn": "true"
      },
      "inputs": [[231, 0, 0], [232, 0, 0], [233, 0, 0], [234, 0, 0], [235, 0, 1], [236, 0, 1], [231, 1, 0], [231, 2, 0]],
      "subgraphs": [
        {
          "nodes": [
            {
              "op": "null",
              "name": "sg_mkldnn_conv_bn_24_output0",
              "inputs": []
            },
            {
              "op": "null",
              "name": "shufflenasoneshotfix0_hybridsequential0_shufflenetblock6_conv2_weight0",
              "inputs": []
            },
            {
              "op": "Convolution",
              "name": "shufflenasoneshotfix0_hybridsequential0_shufflenetblock6_conv2_fwd",
              "attrs": {
                "dilate": "(1, 1)",
                "kernel": "(1, 1)",
                "layout": "NCHW",
                "no_bias": "True",
                "num_filter": "80",
                "num_group": "1",
                "pad": "(0, 0)",
                "stride": "(1, 1)"
              },
              "inputs": [[0, 0, 0], [1, 0, 0]]
            },
            {
              "op": "null",
              "name": "shufflenasoneshotfix0_hybridsequential0_shufflenetblock6_batchnorm2_gamma0",
              "inputs": []
            },
            {
              "op": "null",
              "name": "shufflenasoneshotfix0_hybridsequential0_shufflenetblock6_batchnorm2_beta0",
              "inputs": []
            },
            {
              "op": "null",
              "name": "shufflenasoneshotfix0_hybridsequential0_shufflenetblock6_batchnorm2_running_mean0",
              "inputs": []
            },
            {
              "op": "null",
              "name": "shufflenasoneshotfix0_hybridsequential0_shufflenetblock6_batchnorm2_running_var0",
              "inputs": []
            },
            {
              "op": "BatchNorm",
              "name": "shufflenasoneshotfix0_hybridsequential0_shufflenetblock6_batchnorm2_fwd",
              "attrs": {
                "axis": "1",
                "eps": "1e-05",
                "fix_gamma": "False",
                "momentum": "0.1",
                "use_global_stats": "False"
              },
              "inputs": [[2, 0, 0], [3, 0, 0], [4, 0, 0], [5, 0, 0], [6, 0, 0]]
            }
          ],
          "arg_nodes": [0, 1, 3, 4, 5, 6],
          "node_row_ptr": [0, 1, 2, 3, 4, 5, 6, 7, 10],
          "heads": [[7, 0, 0]]
        }
      ]
    },
    {
      "op": "_contrib_dequantize",
      "name": "sg_mkldnn_conv_bn_25_dequantize",
      "inputs": [[237, 0, 0], [237, 1, 0], [237, 2, 0]]
    },
    {
      "op": "_plus_scalar",
      "name": "shufflenasoneshotfix0_hybridsequential0_shufflenetblock6_hardswish1__plusscalar0",
      "attrs": {"scalar": "3"},
      "inputs": [[238, 0, 0]]
    },
    {
      "op": "clip",
      "name": "shufflenasoneshotfix0_hybridsequential0_shufflenetblock6_hardswish1_hard_swish",
      "attrs": {
        "a_max": "6",
        "a_min": "0"
      },
      "inputs": [[239, 0, 0]]
    },
    {
      "op": "_div_scalar",
      "name": "shufflenasoneshotfix0_hybridsequential0_shufflenetblock6_hardswish1__divscalar0",
      "attrs": {"scalar": "6.0"},
      "inputs": [[240, 0, 0]]
    },
    {
      "op": "elemwise_mul",
      "name": "shufflenasoneshotfix0_hybridsequential0_shufflenetblock6_hardswish1__mul0",
      "inputs": [[238, 0, 0], [241, 0, 0]]
    },
    {
      "op": "Concat",
      "name": "shufflenasoneshotfix0_hybridsequential0_shufflenetblock6_concat0",
      "attrs": {
        "dim": "1",
        "num_args": "2"
      },
      "inputs": [[211, 0, 0], [242, 0, 0]]
    },
    {
      "op": "Reshape",
      "name": "shufflenasoneshotfix0_hybridsequential0_shufflenetblock7_shufflechannels0_reshape0",
      "attrs": {"shape": "(0, -4, 2, -1, -2)"},
      "inputs": [[243, 0, 0]]
    },
    {
      "op": "SwapAxis",
      "name": "shufflenasoneshotfix0_hybridsequential0_shufflenetblock7_shufflechannels0_swapaxes0",
      "attrs": {
        "dim1": "1",
        "dim2": "2"
      },
      "inputs": [[244, 0, 0]]
    },
    {
      "op": "Reshape",
      "name": "shufflenasoneshotfix0_hybridsequential0_shufflenetblock7_shufflechannels0_reshape1",
      "attrs": {"shape": "(0, -3, -2)"},
      "inputs": [[245, 0, 0]]
    },
    {
      "op": "slice",
      "name": "shufflenasoneshotfix0_hybridsequential0_shufflenetblock7_shufflechannels0_slice0",
      "attrs": {
        "begin": "(None, None, None, None)",
        "end": "(None, 80, None, None)"
      },
      "inputs": [[246, 0, 0]]
    },
    {
      "op": "slice",
      "name": "shufflenasoneshotfix0_hybridsequential0_shufflenetblock7_shufflechannels0_slice1",
      "attrs": {
        "begin": "(None, 80, None, None)",
        "end": "(None, None, None, None)"
      },
      "inputs": [[246, 0, 0]]
    },
    {
      "op": "_contrib_quantize_v2",
      "name": "shufflenasoneshotfix0_hybridsequential0_shufflenetblock7_shufflechannels0_slice1_0_quantize",
      "attrs": {
        "max_calib_range": "8.204964",
        "min_calib_range": "-8.204964",
        "out_type": "auto"
      },
      "inputs": [[248, 0, 0]]
    },
    {
      "op": "null",
      "name": "shufflenasoneshotfix0_hybridsequential0_shufflenetblock7_conv0_weight",
      "attrs": {
        "__dtype__": "0",
        "__lr_mult__": "1.0",
        "__shape__": "(80, 80, 1, 1)",
        "__storage_type__": "0",
        "__wd_mult__": "1.0"
      },
      "inputs": []
    },
    {
      "op": "null",
      "name": "shufflenasoneshotfix0_hybridsequential0_shufflenetblock7_batchnorm0_gamma",
      "attrs": {
        "__dtype__": "0",
        "__init__": "ones",
        "__lr_mult__": "1.0",
        "__shape__": "(80,)",
        "__storage_type__": "0",
        "__wd_mult__": "1.0"
      },
      "inputs": []
    },
    {
      "op": "null",
      "name": "shufflenasoneshotfix0_hybridsequential0_shufflenetblock7_batchnorm0_beta",
      "attrs": {
        "__dtype__": "0",
        "__init__": "zeros",
        "__lr_mult__": "1.0",
        "__shape__": "(80,)",
        "__storage_type__": "0",
        "__wd_mult__": "1.0"
      },
      "inputs": []
    },
    {
      "op": "null",
      "name": "shufflenasoneshotfix0_hybridsequential0_shufflenetblock7_batchnorm0_running_mean",
      "attrs": {
        "__dtype__": "0",
        "__init__": "zeros",
        "__lr_mult__": "1.0",
        "__shape__": "(80,)",
        "__storage_type__": "0",
        "__wd_mult__": "1.0"
      },
      "inputs": []
    },
    {
      "op": "null",
      "name": "shufflenasoneshotfix0_hybridsequential0_shufflenetblock7_batchnorm0_running_var",
      "attrs": {
        "__dtype__": "0",
        "__init__": "ones",
        "__lr_mult__": "1.0",
        "__shape__": "(80,)",
        "__storage_type__": "0",
        "__wd_mult__": "1.0"
      },
      "inputs": []
    },
    {
      "op": "_sg_mkldnn_conv",
      "name": "quantized_sg_mkldnn_conv_bn_26",
      "attrs": {
        "max_calib_range": "14.492065",
        "min_calib_range": "-14.492065",
        "quantized": "true",
        "with_bn": "true"
      },
      "inputs": [[249, 0, 0], [250, 0, 0], [251, 0, 0], [252, 0, 0], [253, 0, 1], [254, 0, 1], [249, 1, 0], [249, 2, 0]],
      "subgraphs": [
        {
          "nodes": [
            {
              "op": "null",
              "name": "shufflenasoneshotfix0_hybridsequential0_shufflenetblock7_shufflechannels0_slice1_output0",
              "inputs": []
            },
            {
              "op": "null",
              "name": "shufflenasoneshotfix0_hybridsequential0_shufflenetblock7_conv0_weight0",
              "inputs": []
            },
            {
              "op": "Convolution",
              "name": "shufflenasoneshotfix0_hybridsequential0_shufflenetblock7_conv0_fwd",
              "attrs": {
                "dilate": "(1, 1)",
                "kernel": "(1, 1)",
                "layout": "NCHW",
                "no_bias": "True",
                "num_filter": "80",
                "num_group": "1",
                "pad": "(0, 0)",
                "stride": "(1, 1)"
              },
              "inputs": [[0, 0, 0], [1, 0, 0]]
            },
            {
              "op": "null",
              "name": "shufflenasoneshotfix0_hybridsequential0_shufflenetblock7_batchnorm0_gamma0",
              "inputs": []
            },
            {
              "op": "null",
              "name": "shufflenasoneshotfix0_hybridsequential0_shufflenetblock7_batchnorm0_beta0",
              "inputs": []
            },
            {
              "op": "null",
              "name": "shufflenasoneshotfix0_hybridsequential0_shufflenetblock7_batchnorm0_running_mean0",
              "inputs": []
            },
            {
              "op": "null",
              "name": "shufflenasoneshotfix0_hybridsequential0_shufflenetblock7_batchnorm0_running_var0",
              "inputs": []
            },
            {
              "op": "BatchNorm",
              "name": "shufflenasoneshotfix0_hybridsequential0_shufflenetblock7_batchnorm0_fwd",
              "attrs": {
                "axis": "1",
                "eps": "1e-05",
                "fix_gamma": "False",
                "momentum": "0.1",
                "use_global_stats": "False"
              },
              "inputs": [[2, 0, 0], [3, 0, 0], [4, 0, 0], [5, 0, 0], [6, 0, 0]]
            }
          ],
          "arg_nodes": [0, 1, 3, 4, 5, 6],
          "node_row_ptr": [0, 1, 2, 3, 4, 5, 6, 7, 10],
          "heads": [[7, 0, 0]]
        }
      ]
    },
    {
      "op": "_contrib_dequantize",
      "name": "sg_mkldnn_conv_bn_26_dequantize",
      "inputs": [[255, 0, 0], [255, 1, 0], [255, 2, 0]]
    },
    {
      "op": "_plus_scalar",
      "name": "shufflenasoneshotfix0_hybridsequential0_shufflenetblock7_hardswish0__plusscalar0",
      "attrs": {"scalar": "3"},
      "inputs": [[256, 0, 0]]
    },
    {
      "op": "clip",
      "name": "shufflenasoneshotfix0_hybridsequential0_shufflenetblock7_hardswish0_hard_swish",
      "attrs": {
        "a_max": "6",
        "a_min": "0"
      },
      "inputs": [[257, 0, 0]]
    },
    {
      "op": "_div_scalar",
      "name": "shufflenasoneshotfix0_hybridsequential0_shufflenetblock7_hardswish0__divscalar0",
      "attrs": {"scalar": "6.0"},
      "inputs": [[258, 0, 0]]
    },
    {
      "op": "elemwise_mul",
      "name": "shufflenasoneshotfix0_hybridsequential0_shufflenetblock7_hardswish0__mul0",
      "inputs": [[256, 0, 0], [259, 0, 0]]
    },
    {
      "op": "_contrib_quantize_v2",
      "name": "shufflenasoneshotfix0_hybridsequential0_shufflenetblock7_hardswish0__mul0_0_quantize",
      "attrs": {
        "max_calib_range": "7.164218",
        "min_calib_range": "-7.164218",
        "out_type": "auto"
      },
      "inputs": [[260, 0, 0]]
    },
    {
      "op": "null",
      "name": "shufflenasoneshotfix0_hybridsequential0_shufflenetblock7_conv1_weight",
      "attrs": {
        "__dtype__": "0",
        "__lr_mult__": "1.0",
        "__shape__": "(80, 1, 3, 3)",
        "__storage_type__": "0",
        "__wd_mult__": "1.0"
      },
      "inputs": []
    },
    {
      "op": "null",
      "name": "shufflenasoneshotfix0_hybridsequential0_shufflenetblock7_batchnorm1_gamma",
      "attrs": {
        "__dtype__": "0",
        "__init__": "ones",
        "__lr_mult__": "1.0",
        "__shape__": "(80,)",
        "__storage_type__": "0",
        "__wd_mult__": "1.0"
      },
      "inputs": []
    },
    {
      "op": "null",
      "name": "shufflenasoneshotfix0_hybridsequential0_shufflenetblock7_batchnorm1_beta",
      "attrs": {
        "__dtype__": "0",
        "__init__": "zeros",
        "__lr_mult__": "1.0",
        "__shape__": "(80,)",
        "__storage_type__": "0",
        "__wd_mult__": "1.0"
      },
      "inputs": []
    },
    {
      "op": "null",
      "name": "shufflenasoneshotfix0_hybridsequential0_shufflenetblock7_batchnorm1_running_mean",
      "attrs": {
        "__dtype__": "0",
        "__init__": "zeros",
        "__lr_mult__": "1.0",
        "__shape__": "(80,)",
        "__storage_type__": "0",
        "__wd_mult__": "1.0"
      },
      "inputs": []
    },
    {
      "op": "null",
      "name": "shufflenasoneshotfix0_hybridsequential0_shufflenetblock7_batchnorm1_running_var",
      "attrs": {
        "__dtype__": "0",
        "__init__": "ones",
        "__lr_mult__": "1.0",
        "__shape__": "(80,)",
        "__storage_type__": "0",
        "__wd_mult__": "1.0"
      },
      "inputs": []
    },
    {
      "op": "_sg_mkldnn_conv",
      "name": "quantized_sg_mkldnn_conv_bn_27",
      "attrs": {
        "max_calib_range": "28.693552",
        "min_calib_range": "-28.693552",
        "quantized": "true",
        "with_bn": "true"
      },
      "inputs": [[261, 0, 0], [262, 0, 0], [263, 0, 0], [264, 0, 0], [265, 0, 1], [266, 0, 1], [261, 1, 0], [261, 2, 0]],
      "subgraphs": [
        {
          "nodes": [
            {
              "op": "null",
              "name": "shufflenasoneshotfix0_hybridsequential0_shufflenetblock7_hardswish0__mul0_output0",
              "inputs": []
            },
            {
              "op": "null",
              "name": "shufflenasoneshotfix0_hybridsequential0_shufflenetblock7_conv1_weight0",
              "inputs": []
            },
            {
              "op": "Convolution",
              "name": "shufflenasoneshotfix0_hybridsequential0_shufflenetblock7_conv1_fwd",
              "attrs": {
                "dilate": "(1, 1)",
                "kernel": "(3, 3)",
                "layout": "NCHW",
                "no_bias": "True",
                "num_filter": "80",
                "num_group": "80",
                "pad": "(1, 1)",
                "stride": "(1, 1)"
              },
              "inputs": [[0, 0, 0], [1, 0, 0]]
            },
            {
              "op": "null",
              "name": "shufflenasoneshotfix0_hybridsequential0_shufflenetblock7_batchnorm1_gamma0",
              "inputs": []
            },
            {
              "op": "null",
              "name": "shufflenasoneshotfix0_hybridsequential0_shufflenetblock7_batchnorm1_beta0",
              "inputs": []
            },
            {
              "op": "null",
              "name": "shufflenasoneshotfix0_hybridsequential0_shufflenetblock7_batchnorm1_running_mean0",
              "inputs": []
            },
            {
              "op": "null",
              "name": "shufflenasoneshotfix0_hybridsequential0_shufflenetblock7_batchnorm1_running_var0",
              "inputs": []
            },
            {
              "op": "BatchNorm",
              "name": "shufflenasoneshotfix0_hybridsequential0_shufflenetblock7_batchnorm1_fwd",
              "attrs": {
                "axis": "1",
                "eps": "1e-05",
                "fix_gamma": "False",
                "momentum": "0.1",
                "use_global_stats": "False"
              },
              "inputs": [[2, 0, 0], [3, 0, 0], [4, 0, 0], [5, 0, 0], [6, 0, 0]]
            }
          ],
          "arg_nodes": [0, 1, 3, 4, 5, 6],
          "node_row_ptr": [0, 1, 2, 3, 4, 5, 6, 7, 10],
          "heads": [[7, 0, 0]]
        }
      ]
    },
    {
      "op": "null",
      "name": "shufflenasoneshotfix0_hybridsequential0_shufflenetblock7_conv2_weight",
      "attrs": {
        "__dtype__": "0",
        "__lr_mult__": "1.0",
        "__shape__": "(80, 80, 1, 1)",
        "__storage_type__": "0",
        "__wd_mult__": "1.0"
      },
      "inputs": []
    },
    {
      "op": "null",
      "name": "shufflenasoneshotfix0_hybridsequential0_shufflenetblock7_batchnorm2_gamma",
      "attrs": {
        "__dtype__": "0",
        "__init__": "ones",
        "__lr_mult__": "1.0",
        "__shape__": "(80,)",
        "__storage_type__": "0",
        "__wd_mult__": "1.0"
      },
      "inputs": []
    },
    {
      "op": "null",
      "name": "shufflenasoneshotfix0_hybridsequential0_shufflenetblock7_batchnorm2_beta",
      "attrs": {
        "__dtype__": "0",
        "__init__": "zeros",
        "__lr_mult__": "1.0",
        "__shape__": "(80,)",
        "__storage_type__": "0",
        "__wd_mult__": "1.0"
      },
      "inputs": []
    },
    {
      "op": "null",
      "name": "shufflenasoneshotfix0_hybridsequential0_shufflenetblock7_batchnorm2_running_mean",
      "attrs": {
        "__dtype__": "0",
        "__init__": "zeros",
        "__lr_mult__": "1.0",
        "__shape__": "(80,)",
        "__storage_type__": "0",
        "__wd_mult__": "1.0"
      },
      "inputs": []
    },
    {
      "op": "null",
      "name": "shufflenasoneshotfix0_hybridsequential0_shufflenetblock7_batchnorm2_running_var",
      "attrs": {
        "__dtype__": "0",
        "__init__": "ones",
        "__lr_mult__": "1.0",
        "__shape__": "(80,)",
        "__storage_type__": "0",
        "__wd_mult__": "1.0"
      },
      "inputs": []
    },
    {
      "op": "_sg_mkldnn_conv",
      "name": "quantized_sg_mkldnn_conv_bn_28",
      "attrs": {
        "max_calib_range": "10.534583",
        "min_calib_range": "-10.534583",
        "quantized": "true",
        "with_bn": "true"
      },
      "inputs": [[267, 0, 0], [268, 0, 0], [269, 0, 0], [270, 0, 0], [271, 0, 1], [272, 0, 1], [267, 1, 0], [267, 2, 0]],
      "subgraphs": [
        {
          "nodes": [
            {
              "op": "null",
              "name": "sg_mkldnn_conv_bn_27_output0",
              "inputs": []
            },
            {
              "op": "null",
              "name": "shufflenasoneshotfix0_hybridsequential0_shufflenetblock7_conv2_weight0",
              "inputs": []
            },
            {
              "op": "Convolution",
              "name": "shufflenasoneshotfix0_hybridsequential0_shufflenetblock7_conv2_fwd",
              "attrs": {
                "dilate": "(1, 1)",
                "kernel": "(1, 1)",
                "layout": "NCHW",
                "no_bias": "True",
                "num_filter": "80",
                "num_group": "1",
                "pad": "(0, 0)",
                "stride": "(1, 1)"
              },
              "inputs": [[0, 0, 0], [1, 0, 0]]
            },
            {
              "op": "null",
…
      "inputs": [[849, 0, 0]]
    },
    {
      "op": "_div_scalar",
      "name": "shufflenasoneshotfix0_hybridsequential0_shufflenetblock18_hardswish1__divscalar0",
      "attrs": {"scalar": "6.0"},
      "inputs": [[850, 0, 0]]
    },
    {
      "op": "elemwise_mul",
      "name": "shufflenasoneshotfix0_hybridsequential0_shufflenetblock18_hardswish1__mul0",
      "inputs": [[848, 0, 0], [851, 0, 0]]
    },
    {
      "op": "Pooling",
      "name": "shufflenasoneshotfix0_hybridsequential0_shufflenetblock18_se0_pool0_fwd",
      "attrs": {
        "global_pool": "True",
        "kernel": "(1, 1)",
        "layout": "NCHW",
        "pad": "(0, 0)",
        "pool_type": "avg",
        "pooling_convention": "full",
        "stride": "(1, 1)"
      },
      "inputs": [[852, 0, 0]]
    },
    {
      "op": "_contrib_quantize_v2",
      "name": "shufflenasoneshotfix0_hybridsequential0_shufflenetblock18_se0_pool0_fwd_output_quantize",
      "attrs": {
        "max_calib_range": "6.606905",
        "min_calib_range": "-6.606905",
        "out_type": "auto"
      },
      "inputs": [[853, 0, 0]]
    },
    {
      "op": "null",
      "name": "shufflenasoneshotfix0_hybridsequential0_shufflenetblock18_se0_conv_squeeze_weight",
      "attrs": {
        "__dtype__": "0",
        "__lr_mult__": "1.0",
        "__shape__": "(80, 320, 1, 1)",
        "__storage_type__": "0",
        "__wd_mult__": "1.0"
      },
      "inputs": []
    },
    {
      "op": "null",
      "name": "shufflenasoneshotfix0_hybridsequential0_shufflenetblock18_se0_conv_squeeze_bias",
      "attrs": {
        "__dtype__": "0",
        "__init__": "zeros",
        "__lr_mult__": "1.0",
        "__shape__": "(80,)",
        "__storage_type__": "0",
        "__wd_mult__": "1.0"
      },
      "inputs": []
    },
    {
      "op": "_sg_mkldnn_conv",
      "name": "quantized_sg_mkldnn_conv_act_89",
      "attrs": {
        "max_calib_range": "4.727981",
        "min_calib_range": "0.000000",
        "quantized": "true",
        "with_act": "true"
      },
      "inputs": [[854, 0, 0], [855, 0, 0], [856, 0, 0], [854, 1, 0], [854, 2, 0]],
      "subgraphs": [
        {
          "nodes": [
            {
              "op": "null",
              "name": "shufflenasoneshotfix0_hybridsequential0_shufflenetblock18_se0_pool0_fwd_output0",
              "inputs": []
            },
            {
              "op": "null",
              "name": "shufflenasoneshotfix0_hybridsequential0_shufflenetblock18_se0_conv_squeeze_weight0",
              "inputs": []
            },
            {
              "op": "null",
              "name": "shufflenasoneshotfix0_hybridsequential0_shufflenetblock18_se0_conv_squeeze_bias0",
              "inputs": []
            },
            {
              "op": "Convolution",
              "name": "shufflenasoneshotfix0_hybridsequential0_shufflenetblock18_se0_conv_squeeze_fwd",
              "attrs": {
                "dilate": "(1, 1)",
                "kernel": "(1, 1)",
                "layout": "NCHW",
                "no_bias": "False",
                "num_filter": "80",
                "num_group": "1",
                "pad": "(0, 0)",
                "stride": "(1, 1)"
              },
              "inputs": [[0, 0, 0], [1, 0, 0], [2, 0, 0]]
            },
            {
              "op": "Activation",
              "name": "shufflenasoneshotfix0_hybridsequential0_shufflenetblock18_se0_relu0_fwd",
              "attrs": {"act_type": "relu"},
              "inputs": [[3, 0, 0]]
            }
          ],
          "arg_nodes": [0, 1, 2],
          "node_row_ptr": [0, 1, 2, 3, 4, 5],
          "heads": [[4, 0, 0]]
        }
      ]
    },
    {
      "op": "null",
      "name": "shufflenasoneshotfix0_hybridsequential0_shufflenetblock18_se0_conv_excitation_weight",
      "attrs": {
        "__dtype__": "0",
        "__lr_mult__": "1.0",
        "__shape__": "(320, 80, 1, 1)",
        "__storage_type__": "0",
        "__wd_mult__": "1.0"
      },
      "inputs": []
    },
    {
      "op": "null",
      "name": "shufflenasoneshotfix0_hybridsequential0_shufflenetblock18_se0_conv_excitation_bias",
      "attrs": {
        "__dtype__": "0",
        "__init__": "zeros",
        "__lr_mult__": "1.0",
        "__shape__": "(320,)",
        "__storage_type__": "0",
        "__wd_mult__": "1.0"
      },
      "inputs": []
    },
    {
      "op": "_sg_mkldnn_conv",
      "name": "quantized_sg_mkldnn_conv_90",
      "attrs": {
        "max_calib_range": "4.789870",
        "min_calib_range": "-4.789870",
        "quantized": "true"
      },
      "inputs": [[857, 0, 0], [858, 0, 0], [859, 0, 0], [857, 1, 0], [857, 2, 0]],
      "subgraphs": [
        {
          "nodes": [
            {
              "op": "null",
              "name": "sg_mkldnn_conv_act_89_output0",
              "inputs": []
            },
            {
              "op": "null",
              "name": "shufflenasoneshotfix0_hybridsequential0_shufflenetblock18_se0_conv_excitation_weight0",
              "inputs": []
            },
            {
              "op": "null",
              "name": "shufflenasoneshotfix0_hybridsequential0_shufflenetblock18_se0_conv_excitation_bias0",
              "inputs": []
            },
            {
              "op": "Convolution",
              "name": "shufflenasoneshotfix0_hybridsequential0_shufflenetblock18_se0_conv_excitation_fwd",
              "attrs": {
                "dilate": "(1, 1)",
                "kernel": "(1, 1)",
                "layout": "NCHW",
                "no_bias": "False",
                "num_filter": "320",
                "num_group": "1",
                "pad": "(0, 0)",
                "stride": "(1, 1)"
              },
              "inputs": [[0, 0, 0], [1, 0, 0], [2, 0, 0]]
            }
          ],
          "arg_nodes": [0, 1, 2],
          "node_row_ptr": [0, 1, 2, 3, 4],
          "heads": [[3, 0, 0]]
        }
      ]
    },
    {
      "op": "_contrib_dequantize",
      "name": "sg_mkldnn_conv_90_dequantize",
      "inputs": [[860, 0, 0], [860, 1, 0], [860, 2, 0]]
    },
    {
      "op": "_plus_scalar",
      "name": "shufflenasoneshotfix0_hybridsequential0_shufflenetblock18_se0_hardsigmoid0__plusscalar0",
      "attrs": {"scalar": "3"},
      "inputs": [[861, 0, 0]]
    },
    {
      "op": "clip",
      "name": "shufflenasoneshotfix0_hybridsequential0_shufflenetblock18_se0_hardsigmoid0_hard_sigmoid",
      "attrs": {
        "a_max": "6",
        "a_min": "0"
      },
      "inputs": [[862, 0, 0]]
    },
    {
      "op": "_div_scalar",
      "name": "shufflenasoneshotfix0_hybridsequential0_shufflenetblock18_se0_hardsigmoid0__divscalar0",
      "attrs": {"scalar": "6.0"},
      "inputs": [[863, 0, 0]]
    },
    {
      "op": "broadcast_mul",
      "name": "shufflenasoneshotfix0_hybridsequential0_shufflenetblock18_se0_broadcast_mul0",
      "inputs": [[852, 0, 0], [864, 0, 0]]
    },
    {
      "op": "Concat",
      "name": "shufflenasoneshotfix0_hybridsequential0_shufflenetblock18_concat0",
      "attrs": {
        "dim": "1",
        "num_args": "2"
      },
      "inputs": [[821, 0, 0], [865, 0, 0]]
    },
    {
      "op": "Reshape",
      "name": "shufflenasoneshotfix0_hybridsequential0_shufflenetblock19_shufflechannels0_reshape0",
      "attrs": {"shape": "(0, -4, 2, -1, -2)"},
      "inputs": [[866, 0, 0]]
    },
    {
      "op": "SwapAxis",
      "name": "shufflenasoneshotfix0_hybridsequential0_shufflenetblock19_shufflechannels0_swapaxes0",
      "attrs": {
        "dim1": "1",
        "dim2": "2"
      },
      "inputs": [[867, 0, 0]]
    },
    {
      "op": "Reshape",
      "name": "shufflenasoneshotfix0_hybridsequential0_shufflenetblock19_shufflechannels0_reshape1",
      "attrs": {"shape": "(0, -3, -2)"},
      "inputs": [[868, 0, 0]]
    },
    {
      "op": "slice",
      "name": "shufflenasoneshotfix0_hybridsequential0_shufflenetblock19_shufflechannels0_slice0",
      "attrs": {
        "begin": "(None, None, None, None)",
        "end": "(None, 320, None, None)"
      },
      "inputs": [[869, 0, 0]]
    },
    {
      "op": "slice",
      "name": "shufflenasoneshotfix0_hybridsequential0_shufflenetblock19_shufflechannels0_slice1",
      "attrs": {
        "begin": "(None, 320, None, None)",
        "end": "(None, None, None, None)"
      },
      "inputs": [[869, 0, 0]]
    },
    {
      "op": "_contrib_quantize_v2",
      "name": "shufflenasoneshotfix0_hybridsequential0_shufflenetblock19_shufflechannels0_slice1_0_quantize",
      "attrs": {
        "max_calib_range": "3.220358",
        "min_calib_range": "-3.220358",
        "out_type": "auto"
      },
      "inputs": [[871, 0, 0]]
    },
    {
      "op": "null",
      "name": "shufflenasoneshotfix0_hybridsequential0_shufflenetblock19_conv0_weight",
      "attrs": {
        "__dtype__": "0",
        "__lr_mult__": "1.0",
        "__shape__": "(448, 320, 1, 1)",
        "__storage_type__": "0",
        "__wd_mult__": "1.0"
      },
      "inputs": []
    },
    {
      "op": "null",
      "name": "shufflenasoneshotfix0_hybridsequential0_shufflenetblock19_batchnorm0_gamma",
      "attrs": {
        "__dtype__": "0",
        "__init__": "ones",
        "__lr_mult__": "1.0",
        "__shape__": "(448,)",
        "__storage_type__": "0",
        "__wd_mult__": "1.0"
      },
      "inputs": []
    },
    {
      "op": "null",
      "name": "shufflenasoneshotfix0_hybridsequential0_shufflenetblock19_batchnorm0_beta",
      "attrs": {
        "__dtype__": "0",
        "__init__": "zeros",
        "__lr_mult__": "1.0",
        "__shape__": "(448,)",
        "__storage_type__": "0",
        "__wd_mult__": "1.0"
      },
      "inputs": []
    },
    {
      "op": "null",
      "name": "shufflenasoneshotfix0_hybridsequential0_shufflenetblock19_batchnorm0_running_mean",
      "attrs": {
        "__dtype__": "0",
        "__init__": "zeros",
        "__lr_mult__": "1.0",
        "__shape__": "(448,)",
        "__storage_type__": "0",
        "__wd_mult__": "1.0"
      },
      "inputs": []
    },
    {
      "op": "null",
      "name": "shufflenasoneshotfix0_hybridsequential0_shufflenetblock19_batchnorm0_running_var",
      "attrs": {
        "__dtype__": "0",
        "__init__": "ones",
        "__lr_mult__": "1.0",
        "__shape__": "(448,)",
        "__storage_type__": "0",
        "__wd_mult__": "1.0"
      },
      "inputs": []
    },
    {
      "op": "_sg_mkldnn_conv",
      "name": "quantized_sg_mkldnn_conv_bn_91",
      "attrs": {
        "max_calib_range": "7.638406",
        "min_calib_range": "-7.638406",
        "quantized": "true",
        "with_bn": "true"
      },
      "inputs": [[872, 0, 0], [873, 0, 0], [874, 0, 0], [875, 0, 0], [876, 0, 1], [877, 0, 1], [872, 1, 0], [872, 2, 0]],
      "subgraphs": [
        {
          "nodes": [
            {
              "op": "null",
              "name": "shufflenasoneshotfix0_hybridsequential0_shufflenetblock19_shufflechannels0_slice1_output0",
              "inputs": []
            },
            {
              "op": "null",
              "name": "shufflenasoneshotfix0_hybridsequential0_shufflenetblock19_conv0_weight0",
              "inputs": []
            },
            {
              "op": "Convolution",
              "name": "shufflenasoneshotfix0_hybridsequential0_shufflenetblock19_conv0_fwd",
              "attrs": {
                "dilate": "(1, 1)",
                "kernel": "(1, 1)",
                "layout": "NCHW",
                "no_bias": "True",
                "num_filter": "448",
                "num_group": "1",
                "pad": "(0, 0)",
                "stride": "(1, 1)"
              },
              "inputs": [[0, 0, 0], [1, 0, 0]]
            },
            {
              "op": "null",
              "name": "shufflenasoneshotfix0_hybridsequential0_shufflenetblock19_batchnorm0_gamma0",
              "inputs": []
            },
            {
              "op": "null",
              "name": "shufflenasoneshotfix0_hybridsequential0_shufflenetblock19_batchnorm0_beta0",
              "inputs": []
            },
            {
              "op": "null",
              "name": "shufflenasoneshotfix0_hybridsequential0_shufflenetblock19_batchnorm0_running_mean0",
              "inputs": []
            },
            {
              "op": "null",
              "name": "shufflenasoneshotfix0_hybridsequential0_shufflenetblock19_batchnorm0_running_var0",
              "inputs": []
            },
            {
              "op": "BatchNorm",
              "name": "shufflenasoneshotfix0_hybridsequential0_shufflenetblock19_batchnorm0_fwd",
              "attrs": {
                "axis": "1",
                "eps": "1e-05",
                "fix_gamma": "False",
                "momentum": "0.1",
                "use_global_stats": "False"
              },
              "inputs": [[2, 0, 0], [3, 0, 0], [4, 0, 0], [5, 0, 0], [6, 0, 0]]
            }
          ],
          "arg_nodes": [0, 1, 3, 4, 5, 6],
          "node_row_ptr": [0, 1, 2, 3, 4, 5, 6, 7, 10],
          "heads": [[7, 0, 0]]
        }
      ]
    },
    {
      "op": "_contrib_dequantize",
      "name": "sg_mkldnn_conv_bn_91_dequantize",
      "inputs": [[878, 0, 0], [878, 1, 0], [878, 2, 0]]
    },
    {
      "op": "_plus_scalar",
      "name": "shufflenasoneshotfix0_hybridsequential0_shufflenetblock19_hardswish0__plusscalar0",
      "attrs": {"scalar": "3"},
      "inputs": [[879, 0, 0]]
    },
    {
      "op": "clip",
      "name": "shufflenasoneshotfix0_hybridsequential0_shufflenetblock19_hardswish0_hard_swish",
      "attrs": {
        "a_max": "6",
        "a_min": "0"
      },
      "inputs": [[880, 0, 0]]
    },
    {
      "op": "_div_scalar",
      "name": "shufflenasoneshotfix0_hybridsequential0_shufflenetblock19_hardswish0__divscalar0",
      "attrs": {"scalar": "6.0"},
      "inputs": [[881, 0, 0]]
    },
    {
      "op": "elemwise_mul",
      "name": "shufflenasoneshotfix0_hybridsequential0_shufflenetblock19_hardswish0__mul0",
      "inputs": [[879, 0, 0], [882, 0, 0]]
    },
    {
      "op": "_contrib_quantize_v2",
      "name": "shufflenasoneshotfix0_hybridsequential0_shufflenetblock19_hardswish0__mul0_0_quantize",
      "attrs": {
        "max_calib_range": "1.062514",
        "min_calib_range": "-1.062514",
        "out_type": "auto"
      },
      "inputs": [[883, 0, 0]]
    },
    {
      "op": "null",
      "name": "shufflenasoneshotfix0_hybridsequential0_shufflenetblock19_conv1_weight",
      "attrs": {
        "__dtype__": "0",
        "__lr_mult__": "1.0",
        "__shape__": "(448, 1, 3, 3)",
        "__storage_type__": "0",
        "__wd_mult__": "1.0"
      },
      "inputs": []
    },
    {
      "op": "null",
      "name": "shufflenasoneshotfix0_hybridsequential0_shufflenetblock19_batchnorm1_gamma",
      "attrs": {
        "__dtype__": "0",
        "__init__": "ones",
        "__lr_mult__": "1.0",
        "__shape__": "(448,)",
        "__storage_type__": "0",
        "__wd_mult__": "1.0"
      },
      "inputs": []
    },
    {
      "op": "null",
      "name": "shufflenasoneshotfix0_hybridsequential0_shufflenetblock19_batchnorm1_beta",
      "attrs": {
        "__dtype__": "0",
        "__init__": "zeros",
        "__lr_mult__": "1.0",
        "__shape__": "(448,)",
        "__storage_type__": "0",
        "__wd_mult__": "1.0"
      },
      "inputs": []
    },
    {
      "op": "null",
      "name": "shufflenasoneshotfix0_hybridsequential0_shufflenetblock19_batchnorm1_running_mean",
      "attrs": {
        "__dtype__": "0",
        "__init__": "zeros",
        "__lr_mult__": "1.0",
        "__shape__": "(448,)",
        "__storage_type__": "0",
        "__wd_mult__": "1.0"
      },
      "inputs": []
    },
    {
      "op": "null",
      "name": "shufflenasoneshotfix0_hybridsequential0_shufflenetblock19_batchnorm1_running_var",
      "attrs": {
        "__dtype__": "0",
        "__init__": "ones",
        "__lr_mult__": "1.0",
        "__shape__": "(448,)",
        "__storage_type__": "0",
        "__wd_mult__": "1.0"
      },
      "inputs": []
    },
    {
      "op": "_sg_mkldnn_conv",
      "name": "quantized_sg_mkldnn_conv_bn_92",
      "attrs": {
        "max_calib_range": "30.586777",
        "min_calib_range": "-30.586777",
        "quantized": "true",
        "with_bn": "true"
      },
      "inputs": [[884, 0, 0], [885, 0, 0], [886, 0, 0], [887, 0, 0], [888, 0, 1], [889, 0, 1], [884, 1, 0], [884, 2, 0]],
      "subgraphs": [
        {
          "nodes": [
            {
              "op": "null",
              "name": "shufflenasoneshotfix0_hybridsequential0_shufflenetblock19_hardswish0__mul0_output0",
              "inputs": []
            },
            {
              "op": "null",
              "name": "shufflenasoneshotfix0_hybridsequential0_shufflenetblock19_conv1_weight0",
              "inputs": []
            },
            {
              "op": "Convolution",
              "name": "shufflenasoneshotfix0_hybridsequential0_shufflenetblock19_conv1_fwd",
              "attrs": {
                "dilate": "(1, 1)",
                "kernel": "(3, 3)",
                "layout": "NCHW",
                "no_bias": "True",
                "num_filter": "448",
                "num_group": "448",
                "pad": "(1, 1)",
                "stride": "(1, 1)"
              },
              "inputs": [[0, 0, 0], [1, 0, 0]]
            },
            {
              "op": "null",
              "name": "shufflenasoneshotfix0_hybridsequential0_shufflenetblock19_batchnorm1_gamma0",
              "inputs": []
            },
            {
              "op": "null",
              "name": "shufflenasoneshotfix0_hybridsequential0_shufflenetblock19_batchnorm1_beta0",
              "inputs": []
            },
            {
              "op": "null",
              "name": "shufflenasoneshotfix0_hybridsequential0_shufflenetblock19_batchnorm1_running_mean0",
              "inputs": []
            },
            {
              "op": "null",
              "name": "shufflenasoneshotfix0_hybridsequential0_shufflenetblock19_batchnorm1_running_var0",
              "inputs": []
            },
            {
              "op": "BatchNorm",
              "name": "shufflenasoneshotfix0_hybridsequential0_shufflenetblock19_batchnorm1_fwd",
              "attrs": {
                "axis": "1",
                "eps": "1e-05",
                "fix_gamma": "False",
                "momentum": "0.1",
                "use_global_stats": "False"
              },
              "inputs": [[2, 0, 0], [3, 0, 0], [4, 0, 0], [5, 0, 0], [6, 0, 0]]
            }
          ],
          "arg_nodes": [0, 1, 3, 4, 5, 6],
          "node_row_ptr": [0, 1, 2, 3, 4, 5, 6, 7, 10],
          "heads": [[7, 0, 0]]
        }
      ]
    },
    {
      "op": "null",
      "name": "shufflenasoneshotfix0_hybridsequential0_shufflenetblock19_conv2_weight",
      "attrs": {
        "__dtype__": "0",
        "__lr_mult__": "1.0",
        "__shape__": "(320, 448, 1, 1)",
        "__storage_type__": "0",
        "__wd_mult__": "1.0"
      },
      "inputs": []
    },
    {
      "op": "null",
      "name": "shufflenasoneshotfix0_hybridsequential0_shufflenetblock19_batchnorm2_gamma",
      "attrs": {
        "__dtype__": "0",
        "__init__": "ones",
        "__lr_mult__": "1.0",
        "__shape__": "(320,)",
        "__storage_type__": "0",
        "__wd_mult__": "1.0"
      },
      "inputs": []
    },
    {
      "op": "null",
      "name": "shufflenasoneshotfix0_hybridsequential0_shufflenetblock19_batchnorm2_beta",
      "attrs": {
        "__dtype__": "0",
        "__init__": "zeros",
        "__lr_mult__": "1.0",
        "__shape__": "(320,)",
        "__storage_type__": "0",
        "__wd_mult__": "1.0"
      },
      "inputs": []
    },
    {
      "op": "null",
      "name": "shufflenasoneshotfix0_hybridsequential0_shufflenetblock19_batchnorm2_running_mean",
      "attrs": {
        "__dtype__": "0",
        "__init__": "zeros",
        "__lr_mult__": "1.0",
        "__shape__": "(320,)",
        "__storage_type__": "0",
        "__wd_mult__": "1.0"
      },
      "inputs": []
    },
    {
      "op": "null",
      "name": "shufflenasoneshotfix0_hybridsequential0_shufflenetblock19_batchnorm2_running_var",
      "attrs": {
        "__dtype__": "0",
        "__init__": "ones",
        "__lr_mult__": "1.0",
        "__shape__": "(320,)",
        "__storage_type__": "0",
        "__wd_mult__": "1.0"
      },
      "inputs": []
    },
    {
      "op": "_sg_mkldnn_conv",
      "name": "quantized_sg_mkldnn_conv_bn_93",
      "attrs": {
        "max_calib_range": "50.904831",
        "min_calib_range": "-50.904831",
        "quantized": "true",
        "with_bn": "true"
      },
      "inputs": [[890, 0, 0], [891, 0, 0], [892, 0, 0], [893, 0, 0], [894, 0, 1], [895, 0, 1], [890, 1, 0], [890, 2, 0]],
      "subgraphs": [
        {
          "nodes": [
            {
              "op": "null",
              "name": "sg_mkldnn_conv_bn_92_output0",
              "inputs": []
            },
            {
              "op": "null",
              "name": "shufflenasoneshotfix0_hybridsequential0_shufflenetblock19_conv2_weight0",
              "inputs": []
            },
            {
              "op": "Convolution",
              "name": "shufflenasoneshotfix0_hybridsequential0_shufflenetblock19_conv2_fwd",
              "attrs": {
                "dilate": "(1, 1)",
                "kernel": "(1, 1)",
                "layout": "NCHW",
                "no_bias": "True",
                "num_filter": "320",
                "num_group": "1",
                "pad": "(0, 0)",
                "stride": "(1, 1)"
              },
              "inputs": [[0, 0, 0], [1, 0, 0]]
            },
            {
              "op": "null",
              "name": "shufflenasoneshotfix0_hybridsequential0_shufflenetblock19_batchnorm2_gamma0",
              "inputs": []
            },
            {
              "op": "null",
              "name": "shufflenasoneshotfix0_hybridsequential0_shufflenetblock19_batchnorm2_beta0",
              "inputs": []
            },
            {
              "op": "null",
              "name": "shufflenasoneshotfix0_hybridsequential0_shufflenetblock19_batchnorm2_running_mean0",
              "inputs": []
            },
            {
              "op": "null",
              "name": "shufflenasoneshotfix0_hybridsequential0_shufflenetblock19_batchnorm2_running_var0",
              "inputs": []
            },
            {
              "op": "BatchNorm",
              "name": "shufflenasoneshotfix0_hybridsequential0_shufflenetblock19_batchnorm2_fwd",
              "attrs": {
                "axis": "1",
                "eps": "1e-05",
                "fix_gamma": "False",
                "momentum": "0.1",
                "use_global_stats": "False"
              },
              "inputs": [[2, 0, 0], [3, 0, 0], [4, 0, 0], [5, 0, 0], [6, 0, 0]]
            }
          ],
          "arg_nodes": [0, 1, 3, 4, 5, 6],
          "node_row_ptr": [0, 1, 2, 3, 4, 5, 6, 7, 10],
          "heads": [[7, 0, 0]]
        }
      ]
    },
    {
      "op": "_contrib_dequantize",
      "name": "sg_mkldnn_conv_bn_93_dequantize",
      "inputs": [[896, 0, 0], [896, 1, 0], [896, 2, 0]]
    },
    {
      "op": "_plus_scalar",
      "name": "shufflenasoneshotfix0_hybridsequential0_shufflenetblock19_hardswish1__plusscalar0",
      "attrs": {"scalar": "3"},
      "inputs": [[897, 0, 0]]
    },
    {
      "op": "clip",
      "name": "shufflenasoneshotfix0_hybridsequential0_shufflenetblock19_hardswish1_hard_swish",
      "attrs": {
        "a_max": "6",
        "a_min": "0"
      },
      "inputs": [[898, 0, 0]]
    },
    {
      "op": "_div_scalar",
      "name": "shufflenasoneshotfix0_hybridsequential0_shufflenetblock19_hardswish1__divscalar0",
      "attrs": {"scalar": "6.0"},
      "inputs": [[899, 0, 0]]
    },
    {
      "op": "elemwise_mul",
      "name": "shufflenasoneshotfix0_hybridsequential0_shufflenetblock19_hardswish1__mul0",
      "inputs": [[897, 0, 0], [900, 0, 0]]
    },
    {
      "op": "Pooling",
      "name": "shufflenasoneshotfix0_hybridsequential0_shufflenetblock19_se0_pool0_fwd",
      "attrs": {
        "global_pool": "True",
        "kernel": "(1, 1)",
        "layout": "NCHW",
        "pad": "(0, 0)",
        "pool_type": "avg",
        "pooling_convention": "full",
        "stride": "(1, 1)"
      },
      "inputs": [[901, 0, 0]]
    },
    {
      "op": "_contrib_quantize_v2",
      "name": "shufflenasoneshotfix0_hybridsequential0_shufflenetblock19_se0_pool0_fwd_output_quantize",
      "attrs": {
        "max_calib_range": "6.154954",
        "min_calib_range": "-6.154954",
        "out_type": "auto"
      },
      "inputs": [[902, 0, 0]]
    },
    {
      "op": "null",
      "name": "shufflenasoneshotfix0_hybridsequential0_shufflenetblock19_se0_conv_squeeze_weight",
      "attrs": {
        "__dtype__": "0",
        "__lr_mult__": "1.0",
        "__shape__": "(80, 320, 1, 1)",
        "__storage_type__": "0",
        "__wd_mult__": "1.0"
      },
      "inputs": []
    },
    {
      "op": "null",
      "name": "shufflenasoneshotfix0_hybridsequential0_shufflenetblock19_se0_conv_squeeze_bias",
      "attrs": {
        "__dtype__": "0",
        "__init__": "zeros",
        "__lr_mult__": "1.0",
        "__shape__": "(80,)",
        "__storage_type__": "0",
        "__wd_mult__": "1.0"
      },
      "inputs": []
    },
    {
      "op": "_sg_mkldnn_conv",
      "name": "quantized_sg_mkldnn_conv_act_94",
      "attrs": {
        "max_calib_range": "7.250119",
        "min_calib_range": "0.000000",
        "quantized": "true",
        "with_act": "true"
      },
      "inputs": [[903, 0, 0], [904, 0, 0], [905, 0, 0], [903, 1, 0], [903, 2, 0]],
      "subgraphs": [
        {
          "nodes": [
            {
              "op": "null",
              "name": "shufflenasoneshotfix0_hybridsequential0_shufflenetblock19_se0_pool0_fwd_output0",
              "inputs": []
            },
            {
              "op": "null",
              "name": "shufflenasoneshotfix0_hybridsequential0_shufflenetblock19_se0_conv_squeeze_weight0",
              "inputs": []
            },
            {
              "op": "null",
              "name": "shufflenasoneshotfix0_hybridsequential0_shufflenetblock19_se0_conv_squeeze_bias0",
              "inputs": []
            },
            {
              "op": "Convolution",
              "name": "shufflenasoneshotfix0_hybridsequential0_shufflenetblock19_se0_conv_squeeze_fwd",
              "attrs": {
                "dilate": "(1, 1)",
                "kernel": "(1, 1)",
                "layout": "NCHW",
                "no_bias": "False",
                "num_filter": "80",
                "num_group": "1",
                "pad": "(0, 0)",
                "stride": "(1, 1)"
              },
              "inputs": [[0, 0, 0], [1, 0, 0], [2, 0, 0]]
            },
            {
              "op": "Activation",
              "name": "shufflenasoneshotfix0_hybridsequential0_shufflenetblock19_se0_relu0_fwd",
              "attrs": {"act_type": "relu"},
              "inputs": [[3, 0, 0]]
            }
          ],
          "arg_nodes": [0, 1, 2],
          "node_row_ptr": [0, 1, 2, 3, 4, 5],
          "heads": [[4, 0, 0]]
        }
      ]
    },
    {
      "op": "null",
      "name": "shufflenasoneshotfix0_hybridsequential0_shufflenetblock19_se0_conv_excitation_weight",
      "attrs": {
        "__dtype__": "0",
        "__lr_mult__": "1.0",
        "__shape__": "(320, 80, 1, 1)",
        "__storage_type__": "0",
        "__wd_mult__": "1.0"
      },
      "inputs": []
    },
    {
      "op": "null",
      "name": "shufflenasoneshotfix0_hybridsequential0_shufflenetblock19_se0_conv_excitation_bias",
      "attrs": {
        "__dtype__": "0",
        "__init__": "zeros",
        "__lr_mult__": "1.0",
        "__shape__": "(320,)",
        "__storage_type__": "0",
        "__wd_mult__": "1.0"
      },
      "inputs": []
    },
    {
      "op": "_sg_mkldnn_conv",
      "name": "quantized_sg_mkldnn_conv_95",
      "attrs": {
        "max_calib_range": "8.618505",
        "min_calib_range": "-8.618505",
        "quantized": "true"
      },
      "inputs": [[906, 0, 0], [907, 0, 0], [908, 0, 0], [906, 1, 0], [906, 2, 0]],
      "subgraphs": [
        {
          "nodes": [
            {
              "op": "null",
              "name": "sg_mkldnn_conv_act_94_output0",
              "inputs": []
            },
            {
              "op": "null",
              "name": "shufflenasoneshotfix0_hybridsequential0_shufflenetblock19_se0_conv_excitation_weight0",
              "inputs": []
            },
            {
              "op": "null",
              "name": "shufflenasoneshotfix0_hybridsequential0_shufflenetblock19_se0_conv_excitation_bias0",
              "inputs": []
            },
            {
              "op": "Convolution",
              "name": "shufflenasoneshotfix0_hybridsequential0_shufflenetblock19_se0_conv_excitation_fwd",
              "attrs": {
                "dilate": "(1, 1)",
                "kernel": "(1, 1)",
                "layout": "NCHW",
                "no_bias": "False",
                "num_filter": "320",
                "num_group": "1",
                "pad": "(0, 0)",
                "stride": "(1, 1)"
              },
              "inputs": [[0, 0, 0], [1, 0, 0], [2, 0, 0]]
            }
          ],
          "arg_nodes": [0, 1, 2],
          "node_row_ptr": [0, 1, 2, 3, 4],
          "heads": [[3, 0, 0]]
        }
      ]
    },
    {
      "op": "_contrib_dequantize",
      "name": "sg_mkldnn_conv_95_dequantize",
      "inputs": [[909, 0, 0], [909, 1, 0], [909, 2, 0]]
    },
    {
      "op": "_plus_scalar",
      "name": "shufflenasoneshotfix0_hybridsequential0_shufflenetblock19_se0_hardsigmoid0__plusscalar0",
      "attrs": {"scalar": "3"},
      "inputs": [[910, 0, 0]]
    },
    {
      "op": "clip",
      "name": "shufflenasoneshotfix0_hybridsequential0_shufflenetblock19_se0_hardsigmoid0_hard_sigmoid",
      "attrs": {
        "a_max": "6",
        "a_min": "0"
      },
      "inputs": [[911, 0, 0]]
    },
    {
      "op": "_div_scalar",
      "name": "shufflenasoneshotfix0_hybridsequential0_shufflenetblock19_se0_hardsigmoid0__divscalar0",
      "attrs": {"scalar": "6.0"},
      "inputs": [[912, 0, 0]]
    },
    {
      "op": "broadcast_mul",
      "name": "shufflenasoneshotfix0_hybridsequential0_shufflenetblock19_se0_broadcast_mul0",
      "inputs": [[901, 0, 0], [913, 0, 0]]
    },
    {
      "op": "Concat",
      "name": "shufflenasoneshotfix0_hybridsequential0_shufflenetblock19_concat0",
      "attrs": {
        "dim": "1",
        "num_args": "2"
      },
      "inputs": [[870, 0, 0], [914, 0, 0]]
    },
    {
      "op": "Pooling",
      "name": "shufflenasoneshotfix0_hybridsequential0_pool0_fwd",
      "attrs": {
        "global_pool": "True",
        "kernel": "(1, 1)",
        "layout": "NCHW",
        "pad": "(0, 0)",
        "pool_type": "avg",
        "pooling_convention": "full",
        "stride": "(1, 1)"
      },
      "inputs": [[915, 0, 0]]
    },
    {
      "op": "_contrib_quantize_v2",
      "name": "shufflenasoneshotfix0_hybridsequential0_pool0_fwd_output_quantize",
      "attrs": {
        "max_calib_range": "6.139604",
        "min_calib_range": "-6.139604",
        "out_type": "auto"
      },
      "inputs": [[916, 0, 0]]
    },
    {
      "op": "null",
      "name": "shufflenasoneshotfix0_hybridsequential0_conv_fc_weight",
      "attrs": {
        "__dtype__": "0",
        "__lr_mult__": "1.0",
        "__shape__": "(1024, 640, 1, 1)",
        "__storage_type__": "0",
        "__wd_mult__": "1.0"
      },
      "inputs": []
    },
    {
      "op": "null",
      "name": "shufflenasoneshotfix0_hybridsequential0_conv_fc_bias",
      "attrs": {
        "__dtype__": "0",
        "__init__": "zeros",
        "__lr_mult__": "1.0",
        "__shape__": "(1024,)",
        "__storage_type__": "0",
        "__wd_mult__": "1.0"
      },
      "inputs": []
    },
    {
      "op": "_sg_mkldnn_conv",
      "name": "quantized_sg_mkldnn_conv_96",
      "attrs": {
        "max_calib_range": "8.392590",
        "min_calib_range": "-8.392590",
        "quantized": "true"
      },
      "inputs": [[917, 0, 0], [918, 0, 0], [919, 0, 0], [917, 1, 0], [917, 2, 0]],
      "subgraphs": [
        {
          "nodes": [
            {
              "op": "null",
              "name": "shufflenasoneshotfix0_hybridsequential0_pool0_fwd_output0",
              "inputs": []
            },
            {
              "op": "null",
              "name": "shufflenasoneshotfix0_hybridsequential0_conv_fc_weight0",
              "inputs": []
            },
            {
              "op": "null",
              "name": "shufflenasoneshotfix0_hybridsequential0_conv_fc_bias0",
              "inputs": []
            },
            {
              "op": "Convolution",
              "name": "shufflenasoneshotfix0_hybridsequential0_conv_fc_fwd",
              "attrs": {
                "dilate": "(1, 1)",
                "kernel": "(1, 1)",
                "layout": "NCHW",
                "no_bias": "False",
                "num_filter": "1024",
                "num_group": "1",
                "pad": "(0, 0)",
                "stride": "(1, 1)"
              },
              "inputs": [[0, 0, 0], [1, 0, 0], [2, 0, 0]]
            }
          ],
          "arg_nodes": [0, 1, 2],
          "node_row_ptr": [0, 1, 2, 3, 4],
          "heads": [[3, 0, 0]]
        }
      ]
    },
    {
      "op": "_contrib_dequantize",
      "name": "sg_mkldnn_conv_96_dequantize",
      "inputs": [[920, 0, 0], [920, 1, 0], [920, 2, 0]]
    },
    {
      "op": "_plus_scalar",
      "name": "shufflenasoneshotfix0_hybridsequential0_hardswish1__plusscalar0",
      "attrs": {"scalar": "3"},
      "inputs": [[921, 0, 0]]
    },
    {
      "op": "clip",
      "name": "shufflenasoneshotfix0_hybridsequential0_hardswish1_hard_swish",
      "attrs": {
        "a_max": "6",
        "a_min": "0"
      },
      "inputs": [[922, 0, 0]]
    },
    {
      "op": "_div_scalar",
      "name": "shufflenasoneshotfix0_hybridsequential0_hardswish1__divscalar0",
      "attrs": {"scalar": "6.0"},
      "inputs": [[923, 0, 0]]
    },
    {
      "op": "elemwise_mul",
      "name": "shufflenasoneshotfix0_hybridsequential0_hardswish1__mul0",
      "inputs": [[921, 0, 0], [924, 0, 0]]
    },
    {
      "op": "Dropout",
      "name": "shufflenasoneshotfix0_hybridsequential0_dropout0_fwd",
      "attrs": {
        "axes": "()",
        "cudnn_off": "False",
        "p": "0.2"
      },
      "inputs": [[925, 0, 0]]
    },
    {
      "op": "_contrib_quantize_v2",
      "name": "shufflenasoneshotfix0_hybridsequential0_dropout0_fwd_output_quantize",
      "attrs": {
        "max_calib_range": "2.293619",
        "min_calib_range": "-2.293619",
        "out_type": "auto"
      },
      "inputs": [[926, 0, 0]]
    },
    {
      "op": "null",
      "name": "shufflenasoneshotfix0_output_conv0_weight",
      "attrs": {
        "__dtype__": "0",
        "__lr_mult__": "1.0",
        "__shape__": "(1000, 1024, 1, 1)",
        "__storage_type__": "0",
        "__wd_mult__": "1.0"
      },
      "inputs": []
    },
    {
      "op": "null",
      "name": "shufflenasoneshotfix0_output_conv0_bias",
      "attrs": {
        "__dtype__": "0",
        "__init__": "zeros",
        "__lr_mult__": "1.0",
        "__shape__": "(1000,)",
        "__storage_type__": "0",
        "__wd_mult__": "1.0"
      },
      "inputs": []
    },
    {
      "op": "_sg_mkldnn_conv",
      "name": "quantized_sg_mkldnn_conv_97",
      "attrs": {
        "max_calib_range": "11.327601",
        "min_calib_range": "-11.327601",
        "quantized": "true"
      },
      "inputs": [[927, 0, 0], [928, 0, 0], [929, 0, 0], [927, 1, 0], [927, 2, 0]],
      "subgraphs": [
        {
          "nodes": [
            {
              "op": "null",
              "name": "shufflenasoneshotfix0_hybridsequential0_dropout0_fwd_output0",
              "inputs": []
            },
            {
              "op": "null",
              "name": "shufflenasoneshotfix0_output_conv0_weight0",
              "inputs": []
            },
            {
              "op": "null",
              "name": "shufflenasoneshotfix0_output_conv0_bias0",
              "inputs": []
            },
            {
              "op": "Convolution",
              "name": "shufflenasoneshotfix0_output_conv0_fwd",
              "attrs": {
                "dilate": "(1, 1)",
                "kernel": "(1, 1)",
                "layout": "NCHW",
                "no_bias": "False",
                "num_filter": "1000",
                "num_group": "1",
                "pad": "(0, 0)",
                "stride": "(1, 1)"
              },
              "inputs": [[0, 0, 0], [1, 0, 0], [2, 0, 0]]
            }
          ],
          "arg_nodes": [0, 1, 2],
          "node_row_ptr": [0, 1, 2, 3, 4],
          "heads": [[3, 0, 0]]
        }
      ]
    },
    {
      "op": "_contrib_dequantize",
      "name": "sg_mkldnn_conv_97_dequantize",
      "inputs": [[930, 0, 0], [930, 1, 0], [930, 2, 0]]
    },
    {
      "op": "Flatten",
      "name": "shufflenasoneshotfix0_output_flatten0_flatten0",
      "inputs": [[931, 0, 0]]
    },
    {
      "op": "null",
      "name": "softmax_label",
      "inputs": []
    },
    {
      "op": "SoftmaxOutput",
      "name": "softmax",
      "inputs": [[932, 0, 0], [933, 0, 0]]
    }
  ],
  "arg_nodes": [
    0,
    2,
    3,
    4,
    5,
    6,
    14,
    15,
    16,
    17,
    18,
    20,
    21,
    22,
    23,
    24,
    27,
    28,
    29,
    30,
    31,
    33,
    34,
    35,
    36,
    37,
    39,
    40,
    41,
    42,
    43,
    53,
    54,
    55,
    56,
    57,
    59,
    60,
    61,
    62,
    63,
    65,
    66,
    67,
    68,
    69,
    79,
    80,
    81,
    82,
    83,
    85,
    86,
    87,
    88,
    89,
    91,
    92,
    93,
    94,
    95,
    106,
    107,
    108,
    109,
    110,
    112,
    113,
    114,
    115,
    116,
    118,
    119,
    120,
    121,
    122,
    125,
    126,
    127,
    128,
    129,
    131,
    132,
    133,
    134,
    135,
    142,
    143,
    144,
    145,
    146,
    154,
    155,
    156,
    157,
    158,
    160,
    161,
    162,
    163,
    164,
    178,
    179,
    180,
    181,
    182,
    190,
    191,
    192,
    193,
    194,
    196,
    197,
    198,
    199,
    200,
    214,
    215,
    216,
    217,
    218,
    226,
    227,
    228,
    229,
    230,
    232,
    233,
    234,
    235,
    236,
    250,
    251,
    252,
    253,
    254,
    262,
    263,
    264,
    265,
    266,
    268,
    269,
    270,
    271,
    272,
    281,
    282,
    283,
    284,
    285,
    287,
    288,
    289,
    290,
    291,
    298,
    299,
    300,
    301,
    302,
    304,
    305,
    306,
    307,
    308,
    316,
    317,
    318,
    319,
    320,
    322,
    323,
    324,
    325,
    326,
    334,
    335,
    336,
    337,
    338,
    340,
    341,
    342,
    343,
    344,
    353,
    354,
    356,
    357,
    371,
    372,
    373,
    374,
    375,
    383,
    384,
    385,
    386,
    387,
    389,
    390,
    391,
    392,
    393,
    402,
    403,
    405,
    406,
    420,
    421,
    422,
    423,
    424,
    432,
    433,
    434,
    435,
    436,
    438,
    439,
    440,
    441,
    442,
    451,
    452,
    454,
    455,
    469,
    470,
    471,
    472,
    473,
    481,
    482,
    483,
    484,
    485,
    487,
    488,
    489,
    490,
    491,
    500,
    501,
    503,
    504,
    518,
    519,
    520,
    521,
    522,
    530,
    531,
    532,
    533,
    534,
    536,
    537,
    538,
    539,
    540,
    549,
    550,
    552,
    553,
    567,
    568,
    569,
    570,
    571,
    579,
    580,
    581,
    582,
    583,
    585,
    586,
    587,
    588,
    589,
    598,
    599,
    601,
    602,
    616,
    617,
    618,
    619,
    620,
    628,
    629,
    630,
    631,
    632,
    634,
    635,
    636,
    637,
    638,
    647,
    648,
    650,
    651,
    665,
    666,
    667,
    668,
    669,
    677,
    678,
    679,
    680,
    681,
    683,
    684,
    685,
    686,
    687,
    696,
    697,
    699,
    700,
    709,
    710,
    711,
    712,
    713,
    715,
    716,
    717,
    718,
    719,
    726,
    727,
    728,
    729,
    730,
    738,
    739,
    740,
    741,
    742,
    744,
    745,
    746,
    747,
    748,
    757,
    758,
    760,
    761,
    775,
    776,
    777,
    778,
    779,
    787,
    788,
    789,
    790,
    791,
    793,
    794,
    795,
    796,
    797,
    806,
    807,
    809,
    810,
    824,
    825,
    826,
    827,
    828,
    836,
    837,
    838,
    839,
    840,
    842,
    843,
    844,
    845,
    846,
    855,
    856,
    858,
    859,
    873,
    874,
    875,
    876,
    877,
    885,
    886,
    887,
    888,
    889,
    891,
    892,
    893,
    894,
    895,
    904,
    905,
    907,
    908,
    918,
    919,
    928,
    929,
    933
  ],
  "node_row_ptr": [
    0,
    1,
    4,
    5,
    6,
    7,
    8,
    9,
    12,
    13,
    14,
    15,
    16,
    17,
    20,
    21,
    22,
    23,
    24,
    25,
    28,
    29,
    30,
    31,
    32,
    33,
    36,
    37,
    38,
    39,
    40,
    41,
    42,
    45,
    46,
    47,
    48,
    49,
    50,
    53,
    54,
    55,
    56,
    57,
    58,
    61,
    62,
    63,
    64,
    65,
    66,
    67,
    68,
    71,
    72,
    73,
    74,
    75,
    76,
    79,
    80,
    81,
    82,
    83,
    84,
    87,
    88,
    89,
    90,
    91,
    92,
    95,
    96,
    97,
    98,
    99,
    100,
    101,
    102,
    105,
    106,
    107,
    108,
    109,
    110,
    113,
    114,
    115,
    116,
    117,
    118,
    121,
    122,
    123,
    124,
    125,
    126,
    129,
    130,
    131,
    132,
    133,
    134,
    135,
    138,
    139,
    142,
    143,
    144,
    145,
    146,
    147,
    150,
    151,
    152,
    153,
    154,
    155,
    158,
    159,
    160,
    161,
    162,
    163,
    166,
    169,
    170,
    171,
    172,
    173,
    174,
    177,
    178,
    179,
    180,
    181,
    182,
    185,
    186,
    187,
    188,
    189,
    190,
    191,
    192,
    193,
    194,
    195,
    198,
    199,
    200,
    201,
    202,
    203,
    206,
    207,
    208,
    209,
    210,
    211,
    214,
    215,
    216,
    217,
    218,
    219,
    222,
    223,
    224,
    225,
    226,
    227,
    228,
    229,
    230,
    231,
    232,
    233,
    236,
    237,
    238,
    239,
    240,
    241,
    244,
    245,
    246,
    247,
    248,
    249,
    252,
    253,
    254,
    255,
    256,
    257,
    260,
    261,
    262,
    263,
    264,
    265,
    268,
    269,
    270,
    271,
    272,
    273,
    274,
    275,
    276,
    277,
    278,
    279,
    282,
    283,
    284,
    285,
    286,
    287,
    290,
    291,
    292,
    293,
    294,
    295,
    298,
    299,
    300,
    301,
    302,
    303,
    306,
    307,
    308,
    309,
    310,
    311,
    314,
    315,
    316,
    317,
    318,
    319,
    320,
    321,
    322,
    323,
    324,
    325,
    328,
    329,
    330,
    331,
    332,
    333,
    336,
    337,
    338,
    339,
    340,
    341,
    344,
    345,
    346,
    347,
    348,
    349,
    352,
    353,
    354,
    355,
    356,
    357,
    360,
    361,
    362,
    363,
    364,
    365,
    366,
    369,
    370,
    371,
    372,
    373,
    374,
    377,
    378,
    379,
    380,
    381,
    382,
    385,
    386,
    387,
    388,
    389,
    390,
    391,
    392,
    393,
    394,
    395,
    398,
    399,
    400,
    401,
    402,
    403,
    406,
    407,
    408,
    409,
    410,
    411,
    414,
    415,
    416,
    417,
    418,
    419,
    422,
    423,
    424,
    425,
    426,
    427,
    430,
    431,
    432,
    433,
    434,
    435,
    438,
    439,
    440,
    441,
    442,
    443,
    446,
    447,
    448,
    449,
    450,
    451,
    454,
    455,
    456,
    457,
    458,
    459,
    460,
    463,
    464,
    465,
    468,
    469,
    470,
    473,
    474,
    475,
    476,
    477,
    478,
    479,
    480,
    481,
    482,
    483,
    484,
    487,
    488,
    489,
    490,
    491,
    492,
    495,
    496,
    497,
    498,
    499,
    500,
    503,
    504,
    505,
    506,
    507,
    508,
    511,
    512,
    513,
    514,
    515,
    516,
    519,
    520,
    521,
    522,
    523,
    524,
    525,
    528,
    529,
    530,
    533,
    534,
    535,
    538,
    539,
    540,
    541,
    542,
    543,
    544,
    545,
    546,
    547,
    548,
    549,
    552,
    553,
    554,
    555,
    556,
    557,
    560,
    561,
    562,
    563,
    564,
    565,
    568,
    569,
    570,
    571,
    572,
    573,
    576,
    577,
    578,
    579,
    580,
    581,
    584,
    585,
    586,
    587,
    588,
    589,
    590,
    593,
    594,
    595,
    598,
    599,
    600,
    603,
    604,
    605,
    606,
    607,
    608,
    609,
    610,
    611,
    612,
    613,
    614,
    617,
    618,
    619,
    620,
    621,
    622,
    625,
    626,
    627,
    628,
    629,
    630,
    633,
    634,
    635,
    636,
    637,
    638,
    641,
    642,
    643,
    644,
    645,
    646,
    649,
    650,
    651,
    652,
    653,
    654,
    655,
    658,
    659,
    660,
    663,
    664,
    665,
    668,
    669,
    670,
    671,
    672,
    673,
    674,
    675,
    676,
    677,
    678,
    679,
    682,
    683,
    684,
    685,
    686,
    687,
    690,
    691,
    692,
    693,
    694,
    695,
    698,
    699,
    700,
    701,
    702,
    703,
    706,
    707,
    708,
    709,
    710,
    711,
    714,
    715,
    716,
    717,
    718,
    719,
    720,
    723,
    724,
    725,
    728,
    729,
    730,
    733,
    734,
    735,
    736,
    737,
    738,
    739,
    740,
    741,
    742,
    743,
    744,
    747,
    748,
    749,
    750,
    751,
    752,
    755,
    756,
    757,
    758,
    759,
    760,
    763,
    764,
    765,
    766,
    767,
    768,
    771,
    772,
    773,
    774,
    775,
    776,
    779,
    780,
    781,
    782,
    783,
    784,
    785,
    788,
    789,
    790,
    793,
    794,
    795,
    798,
    799,
    800,
    801,
    802,
    803,
    804,
    805,
    806,
    807,
    808,
    809,
    812,
    813,
    814,
    815,
    816,
    817,
    820,
    821,
    822,
    823,
    824,
    825,
    828,
    829,
    830,
    831,
    832,
    833,
    836,
    837,
    838,
    839,
    840,
    841,
    844,
    845,
    846,
    847,
    848,
    849,
    850,
    853,
    854,
    855,
    858,
    859,
    860,
    863,
    864,
    865,
    866,
    867,
    868,
    869,
    870,
    871,
    872,
    873,
    874,
    877,
    878,
    879,
    880,
    881,
    882,
    885,
    886,
    887,
    888,
    889,
    890,
    893,
    894,
    895,
    896,
    897,
    898,
    901,
    902,
    903,
    904,
    905,
    906,
    909,
    910,
    911,
    912,
    913,
    914,
    915,
    918,
    919,
    920,
    923,
    924,
    925,
    928,
    929,
    930,
    931,
    932,
    933,
    934,
    937,
    938,
    939,
    940,
    941,
    942,
    945,
    946,
    947,
    948,
    949,
    950,
    953,
    954,
    955,
    956,
    957,
    958,
    959,
    960,
    961,
    962,
    963,
    966,
    967,
    968,
    969,
    970,
    971,
    974,
    975,
    976,
    977,
    978,
    979,
    982,
    983,
    984,
    985,
    986,
    987,
    990,
    991,
    992,
    993,
    994,
    995,
    996,
    999,
    1000,
    1001,
    1004,
    1005,
    1006,
    1009,
    1010,
    1011,
    1012,
    1013,
    1014,
    1015,
    1016,
    1017,
    1018,
    1019,
    1020,
    1023,
    1024,
    1025,
    1026,
    1027,
    1028,
    1031,
    1032,
    1033,
    1034,
    1035,
    1036,
    1039,
    1040,
    1041,
    1042,
    1043,
    1044,
    1047,
    1048,
    1049,
    1050,
    1051,
    1052,
    1055,
    1056,
    1057,
    1058,
    1059,
    1060,
    1061,
    1064,
    1065,
    1066,
    1069,
    1070,
    1071,
    1074,
    1075,
    1076,
    1077,
    1078,
    1079,
    1080,
    1081,
    1082,
    1083,
    1084,
    1085,
    1088,
    1089,
    1090,
    1091,
    1092,
    1093,
    1096,
    1097,
    1098,
    1099,
    1100,
    1101,
    1104,
    1105,
    1106,
    1107,
    1108,
    1109,
    1112,
    1113,
    1114,
    1115,
    1116,
    1117,
    1120,
    1121,
    1122,
    1123,
    1124,
    1125,
    1126,
    1129,
    1130,
    1131,
    1134,
    1135,
    1136,
    1139,
    1140,
    1141,
    1142,
    1143,
    1144,
    1145,
    1146,
    1147,
    1148,
    1149,
    1150,
    1153,
    1154,
    1155,
    1156,
    1157,
    1158,
    1161,
    1162,
    1163,
    1164,
    1165,
    1166,
    1169,
    1170,
    1171,
    1172,
    1173,
    1174,
    1177,
    1178,
    1179,
    1180,
    1181,
    1182,
    1185,
    1186,
    1187,
    1188,
    1189,
    1190,
    1191,
    1194,
    1195,
    1196,
    1199,
    1200,
    1201,
    1204,
    1205,
    1206,
    1207,
    1208,
    1209,
    1210,
    1211,
    1214,
    1215,
    1216,
    1219,
    1220,
    1221,
    1222,
    1223,
    1224,
    1226,
    1229,
    1230,
    1231,
    1234,
    1235,
    1236,
    1237,
    1238
  ],
  "heads": [[934, 0, 0]],
  "attrs": {"mxnet_version": ["int", 10500]}
}
